prob-kge/running_experiments/without_recipriocal/delete/365/score_UMLS_ComplEx_1859447115/model.pt (torch, 25301 bytes, 2 tensors)

entity_embeddings.weight f4 [135, 32]
-0.059405167 -2.0348964 1.1021239 0.20916559 -0.66232413 -0.32166067 -0.7954509 0.10474154
1.5461214 -1.3058753 -0.11564699 0.42855504 0.51567346 -0.030074684 1.1346376 -0.23429355
0.15778548 -0.21985121 0.152205 -0.4041075 0.8028146 -0.78526205 0.08539033 -1.0543644
0.11255327 0.04521228 -0.00023593288 1.0204059 1.1362861 -0.97116786 0.86311454 0.71276486
-0.19659655 -0.5791827 -0.33050713 -0.030600335 0.7950151 0.23490871 -1.3936421 -0.33464444
1.8318257 -2.0991294 -1.0109893 -0.11497322 -0.46961808 0.52461654 -0.2805288 -1.1452125
-0.20573059 0.2934078 0.3440709 -0.73745644 0.9219362 -0.7205581 -0.50607085 -0.58769846
0.2678217 0.41173613 1.9125081 -0.038461465 -0.48703557 -2.8626091 0.7758689 -0.99998975
1.5309935 -0.030104386 -1.0124929 0.74161774 0.33961308 0.6646923 -1.5103307 0.30584252
2.1493533 -0.30278778 -1.997806 -0.16707374 0.28628817 0.11978152 0.45145118 -0.7213207
0.22635154 0.6084522 -1.6907518 0.9917213 1.0576364 -0.24181023 -0.27884084 0.22630599
0.27774185 -0.8782831 0.3593115 -0.58341193 0.36604622 0.20287488 0.28163853 -0.2643142
0.85459083 -0.7346389 1.0221475 -0.9434769 -0.7771618 0.8632665 -1.3024482 -0.18612361
1.6509806 -0.80289865 -1.0066733 -0.31054038 -0.20602109 0.31874686 0.30935466 0.5295357
-0.317866 0.40614644 -0.80274427 -0.18014961 0.63133913 0.5563165 -1.4028624 0.032140262
0.042108223 -0.9970417 0.63592017 0.20944433 -1.2504468 -0.3976629 0.89293236 0.2877414
-0.35545316 -0.8558958 -0.41786084 -1.1118215 0.54630417 0.99325734 -1.6923811 1.1207229
1.7506443 -0.23430702 -1.9969633 0.77330434 -1.288251 0.39779425 -0.28055385 -0.16440268
0.24223883 -0.09142025 0.2896738 0.99815583 1.0095079 -0.27695218 -1.394618 0.8945088
0.58897805 0.04722344 -0.716572 1.3296841 0.9866802 -0.8740938 0.4424637 -0.5621132
-0.9682863 -0.15546675 0.66241205 -0.14446352 -0.106135085 1.0299376 -1.631115 0.561796
2.1958573 -0.40212154 -0.8661678 0.5288874 0.057165757 0.38465178 1.5605407 0.22257163
0.26352125 0.4272564 1.201847 -0.53774023 0.44349852 -0.1652301 -1.2701355 0.4164419
0.29461062 -0.86823964 1.096932 0.3636499 1.0065916 -0.9871583 0.95076156 1.3638961
0.10232391 -0.9717057 0.62211436 -1.7308412 -0.12994726 0.6726752 -1.121343 0.6246258
2.0337856 -0.85498804 -1.1966347 -1.8979933 -0.892769 0.67064553 0.047944292 -1.1111538
0.02639854 0.124974094 -0.48659623 0.53597003 -0.120073 0.5827568 -0.8321589 1.3048933
0.8038638 -1.4159753 -0.4630002 0.29009503 -1.4257114 1.186875 -0.06559949 0.009221822
0.08126224 -2.0382514 1.0337807 -0.09333698 -0.113679916 -0.75513697 -0.8808101 0.18424396
1.5866826 -1.4677486 -0.41780555 -0.65815747 0.5633724 0.23513356 1.3439797 -0.6275003
0.33895037 0.10093737 0.2536245 -0.33945546 0.3265695 -0.6247283 -0.12356253 -0.962609
0.022605 0.2071654 -0.25629133 0.015267901 1.1998852 -0.779946 0.81419104 0.6204298
00000000: d552 73bd be3b 02c0 6512 8d3f 812f 563e
00000010: 138e 29bf b5b0 a4be aca2 4bbf bc82 d63d
00000020: 4ee7 c53f ec26 a7bf 54d8 ecbd 916b db3e
00000030: 2d03 043f 2f5f f6bc ce3b 913f a6ea 6fbe
00000040: 8492 213e ad20 61be a1db 1b3e 2ee7 cebe
00000050: 4285 4d3f ef06 49bf 20e1 ae3d 6af5 86bf
00000060: 5482 e63d 8330 393d c064 77b9 a99c 823f
00000070: d371 913f 759e 78bf 13f5 5c3f c277 363f
00000080: 9b50 49be 5145 14bf 3b38 a9be 8ead fabc
00000090: 1c86 4b3f e98b 703e dd62 b2bf 8456 abbe
000000a0: 4479 ea3f 2358 06c0 1968 81bf 1477 ebbd
000000b0: c871 f0be 454d 063f 79a1 8fbe 5396 92bf
000000c0: 0aab 52be 8c39 963e 102a b03e f2c9 3cbf
000000d0: 0304 6c3f 7f76 38bf dc8d 01bf 6873 16bf
000000e0: ed1f 893e 14cf d23e 11cd f43f c589 1dbd
000000f0: ba5c f9be fd34 37c0 589f 463f 54ff 7fbf
00000100: 98f7 c33f 799d f6bc 5e99 81bf a9da 3d3f
00000110: c4e1 ad3e 4629 2a3f 8452 c1bf 6497 9c3e
00000120: 018f 0940 0007 9bbe 1bb8 ffbf 6115 2bbe
00000130: 5d94 923e 0350 f53d 9c24 e73e 79a8 38bf
00000140: b3c8 673e 86c3 1b3f 8e6a d8bf 72e1 7d3f
00000150: a160 873f 1a9d 77be 3ac4 8ebe c2bc 673e
00000160: 2e34 8e3e 29d7 60bf adf7 b73e 7c5a 15bf
00000170: 696a bb3e 6fbe 4f3e ed32 903e 3154 87be
00000180: 77c6 5a3f 4c11 3cbf bbd5 823f b487 71bf
00000190: 13f4 46bf 09ff 5c3f 9fb6 a6bf 3097 3ebe
000001a0: 5553 d33f c48a 4dbf acda 80bf 26ff 9ebe
000001b0: 31f7 52be ca32 a33e bc63 9e3e a78f 073f
000001c0: 55bf a2be 6df2 cf3e a680 4dbf 2479 38be
000001d0: 719f 213f c26a 0e3f ff90 b3bf 82a5 033d
000001e0: ac79 2c3d 203e 7fbf aacb 223f 9378 563e
000001f0: a40e a0bf 799a cbbe 3797 643f d752 933e
00000200: f5fd b5be fd1b 5bbf dbf1 d5be 2b50 8ebf
00000210: 97da 0b3f 1d46 7e3f f29f d8bf d973 8f3f
00000220: 1d15 e03f 2eee 6fbe 7e9c ffbf 46f7 453f
00000230: 69e5 a4bf b0ab cb3e c1a4 8fbe 2d59 28be
00000240: 750d 783e 8a3a bbbd 2050 943e 2487 7f3f
00000250: 8e37 813f adcc 8dbe d882 b2bf 87fe 643f
00000260: 44c7 163f 5e6d 413d 4371 37bf 1733 aa3f
00000270: 1397 7c3f 9cc4 5fbf 9a8a e23e a7e6 0fbf
00000280: 9ce1 77bf ad32 1fbe d693 293f 3fee 13be
00000290: 5a5d d9bd ffd4 833f 60c8 d0bf ddd1 0f3f
000002a0: ed88 0c40 e0e2 cdbe 2cbd 5dbf 2a65 073f
000002b0: a426 6a3d 14f1 c43e ccbf c73f d1e9 633e
000002c0: 42ec 863e 5ac1 da3e 1fd6 993f 58a9 09bf
000002d0: 3d12 e33e 1432 29be cd93 a2bf df37 d53e
000002e0: 34d7 963e f444 5ebf 4568 8c3f 5230 ba3e
000002f0: fed7 803f 68b6 7cbf 1c65 733f 2694 ae3f
00000300: 338f d13d b4c1 78bf e342 1f3f 348c ddbf
00000310: e510 05be 7134 2c3f 2b88 8fbf 7ae7 1f3f
00000320: 8b29 0240 7fe0 5abf 532b 99bf 72f1 f2bf
00000330: 828c 64bf 6daf 2b3f 3c61 443d 4a3a 8ebf
00000340: c041 d83c 6bf2 ff3d 2423 f9be 5535 093f
00000350: d5e8 f5bd 8d2f 153f 5e08 55bf be06 a73f
00000360: 05ca 4d3f ae3e b5bf 5d0e edbe 5687 943e
00000370: b67d b6bf 85eb 973f 0759 86bd 2017 173c
00000380: d16c a63d b672 02c0 ed52 843f 7527 bfbd
00000390: 04d1 e8bd a850 41bf c57c 61bf 73aa 3c3e
000003a0: 6a18 cb3f 30df bbbf 9cea d5be 027d 28bf
000003b0: 2c39 103f dac6 703e 8707 ac3f dca3 20bf
000003c0: e78a ad3e 40b8 ce3d 12db 813e 1bcd adbe
000003d0: 1e34 a73e 32ee 1fbf 5a0e fdbd 8b6d 76bf
000003e0: 1f2e b93c 2b23 543e 9e38 83be 3826 7a3c
000003f0: d795 993f 8baa 47bf d36e 503f 7dd4 1e3f

relation_embeddings.weight f4 [46, 32]
-0.3104489 -1.7518055 -2.028957 -0.18773986 0.8312589 -0.44906813 -0.8975389 1.5751714
-0.9072372 -0.6959597 -0.26521575 0.485378 0.7624804 -0.15349384 -2.2744772 0.020957462
0.25887656 0.678195 0.17889234 1.6705931 -0.5628896 0.20079242 -1.0527667 1.1462481
1.506237 -0.21236683 0.06487545 0.6299093 -1.0369393 0.11120344 2.217904 -0.426225
-0.015600696 -0.54974633 1.0477345 0.2859681 0.23474404 0.28016028 -1.3416101 0.12928466
-0.66211843 0.15915129 -0.83483475 -0.10920829 -0.912164 0.6871442 -0.08854894 -0.16129494
0.34029067 -0.5845818 -0.541105 0.3748339 0.07890325 -0.7013579 -0.5879127 1.0733981
-0.7078388 0.8973172 0.28633633 0.051291212 -0.7234915 0.28949758 -0.5086921 0.06874994
-1.5541606 -0.49039283 -0.20351459 -1.9902371 0.14112504 -0.38055685 -0.24131292 -2.0041747
-2.0240865 -1.0593207 -0.7477992 -0.23850562 1.1290154 0.20585512 0.056034897 0.40789017
1.0161909 1.3585 -1.0315331 0.11292007 1.6572254 -0.35378823 0.4318618 1.4625927
0.61573184 -0.64221 0.3264053 -1.9647899 -1.0921248 -0.22712705 0.38382304 -0.43613964
-1.0939596 0.3231256 1.6006825 -0.37121114 -0.070788205 -0.041345347 -0.41422862 -2.9261558
-1.975452 -1.0860488 -0.37559345 0.39565292 0.82682246 0.13885856 0.11360499 -0.50427395
0.6288342 0.7222277 -0.72375464 -1.1049887 -0.25045916 -0.2781492 -0.78610057 1.1141064
-0.34803715 -0.25402892 1.1291574 0.6922971 -0.025168624 0.8418816 -0.2953575 0.39452335
0.646219 -0.15185077 -0.15634303 -2.5834706 -0.72187024 0.033115573 -0.9737435 0.39382395
-1.2652769 -0.68301755 -0.79093534 0.2854447 -0.21775277 0.29547745 0.73680407 0.99691963
0.29074326 1.3099868 0.47025636 0.46702534 -0.8304973 -0.019175293 0.24345967 0.10037296
-1.8079829 0.38260415 0.66792655 0.39466223 -0.5907872 0.19287044 -1.1965901 0.45594844
-0.84576315 -0.17077135 0.20806798 -0.15328911 -2.9909422 0.37752116 -0.0038911887 0.35322693
-1.7849907 -0.6526282 0.58114636 0.23231551 0.19289488 -0.9082408 -0.4825655 0.774447
-0.70689136 0.82376343 -1.2040105 -0.24771993 0.9401404 -0.52386135 -1.3057053 0.0043960586
-1.3224573 1.7291133 -2.0112877 -0.10668235 -1.8952255 -1.3588796 0.17086442 -0.59152734
0.21227543 0.5290901 0.5173838 -2.125664 -0.09384623 -0.54117817 -1.500361 -1.4068438
-1.1140362 -1.0602884 -1.1526098 -0.08305001 -0.057372414 0.6520417 -0.47066614 0.39764073
0.3870032 -0.00811143 1.0357941 0.15679158 0.10494244 -0.23130435 -0.8949876 -0.76100117
-1.5636666 -0.0555279 1.7339771 0.20046908 -1.2372265 0.38477823 -0.66182613 -0.10082626
-0.37382928 0.30576906 0.37908864 0.90944207 -0.48678744 0.608742 -1.7173653 0.7670358
-1.5996326 -1.199057 0.1322817 -0.124458954 0.12031472 -0.062126316 1.4629979 -0.34641874
0.7197872 0.46950185 0.43270132 -0.34760907 0.35175464 -0.5507722 -1.3879204 0.11102217
-1.1184977 0.51591927 0.25785133 -0.31913725 -0.69837946 -1.186842 -0.78847444 -0.7160229
00000000: 29f3 9ebe 2a3b e0bf 6eda 01c0 e13e 40be
00000010: 62cd 543f 42ec e5be 1cc5 65bf 379f c93f
00000020: b240 68bf 6a2a 32bf 5cca 87be 7783 f83e
00000030: ea31 433f 7d2d 1dbe 0991 11c0 fcae ab3c
00000040: 788b 843e 309e 2d3f 8e2f 373e ffd5 d53f
00000050: 8819 10bf 879c 4d3e 0fc1 86bf 42b8 923f
00000060: 60cc c03f b176 59be 6cdd 843d bc41 213f
00000070: 6dba 84bf a1be e33d 24f2 0d40 2a3a dabe
00000080: 109a 7fbc 2dbc 0cbf 2a1c 863f 696a 923e
00000090: be60 703e 2b71 8f3e e1b9 abbf 3363 043e
000000a0: 9880 29bf 8ef8 223e bbb7 55bf 99a8 dfbd
000000b0: 9483 69bf afe8 2f3f 2659 b5bd 802a 25be
000000c0: 943a ae3e 27a7 15bf db85 0abf 3bea bf3e
000000d0: 0798 a13d 318c 33bf 7281 16bf 1c65 893f
000000e0: ec34 35bf 94b6 653f ad9a 923e bc16 523d
000000f0: bd36 39bf 0739 943e a539 02bf c5cc 8c3d
00000100: bcee c6bf c514 fbbe 2166 50be 17c0 febf
00000110: 1583 103e 59d8 c2be bc1a 77be 6644 00c0
00000120: a28a 01c0 d297 87bf c56f 3fbf d13a 74be
00000130: 9483 903f afcb 523e d984 653d fbd6 d03e
00000140: 8b12 823f 54e3 ad3f 4709 84bf a342 e73d
00000150: f61f d43f bb23 b5be fd1c dd3e 3d36 bb3f
00000160: 9aa0 1d3f e067 24bf 981e a73e 3c7e fbbf
00000170: bfca 8bbf fe93 68be 7484 c43e b24d dfbe
00000180: de06 8cbf b870 a53e 2ae3 cc3f 630f bebe
00000190: 68f9 90bd bd59 29bd c615 d4be 2346 3bc0
000001a0: 9cdb fcbf a603 8bbf c94d c0be 0593 ca3e
000001b0: a3aa 533f f030 0e3e bca9 e83d 1918 01bf
000001c0: 47fb 203f eae3 383f fc47 39bf 4570 8dbf
000001d0: 2f3c 80be 9269 8ebe e33d 49bf 0a9b 8e3f
000001e0: ed31 b2be 1410 82be 3b88 903f 623a 313f
000001f0: 6e2e cebc 8d85 573f 1939 97be f7fe c93e
00000200: 9c6e 253f c57e 1bbe 6318 20be 9557 25c0
00000210: 7dcc 38bf 32a4 073d 4147 79bf 4ba3 c93e
00000220: 98f4 a1bf 3dda 2ebf bd7a 4abf cf25 923e
00000230: 95fa 5ebe d248 973e 319f 3c3f 2036 7f3f
00000240: 4ddc 943e a6ad a73f 71c5 f03e f21d ef3e
00000250: 799b 54bf 8115 9dbc 7e4d 793e 5790 cd3d
00000260: fc6b e7bf b1e4 c33e 3cfd 2a3f 2b11 ca3e
00000270: d43d 17bf d47f 453e dd29 99bf 1372 e93e
00000280: ef83 58bf afde 2ebe c60f 553e d2f7 1cbe
00000290: 996b 3fc0 744a c13e 5003 7fbb 29da b43e
000002a0: 937a e4bf a412 27bf 02c6 143f 1ee4 6d3e
000002b0: 3c86 453e 7882 68bf d312 f7be 2942 463f
000002c0: d5f6 34bf 29e2 523f 041d 9abf 4baa 7dbe
000002d0: 0bad 703f c71b 06bf 5a21 a7bf d00c 903b
000002e0: 4846 a9bf 9653 dd3f f0b8 00c0 477c dabd
000002f0: c096 f2bf c4ef adbf 15f7 2e3e 566e 17bf
00000300: bb5e 593e 7372 073f 4473 043f e10a 08c0
00000310: 7432 c0bd a78a 0abf d40b c0bf 7513 b4bf
00000320: bd98 8ebf 88b7 87bf b888 93bf 2016 aabd
00000330: 56ff 6abd 34ec 263f 27fb f0be 9197 cb3e
00000340: 4925 c63e cee5 04bc e794 843f f98d 203e
00000350: 10ec d63d 0cdb 6cbe e81d 65bf f9d0 42bf
00000360: 3a26 c8bf 3971 63bd f6f2 dd3f c447 4d3e
00000370: 705d 9ebf a701 c53e 706d 29bf 007e cebd
00000380: 8d66 bfbe c38d 9c3e e817 c23e 32d1 683f
00000390: 343c f9be 84d6 1b3f a0d2 dbbf 755c 443f
000003a0: c3c0 ccbf b37a 99bf db74 073e 56e4 febd
000003b0: 9067 f63d 2a78 7ebd 8443 bb3f cc5d b1be
000003c0: f943 383f 8c62 f03e 078b dd3e d1f9 b1be
000003d0: 2f19 b43e 68ff 0cbf 60a7 b1bf 975f e33d
000003e0: ef2a 8fbf 4913 043f 1705 843e f565 a3be
000003f0: ffc8 32bf 70ea 97bf 76d9 49bf 474d 37bf
