examples/multi_hop_query_answering/Experiments/2023-12-10 01-04-55.827432/model.pt (torch, 497670 bytes, 2 tensors)

entity_embeddings.weight f4 [230, 512]
0	0xbda8a871	-0.08235253
1	0x3dd48752	0.10377373
2	0xbf0b1fcb	-0.5434539
3	0xbd82c41a	-0.0638506
4	0x3cbba05a	0.02290361
5	0xbf09efbd	-0.53881437
6	0xbec1ae9a	-0.37828523
7	0xbf7083cd	-0.9395111
8	0xbf715009	-0.9426275
9	0xbeaabf69	-0.3334916
10	0x3f129307	0.57255596
11	0x3dbba5dd	0.09162495
12	0x3e439ed2	0.19103554
13	0xbe302be4	-0.17204243
14	0xbcef5a9f	-0.029218016
15	0x3ed808ca	0.42194206
16	0x3d8953de	0.067054495
17	0xbe36715e	-0.17816684
18	0xbd27b631	-0.040945236
19	0x3e32314d	0.1740162
20	0xbef49d1a	-0.4777611
21	0xbe93e3bc	-0.28884685
22	0x3eb33c09	0.3500674
23	0x3eb8fe0e	0.36131328
24	0x3dc70c3a	0.09719129
25	0xbf100ab5	-0.5626634
26	0x3f244d17	0.6418013
27	0xbf40fa60	-0.7538204
28	0x3d017b57	0.031611767
29	0x3e40edc9	0.18840708
30	0xbec6ed16	-0.38852757
31	0x3ed88e82	0.42296225
32	0xbcb6cb31	-0.022313686
33	0x3e1c8cbe	0.15288064
34	0xbc0bdb71	-0.008536206
35	0x3f9d5506	1.2291572
36	0xbf4e246b	-0.8052432
37	0xbfb75c38	-1.4325018
38	0xbefd2fdd	-0.4945058
39	0xbf4bb373	-0.7957069
40	0xbf3171db	-0.69314355
41	0xbe935f7f	-0.28783795
42	0x3f1b0938	0.6056094
43	0x3f10215d	0.5630091
44	0xbf596556	-0.8492025
45	0x3f230070	0.6367254
46	0xbc278b17	-0.010226033
47	0xbd7e3a94	-0.062067583
48	0xbf1235a3	-0.57113093
49	0xbf6145f3	-0.8799736
50	0xbe76a64c	-0.24086875
51	0xbf15f9af	-0.5858411
52	0xbc10947c	-0.008824464
53	0xbf611812	-0.87927353
54	0xbf70033c	-0.93754935
55	0x3f1a292c	0.60219073
56	0x3f66df5e	0.9018458
57	0xbf41854c	-0.7559402
58	0x3d626a5e	0.05527722
59	0x400217f8	2.032713
60	0xbd8174ec	-0.06321129
61	0x3e8d09ae	0.27546448
62	0x3f4ee09a	0.80811465
63	0x3ea9140d	0.3302311
64	0xbeeea061	-0.46606734
65	0xbf16100a	-0.58618224
66	0xbe8fcbb1	-0.28085092
67	0x3ed77fdc	0.42089736
68	0xbf1e89a6	-0.61928785
69	0x3f83e75e	1.0304983
70	0x3f543295	0.8288968
71	0xbeef0ee3	-0.46691045
72	0xbe7c7509	-0.2465402
73	0x3ebd7f67	0.37011263
74	0x3e03e306	0.12879571
75	0xbe87fd72	-0.2656055
76	0x3eb49d64	0.3527633
77	0xbeb90e2c	-0.36143625
78	0xbf4debb8	-0.80437803
79	0xbe68147b	-0.22664063
80	0xbea85df4	-0.3288418
81	0xbf139247	-0.57645077
82	0x3eed06f1	0.46294358
83	0xbdc77167	-0.09738427
84	0xbe4d2aba	-0.2003583
85	0x3f37531c	0.7161119
86	0xbecc4987	-0.39899847
87	0xbed94319	-0.42434004
88	0x3f6c780c	0.92370677
89	0x3f891da2	1.0712168
90	0xbf430bab	-0.7618968
91	0xbf405d85	-0.751427
92	0x3f0a9912	0.54139817
93	0xbd4f3c6b	-0.05059473
94	0xbf13b249	-0.57693917
95	0xbeb7e7cf	-0.35919043
96	0x3e4b71e4	0.19867665
97	0xbdc7aa41	-0.0974927
98	0x3f1a8fcb	0.6037566
99	0x3e95d5da	0.29264718
100	0xbf9aa8ad	-1.2082726
101	0xbebd6f41	-0.36998942
102	0x3f3c4043	0.73535556
103	0xbf59f5ee	-0.85140884
104	0xbec36627	-0.38163874
105	0x3f96384c	1.173593
106	0xbf612203	-0.8794252
107	0xbf4c1d49	-0.79732186
108	0xbf2eb3a5	-0.68242866
109	0x3f2905cd	0.66024476
110	0x3e5d2380	0.21595573
111	0x3ecc3f51	0.39892057
112	0xbe8a5b52	-0.27022797
113	0xbf822df2	-1.0170271
114	0x3d988e5b	0.07449027
115	0xbf8bb0a4	-1.0913281
116	0xbeca4b57	-0.39510605
117	0x3f8c698d	1.0969712
118	0xbd9a5230	-0.07535207
119	0xbe6a0a69	-0.22855534
120	0xbfd11cbe	-1.6336896
121	0x3f528d48	0.8224683
122	0x3eb29ba5	0.34884372
123	0xbe865c5b	-0.26242337
124	0x3f9c7ed6	1.2226207
125	0x3db0cc82	0.08632757
126	0xbe287278	-0.16449916
127	0x3db687b0	0.08912599
128	0x3f3e50c8	0.7434201
129	0x3ecf7b0e	0.4052357
130	0x3ca40d35	0.020025829
131	0xbe6cf751	-0.23141219
132	0xbe49893b	-0.19681256
133	0xbd965367	-0.073401265
134	0x3eb13aa9	0.34615067
135	0x3d03da55	0.03219064
136	0x3e726794	0.23672324
137	0x3fd3a3a8	1.6534319
138	0xbf1b99aa	-0.6078135
139	0x3ddb13c1	0.10697127
140	0xbf816bfd	-1.011108
141	0x3eb38e28	0.35069394
142	0x3ef9da6f	0.48799464
143	0xbe8b81c5	-0.27247444
144	0x3ea0ce96	0.31407613
145	0x3fa8e9da	1.3196366
146	0x3e67cc72	0.22636583
147	0xbe8afb2d	-0.27144757
148	0xbfa8ab30	-1.3177242
149	0xbe9792f5	-0.29604307
150	0x3e180463	0.14845423
151	0x3f243305	0.6414035
152	0xbd0008c0	-0.031258345
153	0x3f1c81a5	0.6113532
154	0xbf0e25e6	-0.5552658
155	0xbf1214df	-0.57063097
156	0x3f2d10f1	0.67603976
157	0x3e9bd879	0.30438593
158	0xbf546934	-0.8297303
159	0xbe24c653	-0.1609128
160	0xbeaf4c30	-0.34237814
161	0x3ee12506	0.4397356
162	0x3fb411f2	1.4067976
163	0x3f9a922b	1.2075857
164	0x3fd3b02b	1.6538137
165	0x3f8216a4	1.0163159
166	0xbe57e7fe	-0.21084592
167	0xbf014152	-0.50490296
168	0x3fe43884	1.7829747
169	0x3f308d30	0.68965435
170	0xbf14a436	-0.58063066
171	0x3f862757	1.0480756
172	0xbd535bae	-0.051601104
173	0x3d9294aa	0.07157262
174	0x3e93ca14	0.2886511
175	0xbd85e427	-0.06537657
176	0xbf107fa8	-0.5644479
177	0xbe8e7ae0	-0.2782812
178	0xbf03eff3	-0.5153801
179	0x3d79cf2c	0.06098859
180	0xbed146f2	-0.4087444
181	0xbe8c422c	-0.27394235
182	0x3e92be61	0.28660873
183	0xbee9519f	-0.45570084
184	0x3e850da1	0.2598696
185	0x3ef5058b	0.4785579
186	0x3e452412	0.19252041
187	0xbf91750b	-1.1363844
188	0x3ec35254	0.3814875
189	0xbe401c54	-0.18760806
190	0x3d20ce30	0.039259136
191	0x3eef62e0	0.46755123
192	0xbfd0a0d9	-1.6299087
193	0xbf81dd06	-1.0145576
194	0x3ea183a9	0.3154576
195	0x3e77c75c	0.24197143
196	0xbf1a2483	-0.6021196
197	0xbf1bfa95	-0.6092923
198	0x3f2e6ecf	0.6813783
199	0xbe9b0574	-0.30277598
200	0x3f9d6fc3	1.2299732
201	0xbee96b67	-0.45589754
202	0xbf833d8b	-1.0253156
203	0xbf208c03	-0.6271364
204	0x400377cd	2.054187
205	0x3d877d6a	0.06615718
206	0xbe6644d0	-0.22487187
207	0x3efde50a	0.49588805
208	0xbe986f13	-0.29772243
209	0x3f713c73	0.94232863
210	0xbeb943c7	-0.36184523
211	0x3e5602fc	0.20899576
212	0x3d370ec6	0.044691823
213	0xbed57b6f	-0.41695735
214	0x3e9c0269	0.3047059
215	0x3e60d802	0.219574
216	0xbeb50686	-0.3535654
217	0x3ddad9a7	0.10686045
218	0x3f71cabc	0.94449973
219	0xbf77ca77	-0.9679331
220	0xbf1c8ed6	-0.6115545
221	0x3dbc2fe2	0.091888204
222	0x3ee70b88	0.45125985
223	0x3d04c022	0.032409795
224	0x3f3429d8	0.7037635
225	0x3f346eb2	0.7048141
226	0xbea375cd	-0.31925812
227	0xbe0d6654	-0.13808566
228	0xbf10cfa2	-0.5656682
229	0xbf68c973	-0.9093239
230	0x3f00eefc	0.5036466
231	0xbeac2300	-0.33620453
232	0x3eecec42	0.46274
233	0x3f07b15f	0.5300502
234	0x3f1ab811	0.60437113
235	0xbf048bed	-0.5177601
236	0x3e4a8df1	0.19780709
237	0xbe012ea4	-0.12615448
238	0x3c973b62	0.018460933
239	0xbeacad58	-0.33726
240	0xbe89f4d5	-0.26944605
241	0xbf0bb18b	-0.54567784
242	0xbee51b9e	-0.44747633
243	0x3ecbf876	0.39837998
244	0xbd431950	-0.04763156
245	0xbeef3442	-0.46719557
246	0xbf8acf6f	-1.0844554
247	0x3f035c31	0.5131255
248	0xbf29f74f	-0.6639299
249	0xbeed11c1	-0.46302608
250	0xbe9b40ec	-0.3032297
251	0xbf3c1d05	-0.7348178
252	0x3ebb57d9	0.3659046
253	0xbefb5eb1	-0.4909568
254	0x3f3551ac	0.70827746
255	0x3d952b06	0.07283597

relation_embeddings.weight f4 [12, 512]
0	0xbcffcfb0	-0.031226963
1	0xbeedebee	-0.46469063
2	0xbec46ee0	-0.3836584
3	0xbe4f94f0	-0.20271659
4	0x3f166b8d	0.5875786
5	0x3edbed58	0.42954516
6	0x3ef1ba59	0.47212484
7	0x3eb5f3bd	0.3553752
8	0x3e8f3a0c	0.27973974
9	0x3f0e085b	0.554815
10	0xbf726082	-0.9467851
11	0xbdf558e3	-0.119798444
12	0x3d3b436d	0.0457186
13	0x3f1c1bb7	0.6097979
14	0xbf065e3e	-0.5248755
15	0xbd92e4b4	-0.07172528
16	0x3dd63e8a	0.10461147
17	0xbe7db411	-0.24775721
18	0x3d29131d	0.041277993
19	0xbe1efeb4	-0.15526849
20	0xbdeffdcb	-0.11718329
21	0xbcbd9a15	-0.023144761
22	0x3e62e6c9	0.2215835
23	0x3f9889d1	1.1917058
24	0xbe7dbeca	-0.24779812
25	0x3bc547b8	0.0060205124
26	0xbe99c2b6	-0.30031365
27	0x3f067bf2	0.52532876
28	0xbec35510	-0.38150835
29	0xbf97cb57	-1.1858929
30	0x3f1bd0ee	0.60865676
31	0xbec23fa7	-0.37939188
32	0xbf1a5564	-0.60286546
33	0x3e936a6f	0.2879214
34	0x3e8dc27e	0.27687448
35	0xbf33dfb0	-0.70263195
36	0x3ea43e05	0.32078567
37	0xbefe3bea	-0.49655086
38	0xbeee491a	-0.46540147
39	0x3ebc741d	0.36807337
40	0x3edb4b05	0.42830673
41	0xbd84a99f	-0.06477665
42	0x3eea2381	0.45730212
43	0xbf2b66cc	-0.6695373
44	0xbbe4d49f	-0.006983354
45	0xbeeaf569	-0.45890358
46	0x3ebbd487	0.36685583
47	0x3da45eb7	0.08025878
48	0xbe62fecb	-0.22167508
49	0x3f60d107	0.8781895
50	0xbedb45ae	-0.428266
51	0xbf0972c3	-0.5369074
52	0xbe0c1f5b	-0.13683836
53	0xbe814e37	-0.25254986
54	0xbe9bab33	-0.30404052
55	0xbe6dfeb4	-0.23241693
56	0x3ec9987f	0.39374158
57	0xbef2123e	-0.47279543
58	0x3dc4b8d8	0.09605569
59	0xbecea20b	-0.40358004
60	0x3d2997ee	0.041404657
61	0xbf0292b3	-0.51005095
62	0x3e39eaa8	0.1815592
63	0x3ed9d3b1	0.4254432
64	0x3d294c04	0.04133226
65	0xbf91f356	-1.1402385
66	0xbec996af	-0.39372775
67	0xbee7df54	-0.45287573
68	0xbf0039b2	-0.50088036
69	0x3c7e6c46	0.015528744
70	0x3e978ac5	0.2959806
71	0xbe48ee74	-0.19622213
72	0x3eefbc35	0.46823278
73	0xbe5dbaa3	-0.21653228
74	0xbdeded9d	-0.11617587
75	0x3f55ea81	0.8356095
76	0x3ea36860	0.3191557
77	0xbea7c719	-0.32769087
78	0xbe9cbd51	-0.30613187
79	0xbf84aa26	-1.0364425
80	0x3e975e2f	0.29564044
81	0x3f60781d	0.8768328
82	0x3ee9ed35	0.45688787
83	0xbe5ec1b6	-0.21753582
84	0xbe8db39f	-0.27676103
85	0x3ef40b28	0.47664762
86	0x3e09dc66	0.13462982
87	0xbe2acb53	-0.16679125
88	0xbf94a3ed	-1.1612526
89	0xbe5acca1	-0.21367122
90	0xbe404cd5	-0.18779309
91	0x3eb006e8	0.3438027
92	0x3d9767e9	0.07392866
93	0xbf890649	-1.0705043
94	0xbf482188	-0.78176165
95	0xbe3a04c8	-0.18165886
96	0xbf331d66	-0.69966733
97	0x3e971757	0.29509994
98	0x3d2f014c	0.042725846
99	0xbe264dc8	-0.16240609
100	0xbf0aaec3	-0.54172915
101	0xbf5a7ae3	-0.8534376
102	0x3e545b9c	0.20738071
103	0xbf034e01	-0.512909
104	0x3e22bdbe	0.15892693
105	0xbef791e1	-0.48353484
106	0xbdd4f837	-0.10398906
107	0xbec85009	-0.39123562
108	0xbeb9fc7b	-0.3632544
109	0xbf103377	-0.5632853
110	0xbf26214d	-0.6489456
111	0x3de993e9	0.11405165
112	0x3ef493c4	0.47768986
113	0x3eea8551	0.45804837
114	0xbe420d2e	-0.1895034
115	0xbf117afe	-0.56828296
116	0x3f3ebe7b	0.745094
117	0xbcd9a565	-0.026568124
118	0xbed291b2	-0.41126782
119	0xbedd61e7	-0.43238756
120	0xbf0f5f55	-0.5600484
121	0xbed726c7	-0.42021772
122	0x3e3b5189	0.18292822
123	0x3d3bfc79	0.045895074
124	0xbe29012f	-0.16504358
125	0xbe90cb7d	-0.2828025
126	0xbefa4438	-0.48880172
127	0xbee8dab7	-0.45479366
128	0xbf1924ea	-0.5982195
129	0x3e58a712	0.21157482
130	0xbddc41b0	-0.107547164
131	0xbe396a26	-0.18106899
132	0xbe8a13bb	-0.26968178
133	0xbefefc16	-0.498017
134	0xbf341b05	-0.7035373
135	0x3eb49999	0.35273436
136	0x3eb3326f	0.34999415
137	0xbf3a4cd9	-0.7277351
138	0x3d233187	0.039842155
139	0xbea8602c	-0.32885873
140	0xbe719d03	-0.23595051
141	0x3e2b8a48	0.16751969
142	0x3f071007	0.5275883
143	0x3eb178e6	0.3466255
144	0xbebc1038	-0.36731124
145	0xbf1523b1	-0.58257586
146	0xbe55e936	-0.20889744
147	0xbe81cf81	-0.25353625
148	0xbf11bd82	-0.5692979
149	0xbeee6691	-0.46562627
150	0x3e953093	0.29138622
151	0xbd2137c9	-0.03935984
152	0xbf23d211	-0.6399241
153	0x3f09ae18	0.5378127
154	0x3ebc2cbd	0.36752883
155	0x3ea5b926	0.3236782
156	0x3cd2495a	0.025669742
157	0x3f0ea0f4	0.55714345
158	0xbe3efee4	-0.1865192
159	0xbed43af3	-0.41451225
160	0xbe886c5f	-0.2664518
161	0x3df64f11	0.120267995
162	0xbf0f6acf	-0.5602235
163	0xbed53670	-0.41643095
164	0xbf8d5da7	-1.1044205
165	0xbf126ad3	-0.5719425
166	0xbe475e3f	-0.19469546
167	0xbecd3e91	-0.40086797
168	0xbc128836	-0.008943608
169	0xbe24f76d	-0.1611001
170	0x3e277fc7	0.16357337
171	0xbf4b3bf0	-0.7938833
172	0xbda57a9a	-0.08080025
173	0xbe0ccda6	-0.13750324
174	0xbf07d760	-0.5306301
175	0xbeaff228	-0.34364438
176	0x3f1b1487	0.605782
177	0x3f90fdd3	1.1327461
178	0x3f39be7b	0.72556275
179	0x3f2f62ae	0.6850995
180	0xbeba2920	-0.363595
181	0xbd9aa393	-0.075507306
182	0xbd10134f	-0.035174664
183	0xbe5f8d74	-0.21831304
184	0x3e8b4f9f	0.27209184
185	0x3e0007e5	0.12503012
186	0xbde18533	-0.11011734
187	0xbf400dc0	-0.7502098
188	0x3eda86f7	0.42681095
189	0xbcea43ab	-0.02859672
190	0x3e9ef6df	0.31047723
191	0x3db5f6f4	0.08884993
192	0xbeba8cde	-0.36435598
193	0xbe2bbc4b	-0.16771047
194	0x3eeb99a4	0.46015656
195	0x3f681be1	0.9066754
196	0x3ccf6e80	0.025321245
197	0xbe3db58f	-0.1852629
198	0x3dc72fa1	0.09725881
199	0x3dcd92ae	0.100377426
200	0xbeb56558	-0.35428882
201	0xbe8fc3cf	-0.28079078
202	0xbeb4b211	-0.35292104
203	0xbeac0c5d	-0.33603182
204	0xbf80a26b	-1.0049566
205	0xbea388c8	-0.31940293
206	0xbf0d11dc	-0.55105376
207	0x3d29c6cd	0.041449357
208	0x3dd42cb3	0.10360088
209	0x3e560cd1	0.20903327
210	0xbf78ef29	-0.9723993
211	0xbedd1928	-0.43183255
212	0xbeb34601	-0.35014346
213	0xbe46905c	-0.19391006
214	0xbe6836d5	-0.22677167
215	0xbf367e2b	-0.7128627
216	0x3eca59cb	0.39521632
217	0xbe94b4b0	-0.29044104
218	0xbf253f88	-0.64550066
219	0x3ec6a52a	0.38797885
220	0x3fb09b86	1.3797462
221	0xbf41a04f	-0.75635237
222	0xbf7196be	-0.9437064
223	0x3e706124	0.23474556
224	0x3de338fe	0.11094855
225	0xbd744ea3	-0.059645306
226	0x3dc17f80	0.09448147
227	0xbee30dc4	-0.4434644
228	0x3f40101c	0.7502458
229	0xbf99fa14	-1.2029443
230	0x3edb8df4	0.4288174
231	0xbe47af0b	-0.19500367
232	0xbeb51fb1	-0.3537574
233	0xbbb54399	-0.00553174
234	0x3e4d7ae3	0.20066409
235	0x3e299dcd	0.16564102
236	0xbec2b5a3	-0.38029203
237	0xbf6410ad	-0.89087945
238	0x3e9f128e	0.31068844
239	0xbf102d6b	-0.563193
240	0x3e6231f2	0.22089365
241	0xbc987e95	-0.018615047
242	0xbdf3240f	-0.11872112
243	0xbe235d06	-0.15953454
244	0x3d39a148	0.045319825
245	0xbec51559	-0.3849285
246	0xbf635142	-0.88795865
247	0x3e0f5f18	0.14001119
248	0x3d611928	0.05495563
249	0xbecdb7b3	-0.40179214
250	0xbe635a46	-0.22202405
251	0xbe162ee8	-0.14666331
252	0xbf04db4a	-0.5189711
253	0x3f3b5b9a	0.7318665
254	0xbe022442	-0.12709144
255	0xbf142b59	-0.57878643
