bbox_poisoning/lightning_logs/version_2219/checkpoints/epoch=99-step=600.ckpt (torch, 75320 bytes, 6 tensors)

entity_embeddings.weight f4 [135, 32]
000000 8b 5b 13 bf 95 3f b1 bf 8d ca 32 3f 77 fe 70 3e
       -0.5756156 -1.3847529 0.6984032 0.2353457
000010 97 1d 52 bf 7c 6e a0 bf b6 70 ec bd 09 65 2d bf
       -0.820764 -1.2533717 -0.115449354 -0.6773229
000020 7d 87 69 bf 41 03 d2 3e a9 2e 58 bf 28 ae 03 3f
       -0.91222364 0.41018108 -0.844462 0.51437616
000030 84 3e b7 bf 06 9c 8a be e2 21 ba be 0b 4a 8c bf
       -1.4315953 -0.2707216 -0.36353976 -1.0960096
000040 3b 40 ad bd a4 94 57 bf 34 e3 84 3f 12 f1 56 be
       -0.084595166 -0.8421118 1.0381837 -0.20990399
000050 44 d9 76 3f ff 36 9a 3f 2c a3 0f bf bd 6b 8d bf
       0.9642527 1.2048033 -0.56108356 -1.1048504
000060 76 ad 07 3f 0b 45 e3 3e 6b 0c 42 be af 5c 8e 3f
       0.52999055 0.44388613 -0.1895005 1.1122035
000070 bf ca 1b bf 05 2d bc 3d 6a 5e 99 3e 88 c2 f7 3e
       -0.6085624 0.09188274 0.29954845 0.48390603
000080 4f 49 0f 3f a9 dc a1 bf 90 9b 1a 3f c3 0b 39 3d
       0.55971235 -1.2645465 0.6039362 0.045177232
000090 44 79 06 be de da 9d bf 11 d5 96 bd 99 2a 83 3e
       -0.13132197 -1.2332418 -0.07364858 0.25618437
0000a0 b8 66 d0 3e 0e 10 61 3f 7e a1 a7 3e e0 01 31 bf
       0.40703368 0.8791512 0.32740396 -0.69143486
0000b0 2a ef 38 3f d1 9e 35 3e 33 d9 91 3e ad c6 1f 3f
       0.72239935 0.17736365 0.28486022 0.6241253
0000c0 55 bf 8d 3f 5a be 91 bf d3 28 86 3e 63 15 ce 3e
       1.1074015 -1.1386216 0.2620302 0.40250692
0000d0 fe 45 dc be dc b4 f1 be d2 ba ac 3e 04 23 8a 3f
       -0.4302215 -0.47208297 0.33736283 1.0791936
0000e0 a0 21 9a 3d 14 26 13 3f 08 b5 8c 3e bf eb d5 3e
       0.07525945 0.5747998 0.27481866 0.41781422
0000f0 14 5d 4f bf cb d5 30 bf ed c7 d6 3e 0f f8 a8 bf
       -0.810014 -0.6907622 0.41949406 -1.3200701
000100 7e 98 18 bf 11 f1 7c bf a5 a1 21 bf 66 89 28 be
       -0.59607685 -0.9880534 -0.63137275 -0.16458663
000110 84 8f 97 3e 40 fc ab 3f 37 2f e9 be 16 9f a9 3e
       0.2960168 1.3436356 -0.45543835 0.33129185
000120 16 b3 e1 3e 5f af be 3e a5 17 a8 be e1 ed 4f bf
       0.44081944 0.37243173 -0.3283054 -0.8122235
000130 44 34 84 3e e9 7c c5 be df a7 d2 3e b1 db 4a be
       0.25821126 -0.3857186 0.411437 -0.19810368
000140 55 8a 14 be 63 5c 31 bf 44 8d f3 3c 8f ef bc bd
       -0.14505894 -0.69281596 0.029730447 -0.0922538
000150 8d 70 ec bd 64 fb 5d bf cc 7b d3 be 7e 83 e1 3e
       -0.11544905 -0.86711717 -0.41305387 0.44045633
000160 3d 78 13 3f 05 04 ed be e8 c6 e7 be 5f fd e1 3e
       0.57605344 -0.4629213 -0.4526894 0.4413862
000170 ee aa 8f 3e bd 1b b5 bf 21 73 9c bd 5e 31 96 3f
       0.28060097 -1.414909 -0.076391466 1.1733816
000180 e9 e8 2f bf 8b 86 de bf 7c 2a 1a bb 48 0c 36 be
       -0.6871477 -1.7384809 -0.0023523858 -0.17778122
000190 e1 9d b1 be 54 b3 a4 bf 45 29 a2 be 28 d0 c5 be
       -0.34690765 -1.2867227 -0.3167211 -0.38635373
0001a0 14 a9 64 bf c8 7b 62 3f 4d 3f 82 bf 3b 3e 5d 3f
       -0.8932049 0.88470125 -1.0175568 0.8642308
0001b0 1e 90 bc bd 93 dc 87 bf 19 99 bf be e9 e2 22 bf
       -0.09207176 -1.0614189 -0.37421492 -0.6362749
0001c0 0a 08 9b be 3a b5 2f bf f5 c8 9a 3f df c2 07 bf
       -0.3027957 -0.68635905 1.2092577 -0.53031725
0001d0 48 7c 87 3f 80 2d 38 3f 36 99 00 bf a1 a4 88 bf
       1.0584803 0.7194443 -0.5023378 -1.0675241
0001e0 c5 67 50 3f 82 e4 25 3f aa 49 34 bf 6a 9c 81 3f
       0.8140834 0.648018 -0.704249 1.0125859
0001f0 7e 33 a3 bf f7 9a 9f 3e b6 4f 51 bf 2f 4c a7 3e
       -1.2750089 0.31172916 -0.81762254 0.3267531
000200 e3 06 16 bf f6 ea c6 bf 40 47 3a 3f 36 57 98 3e
       -0.5860426 -1.5540454 0.7276497 0.29754037
000210 e7 1b af be 7f 63 c4 bf 5b 6b 94 be 63 f8 fa bd
       -0.34200975 -1.5342864 -0.28988156 -0.12254407
000220 7a 68 09 3e a2 0e 1d 3f 90 d0 d4 3d 9a 31 70 bd
       0.13418761 0.6135045 0.10391343 -0.058641054
000230 1d 7a 8f bd 53 e4 2b bf 58 87 65 bf 63 9a 85 bf
       -0.07005713 -0.6714527 -0.89659643 -1.043774
000240 e0 bc 42 3e 09 0a 8c bf 87 92 9c 3f 88 24 7e be
       0.19017363 -1.0940562 1.2232217 -0.24818623
000250 91 88 9b 3f 4f 36 18 3f 4f b2 6a bf 36 46 83 bf
       1.2151052 0.5945787 -0.9167833 -1.0255802
000260 b2 93 3c 3f 10 76 84 3f ce 36 08 3b 7a a5 49 3f
       0.73662865 1.034853 0.002078462 0.7876812
000270 d5 87 bc bf f2 30 cc bc 19 a6 5a bf 69 42 11 be
       -1.4728953 -0.024925683 -0.85409695 -0.1418549
000280 33 77 d4 be ac 6a 9c bf 0e 85 9b bc 5c 70 dc be
       -0.41497192 -1.2220054 -0.018984344 -0.43054473
000290 ff 2e ed 3e 6b 65 8b 3f 75 50 54 3e f0 82 86 3f
       0.46324918 1.0890325 0.20733817 1.0508709
0002a0 13 bd 40 3e 2b cb 4b bf a7 2e 35 bf 44 56 a6 bf
       0.18822126 -0.79606885 -0.7077431 -1.2995076
0002b0 d6 e9 4d bf 89 4d 7c bc 01 ee 3c bf 27 5d 1e bd
       -0.8043493 -0.015399345 -0.73800665 -0.038663056
0002c0 39 e7 03 bf e1 04 2d bf d8 92 57 3e 1c e0 cb be
       -0.5152469 -0.6758557 0.2105211 -0.3981942
0002d0 6d b9 23 be 9b d8 f6 bd ec fd 4a be 3a 62 8c be
       -0.15988703 -0.12053033 -0.19823426 -0.2741869
0002e0 39 e9 03 3e 63 54 b6 be e5 6b 69 3e d6 78 04 3f
       0.12881936 -0.35611257 0.22795065 0.5174688
0002f0 1c ec 5d 3e 6d 44 f2 3e b8 87 03 3f 46 fa c1 3f
       0.216721 0.4731783 0.51378965 1.5154502
000300 db 2c 87 bf c0 af d1 bf 64 5c 69 3e 0f a0 a6 bf
       -1.0560564 -1.638176 0.2278915 -1.3017596
000310 12 8a e9 be 3b 42 85 3f a1 7d 26 bd 93 4a 5a be
       -0.45613152 1.0410837 -0.040647153 -0.2131751
000320 1e b2 ab bf 5c 5f 2f be 4e c4 f5 3d f0 df c0 bf
       -1.3413732 -0.1712622 0.12000333 -1.506834
000330 f5 1d 0f be c4 05 15 bf 73 ec 42 bf 64 aa 95 3f
       -0.13976271 -0.5821192 -0.7614204 1.1692624
000340 ab 2a 11 bf 7b 85 b2 bf 0d bf a2 bd 5e 45 64 3d
       -0.5670573 -1.3946985 -0.07946596 0.055730216
000350 d0 a6 0f 3e ac f5 f5 3e 85 e6 cb 3f 78 23 a8 3f
       0.14028478 0.48038995 1.5929724 1.3135824
000360 3d 86 a6 3f d2 1a 0a bf 47 d1 1c 3e 40 3d 23 bf
       1.3009716 -0.53947175 0.15314208 -0.63765335
000370 7d 6d 9f 3e 2c 92 9c be 56 68 a4 be 4e d3 39 bf
       0.3113822 -0.3058027 -0.32110852 -0.7258805
000380 d5 c3 59 bf 0e f6 d5 bf 85 3e d2 3e 92 58 ab 3e
       -0.8506444 -1.6715715 0.41063324 0.3346601
000390 de 5f 5e bf 1e 5b b9 bf ed 47 c2 be 5b 00 3d be
       -0.8686503 -1.4480932 -0.379455 -0.18457167
0003a0 08 27 bb be 28 ca 08 be 3b e7 fb bc bc 1f 07 3f
       -0.36553216 -0.13358366 -0.030749908 0.527828
0003b0 19 ff cc 3e 05 32 0b be fe f3 b6 be d0 21 21 bf
       0.40038374 -0.135933 -0.35733026 -0.6294222
0003c0 0d 40 87 3e 18 fd 78 bf cd 4e 95 3f 90 e9 97 be
       0.26416054 -0.9726119 1.1664673 -0.29670382
0003d0 1c 35 c6 3e a3 bd 66 3f 9d b4 61 bd 85 67 37 bf
       0.38712394 0.9013311 -0.055103887 -0.71642333
0003e0 26 22 69 bf c2 ff 73 3f 9b c6 d1 3b ff 40 9a 3e
       -0.9106773 0.9531213 0.0064018494 0.30127713
0003f0 01 0d ce bf 72 ea b6 be 79 a9 24 3f a4 89 1c 3f
       -1.6097718 -0.35725743 0.64321095 0.6114752

relation_embeddings.weight f4 [46, 32]
000000 f3 20 75 3f 24 3a da bf 9f ea ee 3e 40 17 96 bf
       0.957534 -1.7048993 0.46663377 -1.1725845
000010 69 50 02 3f a7 1c f1 be 31 18 8f 3f 69 20 80 bf
       0.50903946 -0.47092173 1.1179258 -1.0009891
000020 b8 16 b0 3d 57 71 27 bf 1b dc 01 bf 6b 39 08 3f
       0.08598083 -0.6540732 -0.5072648 0.5321261
000030 27 75 6a 3e da 1e 10 be 5d d0 cc be 79 d2 c8 bd
       0.22896253 -0.14074269 -0.4000272 -0.098057695
000040 ae 71 b6 3f 7d 66 ca 3d 7b d4 11 be 13 09 0f bf
       1.4253442 0.09882829 -0.14241211 -0.5587322
000050 54 44 7e 3f db a9 43 3e b4 0a af 3f 8a c4 30 40
       0.9932301 0.19107763 1.3675141 2.7619958
000060 ef 5c ca 3e 5c 52 68 be 77 52 9d 3d a1 41 05 3f
       0.39524028 -0.22687668 0.076817445 0.52053267
000070 7e 52 83 bf b5 6a db bf 56 c1 1b 3f 33 43 98 be
       -1.025955 -1.7141939 0.6084188 -0.2973877
000080 eb 30 d3 bf e2 81 d2 bf c8 6e 1e bf 7e b8 fd bd
       -1.6499304 -1.6445887 -0.6188779 -0.12388705
000090 d5 c7 b5 be 2d 08 35 bf cc ad a6 3f 18 71 02 3f
       -0.35504022 -0.707156 1.3021789 0.5095382
0000a0 cd d4 1d 3f 86 b4 41 bf 59 fc 85 be a8 79 55 3e
       0.61652833 -0.7566608 -0.26169088 0.2084719
0000b0 e3 51 98 be 78 1a be 3e f0 15 0c 3f 46 9d c0 be
       -0.29749975 0.3712957 0.54720974 -0.3761999
0000c0 29 66 82 3f 68 a2 f9 bd 5a ae 3c 3d 57 86 04 3d
       1.0187427 -0.1218918 0.046064712 0.03235468
0000d0 05 30 9b bf ff f9 53 3f 8c a4 3a 3d 5b 0f bf 3d
       -1.2124029 0.8280334 0.04556708 0.09329101
0000e0 0d 61 c7 3e 3b 52 01 be 74 6f 21 3f b7 98 24 3e
       0.3894123 -0.12629025 0.6306069 0.16073881
0000f0 0a 67 b7 3e 39 00 ad be e1 1d db bf 28 2b eb 3e
       0.358208 -0.33789232 -1.7118493 0.45931363
000100 6b 76 cf 3d 92 47 b2 bf 8c 27 e5 3d 2c 58 de bf
       0.10130008 -1.3928092 0.111891836 -1.7370658
000110 b9 67 f9 3e 28 66 14 3f e8 ef 40 be 9c 7b f6 bd
       0.48711947 0.5796838 -0.18841517 -0.12035295
000120 60 ab 01 3e fa 53 25 bd 87 f3 c9 bd b5 65 ae be
       0.1266303 -0.04036329 -0.09860902 -0.3406197
000130 21 10 59 be 8f c6 b2 bc a8 f2 b1 bd 8d f1 c6 3f
       -0.21197559 -0.021823196 -0.08688861 1.5542465
000140 5b 47 c9 3d 2b 0e 9e 3d 35 69 c0 3e 34 2f 44 3d
       0.09828063 0.07717546 0.37580267 0.04789658
000150 ec 09 02 bd bc de be 3e 6a ae 9c 3e 63 9c b0 be
       -0.031747743 0.37279308 0.30601817 -0.34494314
000160 b7 d7 8f bd a2 00 a2 3d f3 6b 1d be fa 7d b2 3e
       -0.07023566 0.07910277 -0.1537321 0.34861737
000170 12 60 35 be 11 11 b4 3d 09 fe 60 be 2e 45 36 bf
       -0.17712429 0.08792318 -0.21971907 -0.7119931
000180 a6 d9 95 bf 08 a1 a6 bf b5 85 ed be 3c d2 22 3d
       -1.1707046 -1.3017893 -0.46391073 0.039751276
000190 7b a9 cd be 5b 55 81 be 3d d1 d7 3e 37 9d 73 bf
       -0.40168366 -0.25260434 0.42151824 -0.95161766
0001a0 1b 66 42 3f 91 7a 68 bf df 94 c4 3e 21 dd fb bd
       0.7593705 -0.9081202 0.3839483 -0.12298036
0001b0 51 26 66 3f 79 09 e9 3f 5e bc 52 bf 05 0d 3a 3f
       0.89902216 1.8206016 -0.82318676 0.72676116
0001c0 ae 69 fd 3e 94 52 8b be 6d 88 61 bf 65 c1 1b bf
       0.4949469 -0.2721144 -0.88098794 -0.6084197
0001d0 7a 0a 88 3f 67 d4 d3 3e ce 0d d4 3e ef 07 ee be
       1.0628197 0.41372988 0.41416782 -0.46490428
0001e0 1f 29 33 3f e8 14 34 3f 17 4f 66 3f 8d 84 4d be
       0.6998462 0.703444 0.8996443 -0.20070095
0001f0 e5 17 0f 3f bf b6 16 be 92 6f 1d be 89 28 79 bf
       0.55895835 -0.1471815 -0.15374592 -0.97327477
000200 a2 8d 5b 3f 5b 4d 90 bf 4a 3f c0 3a d2 b2 20 bf
       0.8576299 -1.1273607 0.0014667299 -0.6277286
000210 6e 0b 69 3e d8 46 e7 bd 83 5d 28 3e 01 01 f5 be
       0.22758266 -0.11292809 0.16441922 -0.47852328
000220 64 6e 8c 3e 3c 9b c2 bd c2 61 a5 be a2 46 c9 3e
       0.2742797 -0.09502265 -0.32301146 0.393117
000230 e6 2e 49 bb 46 30 7f bd a0 0e 96 3e dc 88 4e 3f
       -0.003069812 -0.062301897 0.29308033 0.8067758
000240 26 a0 95 bd b0 1d 09 3c 23 55 a7 3e 37 36 ad 3f
       -0.073059365 0.008368894 0.32682142 1.353217
000250 3a fc 0c be 4e 52 1d 3f a5 82 00 3f 13 45 43 3e
       -0.13768092 0.6145371 0.5019935 0.19069318
000260 31 0e 48 be 19 f8 2c 3e 56 2a 95 bd 3a 5f 20 3f
       -0.19536664 0.16891517 -0.072834656 0.62645304
000270 82 ec ff bd af 49 10 3d d4 ed 9a 3e 6a d9 8f bf
       -0.12496282 0.03522652 0.30259573 -1.1238225
000280 f2 a0 57 be e5 75 8f bf ce 65 b9 3e 43 19 48 3e
       -0.2105749 -1.1207854 0.36210483 0.19540887
000290 b0 ff f3 3e 45 b0 86 3f 5e 5c 1f be 14 6b f1 bd
       0.47656012 1.0522543 -0.15562579 -0.11788002
0002a0 3f 5c 30 bd 6d 78 8f be f4 06 01 bf 75 c0 8e 3f
       -0.043056723 -0.28021565 -0.50401235 1.1152483
0002b0 7f 25 86 bf 1c e9 97 3e 90 e9 91 be 33 7c 87 3d
       -1.0480193 0.29670036 -0.28498507 0.06615486
0002c0 3b 56 8b be 46 67 98 bd a8 b1 bf 3e 69 db 8e be
       -0.27214226 -0.07441573 0.37440228 -0.27901772
0002d0 35 0e 35 3f f3 04 44 be 7b fa 89 be 8c 06 c9 be
       0.70724803 -0.19142513 -0.26948914 -0.39262807
0002e0 3c a8 eb bd 91 67 d5 be c5 6f fe 3d 25 38 b2 be
       -0.115066975 -0.41680577 0.12423662 -0.3480846
0002f0 98 58 17 3f 01 75 f6 3e 91 34 f7 bd 77 63 b9 bd
       0.5911956 0.48136142 -0.12070573 -0.090521745
000300 7c 14 d8 be 7f 83 e9 bf e2 ef dd 3c ed 56 e4 3e
       -0.42203128 -1.8243254 0.027091924 0.4459757
000310 f6 48 b8 be 58 fe 03 bf fa b7 a5 3f 5a ae 7e be
       -0.35993165 -0.5155997 1.294677 -0.24871197
000320 6c 04 b2 3e aa f6 ab be de 85 5f 3e 6e f1 28 bc
       0.34769 -0.33586627 0.2182841 -0.010311468
000330 c9 22 7b be a2 be a5 3f 52 42 7a 3f 1d 3a 2e 3f
       -0.24524988 1.2948802 0.97757447 0.68057424
000340 25 d4 c4 3e 9e 43 41 be b7 61 4b 3f 25 ef a2 bf
       0.38443103 -0.1887345 0.79445976 -1.2729231
000350 91 1c a8 bd 60 c4 f0 3d 47 25 57 3f 67 d3 e1 3e
       -0.082085736 0.117562056 0.84041256 0.441066
000360 80 a2 be 3d 53 ca f5 3c b1 d5 0f 3f f8 f9 c5 3f
       0.09308338 0.030003702 0.5618544 1.546691
000370 0b 30 04 bf dd 9e 62 3e 28 a8 c5 be a5 82 ef be
       -0.5163581 0.22130914 -0.38604856 -0.4677936
000380 f5 60 81 be 42 9c ba bf 65 74 c4 bd 4a fc c6 be
       -0.25269285 -1.4578936 -0.09592513 -0.38864356
000390 cd fb 9e bf e6 7e a9 bd 76 c6 af bc 53 e0 81 3f
       -1.2420594 -0.08276157 -0.021456938 1.0146583
0003a0 31 3a 22 3e 12 04 45 3e be 2c ba be 9e 4f a4 3e
       0.15842511 0.19239834 -0.3636226 0.32091993
0003b0 91 d7 24 bd 78 84 78 3f 02 ac 96 bf e5 c3 9d be
       -0.040244643 0.9707713 -1.1771243 -0.30813518
0003c0 5a a3 8d be 6e 33 a4 3e f4 24 b5 bf 53 e0 03 3f
       -0.2766369 0.32070488 -1.4151902 0.51514167
0003d0 85 37 f7 be 92 b0 66 3f 3f 80 99 3e 2a 01 23 bf
       -0.48284546 0.90113175 0.29980657 -0.6367365
0003e0 93 ae b3 3f 90 c5 e9 be d9 32 19 3d 06 50 6e 3d
       1.4037651 -0.4565854 0.037402008 0.058181785
0003f0 e5 61 88 3f 01 98 9c bf da 75 47 3f 47 ec 26 bf
       1.0654875 -1.2233888 0.779142 -0.6520428

exp_avg f4 [135, 32]
000000 33 29 9a 3d 9b 62 af be da 44 3f be 86 bd 89 3c
       0.075273894 -0.34254918 -0.18678609 0.016814005
000010 ac 39 94 bd 0c c4 cd 3d c7 d6 16 bd fc 7a c5 3c
       -0.072375625 0.100471586 -0.03682592 0.024106495
000020 47 3e df bc f0 4f 51 bd 7d 54 03 bd ba cd 3c 3d
       -0.027251376 -0.051101625 -0.032062996 0.046094634
000030 ca 5c b9 3d c1 8a 00 3d 4d 15 ca 3b 1d 5e 05 3f
       0.09050901 0.031382326 0.00616709 0.5209673
000040 d5 17 f2 3c 21 8a ec bd d4 79 8b bc 3b 63 bf 3c
       0.02955238 -0.115497835 -0.017025866 0.023362746
000050 5e 33 ab bd 4d bf ed bd 6b ee 83 3e 7f 79 76 3e
       -0.08359407 -0.11608753 0.25767836 0.24069785
000060 63 66 d3 bd f7 11 21 bc db fe 2f 3d 67 ea 7f bd
       -0.10322263 -0.009830943 0.04296766 -0.062479403
000070 6f 01 17 3c ed 3b 8c bd 50 ea ba 3c 0e 90 c1 bc
       0.00921665 -0.068473674 0.022816807 -0.023628261
000080 62 1f 85 3c 3f 80 12 3e b7 d7 ba 3e be 7e 82 bb
       0.016250316 0.14306735 0.36492702 -0.003982394
000090 9f b2 d0 3c 23 53 7b 3d 7f eb 2b be 79 6d dc 3c
       0.025475798 0.061358582 -0.16789053 0.02690767
0000a0 78 d4 8b bc ce 50 2a 3b c0 a1 e3 bd d1 c6 9e 3b
       -0.017069086 0.0025988105 -0.11114836 0.004845478
0000b0 02 4f ca 3d 35 e4 b6 bd 96 55 0c 3c f4 11 45 be
       0.09878351 -0.08930246 0.008565327 -0.1924513
0000c0 b3 0d 7c bd eb b5 4e bc 28 32 40 bc 58 67 31 bd
       -0.061536502 -0.012616615 -0.011730708 -0.043311447
0000d0 44 c9 38 bb ba db a3 3d 12 fb 42 3e 7f 1a 36 3e
       -0.0028196136 0.08000894 0.19041088 0.17783545
0000e0 62 60 17 bf 7e d0 42 bd 4c f8 36 3d 04 f0 bc 3c
       -0.59131444 -0.047562115 0.044670388 0.023063667
0000f0 33 c3 7f bd b8 56 68 bd 01 d1 9e 3c b8 d1 60 bd
       -0.062442016 -0.056723326 0.01938677 -0.054887503
000100 1f 69 1e bd 5f 2f 0b 3e 37 ce 54 be 33 9a 33 bf
       -0.03867447 0.1359229 -0.2078179 -0.70157164
000110 ad b7 8b 3c 98 27 d5 3e d6 01 44 bd 15 5d f2 3d
       0.017055357 0.4163177 -0.047853313 0.1183416
000120 e8 21 e4 bd fe 4d 16 3c 04 bc 7f 3d 6b fa b3 be
       -0.111392796 0.009173868 0.062435165 -0.3515199
000130 52 92 8a bd 01 7e 8b bd 15 14 b4 bb 23 d8 33 3e
       -0.0676619 -0.06811143 -0.005495558 0.17562918
000140 48 ab 8b 3c cc 89 89 3f cf 7d 63 3d 88 3e a6 bc
       0.017049447 1.0745177 0.055539902 -0.02029349
000150 65 68 e2 3d c0 b0 a5 3d dd 20 85 be ce d7 11 bd
       0.11055068 0.08090353 -0.26001635 -0.035606198
000160 bd 0b b7 3b 0c 25 0c be 3f c4 a4 bd e6 4c f4 bd
       0.005586116 -0.13686007 -0.080452435 -0.1192873
000170 9b 74 0d bc 4b 33 cd 3d 6d 78 08 3c 3e 32 b2 bc
       -0.008633758 0.10019549 0.008329493 -0.021752473
000180 48 5c 12 bc 0e 17 79 be b5 18 5c 3d c2 f6 fd bc
       -0.008933134 -0.24325201 0.0537345 -0.031001452
000190 67 13 82 bd 6e 3a b1 3d f5 13 48 3e ee 01 02 bc
       -0.06351357 0.08653723 0.19538863 -0.00793503
0001a0 9e df 5e bd f7 8e 72 3d 40 db 51 3a 47 41 37 be
       -0.054412477 0.059218373 0.0008005388 -0.17895995
0001b0 4e 7d b3 3a 3d d6 85 3c 55 30 a3 bc 01 9b 25 3e
       0.001369396 0.016337508 -0.019920507 0.1617241
0001c0 19 e7 a9 3d 2b 8d 02 bd 7e 83 69 be 85 ba 48 3e
       0.082960315 -0.03187291 -0.22804067 0.19602402
0001d0 14 b6 4f be 82 35 1e be 54 41 b0 3d 37 d1 99 bc
       -0.20284301 -0.15450099 0.0860621 -0.01877652
0001e0 ea 9f 3c bd 5f 79 cf bb 74 26 cb 3d 8f 19 bd 3c
       -0.046050943 -0.0063316072 0.09919444 0.023083476
0001f0 0c 1d c2 bb 4e d9 22 3e 87 ca 38 3d d8 72 05 bc
       -0.005923873 0.15903208 0.04511502 -0.008145057
000200 60 cb bc 3e f8 86 e5 be a2 6b 1a be cc 4b af bc
       0.36873913 -0.44829535 -0.15080121 -0.021398447
000210 15 82 00 ba 5f a8 75 3e 15 eb 1c 3e 19 1b fe bc
       -0.0004902196 0.2399001 0.15324052 -0.03101878
000220 9d 1d 87 bd 34 3d bb bd 0d 1a 19 3f 9b 44 49 bc
       -0.06597445 -0.09142533 0.59805375 -0.012284423
000230 b1 fc 85 bd 78 b1 76 bd 0f 11 38 3d bd cf 4a 3e
       -0.06542338 -0.06022784 0.044938143 0.19805808
000240 e1 fc a0 bc 51 a2 e7 bd a6 a6 7d bd 9e e9 70 3c
       -0.019651832 -0.11310256 -0.061926506 0.014704136
000250 05 0f 37 bf 71 20 20 bd 90 fd d3 bd 66 e2 b8 3c
       -0.71507293 -0.03909344 -0.103510976 0.022568893
000260 52 5f 93 be 2d 29 13 bd 12 5b cc 3d e9 be 1e bd
       -0.2878366 -0.03592794 0.09978308 -0.038756285
000270 bc 1f 6d 3d cc f0 83 be 2e f5 84 3d f7 a0 e0 3d
       0.057891592 -0.2576965 0.06492077 0.109682016
000280 d0 ec 47 3e d0 ed c3 bd c2 26 af 3c b7 96 e0 3d
       0.1952393 -0.095668435 0.021380786 0.109662466
000290 16 24 26 3d 3e 3f 0d be 5c 7c c5 3a ba 3f 04 be
       0.040561758 -0.13793656 0.0015066969 -0.12914935
0002a0 6b 35 55 3b 82 58 8f be cd a4 64 be 72 42 64 be
       0.003253306 -0.27997214 -0.22328492 -0.22290972
0002b0 74 8f b7 bd 43 46 c1 3b 8e ea 5e 3f a5 36 4f 3e
       -0.089629084 0.0058982684 0.8707665 0.20235689
0002c0 b2 d0 bf 3d 42 5f 0b be 35 8f 1c be f6 7d d5 3a
       0.09365977 -0.13610557 -0.15289004 0.001628815
0002d0 91 b6 36 bb d8 da dc 3e c2 e3 bf bc 76 03 b8 3d
       -0.0027879814 0.43135715 -0.023424033 0.08985035
0002e0 98 3f 3d 3e b6 dd 4d 3f fc 48 5e 3c ab 77 4e be
       0.1848129 0.8041643 0.0135672055 -0.20162837
0002f0 47 ab b2 bc e0 50 87 bd f3 15 94 bd b9 73 31 3d
       -0.021810187 -0.066072226 -0.07230749 0.043323252
000300 cf 1e fe bb d6 cf e7 3d a3 bc 7d ba a9 e2 88 bc
       -0.0077551375 0.113189384 -0.0009679293 -0.016709642
000310 35 c9 cd bc 09 55 dc 3d 67 4d ed bc a3 d0 bc 3b
       -0.025120357 0.10758407 -0.028967572 0.005762176
000320 ed ac cb bd 1c b8 20 bc c6 01 ee 3d e3 8c 26 be
       -0.09945092 -0.00980952 0.11621432 -0.16264682
000330 c1 38 21 3e d7 08 77 38 3f d4 0a 3d 09 df b6 3d
       0.15744306 5.889762e-05 0.03389382 0.08929259
000340 59 74 8a 3b 17 7b 85 3d 9a 2d 52 3d 56 ae ec bd
       0.0042252955 0.06517618 0.05131302 -0.115566894
000350 a7 f7 41 bc d9 ec 36 bd 3d 09 71 3e 1a 8c 52 3d
       -0.01183883 -0.04465947 0.2353868 0.051403143
000360 a1 54 75 b9 e9 5b ae bb b2 c9 5d 3c 3f ad e8 3d
       -0.00023396547 -0.005321015 0.013536857 0.11361169
000370 48 21 1d bb 83 30 57 bd 6b ec 3e bc 42 30 bb 3c
       -0.0023976136 -0.0525365 -0.011653046 0.02285016
000380 8c d1 1b 3e b7 33 32 bf f9 a0 50 3d c7 19 b0 3e
       0.15216655 -0.6961016 0.050934765 0.34394667
000390 13 c4 50 3e 77 85 25 3b b8 d3 74 3d be 7e c6 3c
       0.20387296 0.0025256553 0.059772223 0.024230357
0003a0 bd 35 0b 3e d5 35 1c 3c b9 74 36 be 4b dc 5f 3d
       0.13594718 0.009534319 -0.17817964 0.054653447
0003b0 e6 50 0f bb ef 7a 65 3c 18 61 c6 3d 1f e7 2c 3d
       -0.0021868288 0.01400636 0.09686488 0.0422126
0003c0 44 f5 8b 3c 03 a5 7e be e8 2a 5c bc 2c 4c e0 3d
       0.017084725 -0.24867634 -0.013437964 0.10952029
0003d0 c9 26 68 bd 5e 6a b9 3d a2 8c 44 3a 5e 57 1c 3e
       -0.056677613 0.09053491 0.00074977626 0.15267703
0003e0 f2 1e 4b bb 49 78 44 bc fa 5c 73 3e 75 1f 73 3d
       -0.0030993787 -0.011991569 0.23765936 0.05935617
0003f0 d2 b7 8d 3d 2a a6 06 3f cf 70 54 bd 14 98 d0 bc
       0.069198266 0.52597296 -0.051865395 -0.025463142

exp_avg_sq f4 [135, 32]
000000 89 e0 a1 36 1a 34 38 36 b1 b5 28 34 8c 5d 06 38
       4.8243132e-06 2.7448464e-06 1.5712318e-07 3.2035212e-05
000010 a8 c5 0c 36 54 7b 16 36 75 99 a0 35 bf 32 d3 36
       2.0976677e-06 2.2423528e-06 1.1965591e-06 6.2941976e-06
000020 be 02 37 34 9f 5d a1 36 fa 77 1a 38 1e bb a2 36
       1.7044201e-07 4.809073e-06 3.6828198e-05 4.8497595e-06
000030 73 ad 8c 34 cd a3 a6 36 96 52 e5 37 01 16 da 33
       2.6203233e-07 4.9662544e-06 2.7337384e-05 1.01554186e-07
000040 1e 1b a7 36 60 f9 fb 36 c6 fa 51 36 a8 93 87 37
       4.9801447e-06 7.509414e-06 3.1289396e-06 1.6162012e-05
000050 5e be b5 35 42 6f 73 35 78 78 89 34 7b 2d 36 35
       1.3540955e-06 9.0686456e-07 2.560589e-07 6.7866466e-07
000060 bf 50 1f 35 f9 37 36 37 91 8d 93 37 c6 a2 bc 36
       5.9349617e-07 1.08610775e-05 1.7589688e-05 5.621786e-06
000070 65 ed 81 37 2a 19 10 36 2f b8 d2 34 8a 70 27 36
       1.5488544e-05 2.147232e-06 3.924956e-07 2.4950446e-06
000080 ab 3b 7d 37 ac b6 60 36 9b c0 c3 34 94 2c 83 37
       1.5093868e-05 3.348493e-06 3.646172e-07 1.5637175e-05
000090 1c 4f 1d 37 bc 8c 77 36 d5 fb 54 35 bd 6f 85 34
       9.376348e-06 3.6887786e-06 7.934262e-07 2.485448e-07
0000a0 06 fb 36 37 03 63 b8 36 a6 d8 a0 34 8b 75 87 37
       1.0906491e-05 5.495154e-06 2.9959955e-07 1.614799e-05
0000b0 ad 67 29 36 93 75 a5 36 4d e2 89 38 fd f4 e0 34
       2.524331e-06 4.9310706e-06 6.574821e-05 4.1901504e-07
0000c0 b5 ca 18 35 11 c1 86 36 3f 98 ff 36 cd b1 1f 37
       5.691939e-07 4.015987e-06 7.617316e-06 9.518536e-06
0000d0 35 e0 49 38 a0 c3 ea 36 35 ea c8 35 5c ee c6 34
       4.8130943e-05 6.996517e-06 1.4969324e-06 3.7053803e-07
0000e0 7e 60 ae 34 68 de b9 36 51 63 71 37 17 6a e8 36
       3.2480233e-07 5.539321e-06 1.4387843e-05 6.9264893e-06
0000f0 d9 df fe 34 bf b9 aa 35 6d 63 6d 36 bf aa f7 35
       4.7474057e-07 1.2720046e-06 3.5373625e-06 1.8452628e-06
000100 08 82 e4 37 37 90 84 38 3e 6e ad 35 85 8b 29 35
       2.7240269e-05 6.3211126e-05 1.2921589e-06 6.3160434e-07
000110 55 23 9f 37 86 e8 96 34 28 97 e1 36 5f 61 dd 35
       1.897073e-05 2.810886e-07 6.7231194e-06 1.6494122e-06
000120 9a d0 87 37 06 db 48 37 93 25 39 37 8b 25 1a 35
       1.6190392e-05 1.1971924e-05 1.1035608e-05 5.74241e-07
000130 f8 e2 cd 37 c9 a8 d1 37 d4 56 58 33 fd 7f fe 35
       2.4543595e-05 2.4993338e-05 5.037039e-08 1.8961724e-06
000140 3f cb 4b 36 75 30 8d 35 4a 31 6d 37 67 ac 90 36
       3.0367662e-06 1.0519421e-06 1.4137777e-05 4.3116047e-06
000150 45 f6 88 36 ee fb 3f 37 e3 d1 ea 36 ea fe b3 37
       4.0817854e-06 1.1443144e-05 6.9981775e-06 2.1457166e-05
000160 34 7c 5a 37 56 36 83 36 1d 4d c3 36 89 fb 2a 35
       1.3022731e-05 3.9104298e-06 5.82043e-06 6.3695967e-07
000170 e4 95 91 37 d0 ca 26 37 60 5b 27 37 89 5c 9e 37
       1.7355145e-05 9.941592e-06 9.975251e-06 1.8878158e-05
000180 cf 6d 22 38 59 cc 5c 35 d9 3f 30 35 42 e8 a5 37
       3.8726077e-05 8.225375e-07 6.565802e-07 1.9777686e-05
000190 13 e7 38 36 fc ab a2 33 0b 43 59 34 ea f6 da 37
       2.755264e-06 7.5749966e-08 2.023409e-07 2.6102603e-05
0001a0 1c a9 9b 36 99 cf d4 34 e1 43 11 36 e8 ed 1b 33
       4.639047e-06 3.9639124e-07 2.1646194e-06 3.6305124e-08
0001b0 55 27 62 35 18 d4 e8 34 ce ee 18 37 cf ae 95 34
       8.4248796e-07 4.3367686e-07 9.115507e-06 2.7880603e-07
0001c0 bd 9e ea 33 07 f9 b3 37 b5 c9 d4 34 b4 6d 95 35
       1.09253484e-07 2.1454425e-05 3.9634838e-07 1.1133293e-06
0001d0 1e 7d 96 35 41 3f 09 34 5b 32 dc 36 3c 7c 23 37
       1.1212285e-06 1.2782131e-07 6.562373e-06 9.744483e-06
0001e0 17 ca 35 37 53 bc 8f 36 b9 34 7b 36 b4 e5 f4 36
       1.0835493e-05 4.283656e-06 3.7432603e-06 7.2985076e-06
0001f0 37 04 ac 36 de 92 c1 34 92 19 54 34 aa 9e 29 37
       5.12649e-06 3.605591e-07 1.9753341e-07 1.0110127e-05
000200 a1 e2 b3 33 eb 56 a4 35 17 97 86 36 96 06 f3 37
       8.3765606e-08 1.2244249e-06 4.0111004e-06 2.8970924e-05
000210 79 a0 c9 36 23 c7 8f 33 df 9d ad 35 ad 91 f7 35
       6.0089483e-06 6.695179e-08 1.2935451e-06 1.8445331e-06
000220 05 5e 43 36 7b 82 c3 36 9f c8 b0 33 5c 77 09 38
       2.911199e-06 5.826643e-06 8.2321314e-08 3.2774507e-05
000230 77 45 a3 34 df dc 9d 36 d9 ae 2c 36 1c 16 1a 36
       3.0411658e-07 4.7046774e-06 2.5731772e-06 2.2960658e-06
000240 f8 56 82 37 0e 4b c6 37 4a 7c 1f 38 10 68 c7 38
       1.5537706e-05 2.363839e-05 3.8024307e-05 9.5084426e-05
000250 aa f7 9b 33 7c 2e e8 35 32 2c 0d 35 e7 de 44 37
       7.2628e-08 1.7298876e-06 5.2590906e-07 1.1734409e-05
000260 2b cf 26 33 95 1a 6f 36 cb a2 12 36 22 6f 2d 37
       3.8838305e-08 3.5629248e-06 2.1850453e-06 1.0337479e-05
000270 03 96 5d 35 05 fb 75 34 29 9b c0 35 2b 0b 83 33
       8.254721e-07 2.2908723e-07 1.4350272e-06 6.102194e-08
000280 24 3e 3d 36 a8 5e 1c 38 02 e0 23 37 e7 fa a8 37
       2.8199365e-06 3.7281454e-05 9.767713e-06 2.0143996e-05
000290 56 4d 4f 38 a2 ce c5 34 86 39 29 36 69 48 a6 36
       4.942467e-05 3.6844455e-07 2.5216445e-06 4.955615e-06
0002a0 de 45 b1 38 10 22 4b 36 37 49 7a 36 ac c1 e6 35
       8.4530315e-05 3.0269184e-06 3.729552e-06 1.7192701e-06
0002b0 c5 f5 f8 36 59 4d 27 37 07 ae b0 33 90 c8 16 37
       7.4195873e-06 9.971985e-06 8.227294e-08 8.987394e-06
0002c0 44 55 12 36 40 e7 4e 35 e6 d8 45 36 16 f3 f8 38
       2.1805326e-06 7.7077493e-07 2.948154e-06 0.0001187084
0002d0 dd 82 10 37 3c c5 42 34 a6 71 78 36 69 f0 e3 36
       8.613538e-06 1.8139411e-07 3.7021032e-06 6.7931146e-06
0002e0 38 4e a7 35 77 98 49 35 4b 06 95 37 3b c3 d2 35
       1.2465234e-06 7.51002e-07 1.7765115e-05 1.5703039e-06
0002f0 fc 46 96 36 46 bb ff 34 26 ad aa 35 c8 6c f7 34
       4.478612e-06 4.763371e-07 1.271638e-06 4.6086484e-07
000300 76 41 34 36 3a 2d 33 37 c1 e2 8e 37 99 f0 70 38
       2.6860193e-06 1.06797615e-05 1.703331e-05 5.7444533e-05
000310 fc 1d af 36 4c a0 8a 36 38 2f 03 36 70 ae ee 37
       5.218897e-06 4.1313815e-06 1.9548006e-06 2.845304e-05
000320 2f e7 bb 35 8e c2 24 37 a6 c2 db 34 8e e2 10 35
       1.3999869e-06 9.82046e-06 4.0933554e-07 5.397386e-07
000330 e5 51 c8 35 37 e5 cb 35 69 d7 31 37 fe 35 a5 36
       1.4924996e-06 1.5191389e-06 1.0600176e-05 4.9236687e-06
000340 38 7b e3 35 c2 7c b2 37 9c 21 fa 35 2f ff 67 35
       1.6948679e-06 2.1277348e-05 1.8636233e-06 8.6425547e-07
000350 a9 f3 d3 36 12 86 8c 35 c5 cc 10 33 92 d6 cd 36
       6.316656e-06 1.0469832e-06 3.371385e-08 6.1344554e-06
000360 0a b6 cc 36 e4 7e 50 37 29 88 bb 36 76 1f 10 34
       6.100866e-06 1.242731e-05 5.5888854e-06 1.342249e-07
000370 6c e7 f6 37 5d 4d 70 36 7b dd 95 36 43 73 0f 35
       2.943325e-05 3.5807818e-06 4.4663298e-06 5.343938e-07
000380 42 41 43 37 5d 11 9c 35 15 4f 1c 36 c5 70 e2 33
       1.16381e-05 1.1627959e-06 2.3291843e-06 1.0544458e-07
000390 18 a8 92 35 75 e1 3a 37 83 b6 38 35 59 32 55 36
       1.0926769e-06 1.1138957e-05 6.881093e-07 3.176878e-06
0003a0 91 90 5e 36 8f 8e b8 37 49 49 6b 33 62 10 8d 37
       3.3164727e-06 2.2000893e-05 5.4781854e-08 1.6816139e-05
0003b0 97 50 44 36 31 b1 d0 35 df 22 1f 36 27 ee f3 35
       2.9253185e-06 1.5548777e-06 2.3713144e-06 1.8174222e-06
0003c0 80 e3 54 37 ac 75 e5 35 88 e7 05 37 21 d3 00 37
       1.2689154e-05 1.7096077e-06 7.981325e-06 7.678552e-06
0003d0 8a e2 18 37 aa 01 b9 35 75 ea 02 37 57 54 14 36
       9.112651e-06 1.3784058e-06 7.803193e-06 2.210281e-06
0003e0 e5 4d e5 35 8e aa f1 36 de a3 40 34 74 17 61 37
       1.70845e-06 7.202215e-06 1.7941008e-07 1.3416506e-05
0003f0 27 2a 9f 36 ed a9 65 34 72 1e f9 36 06 ea de 35
       4.7434764e-06 2.1389106e-07 7.4243226e-06 1.6608399e-06

exp_avg f4 [46, 32]
000000 1d af 88 bc 42 0f b8 bd b3 a5 bb bb 23 ba 3d 3a
       -0.016685063 -0.08987285 -0.00572654 0.00072375144
000010 ef bc 04 bd d7 a3 64 3e 30 28 21 3c 5d 55 27 3d
       -0.032406744 0.22328125 0.009836242 0.040852893
000020 cc 9d 20 3d db 28 2e 3d 5a ba c9 bc 34 06 80 3d
       0.039212987 0.04251943 -0.024624992 0.06251183
000030 90 0a b6 3c 6b 06 ab 3c dc dc e1 3c 39 c1 80 3d
       0.022221833 0.020877084 0.027571134 0.06286854
000040 91 47 00 bd 0a 7f af bb 8c cb c7 bd 63 46 b4 3e
       -0.03131825 -0.0053557204 -0.0975562 0.3520995
000050 6a 89 a8 be c1 50 c9 bd 67 30 7d ba 26 5f 32 be
       -0.3291734 -0.09829856 -0.00096583966 -0.17419109
000060 93 cf 9c 3a c4 21 d2 bd 65 54 06 bd 72 d9 b0 bc
       0.0011963717 -0.102603465 -0.03279533 -0.021588061
000070 e0 b3 98 3d 22 14 01 3d 03 c1 95 bc 1a b5 13 be
       0.074561834 0.03151334 -0.018280512 -0.14424554
000080 32 85 5f 3e e3 de 85 be ed f0 a1 3e cf cc f7 3c
       0.21828154 -0.26146612 0.31629124 0.030249028
000090 10 bc ce bc d2 60 0b bd d3 63 a2 be 8d bc a4 3e
       -0.02523616 -0.034027882 -0.31716785 0.32175103
0000a0 20 e8 84 bc 12 49 6d bb 03 fb a4 3c 1b 19 96 bc
       -0.016223967 -0.0036206883 0.020139223 -0.018322518
0000b0 ae 9e a4 3c 94 a5 be bc 4f f2 86 39 3d da a3 bc
       0.020095196 -0.023272313 0.00025739006 -0.020001525
0000c0 c1 3f aa bd 64 d6 e2 3c f0 a5 11 3f 53 d2 c4 bd
       -0.08312941 0.02769012 0.56893826 -0.09610429
0000d0 4f 91 1c 3d 13 00 29 3e 50 73 ea bc a4 fc 47 bd
       0.038224515 0.16503935 -0.028619438 -0.04882492
0000e0 ed 1e ba 3c f2 b7 75 bc ca 50 20 3c 67 98 4d bd
       0.022719825 -0.014997469 0.009784887 -0.05019417
0000f0 db c9 83 3c 6b c0 33 3d f6 a9 fc 3e b2 f1 21 3e
       0.016087463 0.043884676 0.4934842 0.15814856
000100 07 a2 31 3c 6f 26 d2 3c 8b 8c 21 bc 07 b1 1d be
       0.010841853 0.025653092 -0.009860168 -0.15399562
000110 78 5d 31 bc 87 a8 84 3c 1c 46 13 3d 22 67 46 bb
       -0.010825507 0.016193641 0.035955533 -0.0030273874
000120 b3 f3 92 3b 6c 07 07 bd 74 7e 62 3c e0 43 4e bc
       0.0044846176 -0.032966062 0.013824094 -0.012589425
000130 08 83 96 3d ac 47 4b 3e f3 34 0c bd 8d 37 26 3c
       0.07349211 0.1985156 -0.034230184 0.01014508
000140 17 c1 76 3c 5e d1 6f 3d 69 4a b6 3b 14 5d 9b bb
       0.015060685 0.058549277 0.0055630696 -0.0047413204
000150 d7 f4 f5 ba d4 a1 64 3c d0 53 66 3d 77 e2 bc bd
       -0.0018764985 0.013954598 0.056232274 -0.09222882
000160 59 bb 28 3c 2f 97 39 3d b1 2f 09 3c ac 23 ab 3e
       0.010298573 0.045310196 0.008373187 0.33425653
000170 f5 c8 b2 bd 18 7f f3 3b c5 c6 0d 3d 32 2f e9 bb
       -0.08729736 0.0074309222 0.03461339 -0.007116222
000180 e0 56 f5 3c 4e b8 01 bf aa 65 2e be 8c 26 30 bd
       0.029948652 -0.5067185 -0.1703097 -0.04300551
000190 13 8d 27 3f f2 84 f3 bc 26 88 8c 3d 9e aa 51 3e
       0.6544964 -0.02972648 0.06861906 0.20475242
0001a0 9d dc ac bc 18 66 37 3f c0 4c 20 be 14 ba 20 bf
       -0.02110129 0.7164016 -0.15654278 -0.6278393
0001b0 24 b7 dc bd 99 e6 0e bf 2a 95 34 be 65 9d 05 bd
       -0.10777119 -0.55820614 -0.17635027 -0.032620806
0001c0 0f 29 79 3c 07 5f 80 3e 7c e5 48 3e db c2 02 bf
       0.015207543 0.250725 0.19618791 -0.51078576
0001d0 a7 42 96 be c3 0e 8d bb 16 63 8e be 8e 3d 8f be
       -0.29347727 -0.0043047382 -0.27809972 -0.2797665
0001e0 f5 43 ce 3c 3c 86 b2 bd bf b7 09 3d 43 fc 82 be
       0.025178889 -0.087170094 0.0336225 -0.25583085
0001f0 64 78 18 3e e8 52 a4 bd f1 d5 59 be 97 b7 6c 3d
       0.14889675 -0.080236256 -0.21273018 0.057792272
000200 33 7e ac bc 40 a9 0d 3c f2 e2 5c 3d 49 a5 0f bd
       -0.02105627 0.008646309 0.05392737 -0.035069738
000210 7c e2 cb bc a6 22 02 3e 2a a2 87 3d 90 7d 0e 3e
       -0.02488827 0.1270853 0.06622727 0.13915086
000220 f3 4a 8d bb 41 d9 fd 3c 1c 02 41 3e b8 e8 13 3f
       -0.004311913 0.030987384 0.18848461 0.57776976
000230 e7 a0 21 3e b8 7e 82 3e 23 88 00 bd 52 ea 28 3c
       0.15784036 0.25487304 -0.03137983 0.010309773
000240 8d d7 ec bd f1 8b 4e bc 9e e1 d7 bd e1 c4 89 3c
       -0.115645505 -0.012606607 -0.1054108 0.016817512
000250 86 d1 38 bd fe b3 c4 bb b9 98 38 3e ea 23 0f 3b
       -0.045121692 -0.006002902 0.18027009 0.0021841475
000260 f3 47 d0 be 4c 61 e7 3d 87 80 73 bd 65 1e 7f bc
       -0.40679893 0.11297855 -0.059448745 -0.015571211
000270 b6 ad 0c bd c8 09 10 be b6 db 0a bd ed 9b 9e bd
       -0.03434535 -0.14066231 -0.03390094 -0.07744584
000280 9e 90 46 3b 75 a9 d4 3d 40 03 10 bc 27 ae a3 bd
       0.00302986 0.10383884 -0.008789837 -0.07992201
000290 04 b5 d4 bd 50 a5 fe 3d 15 be 2e bc e7 b1 99 bc
       -0.103860885 0.124338746 -0.010665436 -0.018761588
0002a0 80 33 28 bd a5 d1 f0 be f8 04 37 be 06 69 11 3f
       -0.04106474 -0.47034946 -0.17872989 0.5680088
0002b0 33 48 09 bc 5c 60 56 bd 1d b8 a0 bc f3 3a 25 3e
       -0.00837903 -0.05233799 -0.019619042 0.16135769
0002c0 fb fd d0 be 98 54 97 3d c8 12 5f be bd f6 c8 3c
       -0.40818772 0.07389182 -0.21784508 0.024531716
0002d0 69 39 2e 3d aa ca 7a 3e 43 d7 b8 3e da 90 03 bb
       0.04253522 0.24491373 0.36101732 -0.0020075352
0002e0 6c 8c 00 bd af d2 80 3d 3f bc 46 3b 69 77 e4 3e
       -0.031383917 0.06290185 0.0030324606 0.44622353
0002f0 aa 73 7f 3c 20 5a 2f be 21 30 2e 3d a2 ca 6e 3d
       0.015591541 -0.17124224 0.042526368 0.058298714
000300 24 e6 48 3e 51 c5 4d be aa aa 11 3e ba 4b bc bc
       0.19619042 -0.20094801 0.1422526 -0.022985328
000310 8a 99 08 3c 3f 95 31 bd 1f a0 06 be 47 d5 18 bd
       0.008337388 -0.043355223 -0.13147019 -0.037312772
000320 13 ad 80 bc 2d 15 6b bc 2f 88 76 3b 7c 47 bf 3d
       -0.015707528 -0.01434831 0.0037617793 0.093398064
000330 70 0a 48 be 0f 82 17 3d 87 b8 0f bf 5a 2b da bd
       -0.19535232 0.036989268 -0.5614094 -0.106528
000340 7b 08 c3 3c 87 2d f3 bc 89 32 ed bc 44 52 b1 bc
       0.023807755 -0.029684795 -0.028954761 -0.021645673
000350 79 fe f9 3c 6b d0 06 be 32 42 98 3d dd 7d ec bc
       0.03051685 -0.13165443 0.07434501 -0.02886861
000360 94 e5 47 bd f1 69 2e 3d 7b f4 22 bc f4 b2 f0 bc
       -0.048802927 0.042581502 -0.009945984 -0.029382206
000370 4b 51 8e 3d 7c d1 f2 bc 95 eb a1 3c e3 d9 f2 be
       0.06949099 -0.029640906 0.019765655 -0.4743186
000380 f5 b5 47 3d 4a 8d 91 be 6d f4 01 bd 50 75 b6 3c
       0.048757512 -0.28428108 -0.031727243 0.022272736
000390 36 82 84 3e 2a ad 38 be 4c ef 11 3e ac ba ce bd
       0.25880593 -0.18034807 0.14251441 -0.100941986
0003a0 8b ca a0 bc 20 e1 45 bd c0 b2 2f ba d4 96 46 3c
       -0.01962783 -0.0483104 -0.0006702356 0.012120921
0003b0 3c 7c a6 bc d5 36 2d bd 76 0e 7b 3c 84 c9 2a 3e
       -0.020322911 -0.04228862 0.015323272 0.16678435
0003c0 b1 f3 33 3d ba 62 4b 3d ec af 03 3f b4 3d 6c be
       0.043933574 0.0496547 0.5144031 -0.23070413
0003d0 3b 53 fc 3c 2b 0e 01 3d 11 92 2e bc fc fe 1e 3d
       0.030801406 0.031507652 -0.010654942 0.03881739
0003e0 aa 00 5f bc e4 b1 16 bd df 31 fb 3c 0d 23 88 3c
       -0.013610998 -0.036790743 0.030663429 0.016618276
0003f0 ff 7c 61 bb 20 2a b3 3c a1 60 93 bc 6d 40 47 bd
       -0.003440678 0.021870673 -0.017990412 -0.048645426

exp_avg_sq f4 [46, 32]
000000 fb a4 43 37 ee 3e 84 38 0f 9b da 38 19 26 62 38
       1.1661318e-05 6.305972e-05 0.00010423932 5.391808e-05
000010 61 00 d5 36 97 99 78 35 c7 35 e3 34 e3 e2 1c 38
       6.347939e-06 9.26107e-07 4.2321173e-07 3.7404603e-05
000020 0e fe 78 36 b3 b2 2d 38 51 51 7c 34 59 aa d8 36
       3.710276e-06 4.141284e-05 2.3498912e-07 6.4571327e-06
000030 9e 01 b7 33 4b 18 82 35 b1 e3 b5 36 25 19 8c 36
       8.521896e-08 9.692825e-07 5.420727e-06 4.1752523e-06
000040 c0 b0 d3 34 f1 61 5a 38 95 35 0f 36 f4 33 d6 33
       3.9430415e-07 5.2066465e-05 2.133985e-06 9.974602e-08
000050 9c 30 7b 33 5d f0 f9 36 7a a9 0c 35 02 0e 86 35
       5.84847e-08 7.4487602e-06 5.2400685e-07 9.987855e-07
000060 b4 e5 8c 38 f4 0d 9c 36 43 c4 b8 38 28 cc a8 37
       6.718506e-05 4.6507867e-06 8.81036e-05 2.0122228e-05
000070 8f 72 9b 36 48 7c 22 37 f6 0e 4b 37 08 84 fd 35
       4.6326963e-06 9.684889e-06 1.2103226e-05 1.8888395e-06
000080 88 f7 cc 34 c7 a1 7f 36 44 83 22 33 26 6d b1 35
       3.8178064e-07 3.8092128e-06 3.783795e-08 1.3219294e-06
000090 8d 82 03 33 ca 19 a0 36 10 2f aa 34 72 e1 b2 33
       3.061955e-08 4.771374e-06 3.169921e-07 8.329779e-08
0000a0 cb 59 be 36 0b 1b f3 37 fe 2a 86 36 8c c9 a3 36
       5.6728945e-06 2.898045e-05 3.998516e-06 4.8812417e-06
0000b0 65 c6 b9 35 bb f2 e5 34 e7 35 70 36 a4 3b 14 38
       1.3841315e-06 4.2831184e-07 3.5794162e-06 3.5341494e-05
0000c0 54 53 0e 36 64 70 c0 36 77 e2 45 33 d3 7e 94 34
       2.1208152e-06 5.73513e-06 4.6073605e-08 2.7659425e-07
0000d0 ec 19 fe 35 a4 ee 33 35 11 dd df 34 b2 2a 7e 35
       1.8932019e-06 6.7029964e-07 4.1697834e-07 9.4684503e-07
0000e0 f0 eb 97 37 92 1e 75 36 c4 36 15 37 8c a9 3e 34
       1.811047e-05 3.652564e-06 8.893843e-06 1.775681e-07
0000f0 f3 66 13 37 ad b3 e0 37 ae d5 a2 33 94 36 6b 36
       8.7858525e-06 2.6786549e-05 7.582581e-08 3.5049497e-06
000100 82 1a a6 38 1b 6a 2c 3a 5a 97 0a 38 58 07 fc 34
       7.920434e-05 0.000657709 3.304272e-05 4.6944e-07
000110 67 1e 6d 37 cb a2 30 36 40 22 56 39 ff 9e f3 37
       1.4133379e-05 2.6320802e-06 0.0002042139 2.9041896e-05
000120 12 84 85 39 37 a5 c8 38 02 c3 cb 39 fc 20 93 37
       0.00025466137 9.567517e-05 0.0003886447 1.7539125e-05
000130 25 6f 81 37 bd 23 c9 37 01 49 3c 38 d8 b4 19 38
       1.5429754e-05 2.397771e-05 4.4890683e-05 3.6646466e-05
000140 25 2d c7 38 e1 fb 95 38 f9 f9 9a 37 9c d3 de 38
       9.497468e-05 7.15179e-05 1.8474633e-05 0.000106252
000150 a7 3e cc 38 9d aa 34 39 38 51 77 36 0f f9 07 36
       9.739148e-05 0.00017229696 3.6853144e-06 2.0261539e-06
000160 90 3a 1d 39 e6 db 73 38 46 8b 8e 38 bd 72 7f 35
       0.00014994503 5.814051e-05 6.797029e-05 9.516187e-07
000170 e3 31 57 33 a7 80 f6 37 22 90 b7 37 db 30 0a 39
       5.010396e-08 2.9385394e-05 2.1882417e-05 0.00013178906
000180 eb bc dc 36 a9 9c b3 36 00 7a 84 35 f5 12 95 35
       6.578504e-06 5.3528533e-06 9.870273e-07 1.1106882e-06
000190 0b d8 62 33 75 bb 4a 35 1d 21 d7 35 9e f2 2c 36
       5.2816215e-08 7.552365e-07 1.6028386e-06 2.577122e-06
0001a0 1d ba cb 36 a3 f2 32 34 8f 13 27 36 59 3e 1c 33
       6.071538e-06 1.6665813e-07 2.4896324e-06 3.6378285e-08
0001b0 8b 22 49 33 ca bb 3a 34 d7 84 1e 35 d4 80 85 36
       4.6830376e-08 1.7390917e-07 5.9052894e-07 3.9787064e-06
0001c0 f5 9b 72 34 e5 6a 9a 34 62 13 33 36 9f e6 5e 35
       2.2594743e-07 2.876251e-07 2.668436e-06 8.303704e-07
0001d0 d2 fd bc 34 4b 90 f8 36 88 cd 86 34 c2 03 bf 34
       3.5202407e-07 7.407774e-06 2.510899e-07 3.5579257e-07
0001e0 3c 9e 07 36 08 eb 77 36 d3 7e ce 35 a9 fe f1 34
       2.0208672e-06 3.6942674e-06 1.5385107e-06 4.5075038e-07
0001f0 34 6a 38 35 99 d7 dd 35 99 72 f0 34 ae 2e 17 36
       6.869989e-07 1.652853e-06 4.4786864e-07 2.2527925e-06
000200 8a 60 74 38 de d7 5a 3a 9e 83 10 39 e1 a8 83 38
       5.8264042e-05 0.0008348207 0.00013781941 6.278023e-05
000210 58 41 65 39 d9 08 5a 38 67 f5 9d 38 6e 06 66 37
       0.00021863484 5.198349e-05 7.532053e-05 1.3710565e-05
000220 c9 16 36 3a a2 d8 02 38 eb a2 53 38 5f bf 53 37
       0.0006946144 3.119617e-05 5.045805e-05 1.2621137e-05
000230 5f 4b 50 37 7c e9 bb 37 cc 8a b4 39 c4 d4 82 37
       1.2415315e-05 2.2400862e-05 0.00034435687 1.5596284e-05
000240 28 fe 08 38 11 48 0a 39 b6 17 8a 37 4a 49 10 3b
       3.266163e-05 0.00013187552 1.6461923e-05 0.002201634
000250 ec 19 45 38 a7 ea 85 39 70 e6 ed 36 82 38 54 39
       4.69926e-05 0.00025542566 7.089977e-06 0.00020238946
000260 be 3e 0d 35 4d e3 bb 36 e3 e1 5a 39 94 4f 9e 38
       5.2617895e-07 5.5994956e-06 0.0002087425 7.54885e-05
000270 d2 9e 43 39 06 65 66 38 74 04 7f 39 ee 20 42 38
       0.00018655814 5.493036e-05 0.00024320354 4.6283873e-05
000280 ab 8a 18 36 20 f6 20 38 4a 63 b3 39 fa cc 93 37
       2.273048e-06 3.8376194e-05 0.00034215517 1.7619215e-05
000290 7f 5a 80 37 70 ff b5 38 83 91 97 38 14 6b a5 38
       1.530093e-05 8.6783315e-05 7.227345e-05 7.887758e-05
0002a0 79 34 36 38 6b 7a ff 36 3e 98 16 36 4e 0d a2 35
       4.344105e-05 7.6138435e-06 2.2440358e-06 1.2073813e-06
0002b0 9e 8b 15 3a 83 a3 41 38 93 40 7e 39 a2 67 22 38
       0.00057047035 4.6167068e-05 0.00024247383 3.8720325e-05
0002c0 7a a5 93 36 b1 a9 f7 37 9f 87 5a 34 d9 da 0f 38
       4.4002054e-06 2.9523713e-05 2.0352171e-07 3.4297675e-05
0002d0 27 d7 21 39 13 4f 6f 37 54 c3 a4 35 1e 4b 8a 38
       0.00015434307 1.4263921e-05 1.22758e-06 6.5943444e-05
0002e0 7b 1f 1e 39 00 f4 12 35 a0 f6 66 39 38 48 32 36
       0.00015079782 5.4744305e-07 0.00022026384 2.6566104e-06
0002f0 e3 b5 b2 37 07 c7 c9 35 12 25 19 39 80 5d 9c 38
       2.1303951e-05 1.5033592e-06 0.00014605027 7.4560754e-05
000300 93 08 63 34 c3 2b d2 35 0e 16 78 35 8a 98 a9 37
       2.1144142e-07 1.5658956e-06 9.2419293e-07 2.0217401e-05
000310 c7 51 b6 37 f7 bc af 36 db 1e 7d 35 84 6a d9 36
       2.1734171e-05 5.237405e-06 9.4294745e-07 6.479504e-06
000320 dc 03 76 38 60 8b f2 37 99 36 51 38 98 a4 f9 35
       5.8654565e-05 2.891355e-05 4.988033e-05 1.8599849e-06
000330 ae 5a 7c 35 c3 75 1b 38 47 aa 19 34 68 87 c6 35
       9.400927e-07 3.7064554e-05 1.4311182e-07 1.4791558e-06
000340 d9 ef e9 38 9f ad 5a 37 98 25 8a 37 0e 2e da 34
       0.00011154981 1.3034237e-05 1.6468388e-05 4.0639173e-07
000350 c0 96 73 37 4b 08 f3 37 97 5d 6c 37 c0 f9 d5 37
       1.4519028e-05 2.8971719e-05 1.4088487e-05 2.5507878e-05
000360 f5 bb 25 37 9d 87 98 36 22 2c e3 38 c4 25 4a 39
       9.8785285e-06 4.5457405e-06 0.00010832424 0.0001927829
000370 72 fc 16 37 6f b6 0c 37 a8 25 4d 37 0b 20 92 34
       8.999474e-06 8.387126e-06 1.222772e-05 2.7217934e-07
000380 9b 00 2d 36 4e 35 d3 35 7f 6e 91 36 81 fc 3c 38
       2.5779361e-06 1.5736239e-06 4.3342e-06 4.5057855e-05
000390 53 6f 4a 35 31 8b 82 35 f7 ca 8a 34 4f 8d b4 33
       7.541286e-07 9.726265e-07 2.585218e-07 8.407607e-08
0003a0 15 3a a8 36 6c 12 cb 37 62 db ca 36 da 6b 1b 37
       5.013552e-06 2.4208064e-05 6.0456086e-06 9.263831e-06
0003b0 f8 a8 54 37 c9 32 1b 35 e9 58 8a 38 55 09 ea 35
       1.2675526e-05 5.78159e-07 6.5969136e-05 1.7437075e-06
0003c0 f5 43 14 37 23 ee 36 38 74 08 4d 34 62 1b b7 34
       8.83731e-06 4.3613963e-05 1.9095188e-07 3.410633e-07
0003d0 13 4a d4 37 69 93 2a 37 87 1a 52 37 bb a4 1b 38
       2.5306863e-05 1.0167111e-05 1.2523152e-05 3.7108297e-05
0003e0 4f e5 6b 36 f8 47 b5 36 66 0f d9 37 ff fe 6e 37
       3.5151204e-06 5.4025986e-06 2.5875586e-05 1.4245276e-05
0003f0 04 64 f7 36 55 bd f3 38 ad 57 56 35 58 5e 08 37
       7.372817e-06 0.00011622409 7.98488e-07 8.128198e-06
