bbox_poisoning/lightning_logs/version_4500/checkpoints/epoch=99-step=600.ckpt (torch, 76079 bytes, 6 tensors)

entity_embeddings.weight f4 [135, 32]
1.0865201 1.1637067 -1.5688583 0.14565624 0.29016587 1.3330976 -0.25219193 -0.3831213
-0.45842487 -1.538118 0.9554484 0.013513933 -0.27256265 0.24117 -0.39360508 -0.37504318
0.080590464 -2.7088323 -5.775122 3.867946 -5.286987 4.2841744 -3.421813 5.9635625
-1.1096959 -2.0778224 -5.7833996 -4.185924 -0.6136132 2.1579323 -3.752205 -0.69668555
-0.4319841 -0.3310115 -1.885206 -0.65207005 0.55037516 -0.2729813 -1.0195345 -1.153533
-0.48196828 0.47071326 0.92483026 1.41949 0.52250886 0.7266167 1.8245168 -1.2611493
-4.2972403 1.269164 -5.407225 -6.0999675 -7.9280386 7.489467 7.8041835 -5.210841
2.8853931 -7.329388 1.2591467 -1.2743593 -1.1175733 5.0802565 1.4175137 2.5721557
-0.19333677 0.22236493 -0.69994575 -0.9176581 0.81705403 0.07951617 0.38500196 0.60080874
-1.134036 0.11084843 -0.4083235 -0.78884417 0.1437448 -0.666445 -0.8890541 -0.8390424
-3.5222433 -4.8662686 -0.06666605 2.692133 -3.393633 1.7832854 0.6451012 2.7637112
1.7303131 1.3937391 0.26721656 0.23407301 4.022612 4.443416 3.148193 -2.4075952
-0.38400328 0.20053795 -0.88403267 -0.99356866 0.7753994 -0.17198654 0.706062 0.8327511
-1.0593001 0.64981014 -0.4331704 -0.80593777 -0.17408429 -0.34873563 -0.8231868 -0.941148
-2.9270518 -4.166083 -0.17075402 2.4560168 -3.1031694 2.8512316 1.2876593 3.16436
1.1463057 1.3533082 0.5875186 -0.06258488 4.5785522 2.681711 4.250639 -1.3034759
-0.90834385 -0.6212865 -1.4216268 -0.19151293 0.75852394 -0.9770137 -0.29436857 -1.1629925
-0.7111413 0.54507697 0.14427194 1.0769304 0.15025891 -0.26646116 0.8562982 -0.7388332
-6.687005 4.4674892 -6.5640354 -3.6966345 -8.596024 3.030602 4.8236666 -7.300351
3.1700172 -6.735837 -8.717744 -1.4725813 1.4310601 3.0887516 1.7796031 3.4962792
-1.1061599 -0.85054904 -1.320127 -1.1374862 0.5029594 0.065007366 0.08592968 0.02183756
-0.09397359 -0.739466 0.095203176 1.106524 -0.42823187 0.059701473 -0.13689423 0.9575107
4.2527533 1.1017201 -3.1306868 1.5179504 -5.6891785 -4.285875 0.37945515 -1.7861391
-0.647211 -3.82181 0.70566225 -2.302681 2.8380048 1.393441 -1.3867311 -2.6540778
-0.5479068 -0.58080673 -1.1720961 -1.2357898 0.6894852 0.03930611 0.33686087 0.911066
-0.3565739 0.9059552 -0.4890581 -0.41476825 -0.40727073 -0.30903247 0.2630076 -1.5387499
-3.784675 -4.083947 0.48446766 2.9949405 -3.0408578 1.6233194 1.8879384 2.6598737
3.8553238 2.8898423 2.5815704 0.43451524 0.14508455 5.1191516 2.4675596 1.4680489
0.8863841 -0.9801458 -1.5669843 0.45058498 -1.0311601 0.3615331 1.4997727 0.26693907
0.5115069 -0.056887213 -0.72633183 0.004586795 -0.48573098 -0.8934763 -0.77229303 -0.39539245
2.5734699 -0.098383054 -4.141399 2.400183 -9.26581 -1.3484274 1.8366351 0.73535067
1.3682122 -4.9626265 -4.434506 -1.8987757 0.2856915 5.1633396 -6.8577285 6.4643316
00000000: 1713 8b3f 57f4 943f 59d0 c8bf e926 153e
00000010: 9f90 943e f1a2 aa3f 4d1f 81be 7a28 c4be
00000020: aab6 eabe 0de1 c4bf 4498 743f 8b69 5d3c
00000030: 558d 8bbe 45f5 763e 9b86 c9be a905 c0be
00000040: 9d0c a53d 825d 2dc0 cdcd b8c0 6d8c 7740
00000050: ff2e a9c0 f517 8940 fcfe 5ac0 81d5 be40
00000060: 840a 8ebf 0bfb 04c0 9c11 b9c0 17f3 85c0
00000070: c115 1dbf 901b 0a40 2024 70c0 fc59 32bf
00000080: 052d ddbe 577a a9be 6e4e f1bf 10ee 26bf
00000090: 63e5 0c3f 34c4 8bbe 1b80 82bf f8a6 93bf
000000a0: 8cc4 f6be 5401 f13e adc1 6c3f d9b1 b53f
000000b0: 24c3 053f 8d03 3a3f c489 e93f 576d a1bf
000000c0: fe82 89c0 f773 a23f fd07 adc0 ef32 c3c0
000000d0: 7eb2 fdc0 b7a9 ef40 dfbb f940 36bf a6c0
000000e0: 48aa 3840 598a eac0 b82b a13f 351e a3bf
000000f0: a40c 8fbf 7691 a240 1771 b53f 339e 2440
00000100: 13fa 45be a2b3 633e a52f 33bf a4eb 6abf
00000110: 742a 513f 60d9 a23d fa1e c53e 9ace 193f
00000120: 1728 91bf 8004 e33d c70f d1be b1f1 49bf
00000130: d631 133e 249c 2abf 0d99 63bf 7ccb 56bf
00000140: 6f6c 61c0 79b8 9bc0 3688 88bd e84b 2c40
00000150: 4831 59c0 b242 e43f 5a25 253f a5e0 3040
00000160: e67a dd3f 0b66 b23f 9cd0 883e d6b0 6f3e
00000170: 3db9 8040 7730 8e40 fe7b 4940 0a16 1ac0
00000180: 149c c4be d259 4d3e f74f 62bf 845a 7ebf
00000190: 9380 463f 3d1d 30be 7bc0 343f 2d2f 553f
000001a0: 2597 87bf f559 263f 83c8 ddbe f051 4ebf
000001b0: 2743 32be 7a8d b2be 5fbc 52bf 13ef 70bf
000001c0: d154 3bc0 8d50 85c0 24da 2ebe 612f 1d40
000001d0: 549a 46c0 947a 3640 05d2 a43f e084 4a40
000001e0: 25ba 923f 3439 ad3f 9e67 163f 802c 80bd
000001f0: 8083 9240 27a1 2b40 3c05 8840 4cd8 a6bf
00000200: 3989 68bf a20c 1fbf def7 b5bf f71b 44be
00000210: a02e 423f 921d 7abf 7ab7 96be f0dc 94bf
00000220: 5b0d 36bf 2a8a 0b3f 06bc 133e dbd8 893f
00000230: 79dd 193e 996d 88be 5c36 5b3f 2c24 3dbf
00000240: f2fb d5c0 acf5 8e40 940c d2c0 a995 6cc0
00000250: 5089 09c1 62f5 4140 7a5b 9a40 7a9c e9c0
00000260: 90e1 4a40 fa8b d7c0 e17b 0bc1 8b7d bcbf
00000270: fa2c b73f 1bae 4540 09ca e33f 0ac3 5f40
00000280: a696 8dbf 95bd 59bf ecf9 a8bf 2699 91bf
00000290: f2c1 003f 9522 853d e6fb af3d afe4 b23c
000002a0: 3a75 c0bd a54d 3dbf e2f9 c23d 94a2 8d3f
000002b0: 3541 dbbe 8889 743d 002e 0cbe 6c1f 753f
000002c0: 8e16 8840 2a05 8d3f 2c5d 48c0 334c c23f
000002d0: c00d b6c0 e325 89c0 f247 c23e 35a0 e4bf
000002e0: 9faf 25bf 8998 74c0 48a6 343f 205f 13c0
000002f0: dfa1 3540 465c b23f 6880 b1bf 69dc 29c0
00000300: 9f43 0cbf c0af 14bf 3f07 96bf 5c2e 9ebf
00000310: 1a82 303f 72ff 203d 0779 ac3e 9f3b 693f
00000320: db90 b6be aeec 673f d365 fabe 815c d4be
00000330: ca85 d0be 8139 9ebe efa8 863e c2f5 c4bf
00000340: 1d38 72c0 b2af 82c0 250c f83e 1bad 3f40
00000350: 6a9d 42c0 eec8 cf3f f7a7 f13f 5f3b 2a40
00000360: a0bd 7640 2df3 3840 7338 2540 c878 de3e
00000370: 0b91 143e 17d0 a340 7fec 1d40 07e9 bb3f
00000380: 12ea 623f d6ea 7abf f192 c8bf 13b3 e63e
00000390: 0efd 83bf de1a b93e 8df8 bf3f 3dac 883e
000003a0: 1ef2 023f 9102 69bd e2f0 39bf d34c 963b
000003b0: bbb1 f8be ddba 64bf ffb4 45bf e170 cabe
000003c0: bbb3 2440 0e7d c9bd 5786 84c0 999c 1940
000003d0: c240 14c1 4599 acbf dc16 eb3f f13f 3c3f
000003e0: 9421 af3f d6cd 9ec0 79e7 8dc0 150b f3bf
000003f0: 2846 923e 143a a540 8372 dbc0 cedb ce40

relation_embeddings.weight f4 [46, 32]
-1.7741818 -0.04056317 -1.5920954 -1.524138 3.1850166 -0.79006654 0.81687564 -2.6145806
2.2530544 -0.45865443 -0.30214152 -2.0592005 -0.37868983 0.15808238 2.8631985 -0.31132758
-2.570784 5.045645 1.9859687 -7.1233916 5.521008 0.99532545 -5.032087 4.500797
3.0830493 4.0655866 -7.0877137 2.266648 3.7900476 -8.134018 -3.0388808 -0.8141886
-0.4718619 0.4320645 -0.8961003 -1.2620481 1.2386186 0.264933 -0.96827656 -0.51822144
0.9903217 0.7781472 0.30437934 -0.02180149 -0.22303575 -0.47712794 -0.53749424 0.26791692
-1.7807578 4.329852 2.7148516 -0.34554452 -0.5925541 2.8296065 4.878368 8.827852
5.150484 -4.5588665 -1.6058406 -3.6073334 0.8065929 -4.759174 -2.501845 1.6221819
-0.6296382 0.12296867 -1.1756728 -1.1238332 0.9271404 -0.006949427 -0.14527348 0.3596985
0.3264365 0.22654058 -0.39961573 1.4426994 -0.019073779 0.21234691 1.7444086 0.32089472
1.7372566 4.568735 5.914337 -1.3750163 -2.535002 -0.545883 -0.41540012 -4.135704
-0.6577548 3.8845863 3.5598686 -5.618901 4.07541 -0.77347404 2.5659757 2.8264742
0.2477703 0.32767412 -1.5710024 -0.2807964 1.1637313 -0.24344586 -0.057610136 -0.88759524
0.107634604 -0.12729822 -0.42199275 1.3151532 -0.045059677 0.12272243 0.14242145 0.9890684
0.48371938 -4.3210125 3.764721 0.51204467 -0.44068816 6.4854064 1.5220395 -4.9552536
5.1293197 -1.7906119 3.268456 10.065572 -0.43366802 1.4610718 -4.3639393 -2.3499382
0.1025618 -0.08884758 -0.39347306 -1.3560426 1.3853618 -0.44730133 0.48725605 0.2128223
0.18294966 -0.2106093 -0.63567644 0.7934128 -0.73938864 -0.3220205 -0.009870476 0.61684376
-2.81756 -1.4189265 3.43967 0.15661661 0.9459475 2.4424403 -3.7008188 -1.1616341
1.5736886 1.8181062 5.1285357 -0.23544426 0.6865128 4.1541967 -2.3526108 -2.6112916
0.0192175 -0.0018485552 -1.1081606 -0.4421079 1.4001763 0.36639667 -0.50120926 -0.07308018
0.84580046 -0.37250626 -0.74566007 0.70324475 0.052027617 1.2497367 -0.26189283 -0.70822245
2.1670816 -0.2912385 2.8180661 -0.058194663 2.2452142 -3.6939414 -1.0147209 4.0539494
-6.465183 6.450175 4.743305 2.4059212 -1.3704704 4.795163 -1.6215717 -0.87988096
0.036255285 0.45082128 -0.91450274 -2.6883564 0.10407403 -0.29328507 -0.03547029 0.02720444
-0.35207966 -0.090901375 0.7654031 -0.2943701 -0.17541602 -0.013898171 0.81823415 0.08957488
-1.1356121 4.002628 3.1771338 -14.668421 -0.99681765 1.5619222 0.25996858 -3.8984282
3.2127893 -0.07809857 2.2690904 -3.1308777 1.3885092 -2.777247 0.154943 -0.96986943
0.082227826 -0.037231904 -1.5477257 -0.4011997 1.255831 0.03543337 -0.32569632 0.18496622
-0.8725464 0.17140083 0.28206414 -1.021148 -1.1522804 0.11958662 0.043036036 -0.8553618
1.3611708 -1.6352508 4.590795 -0.70647126 -3.6157572 1.0111434 5.097329 -2.369518
4.81165 2.7598658 -2.9364088 -0.7447248 1.584737 -3.2475092 0.09809945 6.1502376
00000000: 6418 e3bf 9125 26bd c8c9 cbbf f416 c3bf
00000010: 50d7 4b40 cd41 4abf c31e 513f 4a55 27c0
00000020: 0b32 1040 c1d4 eabe 4bb2 9abe f1c9 03c0
00000030: a2e3 c1be 59e0 213e a53e 3740 5466 9fbe
00000040: ba87 24c0 ed75 a140 3934 fe3f d3f2 e3c0
00000050: 19ac b040 a6cd 7e3f db06 a1c0 8706 9040
00000060: ae50 4540 4919 8240 8dce e2c0 c310 1140
00000070: 2490 7240 f024 02c1 067d 42c0 aa6e 50bf
00000080: e297 f1be 8f37 dd3e d466 65bf cb8a a1bf
00000090: 0e8b 9e3f 4ca5 873e f9e0 77bf 29aa 04bf
000000a0: b985 7d3f a834 473f 9cd7 9b3e 0a99 b2bc
000000b0: 7c63 64be 1d4a f4be 3999 09bf 682c 893e
000000c0: dfef e3bf 268e 8a40 21c0 2d40 36eb b0be
000000d0: a0b1 17bf 4618 3540 971b 9c40 e23e 0d41
000000e0: c4d0 a440 3ce2 91c0 2f8c cdbf 8dde 66c0
000000f0: df7c 4e3f 274b 98c0 3a1e 20c0 a8a3 cf3f
00000100: f82f 21bf 00d7 fb3d 727c 96bf c4d9 8fbf
00000110: 1359 6d3f 05b8 e3bb 92c2 14be 672a b83e
00000120: af22 a73e 41fa 673e 6f9a ccbe 60aa b83f
00000130: 9d40 9cbc 7871 593e c848 df3f 504c a43e
00000140: 6d5e de3f 1433 9240 4042 bd40 8900 b0bf
00000150: 793d 22c0 fdbe 0bbf 53af d4be b057 84c0
00000160: 9e62 28bf 109d 7840 e3d4 6340 09ce b3c0
00000170: c269 8240 6502 46bf f238 2440 f4e4 3440
00000180: 7fb7 7d3e e7c4 a73e 9b16 c9bf 8cc4 8fbe
00000190: 26f5 943f df49 79be 9bf8 6bbd 7139 63bf
000001a0: 886f dc3d 775a 02be 6f0f d8be f156 a83f
000001b0: 7f90 38bd e655 fb3d eed6 113e 9633 7d3f
000001c0: 11aa f73e bc45 8ac0 30f1 7040 5c15 033f
000001d0: e1a1 e1be 7388 cf40 31d2 c23f 7091 9ec0
000001e0: 6323 a440 c532 e5bf 622e 5140 950c 2141
000001f0: bc09 debe 6704 bb3f 64a5 8bc0 6365 16c0
00000200: ec0b d23d b8f5 b5bd 4d75 c9be ce92 adbf
00000210: 8953 b13f ae04 e5be a079 f93e 17ee 593e
00000220: 2857 3b3e f7a9 57be b1bb 22bf 1a1d 4b3f
00000230: 9348 3dbf dfdf a4be c7b7 21bc 79e9 1d3f
00000240: e752 34c0 629f b5bf 8e23 5c40 1b60 203e
00000250: 9e29 723f f150 1c40 37da 6cc0 6db0 94bf
00000260: a16e c93f b4b7 e83f f71c a440 4d18 71be
00000270: 4ebf 2f3f 2eef 8440 2d91 16c0 671f 27c0
00000280: 056e 9d3c 384b f2ba 35d8 8dbf f75b e2be
00000290: fa38 b33f 5898 bb3e 404f 00bf 10ab 95bd
000002a0: 6186 583f 24b9 bebe 94e3 3ebf d907 343f
000002b0: e91a 553d 5ff7 9f3f d116 86be 114e 35bf
000002c0: 77b1 0a40 361d 95be 325b 3440 875d 6ebd
000002d0: 97b1 0f40 8969 6cc0 60e2 81bf f4b9 8140
000002e0: c7e2 cec0 d567 ce40 28c9 9740 9dfa 1940
000002f0: 936b afbf fa71 9940 a98f cfbf e13f 61bf
00000300: 6c80 143d 0cd2 e63e da1c 6abf 080e 2cc0
00000310: c424 d53d 7629 96be 4b49 11bd d9db de3c
00000320: c943 b4be 802a babd 75f1 433f aeb7 96be
00000330: 42a0 33be 27b5 63bc cb77 513f 0973 b73d
00000340: bd5b 91bf 8715 8040 2956 4b40 dab1 6ac1
00000350: 712f 7fbf 11ed c73f 9a1a 853e d97f 79c0
00000360: 579e 4d40 25f2 9fbd c738 1140 4d60 48c0
00000370: abba b13f 6abe 31c0 61a9 1e3e 5d49 78bf
00000380: 1067 a83d 7b80 18bd e01b c6bf 0c6a cdbe
00000390: 12bf a03f 9522 113d abc1 a6be c967 3d3e
000003a0: 335f 5fbf b383 2f3e b66a 903e fab4 82bf
000003b0: ed7d 93bf d4e9 f43d 8e46 303d fef8 5abf
000003c0: d83a ae3f e64f d1bf cbe7 9240 4ddb 34bf
000003d0: 9168 67c0 266d 813f 521d a340 2fa6 17c0
000003e0: 09f9 9940 a4a1 3040 1fee 3bc0 49a6 3ebf
000003f0: a9d8 ca3f 31d7 4fc0 5de8 c83d bfce c440

exp_avg f4 [135, 32]
-0.056730695 -0.3154606 -0.12412371 -0.18457119 -0.38204828 0.17653967 0.024720278 -0.026145663
0.6728093 -0.30829874 -0.1153062 -0.072399825 -0.10870765 0.07035039 0.027601954 -0.3673885
0.8871988 -0.28447485 -0.11111323 0.010868104 -0.049822286 0.1706952 0.63449836 -0.5562784
-0.044044938 -0.12282428 0.17204855 -0.019674733 0.6920628 0.41460615 0.59488076 -0.6297023
-0.04686868 -0.004761162 -0.0047269175 -0.056310512 -0.14365506 -0.0137461405 -0.08462252 0.16754107
0.10164469 0.054454114 0.029604157 -0.007953757 0.0001703352 -0.20268464 0.15788536 0.4149761
-0.010680076 -0.040977947 0.4602068 0.14633453 0.11943077 -0.036385283 0.0920791 0.2651274
0.31908745 -0.6271478 -0.5123455 0.31603 -0.08327844 -0.27130422 -0.20387009 -0.85650516
-0.20343706 0.049894746 -0.106946185 -0.10521093 0.060355023 0.30890387 -0.01920081 -0.23646356
0.2049687 -0.038232546 -0.0029312777 0.007823357 -0.018642757 0.121559575 -0.018184487 0.13497023
1.2040521 0.3483118 0.2243515 -0.7044999 -0.21487115 -0.057487063 -1.2711765 -1.2060413
-0.36419192 0.0028042193 -0.8359801 -0.50900865 -0.51769054 -0.80152494 -1.1453943 -0.08066626
0.30006856 -0.023476027 -0.2099036 -0.009331658 -0.046878688 -0.00339007 0.40669513 0.0044326275
0.08333285 -0.020463575 -0.04947791 0.16847087 -0.015857661 -0.009881665 -0.0050960216 -0.08554622
-0.13739164 0.7362858 0.110848896 -0.6982308 0.06086073 -0.063456014 0.2677149 0.8639139
-0.092597395 -0.26479983 0.03534554 0.38172042 -0.21400432 -0.18608019 -0.05028853 0.6076495
0.12760688 -0.068425186 -0.5164961 -0.1421869 -0.22108233 0.010737103 0.2814239 0.16199654
0.5385648 -0.08640364 -0.1200351 -0.020375518 -0.012701422 -0.044819318 -0.084801406 0.09393605
0.45173323 -0.8071686 0.08679634 0.39393654 -0.49525234 -0.6567881 -0.8013238 0.14560644
0.72228146 0.40259778 0.08718379 -0.122858666 -1.0608315 -0.41837978 -0.17724088 -0.2845705
0.040118374 0.01731156 -0.24629529 -0.06336056 -0.018561011 0.05908235 -0.018130012 -0.07328318
0.06609922 0.07337176 -0.017823096 -0.01232683 0.0051281257 -0.19743098 -0.09344181 -0.43406743
-0.68444854 0.91158766 -0.511516 0.4626935 -0.19624764 0.27393135 0.7127151 0.042255007
0.50726956 0.038005628 -0.1774115 -0.5076399 0.38176966 -0.3533015 0.5898443 0.45237502
0.24645193 0.023799501 -0.50577146 -0.042525046 -0.51716363 -0.024370845 -0.039421666 -0.08950798
0.06072559 -0.18556854 0.111344874 -0.2129568 -0.28819078 -0.06405572 0.49095005 -0.36907858
0.76027405 0.19279355 -0.6349878 0.31538776 -0.5059359 0.8985621 -0.028650075 0.20436467
-1.2625582 -0.7138373 -0.43041918 0.11572573 0.5039179 0.3115425 -0.29724136 0.6984042
-0.0076008774 0.09675775 -0.10891274 -0.16629525 0.0039555035 -0.01679678 -0.075154856 0.018441454
-0.18997158 0.1576622 -0.017130496 -0.0054297494 0.020987615 0.04153731 -0.006905347 -0.112642616
-0.093547694 -0.13799994 0.56771713 0.053326264 -0.2346855 0.20792887 0.094867945 0.12666737
0.17214897 0.39236438 0.42320225 0.13171902 -0.17700958 -0.1663574 0.50376433 0.19579197
00000000: 725e 68bd 0d84 a1be 9234 febd 3b00 3dbe
00000010: d59b c3be d1c6 343e 2e82 ca3c 6e2f d6bc
00000020: 3b3d 2c3f 55d9 9dbe a825 ecbd 5c46 94bd
00000030: 1ea2 debd de13 903d 7e1d e23c 581a bcbe
00000040: 761f 633f b0a6 91be 558f e3bd 2210 323c
00000050: 7412 4cbd b9ca 2e3e 7c6e 223f 4368 0ebf
00000060: 7768 34bd 4c8b fbbd 7f2d 303e e82c a1bc
00000070: 072b 313f 4247 d43e 1b4a 183f 2c34 21bf
00000080: 5ff9 3fbd 8603 9cbb 42e4 9abb daa5 66bd
00000090: 501a 13be 7e37 61bc 924e adbd e38f 2b3e
000000a0: 172b d03d 470b 5f3d 6b84 f23c 7a50 02bc
000000b0: 029c 3239 908c 4fbe b3ac 213e bf77 d43e
000000c0: 7cfb 2ebc 7ed8 27bd 3aa0 eb3e b8d8 153e
000000d0: 1f98 f43d bc08 15bd f893 bc3d c7be 873e
000000e0: 6e5f a33e c28c 20bf 1329 03bf afce a13e
000000f0: e38d aabd 63e8 8abe 52c3 50be ec43 5bbf
00000100: ce51 50be 6f5e 4c3d 9a06 dbbd d478 d7bd
00000110: d436 773d a628 9e3e 044b 9dbc 8123 72be
00000120: 51e3 513e bb99 1cbd ae1a 40bb 8a2d 003c
00000130: b2b8 98bc 3af4 f83d a2f7 94bc a335 0a3e
00000140: 611e 9a3f ed55 b23e 66bc 653e 1b5a 34bf
00000150: 2f07 5cbe 8e77 6bbd e9b5 a2bf 905f 9abf
00000160: 5d77 babe fec6 373b cb02 56bf 644e 02bf
00000170: 5e87 04bf bd30 4dbf 489c 92bf 5a34 a5bd
00000180: 96a2 993e cc50 c0bc f8f0 56be cfe3 18bc
00000190: de03 40bd f02b 5ebb 583a d03e 933f 913b
000001a0: 6aaa aa3d 3aa3 a7bc 59a9 4abd a183 2c3e
000001b0: ede7 81bc b5e6 21bc 87fc a6bb db32 afbd
000001c0: 65b0 0cbe 3a7d 3c3f bf04 e33d 41bf 32bf
000001d0: 1a49 793d 3af5 81bd ed11 893e 7629 5d3f
000001e0: b4a3 bdbd d893 87be 7cc6 103d dc70 c33e
000001f0: f323 5bbe ce8b 3ebe 58fb 4dbd eb8e 1b3f
00000200: 61ab 023e 8122 8cbd 1739 04bf 7199 11be
00000210: 6863 62be adea 2f3c cb16 903e 6ce2 253e
00000220: 62df 093f 64f4 b0bd f6d4 f5bd 8fea a6bc
00000230: a019 50bc 7694 37bd 5cac adbd 8b61 c03d
00000240: 9449 e73e 9aa2 4ebf 48c2 b13d 0db2 c93e
00000250: b791 fdbe 4423 28bf 8e23 4dbf db19 153e
00000260: 70e7 383f 4c21 ce3e 6a8d b23d 539d fbbd
00000270: 54c9 87bf e035 d6be a27e 35be 39b3 91be
00000280: 2a53 243d f9d0 8d3c d534 7cbe 2ec3 81bd
00000290: 430d 98bc 5600 723d 6485 94bc 7e15 96bd
000002a0: 075f 873d ef43 963d be01 92bc 79f6 49bc
000002b0: d609 a83b 592b 4abe 6b5e bfbd 163e debe
000002c0: 0538 2fbf cf5d 693f b6f2 02bf 2ae6 ec3e
000002d0: 24f5 48be bb40 8c3e 7f74 363f 9613 2d3d
000002e0: 6bdc 013f caab 1b3d 5cab 35be b0f4 01bf
000002f0: 5077 c33e efe3 b4be 0900 173f b39d e73e
00000300: e55d 7c3e 2cf7 c23c 3d7a 01bf be2e 2ebd
00000310: d664 04bf 5ea5 c7bc 9d78 21bd f64f b7bd
00000320: 65bb 783d ae05 3ebe c808 e43d 5911 5abe
00000330: be8d 93be a52f 83bd ce5d fb3e def7 bcbe
00000340: 52a1 423f ac6b 453e 8f8e 22bf 817a a13e
00000350: 0485 01bf 2a08 663f 90b3 eabc f944 513e
00000360: 829b a1bf 0bbe 36bf e75f dcbe 9d01 ed3d
00000370: c300 013f 8082 9f3e 0530 98be 9eca 323f
00000380: c810 f9bb ed28 c63d a50d dfbd 4d49 2abe
00000390: 2b9d 813b 6799 89bc caea 99bd 8812 973c
000003a0: e987 42be 3372 213e 4155 8cbc 0aec b1bb
000003b0: 38ee ab3c 0723 2a3d 4046 e2bb 2cb1 e6bd
000003c0: ef95 bfbd db4f 0dbe e955 113f a46c 5a3d
000003d0: 6551 70be 4eeb 543e 204a c23d 17b5 013e
000003e0: d247 303e fce3 c83e f7ad d83e 5ae1 063e
000003f0: 0042 35be 9859 2abe b3f6 003f b17d 483e

exp_avg_sq f4 [135, 32]
2.1575465e-06 1.2784808e-07 7.776002e-07 3.2400303e-07 2.1912795e-07 1.7879769e-06 9.186564e-06 1.8861694e-05
9.216665e-08 2.611808e-07 2.4638887e-06 2.5735977e-07 5.447846e-07 4.838615e-06 1.590827e-06 3.5661344e-07
1.3133367e-09 2.9893532e-10 4.0266834e-09 1.885038e-09 1.2489425e-08 1.5881206e-09 4.2900122e-10 2.8233125e-09
1.7882165e-09 6.675564e-10 1.0978337e-09 1.1220532e-09 9.2021596e-10 1.0792786e-09 3.2628802e-09 3.9136522e-10
6.419812e-06 7.1583884e-07 1.0598066e-06 1.0249258e-07 6.753529e-07 5.4240227e-06 3.353004e-07 7.1078455e-07
5.064942e-07 8.972478e-08 9.390912e-07 6.9853004e-06 2.1834461e-05 2.808792e-07 1.24831e-07 1.06369924e-07
1.1148125e-09 3.5837489e-10 1.6554949e-09 9.662102e-10 5.2577187e-09 4.746704e-10 1.4003841e-09 2.6133848e-10
1.0503916e-09 1.4738133e-09 3.5815173e-10 1.078838e-09 4.4635537e-10 5.1534327e-10 1.7669384e-09 9.495454e-10
1.1217676e-06 1.553782e-05 8.940753e-06 1.1595944e-05 1.351322e-06 3.832444e-08 5.7793615e-05 3.33863e-06
3.7322783e-07 1.9068618e-06 9.723429e-05 1.6126283e-05 2.4569134e-05 8.076878e-07 2.9196867e-06 2.9075406e-06
3.4571186e-09 1.4353914e-09 6.8796564e-09 4.6081743e-09 5.162566e-08 1.5536605e-09 2.214085e-09 5.0025903e-09
7.3040995e-09 4.6422737e-09 3.536485e-09 5.5418417e-09 5.4817377e-09 2.501556e-09 6.7826504e-09 7.422501e-09
8.213799e-07 3.7553757e-05 2.1137096e-06 1.6767382e-05 8.485592e-05 7.0832352e-06 2.5908528e-07 1.4395847e-05
1.1792275e-05 2.4679298e-07 1.7552833e-06 2.8265316e-07 0.0003201728 1.0102828e-05 4.156948e-06 5.4707773e-05
3.2937535e-09 1.8092395e-09 8.05657e-09 4.6278243e-09 4.5814634e-08 1.1674234e-09 3.3675391e-09 4.4552024e-09
8.455317e-09 3.3844445e-09 4.4356154e-09 7.676568e-09 5.2099667e-09 2.4336997e-09 8.582e-09 6.8834627e-09
1.4260716e-07 1.5021449e-06 1.6281903e-07 5.422851e-06 2.957101e-07 3.783712e-05 2.2336488e-07 1.6769059e-06
1.2346237e-07 1.336866e-06 8.3811454e-07 1.1397756e-05 1.2273555e-05 1.0607104e-06 1.6493763e-06 6.008831e-07
8.382777e-10 1.6889931e-10 1.4742412e-09 1.0262251e-09 4.6059916e-09 2.749823e-10 1.2779193e-09 1.8442191e-10
6.869391e-10 7.459922e-10 5.154336e-10 5.236729e-10 3.93949e-10 9.839534e-10 1.373944e-09 5.592189e-10
4.109517e-06 1.1817834e-05 2.6227156e-07 9.205951e-06 1.4994139e-06 5.7880325e-06 3.8132205e-06 3.1371726e-06
1.5466725e-06 1.217271e-06 4.9604932e-05 4.0502604e-05 8.2495644e-05 8.3988107e-07 1.5283001e-06 2.2218781e-07
1.0238056e-09 3.6226758e-10 1.4914744e-09 2.4700548e-09 8.30168e-09 4.3067194e-09 2.3668115e-10 4.970888e-10
1.4164478e-09 6.733114e-10 1.0761538e-09 1.220679e-09 1.904012e-09 8.073084e-10 7.757942e-10 4.4184616e-09
3.2971002e-06 1.2009116e-05 7.822652e-07 2.6716327e-07 1.9255378e-06 3.7139587e-06 2.2309836e-05 7.1123695e-06
5.164382e-06 7.191902e-07 2.208663e-05 1.0631302e-06 5.138094e-08 6.66135e-07 5.1329774e-08 3.4091784e-07
3.0354859e-09 1.2184074e-09 7.585294e-09 3.4040752e-09 3.509784e-08 9.771239e-10 1.5888604e-09 2.7902807e-09
2.7438127e-09 2.3151858e-09 5.4226947e-09 5.876526e-09 7.69675e-10 9.2012686e-10 3.1578231e-09 4.9924314e-09
2.2010604e-06 6.762589e-07 3.3659755e-06 1.0966412e-06 6.31435e-07 1.5711926e-06 5.916452e-07 7.465323e-07
8.138419e-08 2.8016514e-08 9.755479e-07 7.9145633e-07 1.37454235e-05 1.0241611e-06 5.981483e-06 3.2888003e-08
2.0926993e-10 6.2092265e-10 1.8754314e-09 3.520805e-09 2.2973692e-09 3.3497072e-10 5.830354e-10 2.3682128e-10
5.409105e-10 3.7333348e-10 6.592115e-10 8.02075e-10 2.4660876e-10 7.0511014e-10 1.3841209e-09 4.2077475e-10
00000000: 5eca 1036 9d46 0934 47bc 5035 a3f2 ad34
00000010: 6f49 6b34 6bfa ef35 fe1f 1a37 2e39 9e37
00000020: 27ed c533 6a38 8c34 4959 2536 422b 8a34
00000030: 503d 1235 635b a236 6684 d535 9474 bf34
00000040: ed80 b430 6857 a42f 155b 8a31 f089 0131
00000050: 1291 5632 0745 da30 8ed8 eb2f 3d04 4231
00000060: 46c5 f530 1b7f 3730 97e2 9630 bd36 9a30
00000070: 71f2 7c30 bd55 9430 3239 6031 c227 d72f
00000080: c469 d736 1228 4035 ad3e 8e35 e419 dc33
00000090: e649 3535 0000 b636 5603 b434 becc 3e35
000000a0: 04f6 0735 b8ae c033 db15 7c35 4663 ea36
000000b0: 2629 b737 becb 9634 4909 0634 7c6d e433
000000c0: fa37 9930 c804 c52f 8c87 e330 80cb 8430
000000d0: 62a7 b431 f679 0230 a377 c030 1fac 8f2f
000000e0: 5e5d 9030 328f ca30 60e5 c42f 3d46 9430
000000f0: ef62 f52f 0fa8 0d30 9ed8 f230 2981 8230
00000100: a48f 9635 3757 8237 3e00 1637 338c 4237
00000110: 125f b535 2b9a 2433 6c67 7238 3a0d 6036
00000120: 0b60 c834 46ef ff35 43ea cb38 ee46 8737
00000130: d019 ce37 e2cf 5835 d6ef 4336 2b1f 4336
00000140: 4692 6d31 5847 c530 1962 ec31 ee55 9e31
00000150: 03bb 5d33 9288 d530 9826 1831 40e3 ab31
00000160: 8af7 fa31 df81 9f31 8106 7331 8e6a be31
00000170: e059 bc31 d7e7 2b31 d30c e931 0209 ff31
00000180: cc7c 5c35 0a83 1d38 41d9 0d36 aea7 8c37
00000190: adf4 b138 87ac ed36 6918 8b34 b185 7137
000001a0: 6fd7 4537 f87e 8434 1397 eb35 8ebf 9734
000001b0: dedc a739 517f 2937 e97b 8b36 0676 6538
000001c0: 5358 6231 f5a8 f830 2b69 0a32 c602 9f31
000001d0: b9c5 4433 0f73 a030 606a 6731 6014 9931
000001e0: e142 1132 c793 6831 1668 9831 e7e1 0332
000001f0: 5a03 b331 193e 2731 0970 1332 9483 ec31
00000200: 8f1f 1934 4e9d c935 5bd3 2e34 eff5 b536
00000210: 16c2 9e34 4cb3 1e38 12d6 6f34 0c12 e135
00000220: 1491 0434 5e6e b335 cbfa 6035 fd38 3f37
00000230: 84ea 4d37 bb5d 8e35 2360 dd35 5f4c 2135
00000240: 8d6c 6630 eeb4 392f 409e ca30 160b 8d30
00000250: bb42 9e31 512c 972f caa2 af30 27c6 4a2f
00000260: 0bd3 3c30 890e 4d30 6aae 0d30 34f2 0f30
00000270: 6593 d82f c83b 8730 5bd5 bc30 88b7 1930
00000280: 7be4 8936 3645 4637 54ce 8c34 4273 1a37
00000290: 783f c935 d236 c236 a1e6 7f36 3788 5236
000002a0: 4397 cf35 1d61 a335 e40e 5038 57e1 2938
000002b0: 8301 ad38 3074 6135 fe1f cd35 8592 6e34
000002c0: f5b5 8c30 a128 c72f 97fc cc30 aabd 2931
000002d0: 2d9f 0e32 4efa 9331 e91d 822f 84a3 0830
000002e0: d4ac c230 1414 3930 cce7 9330 d3c4 a730
000002f0: bcd7 0231 47e9 5d30 aa3f 5530 33d1 9731
00000300: c043 5d36 c37a 4937 dbfc 5135 a46e 8f34
00000310: 7d38 0136 533d 7936 0226 bb37 caa6 ee36
00000320: b449 ad36 600e 4135 ad46 b937 e0b0 8e35
00000330: f1ad 5c33 73d0 3235 af75 5c33 6407 b734
00000340: d598 5031 e674 a730 7a50 0232 20ed 6931
00000350: 7cbe 1633 7e4b 8630 0e5f da30 23bf 3f31
00000360: aa8d 3c31 2e19 1f31 8752 ba31 78ea c931
00000370: 1091 5330 2cec 7c30 0301 5931 e489 ab31
00000380: eeb5 1336 2888 3535 05e3 6136 4e30 9335
00000390: e27f 2935 c4e1 d235 8cd1 1e35 4f65 4835
000003a0: 6ec5 ae33 f7a8 f032 92ef 8235 7774 5435
000003b0: 259c 6637 e875 8935 8cb4 c836 be40 0d33
000003c0: 4018 662f 8cad 2a30 f0e0 0031 a8f2 7131
000003d0: bfdf 1d31 f026 b82f 7843 2030 a231 822f
000003e0: 31af 1430 043e cd2f e333 3530 0379 5c30
000003f0: 1993 872f b7d1 4130 6d3b be30 c852 e72f

exp_avg f4 [46, 32]
0.28460777 0.028973825 -0.5252505 -0.20116103 0.27242005 0.39028743 -0.38546926 0.78081876
-0.35830382 0.8166884 -0.03528936 -0.038820952 -0.1218723 0.01079169 -0.3034357 -0.03076572
-0.20890202 -0.55713165 0.19342825 -0.18098095 -0.22029182 0.25331616 0.40568668 -0.20787738
-0.47035322 -0.23829456 0.43524623 0.09974967 -0.23414296 0.25888935 -0.37526947 -0.17826441
0.02673062 -0.13411628 -0.09798819 -0.30842525 0.011695052 -0.1455984 -0.061438743 0.04187862
-0.050183948 -0.119754404 0.0005251765 0.18189499 0.064415984 0.016871504 0.28786495 0.015849303
0.3338449 0.23110414 0.052254234 -0.01853385 -0.24431044 -0.10184251 -0.43294343 -0.49290755
-0.593558 0.19300653 0.0035685576 0.6747543 -0.26086947 0.36046532 0.72398764 0.21570343
0.014448255 0.033552818 -0.04640547 0.0075165574 0.0420657 -0.5540956 0.35216478 -0.040124994
-0.014159393 -0.023279976 -0.090767175 -0.005936239 -0.14788577 -0.034903325 0.19937609 -0.04070315
-0.00026950875 -1.033135 -0.3053471 -0.31620923 0.63711095 -0.21640718 0.13679641 0.23723495
-0.013359783 -0.37112796 0.19873138 0.98967296 0.24945353 0.61242384 0.34243354 -0.20230348
-0.12933378 0.1575377 0.059776433 -0.5308945 -0.08667009 0.0102466075 -0.02555377 0.13327865
-0.06489605 0.046766944 -0.05591885 0.0008255695 -0.7519066 -0.03144718 -0.2833906 0.062446292
-0.2687647 -0.42861006 0.08360761 0.25907615 0.061542515 -0.39077368 0.32600737 0.3267636
-1.0880831 -0.14445308 0.6704088 -0.49660093 -0.2806097 -0.49154416 0.45621398 0.12876251
0.32252386 0.029046027 0.519532 -0.11668344 -0.052564178 -0.020224106 0.011432118 0.008996705
0.00525471 0.016430492 -0.0145225385 0.13542446 0.009355337 -0.018564459 0.2345766 0.09688311
-0.9753876 -0.5758572 -0.7296337 -0.041705474 0.33341601 0.8988461 -0.13919309 0.5104309
0.018933855 -1.2842398 -0.15983716 -0.06804562 -0.087349266 0.0710478 -0.5089413 -0.6114177
0.019843632 -0.043949917 -0.24531278 -0.045147076 -0.016452074 0.028533742 0.11215411 -0.07904776
-0.13167241 -0.042669576 -0.057128955 0.1823359 -0.23367718 -0.25659057 -0.17072138 0.267841
-0.04035782 0.32421 0.09840311 -0.38801247 -1.2837679 0.37099066 0.94988865 -0.73381585
0.68968064 -1.2922422 0.16174906 -0.7989128 0.1854272 -0.4755661 0.24669991 0.5332478
-0.053137675 -0.029032055 -0.5444286 0.42519888 0.23105267 0.058470275 0.07811413 0.00856
0.1213731 0.1382238 0.04640028 -0.1847075 0.018922761 -0.077101424 -0.84673756 0.8456116
0.007272924 0.821967 0.15835933 0.5100073 0.27065462 -0.2617486 0.55587393 -0.060232874
-0.07424214 -0.07452597 0.124579236 0.6412963 0.15494683 0.6217086 -0.6807867 0.029972628
0.45323122 -0.14090742 -0.022390945 -0.000119511395 -0.049416374 -0.0063129077 0.008178486 0.03746822
0.12970266 0.05249837 0.014872926 -0.050799537 0.018604228 -0.004660893 -0.059437674 -0.034783732
0.61873275 0.63962483 -0.04317229 -0.39926562 0.38155946 -0.0051065744 -0.830402 0.07470406
-0.30414915 -0.075861424 0.14398941 0.34094185 0.3522762 0.29633725 -0.09561865 -0.22843014
00000000: 1cb8 913e 845a ed3c d176 06bf 28fd 4dbe
00000010: a47a 8b3e c1d3 c73e 3a5c c5be bde3 473f
00000020: 9973 b7be 7e12 513f 938b 10bd b802 1fbd
00000030: 2f98 f9bd a1cf 303c ed5b 9bbe 6408 fcbc
00000040: 69ea 55be 2ea0 0ebf 0e12 463e 1253 39be
00000050: 2e94 61be a8b2 813e 2ab6 cf3e cfdd 54be
00000060: 23d2 f0be 7d03 74be 98d8 de3e 8e49 cc3d
00000070: 2cc3 6fbe 258d 843e 5223 c0be f28a 36be
00000080: 2cfa da3c c755 09be 08ae c8bd eae9 9dbe
00000090: 9a9c 3f3c bf17 15be 31a7 7bbd ea88 2b3d
000000a0: af8d 4dbd cc41 f5bd 00ac 093a ae42 3a3e
000000b0: 87ec 833d 1c36 8a3c 0963 933e 66d6 813c
000000c0: b8ed aa3e 90a6 6c3e 8908 563d 4dd4 97bc
000000d0: 842c 7abe ce92 d0bd c3aa ddbe 615e fcbe
000000e0: 6bf3 17bf 81a3 453e 76de 693b b3bc 2c3f
000000f0: af90 85be e98e b83e 4157 393f 5ce1 5c3e
00000100: 60b8 6c3c ae6e 093d aa13 3ebd 744d f63b
00000110: 154d 2c3d 36d9 0dbf f14e b43e 1b5a 24bd
00000120: ccfc 67bc a6b5 bebc 24e4 b9bd c884 c2bb
00000130: 5e6f 17be caf6 0ebd 3f29 4c3e 59b8 26bd
00000140: da4c 8db9 c53d 84bf 7556 9cbe 2de6 a1be
00000150: b419 233f d899 5dbe 5c14 0c3e b8ed 723e
00000160: fee2 5abc 7c04 bebe 3d80 4b3e 355b 7d3f
00000170: bf70 7f3e cfc7 1c3f 7353 af3e a528 4fbe
00000180: 1370 04be 9051 213e 22d8 743d b4e8 07bf
00000190: 1780 b1bd 63e1 273c 2456 d1bc 337a 083e
000001a0: 38e8 84bd b28e 3f3d 2a0b 65bd 086b 583a
000001b0: f37c 40bf c2ce 00bd 9318 91be afc7 7f3d
000001c0: 879b 89be c772 dbbe 773a ab3d a1a5 843e
000001d0: 0114 7c3d 7d13 c8be 70ea a63e 8f4d a73e
000001e0: 4f46 8bbf 82eb 13be e99f 2b3f 7a42 febe
000001f0: 13ac 8fbe adab fbbe e194 e93e 52da 033e
00000200: d921 a53e eff1 ed3c 0d00 053f baf7 eebd
00000210: 894d 57bd 06ad a5bc c74d 3b3c ea66 133c
00000220: b42f ac3b 3d99 863c f1ef 6dbc b6ac 0a3e
00000230: 2147 193c 7e14 98bc d934 703e a76a c63d
00000240: 00b3 79bf 616b 13bf 46c9 3abf 5cd3 2abd
00000250: 81b5 aa3e c71a 663f a288 0ebe 99ab 023f
00000260: 2c1b 9b3c f861 a4bf 5aac 23be 815b 8bbd
00000270: 2ce4 b2bd 8281 913d fa49 02bf df85 1cbf
00000280: 1d8f a23c d404 34bd 4633 7bbe 24ec 38bd
00000290: 80c6 86bc 98bf e93c 0eb1 e53d cbe3 a1bd
000002a0: 22d5 06be 4bc6 2ebd 0d00 6abd 43b6 3a3e
000002b0: 1249 6fbe d75f 83be 96d1 2ebe 7522 893e
000002c0: 3e4e 25bd dafe a53e 9287 c93d 92a9 c6be
000002d0: 8252 a4bf 7df2 bd3e e72b 733f 5bdb 3bbf
000002e0: e98e 303f 3168 a5bf 8ca1 253e 8d85 4cbf
000002f0: a1e0 3d3e 667d f3be e79e 7c3e ee82 083f
00000300: e4a6 59bd a2d4 edbc ac5f 0bbf abb3 d93e
00000310: 1299 6c3e 877e 6f3d 4dfa 9f3d 3e3f 0c3c
00000320: 7692 f83d 8a8a 0d3e 380e 3e3d f623 3dbe
00000330: e803 9b3c 5ae7 9dbd cbc3 58bf 007a 583f
00000340: b551 ee3b 6e6c 523f f328 223e d78f 023f
00000350: 3e93 8a3e ea03 86be c14d 0e3f bfb6 76bd
00000360: 430c 98bd 12a1 98bd 6623 ff3d ff2b 243f
00000370: 62aa 1e3e 4b28 1f3f 0a48 2ebf 2889 f53c
00000380: ec0d e83e 094a 10be 376d b7bc 31a2 fab8
00000390: d368 4abd 82dc cebb 0eff 053c 4778 193d
000003a0: c6d0 043e 8808 573d 93ad 733c 2d13 50bd
000003b0: e567 983c 68ba 98bb eb74 73bd 6379 0ebd
000003c0: 4565 1e3f 74be 233f 6dd5 30bd 8b6c ccbe
000003d0: c35b c33e 0d55 a7bb 3a95 54bf 71fe 983d
000003e0: 70b9 9bbe 3c5d 9bbd f671 133e ee8f ae3e
000003f0: 8c5d b43e 84b9 973e b6d3 c3bd 97e9 69be

exp_avg_sq f4 [46, 32]
2.5275256e-08 9.08238e-09 7.178461e-08 1.8056523e-08 2.4828852e-08 2.319158e-08 5.307767e-09 1.497218e-08
1.6632383e-08 2.0424213e-08 1.0055073e-08 1.613802e-08 1.6999092e-08 2.5129834e-08 2.5771588e-08 1.9102135e-08
5.246203e-10 2.2163134e-10 2.63289e-09 2.5561933e-10 2.5589653e-10 5.907803e-10 3.8088108e-10 1.7146626e-10
1.456459e-10 4.7128895e-10 1.01039836e-10 2.8750718e-10 4.501911e-10 3.786365e-10 4.6259496e-10 2.4209057e-10
0.00020456428 5.1368497e-06 1.3775692e-05 6.8234493e-07 2.505743e-05 4.844959e-06 5.54764e-06 2.4686282e-05
1.437701e-05 6.4802276e-07 4.2533184e-06 2.0603363e-07 1.720027e-05 1.7207794e-05 1.5462766e-06 0.00023638086
3.3591898e-09 2.0337731e-09 1.1831047e-08 3.612226e-09 5.5842833e-09 1.5083936e-09 6.9633628e-09 8.466391e-09
4.8232436e-09 3.2695455e-09 2.4561022e-09 1.2870112e-09 3.0198937e-09 2.4585045e-09 8.670672e-09 1.7882624e-09
0.0001686126 2.9211376e-05 2.72437e-06 1.6288817e-05 9.553187e-07 1.0517673e-07 1.2924831e-06 2.7664815e-05
4.2549058e-07 2.5918866e-05 7.7884704e-07 6.530957e-05 1.8243406e-06 2.9805455e-05 7.566818e-07 4.2549425e-05
3.914723e-09 2.5455835e-09 1.3628899e-08 1.7379495e-09 2.746608e-09 2.806691e-09 1.864647e-09 3.8553174e-09
1.0835121e-09 2.2200703e-09 4.190676e-10 4.257839e-09 5.2478195e-09 6.267846e-09 1.1523756e-08 1.266462e-09
1.0353189e-05 4.083465e-06 5.189274e-06 1.641472e-06 3.196596e-05 6.604357e-05 0.00015992796 5.268914e-06
3.119506e-05 3.46324e-05 5.4990796e-06 0.00017622317 6.259858e-07 6.364541e-05 7.2332523e-07 0.00025009993
7.013167e-09 2.4949232e-09 2.377333e-08 1.4163771e-08 7.63945e-09 2.2298656e-09 1.4183357e-09 3.9272168e-09
6.763712e-09 2.470936e-09 1.4908579e-09 2.5690838e-09 2.635781e-09 6.5731016e-09 6.7146084e-09 5.3278386e-09
1.0232159e-06 6.781463e-05 4.2888278e-05 1.2631252e-06 2.5367513e-05 2.4490526e-05 0.00021297108 0.00033613289
3.0194755e-05 6.031907e-06 6.294375e-06 4.3911663e-05 0.00019048173 6.0364153e-05 4.623837e-07 7.754536e-05
6.5639036e-09 3.7818686e-09 8.057811e-08 1.5152867e-07 1.0440948e-08 2.7867315e-09 2.2560538e-08 3.9802197e-09
8.455196e-09 3.866113e-09 2.987169e-09 1.0627955e-08 1.3307967e-08 1.3149052e-08 5.0732414e-09 3.1733492e-08
6.956999e-05 2.613586e-06 2.0062946e-06 6.7527e-05 4.296638e-06 2.3327677e-05 5.2000178e-06 7.762458e-06
5.682943e-06 5.807037e-06 1.9487072e-07 6.0491134e-06 1.0853882e-06 5.5740526e-07 3.1868542e-06 3.941711e-06
3.2259027e-09 1.1662682e-09 4.5900855e-08 4.079909e-09 6.8877686e-09 2.2601259e-09 4.829667e-09 2.2307036e-09
7.749397e-09 3.989435e-09 9.680095e-10 1.5398717e-09 1.9463724e-09 4.795519e-09 1.4353359e-09 1.908953e-09
5.916626e-07 6.39267e-05 1.9494853e-06 2.945015e-07 1.839412e-06 2.60439e-06 2.6928149e-06 1.0966516e-05
1.5784271e-06 7.288606e-08 8.545225e-07 6.5546084e-07 9.5441756e-05 2.510888e-05 1.6082156e-07 7.564723e-08
1.671177e-09 2.9826384e-09 2.964666e-08 5.273414e-10 1.6479984e-08 7.967008e-09 2.1794015e-09 2.8737313e-10
2.685997e-09 1.4268985e-09 3.0400352e-10 9.903082e-10 7.587622e-09 4.4748414e-09 3.5012462e-09 3.2843503e-10
4.446331e-07 1.293201e-06 8.200636e-06 0.000118352706 1.8264617e-06 4.6059426e-06 6.610978e-05 1.6834283e-06
2.4272917e-06 5.699211e-05 9.683625e-07 9.596153e-05 0.0009983917 7.00009e-05 4.8376796e-06 4.150212e-05
6.5270487e-09 2.2228819e-09 4.1096552e-08 7.278503e-09 1.7831532e-09 1.0054255e-09 9.809259e-10 2.4257334e-09
3.4131278e-09 1.751235e-09 2.857914e-10 1.6581913e-09 7.1250605e-09 2.9472293e-09 4.5364383e-09 5.481294e-09
00000000: e01c d932 bb08 1c32 0228 9a33 b71a 9b32
00000010: 3947 d532 d336 c732 9d5f b631 2c9c 8032
00000020: ffde 8e32 5271 af32 aebe 2c32 e29f 8a32
00000030: 6605 9232 17dd d732 5260 dd32 0a16 a432
00000040: df34 1030 adaf 732f 4aee 3431 3987 8c2f
00000050: 3cae 8c2f 7864 2230 3f64 d12f 7687 3c2f
00000060: ad23 202f 038c 0130 5f30 de2e 0a0f 9e2f
00000070: c47e f72f 5a28 d02f 7450 fe2f 3817 852f
00000080: 4e80 5639 345d ac36 261e 6737 632a 3735
00000090: 6c32 d237 e291 a236 dd25 ba36 6315 cf37
000000a0: ca34 7137 c9f3 2d35 bab7 8e36 183a 5d34
000000b0: 4c49 9037 7559 9037 a989 cf35 01dd 7739
000000c0: 7ed7 6631 84c2 0b31 7f41 4b32 f43a 7831
000000d0: e0df bf31 e24f cf30 6342 ef31 9573 1132
000000e0: b3b9 a531 74ae 6031 35c8 2831 aee2 b030
000000f0: 8886 4f31 78f2 2831 05f6 1432 e4c6 f530
00000100: 9acd 3039 f40a f537 52d4 3636 f8a3 8837
00000110: 8038 8035 85dd e133 6279 ad35 bd11 e837
00000120: fb6e e434 576c d937 f611 5135 cff6 8838
00000130: dedb f435 ba06 fa37 c71e 4b35 1977 3238
00000140: 4582 8631 61ee 2e31 8824 6a32 a9dc ee30
00000150: d7be 3c31 d5df 4031 3823 0031 bb77 8431
00000160: b1ea 9430 e48f 1831 8562 e62f 594c 9231
00000170: 4f50 b431 8e5c d731 04fa 4532 ac0f ae30
00000180: 9cb2 2d37 b204 8936 861f ae36 8c50 dc35
00000190: 3013 0638 df80 8a38 56b2 2739 a0cb b036
000001a0: 71d7 0238 4242 1138 bc84 b836 8cc8 3839
000001b0: 6b09 2835 5f79 8538 882a 4235 d81f 8339
000001c0: 78f8 f031 2773 2b31 1b36 cc32 ec54 7332
000001d0: a83e 0332 363c 1931 40ef c230 2af0 8631
000001e0: 3d66 e831 2acd 2931 e6e6 cc30 cd8b 3031
000001f0: 2621 3531 9dd9 e131 52b6 e631 2a10 b731
00000200: 6e55 8935 b437 8e38 f0e2 3338 a788 a935
00000210: 52cc d437 0171 cd37 fd50 5f39 fe3a b039
00000220: be4a fd37 b065 ca36 4534 d336 ca2d 3838
00000230: 0dbc 4739 842f 7d38 883d f834 d99f a238
00000240: b588 e131 abf1 8131 490a ad33 e2b3 2234
00000250: c65f 3332 b380 3f31 26cb c132 62c2 8831
00000260: 5842 1132 b1d6 8431 d546 4d31 3e96 3632
00000270: 0fa1 6432 24e6 6132 b450 ae31 584b 0833
00000280: 1be6 9138 1165 2f36 e1a3 0636 489d 8d38
00000290: d72b 9036 ceaf c337 d07b ae36 813b 0237
000002a0: 1cb0 be36 11da c236 a83d 5134 7df9 ca36
000002b0: a8ad 9135 99a0 1535 bddd 5536 0a43 8436
000002c0: aeae 5d31 6a4a a030 8624 4533 422f 8c31
000002d0: 74a9 ec31 8e50 1b31 33f2 a531 f44a 1931
000002e0: 3522 0532 7113 8931 ce0a 8530 6ba3 d330
000002f0: f2c0 0531 d5c5 a431 6445 c530 a82e 0331
00000300: bfd2 1e35 6310 8638 e7d3 0236 fa1b 9e34
00000310: b7e1 f635 14c7 2e36 35b6 3436 d4fc 3737
00000320: 58da d335 8985 9c33 5762 6535 edf2 2f35
00000330: e727 c838 e9a0 d237 4bae 2c34 8173 a233
00000340: 50af e530 21f7 4c31 b2a9 fe32 5af4 1030
00000350: de8f 8d32 46df 0832 70c4 1531 2cfc 9d2f
00000360: 8f94 3831 871c c430 b120 a72f 5f1b 8830
00000370: b75a 0232 1fc1 9931 939a 7031 1f8f b42f
00000380: e8b5 ee34 0c92 ad35 7795 0937 2034 f838
00000390: bf24 f535 bf8c 9a36 6ba4 8a38 28f2 e135
000003a0: 8ee4 2236 d00a 6f38 aff8 8135 f43e c938
000003b0: 77dc 823a 72cd 9238 5a53 a236 9012 2e38
000003c0: 8744 e031 5ac1 1831 2382 3033 6416 fa31
000003d0: 2013 f530 442f 8a30 43d1 8630 f4b1 2631
000003e0: 618c 6a31 1bb0 f030 901d 9d2f 6be6 e330
000003f0: b2d0 f431 3588 4a31 efde 9b31 f955 bc31
