bbox_poisoning/lightning_logs/version_522/checkpoints/epoch=99-step=600.ckpt (torch, 180540 bytes, 8 tensors)

entity_embeddings.weight f4 [135, 64]
0	0xbaefcba5	-0.0018294944
1	0xbcb2eb92	-0.021840844
2	0xba2ac69f	-0.0006514582
3	0xba24c1d5	-0.0006284987
4	0x3a04d2f7	0.00050668366
5	0xbab8acea	-0.0014089618
6	0xba948135	-0.0011330011
7	0x3a7c3818	0.0009621396
8	0x3b956b3c	0.0045599025
9	0x3c1bd504	0.009511236
10	0xbb08764c	-0.0020822464
11	0xb9811000	-0.00024616718
12	0x3d0e123a	0.03468535
13	0xbcc5fe71	-0.024169179
14	0xb99c8935	-0.00029856866
15	0xba0f31e0	-0.0005462449
16	0x3a3129eb	0.00067582604
17	0x3906830f	0.00012828059
18	0x39d8dcce	0.00041363243
19	0xba57f0f3	-0.00082375034
20	0x3a57c427	0.0008230828
21	0xb97d2367	-0.00024141149
22	0x3bf040f8	0.0073319636
23	0x3b7e0c4c	0.0038764654
24	0xbd33d111	-0.043900553
25	0xbdd4eb72	-0.1039647
26	0xba3a441b	-0.00071054854
27	0xbb04a834	-0.0020241858
28	0x3b016c7b	0.0019748497
29	0xba5efc4c	-0.0008506223
30	0x3a5ec052	0.0008497286
31	0x3ae7ae12	0.0017675778
32	0xba29d127	-0.00064780045
33	0xbc1f2581	-0.0097135315
34	0xbd107b09	-0.035273585
35	0xbbc85d97	-0.0061146724
36	0x3c3df33b	0.011593635
37	0x3b910fb3	0.0044269203
38	0xba54f210	-0.00081232283
39	0x3a8cde89	0.0010747473
40	0x39eb8f04	0.00044929248
41	0x390e2eb8	0.0001355958
42	0x3836f9f8	4.3624983e-05
43	0xbb142f63	-0.0022611252
44	0xbba33037	-0.004980113
45	0xb9751d35	-0.00023375901
46	0x3bbbe9e7	0.0057346704
47	0xbbaa5c2b	-0.0051989756
48	0x3b933142	0.004491956
49	0xbb2595af	-0.002526622
50	0xb99e575b	-0.00030201193
51	0xba238ef8	-0.00062392605
52	0xbd4257ec	-0.04744713
53	0x3d03a9b4	0.032144263
54	0x3b21a058	0.0024662223
55	0x3a06d030	0.00051427167
56	0x3920d99e	0.00015339858
57	0x3b48c187	0.003063293
58	0x3f2297a7	0.63512653
59	0xbe2d69ba	-0.16934863
60	0xbea7aca2	-0.32748896
61	0x3c77cfaf	0.015125199
62	0x3bcf2a8a	0.0063222097
63	0xbc6de23e	-0.014519272
64	0xbb53a341	-0.0032293352
65	0xb995e1ba	-0.00028587674
66	0x3b5c9869	0.003366018
67	0x3a7fabe9	0.00097530946
68	0xbab39681	-0.001370147
69	0xba31694d	-0.0006767705
70	0xba01bea9	-0.000494937
71	0xba932d2a	-0.001122867
72	0xb9a1d4a1	-0.00030866734
73	0x3b5f676f	0.003408875
74	0x3a8c199c	0.0010688785
75	0xb976ddc4	-0.00023543002
76	0xbc6c2781	-0.014413715
77	0x3d23d395	0.039996702
78	0xb9fbeca3	-0.0004805076
79	0xb8b2a56e	-8.518515e-05
80	0x3b5958af	0.0033164432
81	0x390a613b	0.00013196927
82	0x39856f59	0.00025450697
83	0x39421c09	0.00018511726
84	0x39fcb071	0.00048196645
85	0xb91620c1	-0.00014317317
86	0x3a844b50	0.0010093246
87	0x38b7bfad	8.7618224e-05
88	0x3c17b8ff	0.009260415
89	0x3b67cddd	0.0035370507
90	0xbaaac71b	-0.0013029309
91	0xbc1b3360	-0.009472698
92	0xba14fd0b	-0.00056834583
93	0x3a55b21f	0.0008151847
94	0x3a7f469b	0.0009737999
95	0x39690bc9	0.00022225002
96	0x3aac9eea	0.0013169919
97	0x3ad83030	0.0016493853
98	0xbbdc8da3	-0.0067307516
99	0xb6b35d2e	-5.3454633e-06
100	0x3aacef2d	0.0013193839
101	0x3bfc86e0	0.007706508
102	0x3b42102d	0.0029611692
103	0x39a1057d	0.00030712402
104	0x3a62c6e7	0.00086508546
105	0x3a60dd16	0.0008577866
106	0x39d6dd1d	0.00040982003
107	0x3a762c3a	0.00093907455
108	0x3649f041	3.009118e-06
109	0x3a840efa	0.0010075264
110	0x3b911b8d	0.004428333
111	0xb9ab7778	-0.00032704673
112	0x3ab02016	0.0013437297
113	0xb998126f	-0.00029005433
114	0x3a5ec68b	0.0008498213
115	0x399acb66	0.00029524713
116	0xbcb69eeb	-0.022292575
117	0xbcd5fc3c	-0.026121251
118	0xbb8daea1	-0.004323796
119	0x388d98af	6.7518435e-05
120	0x3c4b7827	0.012418783
121	0x3af506e2	0.0018694068
122	0x3ef790c0	0.48352623
123	0xbe89b377	-0.26894733
124	0xbea5f6f8	-0.32414985
125	0xbcff4c4c	-0.03116431
126	0x3a97ebe6	0.0011590689
127	0xbb69fef5	-0.0035704945
128	0x3c56f827	0.013120688
129	0x3a9026a0	0.0010997839
130	0xba1328ac	-0.00056136656
131	0x39e2a812	0.000432313
132	0x3c36456d	0.011124951
133	0xba59e2e5	-0.0008311703
134	0x3ad3d8af	0.0016162599
135	0x399308c0	0.00028044544
136	0x3b5e130c	0.0033885865
137	0xbc13acc2	-0.009013357
138	0xbacbbb3e	-0.0015543473
139	0x3acff854	0.0015866854
140	0x3ca3b405	0.019983301
141	0x3dac8d62	0.08425404
142	0x3a9778c7	0.001155638
143	0xbafcecfa	-0.0019296699
144	0xba8d79f9	-0.0010793797
145	0xb9303b76	-0.00016806819
146	0xba12b977	-0.00055970944
147	0x3a8e5959	0.0010860368
148	0x3a3c783a	0.0007189546
149	0xba1311ae	-0.00056102395
150	0x3b987e78	0.004653748
151	0x3b0f2781	0.0021843615
152	0x3d42569d	0.047445882
153	0x3c497321	0.012295515
154	0x3989718f	0.00026215284
155	0x3b87dd29	0.0041462374
156	0x3a0d3f2b	0.0005388136
157	0xba7b3a7e	-0.0009583606
158	0x3a469d16	0.0007576508
159	0x3a4200c2	0.00074006256
160	0xbd932f39	-0.071867414
161	0xbb8b12c7	-0.004244182
162	0xbb9df696	-0.004820655
163	0xbcf9291d	-0.030415112
164	0x3d36a977	0.044595208
165	0x38d84dda	0.000103141836
166	0xba63746c	-0.0008676711
167	0xbad6627b	-0.0016356254
168	0xb9cfcb61	-0.00039633646
169	0xbd72ea99	-0.05930576
170	0x3aa65319	0.001268956
171	0xbada115a	-0.0016637251
172	0xba3ece47	-0.00072786625
173	0xbb043d7f	-0.0020178256
174	0xbb971ad4	-0.0046113525
175	0xbac09382	-0.0014692398
176	0x3a60b8d0	0.0008572461
177	0xbc51e36b	-0.012810568
178	0xb9589449	-0.00020654606
179	0xb86de28d	-5.6716195e-05
180	0x3c4a07e8	0.012330987
181	0x3d8605eb	0.065440975
182	0x3b464896	0.0030255667
183	0x38148297	3.540757e-05
184	0xbac6f5fc	-0.001517951
185	0xbbcbda3f	-0.0062210853
186	0x3ebe1c59	0.37131003
187	0xbee8e656	-0.45488232
188	0x3f55cd0d	0.8351601
189	0xbf7a471a	-0.9776474
190	0x3b7bf71c	0.003844685
191	0xbbd01a72	-0.006350809
192	0x3a03926b	0.00050190714
193	0x3b300dc1	0.0026863667
194	0xbb82a63b	-0.0039871014
195	0x3c29d8fb	0.010366674
196	0x399cb3e4	0.00029888668
197	0xbb3056b2	-0.0026907143
198	0x3c596202	0.013267996
199	0xbc00c5c9	-0.007859656
200	0x3ac08eda	0.0014691011
201	0xb9d82fe9	-0.00041234426
202	0xbaf76f67	-0.0018877805
203	0x389a4de9	7.357804e-05
204	0x3cfce303	0.030869966
205	0x3c20ce4a	0.009814808
206	0x39aa889d	0.00032526712
207	0x39ff79d7	0.00048728168
208	0xbab4c381	-0.0013791175
209	0xba494d3a	-0.0007679049
210	0x3ad2245e	0.0016032567
211	0x3909b7fc	0.00013133878
212	0x3722567d	9.67609e-06
213	0x3abdb11f	0.0014472342
214	0xbc1d94c5	-0.009617989
215	0xb8c4351a	-9.355899e-05
216	0x3fc44f85	1.5336767
217	0x3dc1ac1a	0.09456654
218	0xbd0361cf	-0.0320757
219	0xbc4a6ab1	-0.012354539
220	0x3a9986c9	0.0011713143
221	0xbaeda7d1	-0.0018131678
222	0x3ba0b6fa	0.004904625
223	0x3ad2b1ab	0.0016074678
224	0xbcf1666a	-0.02946778
225	0x3ae9ab48	0.0017827535
226	0x3b99d43c	0.0046944898
227	0xbc709782	-0.01468456
228	0xba9f0ed9	-0.0012135162
229	0xb9f8339d	-0.000473407
230	0xba9fd1e1	-0.0012193286
231	0x3a37a256	0.0007005086
232	0xb9a1065c	-0.0003071305
233	0xbcbea334	-0.02327118
234	0x374bdc5a	1.21510475e-05
235	0xb7fe4ab5	-3.0313948e-05
236	0x3cadcf82	0.021217111
237	0x3c1db074	0.009624589
238	0x3b5b2b90	0.0033442713
239	0x3b88d102	0.0041753063
240	0xbae2e22d	-0.0017309837
241	0x3926752c	0.00015874644
242	0x3b31f2c2	0.0027152752
243	0xbaba0d53	-0.0014194645
244	0x3f137df3	0.5761406
245	0x3f2db071	0.67847353
246	0xbaee041b	-0.0018159183
247	0x3ba18ab0	0.004929863
248	0xbe12e332	-0.1434448
249	0xbb129502	-0.0022366648
250	0x3f0a915f	0.5412807
251	0xbe12949d	-0.14314504
252	0x3e27f6c5	0.16402729
253	0x3ddfb8a8	0.10923892
254	0x3b2d7a4e	0.0026470604
255	0xba8a4e2a	-0.0010551859

relation_embeddings.weight f4 [92, 64]
0	0xbebc5603	-0.36784372
1	0xbd9e7703	-0.077375434
2	0x3c69bcf9	0.014266246
3	0x3ba419d7	0.005007963
4	0xbc1f03e1	-0.009705515
5	0x3dda6847	0.106644206
6	0xbd2c04a5	-0.041996617
7	0xbbae3d66	-0.005317378
8	0xbb8f5b74	-0.0043749157
9	0xbb917063	-0.0044384464
10	0x3deabd61	0.114619024
11	0xbe12871a	-0.1430935
12	0xbf69f901	-0.91395575
13	0xbe70871c	-0.2348904
14	0xbd48e888	-0.049049884
15	0x3d05b321	0.032641534
16	0x3c29ba42	0.010359349
17	0x39d72c64	0.0004104107
18	0x3b5f1dce	0.0034044865
19	0x3c6f38ae	0.014600916
20	0xbc75b947	-0.014997787
21	0x3b3a85bb	0.0028461057
22	0xbc725e6f	-0.014793023
23	0xbcdc1028	-0.026863173
24	0xbceb3f14	-0.028716601
25	0xbd6bb228	-0.05754295
26	0xbd893d06	-0.067010924
27	0x3d4586d8	0.0482243
28	0x3b447263	0.0029975406
29	0xbc0aff15	-0.008483668
30	0x3cc67a58	0.02422826
31	0xbe008079	-0.12549008
32	0xbe98b621	-0.29826453
33	0x3ce41839	0.027843582
34	0xbee477bf	-0.4462261
35	0xbee3cefa	-0.44493848
36	0xbc54d64b	-0.012990545
37	0xbc743994	-0.014906306
38	0xbec95952	-0.39325958
39	0xbe3e1888	-0.18564045
40	0x3c3419d2	0.010992484
41	0xbc34215e	-0.0109942835
42	0xbc10a3f5	-0.008828153
43	0xbae97cfd	-0.0017813739
44	0x3d444ddd	0.04792582
45	0xbb5e3852	-0.0033908081
46	0xbaff70e7	-0.0019488604
47	0xbb4c4dd2	-0.0031174314
48	0xbda66d66	-0.08126335
49	0x3e4069d9	0.18790378
50	0xbcdb19ef	-0.026745765
51	0xbc81fb47	-0.015866889
52	0xbd3e6ea8	-0.04649225
53	0x3b48cd2a	0.0030639865
54	0xbe0043cd	-0.12525864
55	0xbd0068d6	-0.03134998
56	0x3e99c855	0.30035654
57	0xbe570b69	-0.21000446
58	0x3fc2de69	1.5224124
59	0xbf83eb35	-1.0306154
60	0xbfe50993	-1.7893547
61	0xc00053df	-2.005119
62	0x3b314fc4	0.00270556
63	0xbb362caf	-0.002779763
64	0xbd4c6e57	-0.049909916
65	0xbb9a4430	-0.0047078356
66	0xbd9f5885	-0.07780556
67	0x3e6f5e3b	0.2337579
68	0xbe61640d	-0.22010823
69	0xbd860eaf	-0.065457694
70	0xbf803880	-1.0017242
71	0xbf0fe489	-0.5620809
72	0xbdefcb42	-0.1170869
73	0x3e49a077	0.19690119
74	0x3e1d1d68	0.15343249
75	0xbe1d9118	-0.1538738
76	0x3fb9d415	1.4517847
77	0xbf631131	-0.88698107
78	0x3eb2491e	0.3482141
79	0xbe65db03	-0.22446828
80	0xbde8f7dd	-0.11375401
81	0xbe8e3f1c	-0.27782524
82	0xbd1d0a44	-0.03833987
83	0xbe36e570	-0.17860961
84	0x3ec13f2c	0.3774351
85	0xbe4523a5	-0.19251879
86	0xbc86ec43	-0.01647008
87	0x3ef35591	0.4752622
88	0x3fe7ed4f	1.8119296
89	0x3f1412aa	0.5784098
90	0x3e73dc38	0.23814476
91	0x3f60d28e	0.8782128
92	0xbb4bf06f	-0.0031118651
93	0x3e158bff	0.14604186
94	0x3d353a10	0.044244826
95	0x3ed38654	0.41313422
96	0xbf08d866	-0.534552
97	0x3e767541	0.24068166
98	0xbd5255f2	-0.051351495
99	0x3b8d6666	0.0043151854
100	0xbe9a00a5	-0.30078617
101	0x3e847472	0.2587009
102	0xbdf4a113	-0.11944785
103	0x3e09245d	0.13392778
104	0x3e6ed5c2	0.2332373
105	0x3da4c722	0.08045794
106	0x3d9bcb4a	0.07607134
107	0x3e46eb1d	0.19425626
108	0xbe826805	-0.25469986
109	0x3e7fb546	0.24971494
110	0x3e784352	0.2424443
111	0x3e89ec56	0.26938123
112	0x3e578140	0.21045399
113	0xbe841dad	-0.2580389
114	0x3e3f8755	0.18703969
115	0x3e1dda2b	0.15415256
116	0xbd3aec2a	-0.04563538
117	0x3cb912e4	0.022592016
118	0xbe6a3ce4	-0.2287479
119	0xbe2fad62	-0.17155984
120	0xbd2e8dc1	-0.042615656
121	0xbddc769e	-0.10764812
122	0x3f835632	1.026068
123	0x3d21aacb	0.03946952
124	0x3f95cd9b	1.1703371
125	0xbdae03ce	-0.084968194
126	0xbdba8fb4	-0.091094404
127	0x3ec34751	0.38140348
128	0xbebe8bb8	-0.37215972
129	0xbec43945	-0.38324943
130	0xbe5cbd1b	-0.21556513
131	0x3c5019f0	0.0127014965
132	0x3ac8b16e	0.0015311667
133	0x3e4b99e1	0.19882919
134	0xbec567ca	-0.38555747
135	0x3f05bab3	0.52238005
136	0xbe8b726f	-0.27235743
137	0xbee5010c	-0.4472736
138	0x3e5578b0	0.2084682
139	0xbe0da221	-0.13831379
140	0xbf892862	-1.0715449
141	0x3dbd4fa8	0.09243709
142	0xbe2e19c3	-0.17002015
143	0xbe6ce1c4	-0.23132998
144	0x3e41f1cf	0.18939899
145	0xbe11e6c4	-0.14248186
146	0x3d8f0396	0.06983106
147	0xbcecba75	-0.028897503
148	0x3e031db7	0.12804304
149	0xbe5cc8f3	-0.21561031
150	0x3e84275f	0.25811288
151	0x3e2dad47	0.16960631
152	0xbef134d1	-0.47110608
153	0x3ed88670	0.42290068
154	0x3e3fa58a	0.18715492
155	0xbec6b420	-0.388093
156	0xbe87d5e8	-0.26530385
157	0xbd75b36d	-0.059985567
158	0xbea476f0	-0.32121992
159	0x3e15bf2b	0.14623706
160	0xbe31a1c7	-0.1734687
161	0x3ea0d4e4	0.31412423
162	0x3f99ac35	1.2005678
163	0xbfa0a262	-1.2549555
164	0x3ede921b	0.43470845
165	0x3f17ac86	0.59247625
166	0xbdb10dc9	-0.086452074
167	0x3e2197b0	0.1578052
168	0xbe8913d4	-0.2677294
169	0x3de52f6a	0.11190684
170	0xbebc818a	-0.3681758
171	0xbe26060a	-0.16213241
172	0xbe1dcff3	-0.15411358
173	0x3eadf8d7	0.33978912
174	0x3e85ce76	0.2613408
175	0xbd7dbd8a	-0.061948337
176	0xbe235e4f	-0.15953945
177	0xbeecff18	-0.4628837
178	0x3e5bca58	0.21463907
179	0xbe908b6d	-0.28231373
180	0xbf7e5e17	-0.9936232
181	0x4014aded	2.3231156
182	0xbe0886a9	-0.13332619
183	0x3ee8b377	0.4544942
184	0x3e82906c	0.2550081
185	0x3eb575ec	0.3544153
186	0x3f518643	0.8184549
187	0x3e326848	0.17422593
188	0xc01ac3f4	-2.41821
189	0xc04ccc27	-3.1999605
190	0xbe7fcbde	-0.24980113
191	0xbd3bc375	-0.0458407
192	0x3c2cccb7	0.010546855
193	0xbe6313e7	-0.22175561
194	0x3c03824c	0.008026671
195	0x3a256383	0.0006309079
196	0x3d16cc46	0.036815904
197	0x3d1c38da	0.038140155
198	0x3fab433e	1.3379896
199	0x3db7ac80	0.08968449
200	0xbf828fc5	-1.0200125
201	0x3bd37427	0.0064530554
202	0xbb9c410a	-0.0047684954
203	0x3c4e83e1	0.012604685
204	0x3c653b68	0.013991214
205	0xbbf7ee18	-0.007566225
206	0x3e12ff1b	0.14355128
207	0x3de0ceac	0.109769195
208	0xbef856a7	-0.4850361
209	0xbd2c804e	-0.04211455
210	0xbab9e151	-0.0014181529
211	0x3c71bbee	0.014754279
212	0x3b517ecc	0.0031966446
213	0x3b242654	0.002504726
214	0xba8cf306	-0.0010753579
215	0xb9f3fa10	-0.00046534883
216	0x3dd9c6f6	0.10633652
217	0x401b73d2	2.428944
218	0xbebc5769	-0.3678544
219	0x3f9741af	1.181692
220	0xbe5b8034	-0.21435624
221	0x3ea2ffcd	0.31835786
222	0xbbcbbbbb	-0.0062174476
223	0x3cc43eb6	0.023955684
224	0xbe3c4ee3	-0.18389468
225	0xbcc4223a	-0.023942102
226	0x3d170258	0.03686747
227	0xbd9ef968	-0.07762414
228	0xbcb82a6b	-0.022481164
229	0x3c690762	0.014222952
230	0xbe16acd3	-0.14714365
231	0x3e1daa95	0.15397103
232	0xbe164eaa	-0.14678445
233	0x3c5da615	0.013528367
234	0xbda51fc6	-0.08062701
235	0x3db6a537	0.08918231
236	0x3c946a19	0.018116998
237	0xbf1c3b6a	-0.6102816
238	0xbb59215b	-0.0033131454
239	0xba04be95	-0.00050637993
240	0x3b9bde92	0.004756757
241	0xbab710b6	-0.0013966772
242	0xbe67d302	-0.22639087
243	0xbf174c10	-0.5910044
244	0xbe2978a0	-0.16549921
245	0x3e80c447	0.25149748
246	0x3c1ef7ae	0.009702606
247	0xbcf3a4f6	-0.029741745
248	0xbd81a12c	-0.06329569
249	0xbc254583	-0.010087374
250	0xbe0817a5	-0.1329027
251	0x3e051ea6	0.12999973
252	0xbed2dd92	-0.4118467
253	0xc0130b17	-2.2975519
254	0xbcd68ee0	-0.026191175
255	0xbfb44c0d	-1.4085709

model.entity_representations.0._embeddings.weight f4 [135, 64]
0	0xbaefcba5	-0.0018294944
1	0xbcb2eb92	-0.021840844
2	0xba2ac69f	-0.0006514582
3	0xba24c1d5	-0.0006284987
4	0x3a04d2f7	0.00050668366
5	0xbab8acea	-0.0014089618
6	0xba948135	-0.0011330011
7	0x3a7c3818	0.0009621396
8	0x3b956b3c	0.0045599025
9	0x3c1bd504	0.009511236
10	0xbb08764c	-0.0020822464
11	0xb9811000	-0.00024616718
12	0x3d0e123a	0.03468535
13	0xbcc5fe71	-0.024169179
14	0xb99c8935	-0.00029856866
15	0xba0f31e0	-0.0005462449
16	0x3a3129eb	0.00067582604
17	0x3906830f	0.00012828059
18	0x39d8dcce	0.00041363243
19	0xba57f0f3	-0.00082375034
20	0x3a57c427	0.0008230828
21	0xb97d2367	-0.00024141149
22	0x3bf040f8	0.0073319636
23	0x3b7e0c4c	0.0038764654
24	0xbd33d111	-0.043900553
25	0xbdd4eb72	-0.1039647
26	0xba3a441b	-0.00071054854
27	0xbb04a834	-0.0020241858
28	0x3b016c7b	0.0019748497
29	0xba5efc4c	-0.0008506223
30	0x3a5ec052	0.0008497286
31	0x3ae7ae12	0.0017675778
32	0xba29d127	-0.00064780045
33	0xbc1f2581	-0.0097135315
34	0xbd107b09	-0.035273585
35	0xbbc85d97	-0.0061146724
36	0x3c3df33b	0.011593635
37	0x3b910fb3	0.0044269203
38	0xba54f210	-0.00081232283
39	0x3a8cde89	0.0010747473
40	0x39eb8f04	0.00044929248
41	0x390e2eb8	0.0001355958
42	0x3836f9f8	4.3624983e-05
43	0xbb142f63	-0.0022611252
44	0xbba33037	-0.004980113
45	0xb9751d35	-0.00023375901
46	0x3bbbe9e7	0.0057346704
47	0xbbaa5c2b	-0.0051989756
48	0x3b933142	0.004491956
49	0xbb2595af	-0.002526622
50	0xb99e575b	-0.00030201193
51	0xba238ef8	-0.00062392605
52	0xbd4257ec	-0.04744713
53	0x3d03a9b4	0.032144263
54	0x3b21a058	0.0024662223
55	0x3a06d030	0.00051427167
56	0x3920d99e	0.00015339858
57	0x3b48c187	0.003063293
58	0x3f2297a7	0.63512653
59	0xbe2d69ba	-0.16934863
60	0xbea7aca2	-0.32748896
61	0x3c77cfaf	0.015125199
62	0x3bcf2a8a	0.0063222097
63	0xbc6de23e	-0.014519272
64	0xbb53a341	-0.0032293352
65	0xb995e1ba	-0.00028587674
66	0x3b5c9869	0.003366018
67	0x3a7fabe9	0.00097530946
68	0xbab39681	-0.001370147
69	0xba31694d	-0.0006767705
70	0xba01bea9	-0.000494937
71	0xba932d2a	-0.001122867
72	0xb9a1d4a1	-0.00030866734
73	0x3b5f676f	0.003408875
74	0x3a8c199c	0.0010688785
75	0xb976ddc4	-0.00023543002
76	0xbc6c2781	-0.014413715
77	0x3d23d395	0.039996702
78	0xb9fbeca3	-0.0004805076
79	0xb8b2a56e	-8.518515e-05
80	0x3b5958af	0.0033164432
81	0x390a613b	0.00013196927
82	0x39856f59	0.00025450697
83	0x39421c09	0.00018511726
84	0x39fcb071	0.00048196645
85	0xb91620c1	-0.00014317317
86	0x3a844b50	0.0010093246
87	0x38b7bfad	8.7618224e-05
88	0x3c17b8ff	0.009260415
89	0x3b67cddd	0.0035370507
90	0xbaaac71b	-0.0013029309
91	0xbc1b3360	-0.009472698
92	0xba14fd0b	-0.00056834583
93	0x3a55b21f	0.0008151847
94	0x3a7f469b	0.0009737999
95	0x39690bc9	0.00022225002
96	0x3aac9eea	0.0013169919
97	0x3ad83030	0.0016493853
98	0xbbdc8da3	-0.0067307516
99	0xb6b35d2e	-5.3454633e-06
100	0x3aacef2d	0.0013193839
101	0x3bfc86e0	0.007706508
102	0x3b42102d	0.0029611692
103	0x39a1057d	0.00030712402
104	0x3a62c6e7	0.00086508546
105	0x3a60dd16	0.0008577866
106	0x39d6dd1d	0.00040982003
107	0x3a762c3a	0.00093907455
108	0x3649f041	3.009118e-06
109	0x3a840efa	0.0010075264
110	0x3b911b8d	0.004428333
111	0xb9ab7778	-0.00032704673
112	0x3ab02016	0.0013437297
113	0xb998126f	-0.00029005433
114	0x3a5ec68b	0.0008498213
115	0x399acb66	0.00029524713
116	0xbcb69eeb	-0.022292575
117	0xbcd5fc3c	-0.026121251
118	0xbb8daea1	-0.004323796
119	0x388d98af	6.7518435e-05
120	0x3c4b7827	0.012418783
121	0x3af506e2	0.0018694068
122	0x3ef790c0	0.48352623
123	0xbe89b377	-0.26894733
124	0xbea5f6f8	-0.32414985
125	0xbcff4c4c	-0.03116431
126	0x3a97ebe6	0.0011590689
127	0xbb69fef5	-0.0035704945
128	0x3c56f827	0.013120688
129	0x3a9026a0	0.0010997839
130	0xba1328ac	-0.00056136656
131	0x39e2a812	0.000432313
132	0x3c36456d	0.011124951
133	0xba59e2e5	-0.0008311703
134	0x3ad3d8af	0.0016162599
135	0x399308c0	0.00028044544
136	0x3b5e130c	0.0033885865
137	0xbc13acc2	-0.009013357
138	0xbacbbb3e	-0.0015543473
139	0x3acff854	0.0015866854
140	0x3ca3b405	0.019983301
141	0x3dac8d62	0.08425404
142	0x3a9778c7	0.001155638
143	0xbafcecfa	-0.0019296699
144	0xba8d79f9	-0.0010793797
145	0xb9303b76	-0.00016806819
146	0xba12b977	-0.00055970944
147	0x3a8e5959	0.0010860368
148	0x3a3c783a	0.0007189546
149	0xba1311ae	-0.00056102395
150	0x3b987e78	0.004653748
151	0x3b0f2781	0.0021843615
152	0x3d42569d	0.047445882
153	0x3c497321	0.012295515
154	0x3989718f	0.00026215284
155	0x3b87dd29	0.0041462374
156	0x3a0d3f2b	0.0005388136
157	0xba7b3a7e	-0.0009583606
158	0x3a469d16	0.0007576508
159	0x3a4200c2	0.00074006256
160	0xbd932f39	-0.071867414
161	0xbb8b12c7	-0.004244182
162	0xbb9df696	-0.004820655
163	0xbcf9291d	-0.030415112
164	0x3d36a977	0.044595208
165	0x38d84dda	0.000103141836
166	0xba63746c	-0.0008676711
167	0xbad6627b	-0.0016356254
168	0xb9cfcb61	-0.00039633646
169	0xbd72ea99	-0.05930576
170	0x3aa65319	0.001268956
171	0xbada115a	-0.0016637251
172	0xba3ece47	-0.00072786625
173	0xbb043d7f	-0.0020178256
174	0xbb971ad4	-0.0046113525
175	0xbac09382	-0.0014692398
176	0x3a60b8d0	0.0008572461
177	0xbc51e36b	-0.012810568
178	0xb9589449	-0.00020654606
179	0xb86de28d	-5.6716195e-05
180	0x3c4a07e8	0.012330987
181	0x3d8605eb	0.065440975
182	0x3b464896	0.0030255667
183	0x38148297	3.540757e-05
184	0xbac6f5fc	-0.001517951
185	0xbbcbda3f	-0.0062210853
186	0x3ebe1c59	0.37131003
187	0xbee8e656	-0.45488232
188	0x3f55cd0d	0.8351601
189	0xbf7a471a	-0.9776474
190	0x3b7bf71c	0.003844685
191	0xbbd01a72	-0.006350809
192	0x3a03926b	0.00050190714
193	0x3b300dc1	0.0026863667
194	0xbb82a63b	-0.0039871014
195	0x3c29d8fb	0.010366674
196	0x399cb3e4	0.00029888668
197	0xbb3056b2	-0.0026907143
198	0x3c596202	0.013267996
199	0xbc00c5c9	-0.007859656
200	0x3ac08eda	0.0014691011
201	0xb9d82fe9	-0.00041234426
202	0xbaf76f67	-0.0018877805
203	0x389a4de9	7.357804e-05
204	0x3cfce303	0.030869966
205	0x3c20ce4a	0.009814808
206	0x39aa889d	0.00032526712
207	0x39ff79d7	0.00048728168
208	0xbab4c381	-0.0013791175
209	0xba494d3a	-0.0007679049
210	0x3ad2245e	0.0016032567
211	0x3909b7fc	0.00013133878
212	0x3722567d	9.67609e-06
213	0x3abdb11f	0.0014472342
214	0xbc1d94c5	-0.009617989
215	0xb8c4351a	-9.355899e-05
216	0x3fc44f85	1.5336767
217	0x3dc1ac1a	0.09456654
218	0xbd0361cf	-0.0320757
219	0xbc4a6ab1	-0.012354539
220	0x3a9986c9	0.0011713143
221	0xbaeda7d1	-0.0018131678
222	0x3ba0b6fa	0.004904625
223	0x3ad2b1ab	0.0016074678
224	0xbcf1666a	-0.02946778
225	0x3ae9ab48	0.0017827535
226	0x3b99d43c	0.0046944898
227	0xbc709782	-0.01468456
228	0xba9f0ed9	-0.0012135162
229	0xb9f8339d	-0.000473407
230	0xba9fd1e1	-0.0012193286
231	0x3a37a256	0.0007005086
232	0xb9a1065c	-0.0003071305
233	0xbcbea334	-0.02327118
234	0x374bdc5a	1.21510475e-05
235	0xb7fe4ab5	-3.0313948e-05
236	0x3cadcf82	0.021217111
237	0x3c1db074	0.009624589
238	0x3b5b2b90	0.0033442713
239	0x3b88d102	0.0041753063
240	0xbae2e22d	-0.0017309837
241	0x3926752c	0.00015874644
242	0x3b31f2c2	0.0027152752
243	0xbaba0d53	-0.0014194645
244	0x3f137df3	0.5761406
245	0x3f2db071	0.67847353
246	0xbaee041b	-0.0018159183
247	0x3ba18ab0	0.004929863
248	0xbe12e332	-0.1434448
249	0xbb129502	-0.0022366648
250	0x3f0a915f	0.5412807
251	0xbe12949d	-0.14314504
252	0x3e27f6c5	0.16402729
253	0x3ddfb8a8	0.10923892
254	0x3b2d7a4e	0.0026470604
255	0xba8a4e2a	-0.0010551859

model.relation_representations.0._embeddings.weight f4 [92, 64]
0	0xbebc5603	-0.36784372
1	0xbd9e7703	-0.077375434
2	0x3c69bcf9	0.014266246
3	0x3ba419d7	0.005007963
4	0xbc1f03e1	-0.009705515
5	0x3dda6847	0.106644206
6	0xbd2c04a5	-0.041996617
7	0xbbae3d66	-0.005317378
8	0xbb8f5b74	-0.0043749157
9	0xbb917063	-0.0044384464
10	0x3deabd61	0.114619024
11	0xbe12871a	-0.1430935
12	0xbf69f901	-0.91395575
13	0xbe70871c	-0.2348904
14	0xbd48e888	-0.049049884
15	0x3d05b321	0.032641534
16	0x3c29ba42	0.010359349
17	0x39d72c64	0.0004104107
18	0x3b5f1dce	0.0034044865
19	0x3c6f38ae	0.014600916
20	0xbc75b947	-0.014997787
21	0x3b3a85bb	0.0028461057
22	0xbc725e6f	-0.014793023
23	0xbcdc1028	-0.026863173
24	0xbceb3f14	-0.028716601
25	0xbd6bb228	-0.05754295
26	0xbd893d06	-0.067010924
27	0x3d4586d8	0.0482243
28	0x3b447263	0.0029975406
29	0xbc0aff15	-0.008483668
30	0x3cc67a58	0.02422826
31	0xbe008079	-0.12549008
32	0xbe98b621	-0.29826453
33	0x3ce41839	0.027843582
34	0xbee477bf	-0.4462261
35	0xbee3cefa	-0.44493848
36	0xbc54d64b	-0.012990545
37	0xbc743994	-0.014906306
38	0xbec95952	-0.39325958
39	0xbe3e1888	-0.18564045
40	0x3c3419d2	0.010992484
41	0xbc34215e	-0.0109942835
42	0xbc10a3f5	-0.008828153
43	0xbae97cfd	-0.0017813739
44	0x3d444ddd	0.04792582
45	0xbb5e3852	-0.0033908081
46	0xbaff70e7	-0.0019488604
47	0xbb4c4dd2	-0.0031174314
48	0xbda66d66	-0.08126335
49	0x3e4069d9	0.18790378
50	0xbcdb19ef	-0.026745765
51	0xbc81fb47	-0.015866889
52	0xbd3e6ea8	-0.04649225
53	0x3b48cd2a	0.0030639865
54	0xbe0043cd	-0.12525864
55	0xbd0068d6	-0.03134998
56	0x3e99c855	0.30035654
57	0xbe570b69	-0.21000446
58	0x3fc2de69	1.5224124
59	0xbf83eb35	-1.0306154
60	0xbfe50993	-1.7893547
61	0xc00053df	-2.005119
62	0x3b314fc4	0.00270556
63	0xbb362caf	-0.002779763
64	0xbd4c6e57	-0.049909916
65	0xbb9a4430	-0.0047078356
66	0xbd9f5885	-0.07780556
67	0x3e6f5e3b	0.2337579
68	0xbe61640d	-0.22010823
69	0xbd860eaf	-0.065457694
70	0xbf803880	-1.0017242
71	0xbf0fe489	-0.5620809
72	0xbdefcb42	-0.1170869
73	0x3e49a077	0.19690119
74	0x3e1d1d68	0.15343249
75	0xbe1d9118	-0.1538738
76	0x3fb9d415	1.4517847
77	0xbf631131	-0.88698107
78	0x3eb2491e	0.3482141
79	0xbe65db03	-0.22446828
80	0xbde8f7dd	-0.11375401
81	0xbe8e3f1c	-0.27782524
82	0xbd1d0a44	-0.03833987
83	0xbe36e570	-0.17860961
84	0x3ec13f2c	0.3774351
85	0xbe4523a5	-0.19251879
86	0xbc86ec43	-0.01647008
87	0x3ef35591	0.4752622
88	0x3fe7ed4f	1.8119296
89	0x3f1412aa	0.5784098
90	0x3e73dc38	0.23814476
91	0x3f60d28e	0.8782128
92	0xbb4bf06f	-0.0031118651
93	0x3e158bff	0.14604186
94	0x3d353a10	0.044244826
95	0x3ed38654	0.41313422
96	0xbf08d866	-0.534552
97	0x3e767541	0.24068166
98	0xbd5255f2	-0.051351495
99	0x3b8d6666	0.0043151854
100	0xbe9a00a5	-0.30078617
101	0x3e847472	0.2587009
102	0xbdf4a113	-0.11944785
103	0x3e09245d	0.13392778
104	0x3e6ed5c2	0.2332373
105	0x3da4c722	0.08045794
106	0x3d9bcb4a	0.07607134
107	0x3e46eb1d	0.19425626
108	0xbe826805	-0.25469986
109	0x3e7fb546	0.24971494
110	0x3e784352	0.2424443
111	0x3e89ec56	0.26938123
112	0x3e578140	0.21045399
113	0xbe841dad	-0.2580389
114	0x3e3f8755	0.18703969
115	0x3e1dda2b	0.15415256
116	0xbd3aec2a	-0.04563538
117	0x3cb912e4	0.022592016
118	0xbe6a3ce4	-0.2287479
119	0xbe2fad62	-0.17155984
120	0xbd2e8dc1	-0.042615656
121	0xbddc769e	-0.10764812
122	0x3f835632	1.026068
123	0x3d21aacb	0.03946952
124	0x3f95cd9b	1.1703371
125	0xbdae03ce	-0.084968194
126	0xbdba8fb4	-0.091094404
127	0x3ec34751	0.38140348
128	0xbebe8bb8	-0.37215972
129	0xbec43945	-0.38324943
130	0xbe5cbd1b	-0.21556513
131	0x3c5019f0	0.0127014965
132	0x3ac8b16e	0.0015311667
133	0x3e4b99e1	0.19882919
134	0xbec567ca	-0.38555747
135	0x3f05bab3	0.52238005
136	0xbe8b726f	-0.27235743
137	0xbee5010c	-0.4472736
138	0x3e5578b0	0.2084682
139	0xbe0da221	-0.13831379
140	0xbf892862	-1.0715449
141	0x3dbd4fa8	0.09243709
142	0xbe2e19c3	-0.17002015
143	0xbe6ce1c4	-0.23132998
144	0x3e41f1cf	0.18939899
145	0xbe11e6c4	-0.14248186
146	0x3d8f0396	0.06983106
147	0xbcecba75	-0.028897503
148	0x3e031db7	0.12804304
149	0xbe5cc8f3	-0.21561031
150	0x3e84275f	0.25811288
151	0x3e2dad47	0.16960631
152	0xbef134d1	-0.47110608
153	0x3ed88670	0.42290068
154	0x3e3fa58a	0.18715492
155	0xbec6b420	-0.388093
156	0xbe87d5e8	-0.26530385
157	0xbd75b36d	-0.059985567
158	0xbea476f0	-0.32121992
159	0x3e15bf2b	0.14623706
160	0xbe31a1c7	-0.1734687
161	0x3ea0d4e4	0.31412423
162	0x3f99ac35	1.2005678
163	0xbfa0a262	-1.2549555
164	0x3ede921b	0.43470845
165	0x3f17ac86	0.59247625
166	0xbdb10dc9	-0.086452074
167	0x3e2197b0	0.1578052
168	0xbe8913d4	-0.2677294
169	0x3de52f6a	0.11190684
170	0xbebc818a	-0.3681758
171	0xbe26060a	-0.16213241
172	0xbe1dcff3	-0.15411358
173	0x3eadf8d7	0.33978912
174	0x3e85ce76	0.2613408
175	0xbd7dbd8a	-0.061948337
176	0xbe235e4f	-0.15953945
177	0xbeecff18	-0.4628837
178	0x3e5bca58	0.21463907
179	0xbe908b6d	-0.28231373
180	0xbf7e5e17	-0.9936232
181	0x4014aded	2.3231156
182	0xbe0886a9	-0.13332619
183	0x3ee8b377	0.4544942
184	0x3e82906c	0.2550081
185	0x3eb575ec	0.3544153
186	0x3f518643	0.8184549
187	0x3e326848	0.17422593
188	0xc01ac3f4	-2.41821
189	0xc04ccc27	-3.1999605
190	0xbe7fcbde	-0.24980113
191	0xbd3bc375	-0.0458407
192	0x3c2cccb7	0.010546855
193	0xbe6313e7	-0.22175561
194	0x3c03824c	0.008026671
195	0x3a256383	0.0006309079
196	0x3d16cc46	0.036815904
197	0x3d1c38da	0.038140155
198	0x3fab433e	1.3379896
199	0x3db7ac80	0.08968449
200	0xbf828fc5	-1.0200125
201	0x3bd37427	0.0064530554
202	0xbb9c410a	-0.0047684954
203	0x3c4e83e1	0.012604685
204	0x3c653b68	0.013991214
205	0xbbf7ee18	-0.007566225
206	0x3e12ff1b	0.14355128
207	0x3de0ceac	0.109769195
208	0xbef856a7	-0.4850361
209	0xbd2c804e	-0.04211455
210	0xbab9e151	-0.0014181529
211	0x3c71bbee	0.014754279
212	0x3b517ecc	0.0031966446
213	0x3b242654	0.002504726
214	0xba8cf306	-0.0010753579
215	0xb9f3fa10	-0.00046534883
216	0x3dd9c6f6	0.10633652
217	0x401b73d2	2.428944
218	0xbebc5769	-0.3678544
219	0x3f9741af	1.181692
220	0xbe5b8034	-0.21435624
221	0x3ea2ffcd	0.31835786
222	0xbbcbbbbb	-0.0062174476
223	0x3cc43eb6	0.023955684
224	0xbe3c4ee3	-0.18389468
225	0xbcc4223a	-0.023942102
226	0x3d170258	0.03686747
227	0xbd9ef968	-0.07762414
228	0xbcb82a6b	-0.022481164
229	0x3c690762	0.014222952
230	0xbe16acd3	-0.14714365
231	0x3e1daa95	0.15397103
232	0xbe164eaa	-0.14678445
233	0x3c5da615	0.013528367
234	0xbda51fc6	-0.08062701
235	0x3db6a537	0.08918231
236	0x3c946a19	0.018116998
237	0xbf1c3b6a	-0.6102816
238	0xbb59215b	-0.0033131454
239	0xba04be95	-0.00050637993
240	0x3b9bde92	0.004756757
241	0xbab710b6	-0.0013966772
242	0xbe67d302	-0.22639087
243	0xbf174c10	-0.5910044
244	0xbe2978a0	-0.16549921
245	0x3e80c447	0.25149748
246	0x3c1ef7ae	0.009702606
247	0xbcf3a4f6	-0.029741745
248	0xbd81a12c	-0.06329569
249	0xbc254583	-0.010087374
250	0xbe0817a5	-0.1329027
251	0x3e051ea6	0.12999973
252	0xbed2dd92	-0.4118467
253	0xc0130b17	-2.2975519
254	0xbcd68ee0	-0.026191175
255	0xbfb44c0d	-1.4085709

exp_avg f4 [135, 64]
0	0x3c430ea7	0.011905349
1	0x3e9f1e74	0.3107792
2	0x3c81b0da	0.0158314
3	0x3c0abca7	0.00846783
4	0xba9c31c6	-0.0011916689
5	0x3c1663dc	0.009179082
6	0x3c11813d	0.00888091
7	0x3bab6d4b	0.0052315346
8	0xbca18f99	-0.019721793
9	0xbc044d7a	-0.0080751125
10	0x3ba7b74e	0.005118287
11	0xb812a779	-3.4965084e-05
12	0x3e65221a	0.2237629
13	0xbe652af5	-0.22379668
14	0x3b799e11	0.00380886
15	0x3b91c4d0	0.0044485107
16	0xba2d8ba2	-0.0006620233
17	0x3a4eeb0a	0.00078933
18	0x3a9b5cfc	0.0011853273
19	0x391dc8be	0.00015047469
20	0x3a380e06	0.00070211326
21	0x3a44e578	0.0007511
22	0x3c68468b	0.014176975
23	0x3ac63610	0.0015122313
24	0xbe2ef09e	-0.17083976
25	0x3f1bf6bf	0.6092338
26	0x3b5784f8	0.0032885652
27	0xbe3947cf	-0.18093799
28	0xbb2bf704	-0.0026239762
29	0x3a79f26d	0.00095347204
30	0xbc4043ca	-0.011734912
31	0x3c0b9e99	0.008521699
32	0xbbc2695c	-0.00593297
33	0x3dfe443c	0.124153584
34	0x3f0580eb	0.5214984
35	0x3da43dd2	0.08019604
36	0xbd220fb8	-0.03956577
37	0x3d83f476	0.064431116
38	0x3a8d1791	0.001076447
39	0x3bace8c1	0.00527677
40	0xb9aac5cf	-0.00032572306
41	0x39c5aaa1	0.00037701897
42	0xbb19f587	-0.0023492293
43	0xbc9bd0a5	-0.019020388
44	0x3d25a22c	0.040437862
45	0xbaf2a30b	-0.0018511725
46	0xbcd23b80	-0.025663137
47	0xbbd87b12	-0.006606468
48	0xbcac7f77	-0.021056874
49	0x3c01aa56	0.007914146
50	0xba969202	-0.0011487606
51	0x3b6933cf	0.003558386
52	0x3f643528	0.8914361
53	0xbf095cd8	-0.53657293
54	0x3b2730a1	0.0025511163
55	0xba871131	-0.0010304806
56	0x3cb1e80b	0.021717092
57	0xbccd523f	-0.025063632
58	0xbd910172	-0.07080354
59	0x3d0d5e12	0.03451354
60	0x3eaad373	0.33364448
61	0xbeb92683	-0.36162195
62	0xbd46c029	-0.048523102
63	0x3be80e29	0.007081766
64	0x3aa567bb	0.0012619415
65	0x39c73a39	0.00037999617
66	0xbc3697c5	-0.011144583
67	0xbbbf127a	-0.00583106
68	0xb9db4a70	-0.00041826395
69	0x3be0d405	0.006861212
70	0xb9507059	-0.00019878279
71	0x376d0151	1.4126607e-05
72	0x3b2638af	0.0025363376
73	0x3afe9fe6	0.0019426316
74	0xbc049564	-0.008092258
75	0xbb49e33e	-0.0030805613
76	0xbda013d4	-0.07816282
77	0xbeac4144	-0.33643544
78	0xbb5016bc	-0.0031751832
79	0xb9ac8e3e	-0.00032912375
80	0xbd57a7c4	-0.05265023
81	0xba3677ef	-0.00069606205
82	0x391d112c	0.00014979084
83	0xba36f7cd	-0.0006979674
84	0xbafcdb46	-0.0019291423
85	0xbc9b1140	-0.018929124
86	0x3c062d71	0.008189545
87	0xbbda9948	-0.0066711046
88	0xbdfbbe9d	-0.12292216
89	0xbdd28c43	-0.10280659
90	0xbbac485c	-0.0052576493
91	0x3e57ed9a	0.21086732
92	0x3af9a38b	0.0019045932
93	0xba91f682	-0.0011136087
94	0x3b7fc83a	0.0039029256
95	0xbc1f9f93	-0.009742635
96	0x3aaa4225	0.0012989683
97	0x3b4cf4b5	0.0031273786
98	0x3d7f678f	0.06235462
99	0xbdc37df9	-0.09545512
100	0xbd85e5df	-0.06537985
101	0xbe1743c2	-0.14771941
102	0xbc27f6c8	-0.010251708
103	0x3b1365a8	0.0022491012
104	0x3aa94a1a	0.0012915761
105	0x3aa0e7a2	0.0012276063
106	0x3b3d8b88	0.0028922278
107	0xbbd064c5	-0.006359669
108	0xba1e0b8b	-0.0006028942
109	0xbaaa5b44	-0.001299717
110	0x387db5d6	6.048925e-05
111	0x39083442	0.00012989438
112	0x3a7ff18f	0.0009763473
113	0x3c1971b5	0.009365489
114	0xbc56686b	-0.013086419
115	0x3af88cf1	0.0018962902
116	0xbc36a392	-0.011147397
117	0x3de6f03a	0.11276288
118	0x3b7f562e	0.003896128
119	0xbb10cf9c	-0.00220964
120	0xbd5d2557	-0.05399069
121	0xba9021cc	-0.00109964
122	0x3d1f3f3b	0.03887866
123	0x3e1323eb	0.1436917
124	0x3db98c5a	0.09059973
125	0x3ec94446	0.393099
126	0xbca6ca1c	-0.020360045
127	0xbc7d1dcd	-0.015449
128	0xbd65d9d2	-0.056115933
129	0x3b31c18c	0.002712342
130	0x3b2161c7	0.002462493
131	0xbbe437dd	-0.0069646672
132	0xbd9841b3	-0.07434406
133	0x3b5d578d	0.0033774108
134	0x3acd530d	0.001566501
135	0x3c7237bd	0.014783797
136	0xbca0e5a3	-0.01964075
137	0xbc0ce9aa	-0.008600632
138	0x3cef3de7	0.029204322
139	0xbae81469	-0.0017706278
140	0xbdfaf9e6	-0.122546956
141	0xbf1b8ee3	-0.607649
142	0xbb853bcc	-0.0040659662
143	0x3aff36f2	0.0019471331
144	0x3c96c726	0.018405508
145	0x3c5580dd	0.013031212
146	0x3a21d253	0.00061730033
147	0xba30c694	-0.00067434576
148	0xb9ab3c8b	-0.0003266077
149	0xba31d4d2	-0.0006783727
150	0xbca97d97	-0.020689769
151	0xbd1f631f	-0.03891289
152	0xbf0e38a5	-0.5555518
153	0x3da95de7	0.082698636
154	0xbcad0b98	-0.021123692
155	0xbc536d67	-0.0129045015
156	0xb7f0dd20	-2.8713199e-05
157	0x3c026a3c	0.007959899
158	0xbc382bda	-0.011240924
159	0xb7f104e3	-2.8731714e-05
160	0x3ebc2118	0.36744
161	0xbd7e916d	-0.062150408
162	0x3c4d2072	0.012519943
163	0x3e2f5373	0.17121677
164	0xbe7d6934	-0.24747163
165	0x3b822573	0.0039717495
166	0xbcc1e559	-0.023668932
167	0xbb937513	-0.0045000403
168	0x3b24a659	0.0025123565
169	0x3e963868	0.2933991
170	0x3b420140	0.0029602796
171	0x3d073701	0.03301144
172	0x3cf7f861	0.030269803
173	0x3a88823a	0.0010414787
174	0x3d21e2f0	0.039523065
175	0xbd3977bd	-0.045280207
176	0xba17b7c0	-0.0005787574
177	0x3d6632a0	0.056200624
178	0xba078351	-0.0005169409
179	0xba09941b	-0.00052482047
180	0x3eb36957	0.35041305
181	0xbc8ee48a	-0.01744296
182	0x3cc2dbd9	0.023786472
183	0x3b4b90b2	0.0031061587
184	0x3c8e3e4b	0.017363688
185	0x3da0596d	0.078295566
186	0xbc3d01ea	-0.011536101
187	0x3e6e5ae6	0.23276863
188	0x3e245a64	0.16050106
189	0xbe469dcb	-0.1939613
190	0xbc3867e9	-0.011255243
191	0x3ddf9948	0.10917908
192	0x3bcc86c1	0.00624165
193	0x3c4435c5	0.01197571
194	0x3cb3b306	0.021935951
195	0xbc87f6be	-0.016597148
196	0x37c7f362	2.3835983e-05
197	0x3b623cda	0.0034521134
198	0xb941883c	-0.00018456666
199	0x3cd2d476	0.025736075
200	0xb99cb06e	-0.0002988609
201	0x3a55f966	0.00081624684
202	0x386a7e6b	5.5907683e-05
203	0xb9f56755	-0.0004680703
204	0x3c8d014f	0.017212538
205	0x3d5c3593	0.05376203
206	0xb9cb88ba	-0.00038821046
207	0xba29dbec	-0.00064796093
208	0x3ba0bd57	0.0049053836
209	0xb9c56a40	-0.0003765393
210	0xbb7fbf39	-0.003902389
211	0x393e6b9a	0.00018159897
212	0xb9a09ba0	-0.00030633528
213	0xb902d5ab	-0.00012477364
214	0xbdbfd622	-0.093670145
215	0x3a92ee7a	0.0011209988
216	0x3ea3a0a8	0.31958508
217	0x3e83cec5	0.2574369
218	0x3e797604	0.24361426
219	0x3d20dfeb	0.039276045
220	0xb99533dc	-0.00028458133
221	0x3b12463a	0.002231969
222	0xba6bf1a0	-0.00090005435
223	0xbac0b807	-0.0014703282
224	0x3db0fe6f	0.08642279
225	0xba84ef65	-0.0010142146
226	0xbbd621ae	-0.0065347767
227	0xbd74754e	-0.059682183
228	0x3aef5b29	0.0018261421
229	0x3b126e56	0.0022343597
230	0xbb3590b2	-0.0027704653
231	0x3affe427	0.0019522951
232	0x39cf6415	0.00039556684
233	0x3d5710c0	0.05250621
234	0xb8d3b6b1	-0.00010095293
235	0x3ab907a3	0.0014116656
236	0xbd4cdd1b	-0.05001555
237	0x3d0d7efe	0.034544937
238	0xbb509857	-0.0031829083
239	0xbd0abeb6	-0.033873282
240	0xbb06e2ca	-0.0020581954
241	0xbba67190	-0.0050794557
242	0x3b8d70e2	0.004316435
243	0xbb2c677b	-0.0026306796
244	0xbd7790de	-0.06044089
245	0xbe17170e	-0.14754888
246	0xbc188f71	-0.009311543
247	0xba21e7ba	-0.00061761925
248	0x3f33542c	0.7005031
249	0xbc3eabe9	-0.011637666
250	0xbea98f55	-0.33117166
251	0xbf5e49bd	-0.86831266
252	0xbf8204ec	-1.0157752
253	0xbe283468	-0.16426241
254	0xbb63e78e	-0.0034775469
255	0x3b800d61	0.003907845

exp_avg_sq f4 [135, 64]
0	0x348afbed	2.5887803e-07
1	0x3175e508	3.5782382e-09
2	0x34e1a913	4.2032534e-07
3	0x35645d37	8.5072264e-07
4	0x370d1523	8.409176e-06
5	0x3326c870	3.8832184e-08
6	0x336c7eac	5.506324e-08
7	0x35d499fc	1.5840046e-06
8	0x33237df4	3.806595e-08
9	0x31f6f06e	7.186876e-09
10	0x351c70c6	5.8278636e-07
11	0x36196fb1	2.286379e-06
12	0x3294e739	1.7334616e-08
13	0x33d13cbf	9.7433706e-08
14	0x3662c6fe	3.3792453e-06
15	0x3521952d	6.0194253e-07
16	0x346ee52e	2.2248852e-07
17	0x36fae375	7.47706e-06
18	0x350be869	5.2119736e-07
19	0x355d3101	8.2400226e-07
20	0x344e64da	1.9221935e-07
21	0x36bbb5c6	5.5941955e-06
22	0x347b55a9	2.340736e-07
23	0x35b3227b	1.3346574e-06
24	0x35f09542	1.7924833e-06
25	0x33ecb843	1.10231234e-07
26	0x36003967	1.91069e-06
27	0x325f3d0c	1.2994189e-08
28	0x33d38a15	9.85057e-08
29	0x34a8aa0b	3.141616e-07
30	0x3491d923	2.7166342e-07
31	0x3589d77e	1.0270012e-06
32	0x35ceead4	1.541654e-06
33	0x31f24770	7.0512485e-09
34	0x3362de21	5.282175e-08
35	0x34bc358c	3.505669e-07
36	0x330ae0f6	3.233523e-08
37	0x32090f38	7.97791e-09
38	0x36b061e2	5.256604e-06
39	0x3401cd45	1.2088738e-07
40	0x33dd70ec	1.0311655e-07
41	0x3599ae17	1.1450055e-06
42	0x358aa78f	1.0330567e-06
43	0x33025002	3.034075e-08
44	0x3323cb8b	3.8136516e-08
45	0x35fb5f4c	1.8728692e-06
46	0x33b3b080	8.367442e-08
47	0x34674ec1	2.1542202e-07
48	0x33dd9166	1.0317562e-07
49	0x34927074	2.727644e-07
50	0x3571cc21	9.0076543e-07
51	0x343718f7	1.7052285e-07
52	0x33a6c0fe	7.7650824e-08
53	0x33ffbd72	1.1908823e-07
54	0x33b9df44	8.6553456e-08
55	0x34e79424	4.313489e-07
56	0x3307ac3c	3.1588783e-08
57	0x358a0495	1.0283135e-06
58	0x35de92dc	1.6583031e-06
59	0x3475f29a	2.2905661e-07
60	0x356b2bea	8.7608225e-07
61	0x3602f675	1.9514966e-06
62	0x34421695	1.8075873e-07
63	0x3224e2c3	9.597616e-09
64	0x34b79e57	3.4201614e-07
65	0x365e9730	3.316858e-06
66	0x35147007	5.529732e-07
67	0x34cafcf1	3.780947e-07
68	0x363d924f	2.8248357e-06
69	0x35928f72	1.0919596e-06
70	0x34b9a574	3.4579318e-07
71	0x3369af1e	5.4408808e-08
72	0x37107e87	8.612528e-06
73	0x3691f233	4.3495324e-06
74	0x337a0d9b	5.8220035e-08
75	0x355a1afc	8.1250596e-07
76	0x35f3f783	1.8176946e-06
77	0x338e50aa	6.627063e-08
78	0x3543ee84	7.2990247e-07
79	0x36b99f9b	5.53201e-06
80	0x32812660	1.5035027e-08
81	0x36499015	3.00352e-06
82	0x36a0ea61	4.795657e-06
83	0x3524719e	6.1260096e-07
84	0x350c3008	5.222396e-07
85	0x34ec6876	4.403443e-07
86	0x35c61d16	1.4760615e-06
87	0x35ccc1d1	1.5255592e-06
88	0x363b9d55	2.795675e-06
89	0x35ad0194	1.2889964e-06
90	0x371d29b8	9.367643e-06
91	0x320107a9	7.51053e-09
92	0x34d0e1bf	3.890727e-07
93	0x35155f9d	5.564596e-07
94	0x36081d13	2.0282503e-06
95	0x353a0b7c	6.930711e-07
96	0x35d84ee1	1.6116211e-06
97	0x36a86d4b	5.0195135e-06
98	0x351c9e0d	5.834452e-07
99	0x338a157e	6.430035e-08
100	0x331cb119	3.648265e-08
101	0x32cf558d	2.4136876e-08
102	0x32052959	7.75102e-09
103	0x367afa0f	3.7398456e-06
104	0x362478f8	2.4508317e-06
105	0x36b8837c	5.498934e-06
106	0x35dfcdb9	1.6674668e-06
107	0x366585d7	3.4201564e-06
108	0x358ad8c5	1.034489e-06
109	0x3699399e	4.566463e-06
110	0x34069e47	1.2537303e-07
111	0x36e4d44c	6.819644e-06
112	0x3737e175	1.0960143e-05
113	0x345ccb49	2.0563051e-07
114	0x33a9f156	7.9135745e-08
115	0x35fe9794	1.896859e-06
116	0x35b78251	1.367249e-06
117	0x34d3f2f4	3.9478584e-07
118	0x32377820	1.0679315e-08
119	0x352d4157	6.4542604e-07
120	0x32a0c34e	1.8715266e-08
121	0x36251a30	2.460216e-06
122	0x35b1c03b	1.3243474e-06
123	0x35d3e216	1.5786525e-06
124	0x363f3254	2.8490513e-06
125	0x35662077	8.572892e-07
126	0x36528b82	3.1373643e-06
127	0x358375f0	9.794585e-07
128	0x318fe646	4.188027e-09
129	0x32e71bbe	2.6904555e-08
130	0x336abcda	5.465413e-08
131	0x33dc018b	1.0244829e-07
132	0x32376fd5	1.067743e-08
133	0x347275fc	2.2580929e-07
134	0x33a2149e	7.547463e-08
135	0x33e6ee2c	1.0753533e-07
136	0x30d97552	1.5822172e-09
137	0x33fb0a43	1.1689965e-07
138	0x32787e49	1.4464214e-08
139	0x341ab80a	1.440932e-07
140	0x34b27506	3.324023e-07
141	0x333f9fc0	4.4615945e-08
142	0x353add76	6.961267e-07
143	0x33df2920	1.0391727e-07
144	0x32cb5046	2.3668814e-08
145	0x337ee11a	5.9343712e-08
146	0x34892697	2.5546316e-07
147	0x350bff7a	5.21533e-07
148	0x3505425e	4.964294e-07
149	0x3570c6a3	8.969602e-07
150	0x30e201cd	1.6444176e-09
151	0x32d48a37	2.4742901e-08
152	0x32b15ae9	2.0646853e-08
153	0x338800ba	6.333126e-08
154	0x336259af	5.2701292e-08
155	0x332ea82d	4.0665487e-08
156	0x33de5ec0	1.03549155e-07
157	0x321c1279	9.084595e-09
158	0x32181874	8.8531245e-09
159	0x3433c706	1.6743078e-07
160	0x315da301	3.225239e-09
161	0x331effdc	3.7019944e-08
162	0x34a938d1	3.1520042e-07
163	0x32983834	1.7720687e-08
164	0x314f8f45	3.0203904e-09
165	0x34c44c93	3.656356e-07
166	0x32fe246f	2.958606e-08
167	0x33448be6	4.5762043e-08
168	0x34deec8f	4.152284e-07
169	0x314ebf19	3.0085572e-09
170	0x32b9becc	2.1623599e-08
171	0x324aadbe	1.1797452e-08
172	0x32bd6cc4	2.2051957e-08
173	0x349f7d5a	2.9707263e-07
174	0x329e96c7	1.8462186e-08
175	0x339e3ac8	7.3681406e-08
176	0x35a9ff87	1.266585e-06
177	0x311f9c86	2.3226518e-09
178	0x3440603f	1.7916408e-07
179	0x33e629f2	1.07178394e-07
180	0x335a1a3f	5.078095e-08
181	0x353efab0	7.1145314e-07
182	0x330c8ebc	3.2726106e-08
183	0x34480c29	1.8630875e-07
184	0x33365e25	4.24608e-08
185	0x324d74e0	1.1959145e-08
186	0x33cb562b	9.468598e-08
187	0x3485566f	2.483607e-07
188	0x34da9f11	4.07214e-07
189	0x35856657	9.939057e-07
190	0x32de35dd	2.5868696e-08
191	0x322a1109	9.899176e-09
192	0x35198ad8	5.7198986e-07
193	0x341b3acf	1.4456894e-07
194	0x30475a22	7.2523865e-10
195	0x336ae3b2	5.468946e-08
196	0x353f1077	7.1177004e-07
197	0x332af898	3.9807304e-08
198	0x34e05282	4.1783284e-07
199	0x32c327c6	2.2719075e-08
200	0x338fd420	6.697542e-08
201	0x33a96775	7.8884945e-08
202	0x34abc7b7	3.1996544e-07
203	0x3444a8ee	1.8315379e-07
204	0x34a50292	3.0735515e-07
205	0x34a31e65	3.038323e-07
206	0x341aa56f	1.4402552e-07
207	0x34384090	1.7159823e-07
208	0x349c4ba9	2.9112314e-07
209	0x33dbcf24	1.0235661e-07
210	0x3302410f	3.0327154e-08
211	0x349ce9d3	2.9227394e-07
212	0x32591ade	1.2637171e-08
213	0x330c2d6a	3.2637594e-08
214	0x30c30ae6	1.4191215e-09
215	0x33bd3613	8.8108344e-08
216	0x3402df90	1.2188525e-07
217	0x32bbf4c6	2.1880975e-08
218	0x307faa29	9.301027e-10
219	0x31bf2e30	5.5640825e-09
220	0x324e2d10	1.2001024e-08
221	0x33e96701	1.0868644e-07
222	0x31d0384b	6.0599965e-09
223	0x32f2d9fa	2.8271632e-08
224	0x3122e244	2.370272e-09
225	0x33a27a92	7.566008e-08
226	0x34a43e2a	3.059261e-07
227	0x33a5f15b	7.7273135e-08
228	0x3511f2b0	5.4369866e-07
229	0x3555936f	7.956323e-07
230	0x31f9d7f7	7.271406e-09
231	0x335dd0be	5.1645422e-08
232	0x35027163	4.8593773e-07
233	0x2ff48163	4.4475276e-10
234	0x35cbf576	1.5196117e-06
235	0x340e23b1	1.3237765e-07
236	0x2fd66118	3.8995362e-10
237	0x30e7ecff	1.687482e-09
238	0x32e05594	2.6115949e-08
239	0x300f1b62	5.206201e-10
240	0x33a58c05	7.708881e-08
241	0x33474d35	4.6403517e-08
242	0x31636502	3.3090264e-09
243	0x33b9a014	8.643852e-08
244	0x3336c852	4.2557367e-08
245	0x33be8266	8.871284e-08
246	0x325355fa	1.2301365e-08
247	0x3231ecf0	1.0356629e-08
248	0x3034a5da	6.571931e-10
249	0x3310fe75	3.375904e-08
250	0x3408152e	1.2673692e-07
251	0x32e809f7	2.7012886e-08
252	0x34069e0a	1.2537217e-07
253	0x33f7adbf	1.1533438e-07
254	0x3403a489	1.2260183e-07
255	0x32e51a5d	2.6671097e-08

exp_avg f4 [92, 64]
0	0xbaa617d0	-0.0012671892
1	0xba743770	-0.0009316122
2	0xba128754	-0.00055896235
3	0x399682ef	0.00028707783
4	0x382c825d	4.1129406e-05
5	0xb748eb84	-1.1975764e-05
6	0x398aa3ef	0.0002644355
7	0x37679559	1.3803446e-05
8	0x385e959d	5.3068263e-05
9	0x3a16032a	0.00057225174
10	0x39b933d6	0.0003532457
11	0xba2f554e	-0.00066884316
12	0x3edfed17	0.43735573
13	0x3c3dfba3	0.011595639
14	0xb95294c8	-0.00020082586
15	0x3814389b	3.5338668e-05
16	0xb7e83f08	-2.7685906e-05
17	0xb8e2c208	-0.00010812661
18	0xb8ce2c83	-9.8311364e-05
19	0xb8b7dbf0	-8.7670865e-05
20	0xb7d6ec84	-2.5620924e-05
21	0xb887c300	-6.473623e-05
22	0xb8147393	-3.5393587e-05
23	0x3bc98678	0.006150063
24	0xbea0d8eb	-0.31415495
25	0xbe481463	-0.19539027
26	0x3a206060	0.00061178766
27	0xb8f145c1	-0.00011504768
28	0xb722d653	-9.705854e-06
29	0xb8d6ee3e	-0.00010248691
30	0x38e29f6f	0.000108062166
31	0xb88c8436	-6.7003464e-05
32	0xba2a6046	-0.0006499331
33	0xb8811a15	-6.1560575e-05
34	0x3cf6afbb	0.030113092
35	0x3c582b59	0.013193929
36	0xb8ece363	-0.00011295711
37	0xb8a5d4ed	-7.9074736e-05
38	0xb953a8e5	-0.00020185446
39	0xb8eb7b44	-0.00011228633
40	0xb855cfdf	-5.0976752e-05
41	0xb854baea	-5.0718816e-05
42	0xb75474cc	-1.2663379e-05
43	0xb89660b3	-7.170569e-05
44	0x38ef3c97	0.00011407694
45	0xbb06abda	-0.002054921
46	0x38800821	6.10503e-05
47	0x3885d4c7	6.381567e-05
48	0xbb1e9fe9	-0.00242042
49	0x3be41ad9	0.0069612083
50	0xb7b62797	-2.1714526e-05
51	0xb7a03887	-1.9099809e-05
52	0xbe197458	-0.14985788
53	0xbcd30253	-0.025757944
54	0xb978e347	-0.0002373579
55	0xb9d33aa3	-0.00040288744
56	0x3ac4de47	0.0015019857
57	0xba9e4d82	-0.0012077542
58	0xbd478188	-0.048707515
59	0xbd38cde4	-0.045118228
60	0x3dfa4f59	0.122221656
61	0x3da3467b	0.079724275
62	0xbcb433b2	-0.021997306
63	0x371fc38a	9.522666e-06
64	0xb8e9f321	-0.00011155592
65	0xb89d9364	-7.513797e-05
66	0x37d2e297	2.5139465e-05
67	0x390c29bc	0.00013366988
68	0x380b4fd9	3.3214546e-05
69	0x37b2181c	2.123048e-05
70	0x3bbed3ae	0.005823574
71	0x3b0d8e41	0.0021599683
72	0x3694f840	4.439644e-06
73	0x37c61a15	2.3615585e-05
74	0x37a901c9	2.0147201e-05
75	0xb7c4b58e	-2.3449564e-05
76	0xbc3e768b	-0.0116249425
77	0x3b9a5890	0.0047102645
78	0xb8beec69	-9.103941e-05
79	0x384481d4	4.6850953e-05
80	0xb6f7f519	-7.3897068e-06
81	0xb322f52c	-3.7941547e-08
82	0x37fd979e	3.0230553e-05
83	0x3823f3d7	3.9089322e-05
84	0xb95a9d8c	-0.00020848791
85	0x390145cc	0.000123284
86	0x38a143b2	7.6896875e-05
87	0x3b783a8d	0.0037876696
88	0xbd1158a8	-0.03548494
89	0xbc2d877f	-0.010591387
90	0x39149966	0.00014171525
91	0x3b4d1143	0.0031290806
92	0x3977dcb4	0.00023637974
93	0x36d955a2	6.477073e-06
94	0x36d441e5	6.3257635e-06
95	0x3894fc1a	7.1041475e-05
96	0xba3190b0	-0.0006773574
97	0x391c8576	0.00014927037
98	0x398edbd3	0.00027248132
99	0xb8fc40a1	-0.000120283345
100	0x38d47487	0.00010130653
101	0xb7df8a8c	-2.6648187e-05
102	0x389ceeb8	7.4831245e-05
103	0xb807b89e	-3.2358446e-05
104	0xb7bf1f86	-2.2783654e-05
105	0xb87104af	-5.746324e-05
106	0x3786be36	1.6062619e-05
107	0x37d14225	2.4945542e-05
108	0xba188403	-0.0005818011
109	0x3a1a5119	0.0005886718
110	0xb932a9ae	-0.00017038613
111	0xb921c5d6	-0.00015427856
112	0x3a9dc459	0.0012036666
113	0xb9925a8b	-0.0002791475
114	0xb6cc3cd0	-6.0867533e-06
115	0xb69c5b53	-4.659794e-06
116	0x3972d634	0.00023158715
117	0xbb38c051	-0.0028190801
118	0xb93f251e	-0.00018229007
119	0xb8b73f29	-8.7378845e-05
120	0xbbf6bf0e	-0.0075300997
121	0xbb112bce	-0.0022151354
122	0xbc959d55	-0.018263498
123	0xbd5dd58d	-0.054158736
124	0xbd4956a6	-0.0491549
125	0x3c980a9d	0.018559748
126	0xba62f431	-0.0008657603
127	0x3ae804ee	0.0017701664
128	0xba73a06c	-0.0009293619
129	0xba93ae10	-0.0011267085
130	0x37a246b0	1.9344821e-05
131	0x37fd3a87	3.0187204e-05
132	0x37b6bc1c	2.1783686e-05
133	0x364999d3	3.0040871e-06
134	0xbaa42b74	-0.0012525157
135	0x39e0ec56	0.00042900693
136	0xba901ab9	-0.0010994292
137	0xba4330ee	-0.0007445951
138	0x38bcfc59	9.011542e-05
139	0xb8171420	-3.601995e-05
140	0x3d720310	0.059084952
141	0xbb992b19	-0.004674327
142	0x372585dc	9.865933e-06
143	0xb78aef68	-1.6562364e-05
144	0x38522954	5.010639e-05
145	0xb82c76e9	-4.111874e-05
146	0x39530c0f	0.0002012702
147	0xb797645d	-1.8047338e-05
148	0xb917146f	-0.00014408094
149	0x38a06678	7.648481e-05
150	0x37e738ac	2.7563736e-05
151	0x37ade241	2.0728565e-05
152	0x3d9fa0e7	0.077943616
153	0xbc5f06c8	-0.013612457
154	0x398b8ef3	0.00026618651
155	0xb94bc905	-0.00019434474
156	0xb72927ba	-1.00824345e-05
157	0xb792f062	-1.7516493e-05
158	0xb824a464	-3.9253748e-05
159	0xb76a30b2	-1.3958825e-05
160	0xb9a41164	-0.00031293475
161	0x37d1e41c	2.5020963e-05
162	0xbc226778	-0.009912364
163	0x3c129716	0.0089471545
164	0x3a0f15c2	0.0005458259
165	0x3b293c79	0.0025823398
166	0xb9791fd0	-0.00023758342
167	0x38ad7716	8.271464e-05
168	0xb79582c1	-1.7823071e-05
169	0xbaa31c61	-0.0012444371
170	0xba5f222a	-0.0008511866
171	0xb8d25163	-0.0001002874
172	0xb8439ec4	-4.6639485e-05
173	0x3933c263	0.00017143185
174	0xb64a41c3	-3.0138624e-06
175	0x39ce6e86	0.00039373728
176	0xb9630827	-0.00021651444
177	0xba87f2c7	-0.0010372036
178	0x388307ba	6.248006e-05
179	0xb87a4e62	-5.9677644e-05
180	0xbb89b86c	-0.004202893
181	0xbe7362e2	-0.2376819
182	0xb9351894	-0.00017270661
183	0x3a3182e4	0.00067715184
184	0xbacc12e9	-0.00155696
185	0xba1fa50a	-0.00060899614
186	0x3d545489	0.05183843
187	0x3db3547e	0.0875635
188	0x3c85c366	0.016328525
189	0x3d4e71c5	0.050401468
190	0xba4c7cd4	-0.0007800583
191	0xba12fdeb	-0.0005607295
192	0xb970851c	-0.0002293777
193	0x399cd5ab	0.00029913834
194	0x3bdf558f	0.0068156193
195	0x3b85c48b	0.0040822676
196	0x397c5846	0.00024065477
197	0xb9109380	-0.00013787858
198	0xbcaaa09a	-0.020828534
199	0xba883644	-0.0010392149
200	0x39efb459	0.00045720002
201	0xb7349364	-1.0763153e-05
202	0x398afa20	0.0002650777
203	0xb8882e25	-6.4935804e-05
204	0x3d446bc9	0.047954354
205	0xbdddcf98	-0.10830611
206	0xb6c8a6d4	-5.979886e-06
207	0xb75e241c	-1.32406385e-05
208	0xb8043adf	-3.152608e-05
209	0x380b39f0	3.319414e-05
210	0x39441ef9	0.00018703555
211	0x39861612	0.00025574915
212	0xbbb58dbc	-0.0055405777
213	0x39275aed	0.00015960234
214	0x3a096bb5	0.0005242185
215	0xba0b213b	-0.0005307381
216	0xbcd37ee2	-0.025817338
217	0xbe7970ea	-0.2435948
218	0xbb0f84d4	-0.002189924
219	0x3c57a7ac	0.013162535
220	0xb917b7cb	-0.0001446895
221	0x39afbec0	0.0003352072
222	0xb742683a	-1.1587568e-05
223	0x343531d6	1.6875069e-07
224	0x38295cd1	4.0379182e-05
225	0xb716e105	-8.993088e-06
226	0x3c29e30e	0.010369075
227	0x3a4543f1	0.00075250777
228	0xb957bf74	-0.0002057532
229	0xb7f144de	-2.8761508e-05
230	0x3ab26565	0.001361054
231	0xb6dcac6b	-6.576583e-06
232	0xb78096bd	-1.5328982e-05
233	0xb72172ae	-9.623049e-06
234	0xba2618e8	-0.0006336109
235	0x3a891cb2	0.0010460822
236	0x39bf0075	0.000364307
237	0xbc38e862	-0.011285873
238	0x399980d5	0.0002927842
239	0x3a65a1eb	0.00087597844
240	0xba9cc800	-0.001196146
241	0xb999c2c0	-0.00029327534
242	0x3819940c	3.6615922e-05
243	0x39001fa2	0.00012218815
244	0xbc72aa90	-0.014811173
245	0x3d248e18	0.040174574
246	0xb85e7ec7	-5.3046995e-05
247	0xb91146bd	-0.0001385463
248	0x39f19979	0.00046081448
249	0xb9048102	-0.0001263656
250	0x3e0dbc72	0.13841417
251	0x3d500668	0.05078736
252	0xbc0fd3c9	-0.008778521
253	0xbd544dac	-0.051831886
254	0x3c4e9c8e	0.012610568
255	0xbd6e8da5	-0.05824055
