bbox_poisoning/Experiments/2025-07-22 11-53-45.577568/model.pt (torch, 25222 bytes, 2 tensors)

entity_embeddings.weight f4 [135, 32]
0	0xbf0d3455	-0.5515798
1	0xbe9a2e4d	-0.3011345
2	0x3d802ded	0.0625876
3	0xbf76343b	-0.9617345
4	0xbf2a760e	-0.6658639
5	0xbea04692	-0.3130384
6	0xbe454e2b	-0.192681
7	0x3ef23ee1	0.47313598
8	0xbd09ff5a	-0.033690788
9	0x3c029370	0.007969722
10	0x3f8edae0	1.1160545
11	0xbf255323	-0.6457998
12	0x3f9755b0	1.1823025
13	0x3f2f3073	0.684333
14	0x3f4b9538	0.79524565
15	0x3ee75e54	0.45189154
16	0x3f01fc94	0.5077603
17	0xc090b687	-4.522281
18	0x3fad1f1c	1.3525119
19	0x407469b7	3.8189523
20	0xc03d0d76	-2.9539466
21	0x4068034e	3.6252017
22	0xc083ff91	-4.124947
23	0xc0610d61	-3.5164416
24	0x408f3378	4.475033
25	0x41021d2d	8.132123
26	0x3ea94b8e	0.33065456
27	0xc0357eb1	-2.8358576
28	0xbf1cf0cf	-0.61304945
29	0xbf90e9bf	-1.1321334
30	0xc0a6c5eb	-5.21166
31	0xc00ce756	-2.2016196
32	0x3f7b65de	0.9820231
33	0xbf632e36	-0.8874239
34	0xbeca0ccf	-0.39462897
35	0xbf93e175	-1.1553179
36	0xbe9e753a	-0.30948812
37	0x3f123fe9	0.5712877
38	0xbf214a34	-0.6300385
39	0x3f939f02	1.15329
40	0x3dea78e6	0.11448841
41	0xbcdd76f4	-0.02703426
42	0xbea12a00	-0.31477356
43	0xbf0e399e	-0.55556667
44	0xbe092de7	-0.13396417
45	0x3ef5d25d	0.48012057
46	0x3ee520dc	0.44751632
47	0xbe63c66c	-0.2224366
48	0x3fbb6bca	1.464227
49	0xbcfcb915	-0.030849973
50	0xbe850e39	-0.25987414
51	0x4051055b	3.2659519
52	0xc02b6a3b	-2.6783588
53	0xbe4b8374	-0.19874364
54	0xc0b109cb	-5.5324454
55	0xc0e126a8	-7.035969
56	0x3f930c7e	1.1488187
57	0x40690863	3.641137
58	0x4027e7c9	2.623522
59	0x3dea8db9	0.11452813
60	0x3ffbb783	1.9665378
61	0xbf161c07	-0.58636516
62	0xc0904316	-4.508189
63	0xc017c422	-2.371346
64	0xbf9845d6	-1.1896312
65	0xbf35e5d6	-0.71053827
66	0x3e6a0192	0.22852162
67	0xbf843ab4	-1.0330415
68	0x3ecf8347	0.40529844
69	0xbe3eec00	-0.18644714
70	0xbecbf68a	-0.39836532
71	0xbf9885f7	-1.1915883
72	0xbdea9e55	-0.11455981
73	0xbf409a10	-0.7523508
74	0x3eaede76	0.341541
75	0x3f3bb97a	0.7332989
76	0x3e7ac7fe	0.24490353
77	0xbf521afb	-0.8207242
78	0xbf812719	-1.0090057
79	0xbf7c5d48	-0.98579836
80	0x3f37e3cd	0.7183197
81	0x4066dfc5	3.6074078
82	0xbdb9bbc4	-0.090690166
83	0x40914e42	4.540803
84	0xbf1ebc22	-0.6200582
85	0xbf8ad0e5	-1.0845
86	0x40807550	4.0143204
87	0xbfdff8de	-1.7497823
88	0x409a2d7c	4.8180523
89	0x3fc3eb0b	1.5306104
90	0x402db4ab	2.714152
91	0xc0778e68	-3.8680668
92	0xc09fa7e9	-4.989247
93	0x40a87f65	5.265551
94	0x408de0a7	4.4336734
95	0x40339c34	2.806409
96	0x3e6dd10b	0.23224275
97	0x3c26b4ba	0.0101749245
98	0x3ed652b3	0.4185997
99	0xbf91c9e3	-1.1389736
100	0x3eac1a23	0.3361369
101	0xbf771d64	-0.9652922
102	0xbf320fd2	-0.6955539
103	0xbf498f49	-0.7873426
104	0xbf55c81a	-0.83508456
105	0x3f2dcd2c	0.6789119
106	0x3e82c382	0.25539786
107	0xbf8f3558	-1.1188154
108	0x3d2378f8	0.039910287
109	0xbf249a20	-0.64297676
110	0xbecdc77d	-0.4019126
111	0xbf892ad1	-1.0716192
112	0xc05f17a9	-3.485819
113	0xbefc3a07	-0.4926302
114	0x3fa7f7d3	1.3122505
115	0x400eb241	2.2296298
116	0xbfe913eb	-1.8209203
117	0xbe84308e	-0.25818294
118	0x3f2b144e	0.6682786
119	0xbf01f87f	-0.507698
120	0x3f88370e	1.0641801
121	0xc005cdf2	-2.090695
122	0x402fafff	2.745117
123	0x3ffc5edd	1.971645
124	0xc0696a9d	-3.6471322
125	0x4027afaf	2.6200979
126	0x4084814b	4.140783
127	0xbf3e2409	-0.74273735
128	0xbedccff6	-0.43127412
129	0x3f8be7ea	1.093015
130	0xbf283f0d	-0.6572121
131	0xbf558c24	-0.8341696
132	0xbf5b62ac	-0.85697436
133	0xbd97a619	-0.074047275
134	0x3f5d69b3	0.8648941
135	0x3eae3c3f	0.3403034
136	0xbc92a558	-0.017901108
137	0xbea741c7	-0.32667372
138	0x3ee56212	0.44801384
139	0xbe92fdb4	-0.28709185
140	0xbf06e706	-0.52696264
141	0x3f836c51	1.026743
142	0x3f85770a	1.0426953
143	0x3e9f054c	0.3105873
144	0x40073df1	2.1131556
145	0xbee949a9	-0.4556401
146	0xc0bb6a64	-5.856737
147	0x40d0cd70	6.525078
148	0xc0253513	-2.5813644
149	0x3f3afbf7	0.7304072
150	0xbf439827	-0.7640404
151	0xc0c98628	-6.2976265
152	0xbf9e6419	-1.2374297
153	0x4088c1b2	4.2736444
154	0xc06ab55f	-3.66732
155	0x3fb3d87d	1.4050442
156	0x40d886b0	6.7664413
157	0x4070f98a	3.7652307
158	0xc098e16c	-4.7775173
159	0xc082ddd4	-4.0895786
160	0xbd882415	-0.06647507
161	0xbe7be039	-0.24597253
162	0xbfa6500a	-1.2993176
163	0xbf8f026c	-1.1172614
164	0x3f16b8d5	0.5887578
165	0xbed66624	-0.41874802
166	0x3e1f65a5	0.15566118
167	0x3eecf487	0.4628031
168	0xbfa7802b	-1.3085989
169	0xbeb08659	-0.344775
170	0x3f269dd9	0.65084606
171	0xbf095efe	-0.5366057
172	0xbef9a4e3	-0.4875861
173	0x3e6425d8	0.22280061
174	0xbec77347	-0.38955137
175	0x3f5e6072	0.86865914
176	0xc0ca36c4	-6.3191853
177	0x3f84876a	1.0353825
178	0xc093d599	-4.619824
179	0x404eaf77	3.2294595
180	0xbf050089	-0.5195394
181	0x403b3063	2.9248283
182	0x3da2ce95	0.07949559
183	0x3e24bcb5	0.16087611
184	0xbe157dde	-0.14598796
185	0x40052b0e	2.0807528
186	0xc04e7ce6	-3.2263732
187	0xc01c1aa8	-2.439127
188	0xc02c25ad	-2.6897995
189	0x40881b85	4.2533593
190	0xc0ab1b48	-5.34708
191	0x3ee6c5a2	0.45072657
192	0xbeca19bd	-0.39472762
193	0xbf0eb91f	-0.5575122
194	0x3e9f21ff	0.31080624
195	0xbf802b12	-1.0013144
196	0x3e327b1b	0.17429774
197	0x3f08e1ff	0.5346984
198	0xbf319d35	-0.69380504
199	0xbeb5b991	-0.35493138
200	0xbf96b6fd	-1.1774594
201	0x3f6f4a0c	0.9347236
202	0x3f432b47	0.7623791
203	0x3ec24ac8	0.3794768
204	0x3f25d16d	0.64772683
205	0x3f358cbe	0.7091788
206	0xbf2e2318	-0.680223
207	0x3fb67176	1.4253376
208	0x40ba3d15	5.8199563
209	0x40cdd3f1	6.4321218
210	0x409ff54c	4.9986935
211	0x40d8ddc9	6.7770734
212	0x3eefee14	0.46861327
213	0xc09f796e	-4.983573
214	0x3fd0c766	1.6310852
215	0x3fe903a6	1.8204238
216	0x3e3a800d	0.1821291
217	0x3fa933c4	1.3218923
218	0xc0718f1e	-3.7743602
219	0x3fd12047	1.6337975
220	0x406c7869	3.6948493
221	0x406ed9c2	3.732041
222	0xc086c0e4	-4.211046
223	0xc000df15	-2.0136158
224	0x3fafb429	1.3726856
225	0xbe4cbb81	-0.19993402
226	0xbf34cb93	-0.7062313
227	0xbf35e569	-0.7105318
228	0x3e356f1a	0.17718163
229	0x3ef1ffc3	0.47265443
230	0xbdc40ed6	-0.09573142
231	0x3f7a247d	0.97711927
232	0x3f29bcd8	0.6630378
233	0xbf164d6d	-0.5871189
234	0x3eb1b838	0.3471086
235	0xbe8f9948	-0.28046632
236	0x3d778a53	0.06043465
237	0x3f0e35c5	0.55550796
238	0x3f96bbcd	1.1776062
239	0xbed69e42	-0.41917616
240	0x40a12b65	5.036547
241	0x4087211f	4.222793
242	0xbf08713a	-0.5329777
243	0x40da5e94	6.824045
244	0xbf90fb2b	-1.132665
245	0x3ed09e68	0.40745854
246	0xc0a8ffcf	-5.2812266
247	0xc0d86908	-6.762821
248	0x408633e2	4.1938334
249	0x3feaa113	1.8330406
250	0x3fc27758	1.5192671
251	0xbd438713	-0.04773624
252	0x3fad661d	1.3546788
253	0x4079282d	3.8930771
254	0xbffa697b	-1.956344
255	0x3fad492e	1.3537958

relation_embeddings.weight f4 [46, 32]
0	0x3f4884ed	0.7832783
1	0xbe0bc85a	-0.13650647
2	0xbf300d2d	-0.68770105
3	0xbf86ef52	-1.0541785
4	0xbe929685	-0.28630462
5	0xbf5f6d90	-0.87276554
6	0x3f78c940	0.97182083
7	0xbeb31663	-0.34978017
8	0x3f1b9531	0.60774523
9	0xbe4630bd	-0.1935453
10	0xbd82c484	-0.06385139
11	0x3f34a3f0	0.7056265
12	0xbe372d5c	-0.17888397
13	0xbef653e5	-0.4811088
14	0xbdbdc522	-0.09266116
15	0x3f1ad1fa	0.6047665
16	0xbff49773	-1.9108719
17	0xc08d49d7	-4.4152637
18	0x3ff2d971	1.8972608
19	0x3fe73e8d	1.8065964
20	0xc0caaad8	-6.333355
21	0x40855ff9	4.1679654
22	0x40783c99	3.8786986
23	0xbbbc2c4b	-0.005742585
24	0xc08d9209	-4.4240766
25	0x40848418	4.1411247
26	0x4042b0a8	3.0420322
27	0xc0187a9c	-2.3824835
28	0x4020d5a5	2.5130398
29	0xc071a410	-3.7756386
30	0xc052eb8b	-3.2956264
31	0x40a375e7	5.1081424
32	0xbe81f089	-0.25378826
33	0xbe31b721	-0.17355014
34	0xbf4d55ec	-0.8020923
35	0xbfc9702c	-1.5737357
36	0x3d8dd621	0.069256075
37	0xbf911ae9	-1.1336337
38	0xbe8daa6c	-0.27669084
39	0x3f566452	0.83746827
40	0xbe057e76	-0.13036522
41	0x3f7e2f8f	0.9929132
42	0xbe836bb7	-0.25668117
43	0x3e65be41	0.22435857
44	0x3f5deb10	0.866868
45	0xbe4f2b3f	-0.20231341
46	0xbf818c9c	-1.0121036
47	0xbd9e56e2	-0.07731415
48	0xc0a54e3a	-5.165799
49	0x3dfb995b	0.122851096
50	0xc04d33e3	-3.206292
51	0xc02d7219	-2.710089
52	0x3f8dfc62	1.1092646
53	0x40e1e6eb	7.059438
54	0x3e3c370d	0.18380375
55	0xc0b681e4	-5.703356
56	0x3f8b9b37	1.0906743
57	0x401a03ab	2.4064739
58	0xbfa1e8e7	-1.2649201
59	0x4002a0f7	2.0410745
60	0xc02c8897	-2.6958368
61	0x3ed89d92	0.42307717
62	0x3ded0593	0.11573329
63	0x4111f6c2	9.122744
64	0xbd4da91e	-0.05021011
65	0x3e4294f3	0.19002132
66	0xbf188186	-0.5957264
67	0xbf81f5e5	-1.0153166
68	0xbe73f0f5	-0.23822387
69	0xbecaa6bd	-0.39580336
70	0x3e75bcdd	0.23997827
71	0xbe4928a8	-0.19644415
72	0x3e80bb1e	0.2514276
73	0x3ea7ff33	0.3281189
74	0xbf092f9c	-0.5358827
75	0x3e8a35d0	0.2699418
76	0x3f13df8a	0.5776297
77	0xbf75dcfb	-0.96040314
78	0x3e90b84a	0.282656
79	0xbe91a788	-0.2844813
80	0xbce80f85	-0.028327713
81	0xc0a0e252	-5.027627
82	0x3d50dc23	0.05099119
83	0x3f1501ac	0.58205676
84	0xc007370e	-2.1127353
85	0x3e172402	0.1475983
86	0x4004b3c9	2.0734732
87	0x3fb0f1f0	1.3823833
88	0x3e75cc96	0.24003825
89	0xc0cb1924	-6.346819
90	0x40653380	3.5812683
91	0xc1092ccf	-8.57344
92	0x3f567bc6	0.83782613
93	0x408bab9e	4.3646994
94	0xc0864506	-4.1959257
95	0xc0c54f32	-6.1659174
96	0x3e35359f	0.17696236
97	0x3e7f5ecc	0.24938506
98	0x3ecc146e	0.39859337
99	0xbfa96e58	-1.3236799
100	0x3e4487c0	0.1919241
101	0xbf1c05e3	-0.6094648
102	0x3eb14f1a	0.34630662
103	0xbd7a558c	-0.06111674
104	0xbd4d3c0b	-0.05010609
105	0xbe0a17af	-0.13485597
106	0x3fa3d32f	1.2798823
107	0x3eb20c42	0.34774977
108	0x3efc64dd	0.49295703
109	0x3ed83865	0.42230526
110	0x3f2c742c	0.67364764
111	0x3e29edcc	0.16594619
112	0xbf7bbcb1	-0.98334795
113	0x40062848	2.0962086
114	0x407896ab	3.884196
115	0x3df12d78	0.117762506
116	0xc045d6c0	-3.0912323
117	0x3d6a97a3	0.05727352
118	0xc08ac7fa	-4.336911
119	0x3f912987	1.1340798
120	0xbe6d2f92	-0.23162678
121	0x3ed099b9	0.4074228
122	0x403988c8	2.8989735
123	0x4052a61d	3.2913888
124	0xbf34477c	-0.70421576
125	0x3f2779e2	0.65420353
126	0x402957f2	2.6459928
127	0x3f5072ba	0.8142506
128	0xbf0318f9	-0.5120998
129	0x3e6f3a0e	0.2336199
130	0xbf01723b	-0.50564927
131	0xbef3045e	-0.4746427
132	0x3de8febe	0.11376713
133	0xbebb8c5f	-0.36630532
134	0x3d1f5ec2	0.038908727
135	0xbe5355b2	-0.20638159
136	0x3e76ae9e	0.24090049
137	0x3f1300cb	0.57423085
138	0x3dbc62c0	0.091985226
139	0x3e9d1b73	0.30685005
140	0x3da632cc	0.081151575
141	0xbeac672f	-0.33672473
142	0x3ea81c88	0.32834268
143	0x3ee370fc	0.44422138
144	0xc04e8d5f	-3.2273786
145	0xbe9ec8cd	-0.31012574
146	0x40816ba1	4.0443883
147	0x40e2c39f	7.0863795
148	0xbe4ae077	-0.19812189
149	0x400994ef	2.1497152
150	0x3f4489da	0.76772845
151	0x3d58abdd	0.052898277
152	0x3da02969	0.07820398
153	0x3d472b84	0.048625484
154	0x3f5fc3cc	0.8740814
155	0x3fb7282a	1.4309132
156	0x40a00fc8	5.0019264
157	0xc02e653d	-2.724929
158	0x3f7ed2a3	0.99540156
159	0x40131464	2.2981195
160	0xbeeca9d2	-0.46223313
161	0x3f97d5e7	1.1862153
162	0x3f64d49e	0.8938693
163	0xbf895369	-1.072858
164	0xbeb85fa2	-0.36010462
165	0x3e8e224f	0.2776055
166	0x3d231cb8	0.03982231
167	0xbf26e460	-0.6519222
168	0xbe0d59a6	-0.1380373
169	0xbe2dcaa6	-0.16971835
170	0xbcad6f9b	-0.021171382
171	0xbf28259a	-0.65682375
172	0x3e443880	0.19162178
173	0x3d18f8a7	0.03734651
174	0x3e32b2d7	0.17451034
175	0x3e6946ac	0.22780865
176	0xbfaf6c18	-1.3704863
177	0xbf843b9a	-1.0330689
178	0x3f787b5a	0.9706322
179	0xbe750c05	-0.23930366
180	0xc081453a	-4.0397005
181	0xc0ef9b38	-7.4876976
182	0xbff6afb2	-1.9272368
183	0x4085221a	4.160413
184	0xbfdda799	-1.7316772
185	0x4019a5fa	2.4007554
186	0x404b7eaa	3.179606
187	0x3fe2a0eb	1.7705358
188	0xbfa0b9a4	-1.2556653
189	0xc053c75f	-3.3090436
190	0x3f2d472e	0.67686737
191	0xbf8a4277	-1.0801533
192	0xbe25c6e0	-0.16189146
193	0x3e235cdd	0.15953393
194	0xbe616c1c	-0.22013897
195	0xbf6f6363	-0.9351103
196	0x3e5b1899	0.21396102
197	0xbe9e709c	-0.3094529
198	0xbf2bfe30	-0.67184734
199	0x3ecaa071	0.39575532
200	0x3f357abd	0.7089041
201	0xbda2a929	-0.07942421
202	0x3dfd7b72	0.12377061
203	0xbebb11d0	-0.36537027
204	0x3ecf683c	0.40509212
205	0x3ebfaabc	0.37434947
206	0x3f3c9cdc	0.7367685
207	0x3eaf38f5	0.34223142
208	0x3ee9592c	0.45575845
209	0xbc60874c	-0.013704132
210	0xbfb1ffda	-1.3906205
211	0x3f53bf52	0.82713807
212	0xbfc1aee5	-1.5131499
213	0x400ce03a	2.2011857
214	0x3ff5a402	1.9190676
215	0x401efc7c	2.4841604
216	0x40acee34	5.4040775
217	0xbf932e02	-1.1498415
218	0x4085eb23	4.184953
219	0x3dcc32c2	0.09970619
220	0x3f1fdd79	0.62447315
221	0x3f6dbe04	0.92868066
222	0x3f896b3a	1.0735848
223	0xc0502f46	-3.2528853
224	0x3f80f582	1.0074923
225	0x3f6a5596	0.91536844
226	0xbde2c9d0	-0.11073649
227	0xbf6a72c7	-0.91581386
228	0x3f596ac0	0.8492851
229	0xbf83f350	-1.0308628
230	0xbd25f0ce	-0.040512852
231	0xbe331864	-0.17489773
232	0x3ede6fe3	0.43444738
233	0x3f35e0e5	0.71046287
234	0xbf501346	-0.8127941
235	0xbf163889	-0.58680016
236	0xbd6f06a6	-0.05835595
237	0x3e3bbe24	0.18334252
238	0xbc081dc9	-0.008307883
239	0x3e9129b0	0.28352118
240	0x403a3d21	2.909981
241	0xbefe02fa	-0.49611646
242	0xbfbea366	-1.4893615
243	0x3f3f2f71	0.74681765
244	0xbf7e9f8c	-0.994622
245	0xbfcfa4b3	-1.6222137
246	0xbf5ae986	-0.8551258
247	0x3d63d5c7	0.055623796
248	0x3f306460	0.6890316
249	0xbec13212	-0.37733513
250	0x4026ec5e	2.6081767
251	0xbfc0a3d0	-1.5049992
252	0x3e3c2ad3	0.18375711
253	0x3fdb5572	1.7135451
254	0xbf1a429c	-0.6025789
255	0x3f330be0	0.69939995
