prob-kge/running_experiments/without_recipriocal/delete/208/random_UMLS_DistMult_1466990855/model.pt (torch, 25301 bytes, 2 tensors)

entity_embeddings.weight f4 [135, 32]
-1.2282887 1.3864493 0.19605564 0.34824935 0.1453497 -0.5590002 0.08531849 -1.2635882
0.74302953 0.8729329 1.4374614 0.21921356 -0.9664247 -0.50884694 -1.0106592 -0.09687446
-2.6313841 1.563164 -1.2048119 0.10478056 0.7638993 -0.62523484 1.3002689 -0.3375494
-0.19538155 0.13141963 1.4511852 1.6170677 0.4587007 -0.3621835 -0.94454503 -0.3349641
-0.7859827 1.8221163 0.20534143 1.0295212 -0.97192514 0.17161079 -0.64550126 0.16609897
-0.34075946 1.3998069 1.140179 0.7253344 0.3789581 -0.24100386 -0.67549723 -1.119109
-1.0180907 0.116693765 0.52406293 -1.508061 0.61177325 -2.3956945 -0.32964104 -0.6155875
-0.9443077 -0.81845486 -0.19264983 -0.66766834 -2.6370325 0.55026025 -1.0577259 -0.0912922
-0.24553561 1.8615339 -0.7029192 -1.6263518 -1.0452964 -1.6895806 -0.86692494 -0.33921355
-0.5489167 -0.22174281 0.2832433 0.2690167 1.0320708 0.22412534 -0.16015801 -0.74440604
-1.3945471 1.221006 1.5903829 -0.38313764 1.2944789 -0.75124514 -0.56835186 0.8780138
0.29257315 -0.9691347 0.077179246 -0.56274146 1.13353 0.0072927857 -0.9160019 1.221808
-0.8909942 2.147962 -0.2455022 1.1500996 -0.9915928 0.3934841 0.7103906 -1.2403711
-1.1247352 1.0446613 -0.076941684 0.23091297 1.9989191 0.3693528 0.5074322 -0.27525213
-0.7660906 0.30221084 0.11605074 0.061883926 1.3840239 -0.9660365 -0.712677 1.3007092
1.1458609 -1.1086888 -0.16951798 0.32750595 -0.39443564 -1.5672828 -0.66047144 -2.2118833
-2.0741642 1.6145025 -0.052402116 1.1613667 -0.050422788 -0.9018415 0.38671985 0.051686756
-1.3122538 0.9938888 -0.6129595 1.4068533 1.365991 -0.46789038 0.10704657 -2.0923772
-0.992539 1.6431909 -0.32104668 1.3923168 1.7720002 -0.8100037 -2.3011444 0.24359241
0.06657005 -1.9309447 0.79437 0.56621975 0.38616553 0.42653576 -1.103832 0.7275661
-0.7643941 1.3327016 0.45954698 0.64768845 -0.052864134 -0.28846505 -0.67324877 0.382476
0.15149099 1.8813746 1.9637412 2.761838 -0.13036425 -0.40194377 -0.077037916 0.85397774
-1.9651132 -0.6418041 -0.6893816 -0.03334111 1.8698659 -1.4266797 0.304571 -0.52816135
0.21175778 -1.7362664 -0.077901244 -0.51114446 0.18116744 0.69456726 -1.1462753 -0.60030925
-0.057868794 1.8870097 0.09646942 1.2374456 0.305088 0.12482875 0.6698552 -1.5341928
-0.3709859 0.786521 0.9630976 1.3100337 0.53539217 -0.17983997 0.3729971 -1.2325715
-0.20534414 0.17323768 0.58631134 0.2374079 1.5525111 -1.3949517 -0.023894634 0.636312
0.9393413 -0.8501216 0.61230576 -0.13670827 0.46046424 -1.8277707 -0.41690922 -2.4996204
-0.8018917 1.3069704 0.29757398 1.0003897 -0.1635609 -1.0455377 0.00900641 -0.41553077
0.50767154 1.0557338 0.9636581 -0.41725567 -0.67119455 0.13430503 -1.3389636 -0.30178472
-2.1434317 1.181852 0.63045156 -0.14461662 0.7669569 -0.6518423 1.2364957 -0.40619525
0.50068915 -0.03387381 1.5343745 1.6876777 0.080627054 -1.0439 -0.6597658 -0.76174927
00000000: 9038 9dbf 2c77 b13f cfc2 483e bd4d b23e
00000010: 8dd6 143e a31a 0fbf 76bb ae3d 42bd a1bf
00000020: 2f37 3e3f 8878 5f3f bcfe b73f 8579 603e
00000030: 9c67 77bf cb43 02bf 485d 81bf 1e66 c6bd
00000040: 9968 28c0 c215 c83f 4737 9abf 3197 d63d
00000050: e88e 433f 640f 20bf 366f a63f 46d3 acbe
00000060: 1a12 48be de92 063e 70c0 b93f 13fc ce3f
00000070: d1da ea3e 1e70 b9be b4cd 71bf 6a80 abbe
00000080: 2a36 49bf 1b3b e93f 0645 523e 5ac7 833f
00000090: 16d0 78bf bdba 2f3e 923f 25bf d915 2a3e
000000a0: 0678 aebe df2c b33f 63f1 913f 84af 393f
000000b0: cc06 c23e b7c9 76be 63ed 2cbf f73e 8fbf
000000c0: cc50 82bf 24fd ee3d fd28 063f 2508 c1bf
000000d0: 2c9d 1c3f 0f53 19c0 b6c6 a8be 2497 1dbf
000000e0: 26be 71bf 4286 51bf ff45 45be 50ec 2abf
000000f0: 24c5 28c0 dbdd 0c3f 9063 87bf 68f7 babd
00000100: b06d 7bbe be46 ee3f 83f2 33bf 4c2c d0bf
00000110: 46cc 85bf 2d44 d8bf cbee 5dbf 66ad adbe
00000120: ce85 0cbf 8c10 63be 4405 913e 8fbc 893e
00000130: e51a 843f 1d81 653e 7600 24be 6591 3ebf
00000140: 8580 b2bf ed49 9c3f ab91 cb3f 9e2a c4be
00000150: 7cb1 a53f 9a51 40bf 827f 11bf 83c5 603f
00000160: 26cc 953e 3619 78bf 2710 9e3d d30f 10bf
00000170: 8317 913f 52f8 ee3b 1a7f 6abf 3464 9c3f
00000180: 3218 64bf 3678 0940 ee64 7bbe 7736 933f
00000190: 07d9 7dbf bf76 c93e 29dc 353f 7bc4 9ebf
000001a0: 53f7 8fbf 76b7 853f 9a93 9dbd 7374 6c3e
000001b0: 95dc ff3f cf1b bd3e 14e7 013f d9ed 8cbe
000001c0: 831e 44bf 61bb 9a3e 03ac ed3d 007a 7d3d
000001d0: b227 b13f 2b4e 77bf 0072 36bf a47d a63f
000001e0: 92ab 923f 84e9 8dbf 1f96 2dbe dcae a73e
000001f0: 78f3 c9be b99c c8bf a814 29bf 7f8f 0dc0
00000200: 1bbf 04c0 05a8 ce3f 9aa3 56bd aaa7 943f
00000210: 2088 4ebd 16df 66bf 2500 c63e 7eb5 533d
00000220: eff7 a7bf 7f6f 7e3f eaea 1cbf c513 b43f
00000230: cbd8 ae3f 548f efbe 3b3b db3d 82e9 05c0
00000240: 0917 7ebf 1454 d23f 3b60 a4be 7037 b23f
00000250: e7d0 e23f 675c 4fbf f345 13c0 4a70 793e
00000260: e155 883d 3229 f7bf d55b 4b3f c7f3 103f
00000270: 7db7 c53e e562 da3e 5e4a 8dbf c641 3a3f
00000280: 55af 43bf f795 aa3f be49 eb3e e9ce 253f
00000290: 1088 58bd b1b1 93be 085a 2cbf e5d3 c33e
000002a0: 7420 1b3e e2d0 f03f df5b fb3f f4c1 3040
000002b0: 357e 05be 93cb cdbe 0ec6 9dbd 499e 5a3f
000002c0: d488 fbbf 464d 24bf 507b 30bf b090 08bd
000002d0: c457 ef3f 719d b6bf bbf0 9b3e 9535 07bf
000002e0: 08d7 583e fa3d debf b08a 9fbd 5dda 02bf
000002f0: f583 393e 29cf 313f 26b9 92bf dead 19bf
00000300: d407 6dbd 8989 f13f c291 c53d 9e64 9e3f
00000310: 7f34 9c3e 37a6 ff3d a17b 2b3f 6e60 c4bf
00000320: ddf1 bdbe 7159 493f 908d 763f 2faf a73f
00000330: 760f 093f f827 38be 7af9 be3e e7c4 9dbf
00000340: bc45 52be 3865 313e 8018 163f 0e1b 733e
00000350: afb8 c63f c78d b2bf aebe c3bc 58e5 223f
00000360: ac78 703f 92a1 59bf 12c0 1c3f 41fd 0bbe
00000370: f8c1 eb3e 64f4 e9bf 2075 d5be c8f9 1fc0
00000380: c648 4dbf ce4a a73f 9e5b 983e c50c 803f
00000390: 827c 27be 2ed4 85bf 9f8f 133c 73c0 d4be
000003a0: c3f6 013f 4922 873f 4cb2 763f 89a2 d5be
000003b0: 68d3 2bbf 4287 093e 2963 abbf 8783 9abe
000003c0: fc2d 09c0 ed46 973f 4665 213f 6116 14be
000003d0: 4a57 443f 23df 26bf 7e45 9e3f d3f8 cfbe
000003e0: 2a2d 003f 44bf 0abd 6266 c43f d305 d83f
000003f0: cc1f a53d 849e 85bf 69e6 28bf 0002 43bf

relation_embeddings.weight f4 [46, 32]
0.3608609 -1.8305103 2.5928144 0.6573025 -0.49785876 1.1447963 -1.5046444 1.2682799
1.4424307 -1.2961807 -0.49612156 0.3294023 0.32857406 -0.7286857 0.28131688 2.9472296
-2.44347 1.4962693 0.7395592 -0.37324637 -0.65013283 -0.68535763 -1.7543056 0.37913138
0.80416954 -0.1860687 0.26684412 -0.45035547 -0.17792808 -0.15584156 0.48784646 -1.6479989
-0.31411615 0.23348832 -0.10367017 -0.44716743 -0.5454815 -0.93392766 0.7076435 0.57282776
-0.52100897 -0.4112666 -0.2647321 -0.08974677 -0.54068285 -0.20273589 0.1674343 -0.1916708
-1.1650071 -1.2495896 -0.13485028 -0.17178673 -1.132499 -0.42622212 -0.5810757 -0.2235866
0.8348492 -0.57159853 0.516377 0.6795967 0.44942597 1.1113797 -0.16240917 0.5206712
0.017268145 -1.3336834 -0.5685453 -1.3460988 -0.89094603 -0.32681853 -1.2830198 -1.9622792
-0.32459432 -0.6680282 2.4284213 0.65144396 -0.17357345 0.7660692 -0.75625414 1.8725706
-1.2684195 0.8420527 -0.093186095 -0.6470788 -0.8110182 -0.8322553 1.7993749 2.2035918
-1.1358253 -0.06767739 -1.9240422 -0.76053804 0.4272852 1.3239555 -0.13679315 -1.2697005
-2.3717895 -0.11906966 1.5513757 0.62728715 -1.8145176 0.3746538 -2.766012 -2.2664804
0.30668348 -1.0657538 3.759787 0.13742863 -0.44397444 1.0362628 -0.31776628 2.6179583
-1.1574033 0.16527154 0.28578913 -0.17444476 -0.60721636 -0.8306399 1.7170151 -5.5693235
-3.4812229 -2.0185473 1.1551491 -3.6635408 -0.571387 -0.12467755 0.53783953 -1.9446559
0.7508688 -1.5712945 0.397194 -0.12336155 -1.1795411 -0.331447 0.8071382 0.0023658024
-0.058769036 -0.42327812 0.907354 -0.3330387 -1.1205784 -0.16325326 1.1466475 -0.24433203
-0.52267796 -1.2392063 0.25072572 -0.21706593 -0.5221381 -0.88072187 0.31980345 -0.4836457
0.18175979 -0.58011395 0.72562796 -1.0948321 -0.02552174 0.24500626 -0.92299354 -0.54301167
-0.45410234 -2.162596 -0.48309183 -0.06674774 -0.95011973 -4.0173626 1.7827561 1.4189864
0.5669386 -0.93273467 0.8127505 1.0179693 0.108971305 -1.3672957 0.6709204 -0.050819073
-0.6044852 -1.2866255 -0.8661406 0.20399314 -1.028116 -0.16744265 -1.5249224 -1.1570919
0.77062124 0.57874054 0.10616827 0.7871789 0.7375655 -1.7636217 -1.1141747 -0.2926373
-0.27853835 -1.0225248 -0.38464138 0.2451351 -2.430296 0.3548234 -0.18826294 -0.101126514
0.5732959 -1.0378911 -0.04178058 -0.43190786 0.2942744 -0.23297186 -0.49144268 -0.5267468
0.9245759 -0.17073211 -0.4947679 0.64893717 -0.93344504 -1.027696 -1.3750205 0.525183
-0.40373936 -2.6142347 0.9294269 0.38721764 0.49811208 0.4641372 0.17776515 -0.111098364
0.4240789 -1.5057654 0.27203315 -0.12462037 0.65298045 -0.035964064 2.612584 -0.31413978
1.2528743 -0.2528535 -0.043732025 -0.101240516 0.3658501 -0.5764724 0.47583526 0.23521504
-0.43095818 0.19247063 -0.26455253 -2.0593462 -1.4368317 -2.0529134 1.6322314 -0.72948986
-0.39800954 -0.2009369 0.1883842 1.1721154 -0.10531661 0.6472214 -1.4945462 -1.0427299
00000000: c3c2 b83e 294e eabf acf0 2540 fa44 283f
00000010: 58e7 febe af88 923f 3098 c0bf ff56 a23f
00000020: 92a1 b83f 40e9 a5bf a503 febe 6ba7 a83e
00000030: dc3a a83e 258b 3abf c408 903e 699f 3c40
00000040: d061 1cc0 c185 bf3f c053 3d3f 261a bfbe
00000050: 1b6f 26bf 9973 2fbf 168d e0bf 821d c23e
00000060: 0ede 4d3f cb88 3ebe cb9f 883e fe94 e6be
00000070: c732 36be ee94 1fbe 03c7 f93e a1f1 d2bf
00000080: d5d3 a0be 9017 6f3e 0751 d4bd 21f3 e4be
00000090: ada4 0bbf e215 6fbf 2028 353f d7a4 123f
000000a0: d860 05bf 8991 d2be f78a 87be 28cd b7bd
000000b0: 316a 0abf ff99 4fbe e673 2b3e 5a45 44be
000000c0: f41e 95bf 8df2 9fbf 3116 0abe dce8 2fbe
000000d0: baf5 90bf c939 dabe 61c1 14bf e3f3 64be
000000e0: adb8 553f 4854 12bf 4831 043f 0dfa 2d3f
000000f0: 291b e63e b141 8e3f 974e 26be b54a 053f
00000100: ed75 8d3c 23b6 aabf 2f8c 11bf f74c acbf
00000110: 0a15 64bf c254 a7be fe39 a4bf f72b fbbf
00000120: 3a31 a6be e503 2bbf 416b 1b40 08c5 263f
00000130: 3dbd 31be 1c1d 443f df99 41bf 65b0 ef3f
00000140: 925b a2bf c490 573f 5ad8 bebd f5a6 25bf
00000150: e49e 4fbf af0e 55bf eb51 e63f a607 0d40
00000160: b962 91bf 729a 8abd 0447 f6bf 9fb2 42bf
00000170: 20c5 da3e 6077 a93f 8113 0cbe 8c85 a2bf
00000180: 66cb 17c0 cbda f3bd 7b93 c63f e495 203f
00000190: 1d42 e8bf 9fd2 bf3e 5706 31c0 040e 11c0
000001a0: 9e05 9d3e 9f6a 88bf 5aa0 7040 17ba 0c3e
000001b0: 9e50 e3be 42a4 843f 43b2 a2be a18c 2740
000001c0: cb25 94bf f13c 293e f452 923e a6a1 32be
000001d0: 8872 1bbf d1a4 54bf 27c7 db3f e637 b2c0
000001e0: 5bcc 5ec0 e12f 01c0 eddb 933f 7477 6ac0
000001f0: 6b46 12bf f156 ffbd daaf 093f 7cea f8bf
00000200: f038 403f 2e20 c9bf 035d cb3e fba4 fcbd
00000210: 34fb 96bf 6cb3 a9be 9ca0 4e3f 940b 1b3b
00000220: cdb7 70bd e9b7 d8be 5a48 683f 0c84 aabe
00000230: 1d6f 8fbf dd2b 27be 58c5 923f 2d32 7abe
00000240: 39ce 05bf 509e 9ebf 1f5f 803e 8846 5ebe
00000250: d8aa 05bf fd76 61bf 47bd a33e 69a0 f7be
00000260: 3d1f 3a3e 5982 14bf c1c2 393f 7523 8cbf
00000270: f812 d1bc ece2 7a3e 4e49 6cbf d002 0bbf
00000280: 1a80 e8be f967 0ac0 d057 f7be 0ab3 88bd
00000290: 0c3b 73bf 3c8e 80c0 5a31 e43f 59a1 b53f
000002a0: e322 113f b3c7 6ebf 6b10 503f d14c 823f
000002b0: 592c df3d 8c03 afbf 70c1 2b3f a927 50bd
000002c0: 8bbf 1abf 25b0 a4bf 64bb 5dbf 94e3 503e
000002d0: 4e99 83bf 1676 2bbe a830 c3bf 961b 94bf
000002e0: 6f47 453f 5728 143f c06e d93d 8e84 493f
000002f0: 18d1 3c3f 5bbe e1bf 479d 8ebf 8ed4 95be
00000300: 949c 8ebe 18e2 82bf b7ef c4be b204 7b3e
00000310: f889 1bc0 6aab b53e 00c8 40be 6b1b cfbd
00000320: 85c3 123f 9ed9 84bf 1d22 2bbd 0723 ddbe
00000330: 22ab 963e 2d90 6ebe 609e fbbe e1d8 06bf
00000340: 02b1 6c3f 66d4 2ebe 3852 fdbe bf20 263f
00000350: 41f6 6ebf 8b8b 83bf ac00 b0bf 6572 063f
00000360: edb6 cebe 9f4f 27c0 ecee 6d3f 6441 c63e
00000370: 8c08 ff3e 64a3 ed3e 1108 363e 8a87 e3bd
00000380: df20 d93e ecbc c0bf ee47 8b3e f738 ffbd
00000390: ba29 273f 0e4f 13bd 9434 2740 eed6 a0be
000003a0: 2f5e a03f 0476 81be 5a20 33bd 3057 cfbd
000003b0: b450 bb3e b293 13bf aea0 f33e 36dc 703e
000003c0: 8da6 dcbe 0517 453e 6e73 87be 54cc 03c0
000003d0: 1aea b7bf ef62 03c0 f5ec d03f d9bf 3abf
000003e0: e8c7 cbbe 67c2 4dbe cae7 403e e107 963f
000003f0: 3cb0 d7bd 4db0 253f 4a4d bfbf 2c78 85bf
