bbox_poisoning/Experiments/2025-07-21 15-27-24.589494/model.pt (torch, 25222 bytes, 2 tensors)

entity_embeddings.weight f4 [135, 32]
0.11334345 0.75978917 -0.05748752 -0.01778402 1.1717644 -0.17585446 -0.94241184 -0.23629923
0.8579028 0.5529153 0.48533463 -0.79812324 0.4856227 -0.26727206 0.45327768 -1.3557112
2.5726838 5.0522256 7.804129 -5.868792 -0.18949503 5.1095505 -4.226097 3.9518542
-1.8013881 4.85958 -0.97867066 0.63389677 -4.7717733 6.03058 4.3709564 -2.1393094
-0.00189586 -1.0870392 0.14424805 -0.37924275 0.44745457 1.1124128 -0.2750224 0.42111513
-0.7369209 1.2955681 -0.28532246 -0.81367594 -0.22739582 -0.081427686 1.10304 -0.79616755
3.8720398 6.4694448 4.4498043 2.4079726 -1.3595747 -0.4762176 0.49838135 -3.3200412
-8.409775 8.416113 10.827865 2.5872784 -4.6720195 2.5042858 -9.795966 2.7292573
-0.09777289 0.37668815 0.6274268 1.4198211 1.065221 1.1251987 0.42587364 -0.1049103
-1.5566632 1.1562862 0.3663992 -0.6650454 0.9979432 -0.45596442 0.52077854 -0.24386813
3.8378625 -7.545121 -1.0055522 2.2741225 6.027723 2.8577602 1.5689579 7.901032
-11.216744 8.83575 -5.0017576 -2.2550783 -6.0714793 1.3802884 -3.120595 5.615623
0.3338988 -0.4092194 1.0133651 -0.58499604 -0.3427801 -1.145162 -0.6745746 0.16295093
0.09255028 0.288029 -0.5596967 0.22285041 -0.6246881 -0.72933054 0.3369326 -0.47145975
-6.1520123 0.49738654 -3.2497349 -1.7307687 -2.3880942 -0.7070973 3.8891687 -6.052816
6.490853 5.3572145 -4.6757097 -4.585759 0.120289214 1.6609893 2.6599119 0.73596257
0.38644227 0.15200685 0.588235 1.0395873 1.3327537 1.6690769 0.783926 0.31560323
-1.2967271 0.90159833 0.46712768 -0.7153454 0.8613956 -0.07605688 0.35052872 0.32594612
5.305244 -10.0800905 3.071437 5.8944526 5.3154144 0.48429403 3.9464355 4.5243387
-3.2854187 8.0491085 -6.974815 -0.05501168 -5.200981 4.8601117 -2.9107258 5.920482
0.57610255 -1.1009933 0.6479131 -0.41263634 -0.30484504 -0.9249551 0.6324009 0.35154653
0.056104094 0.43641323 -0.3813836 0.004428618 -0.21934423 -0.1575469 0.0031858655 -0.81992126
4.636233 3.4183404 1.0243263 -1.1934768 -5.665429 -0.73653203 -1.1019936 -3.5705774
3.997608 4.6327205 -3.2334821 -1.3473014 -1.1320746 3.4310029 4.261741 5.411695
0.20818265 -0.40261066 0.75040704 -1.0100436 -0.604004 -1.5080343 -0.60937124 0.05999238
-0.34597504 0.3282167 -0.03630191 -0.08452374 -0.4392599 -0.63652897 0.38767254 -0.29578882
-6.3229766 1.0858872 -2.745087 -5.868821 -3.4355388 -0.85849833 1.8789355 -4.124539
6.4393187 6.345546 -4.557444 -5.6697526 2.0046268 2.9034345 2.7295654 0.91437805
-1.036284 0.43378508 -0.62139547 -1.0149904 2.09422 0.2521846 -1.3238362 0.25326288
-0.43430835 1.1607357 -0.041171875 -0.8223955 0.5589278 -0.4434673 -0.6741831 -0.51945734
-3.4864225 5.758447 11.1328 -2.9320626 6.7561812 8.785434 -3.2935212 6.100283
-4.066652 10.629824 9.373956 6.360299 -8.856459 5.0163736 6.468202 3.4551654
00000000: 9c20 e83d 8b81 423f 0978 6bbd cbaf 91bc
00000010: 60fc 953f 3113 34be e741 71bf 6df8 71be
00000020: 859f 5b3f db8b 0d3f c87d f83e ce51 4cbf
00000030: 8aa3 f83e e2d7 88be 0314 e83e f287 adbf
00000040: daa6 2440 d5ab a140 6dbb f940 25cd bbc0
00000050: fc0a 42be 7081 a340 303c 87c0 2eeb 7c40
00000060: e393 e6bf ae81 9b40 298a 7abf 0f47 223f
00000070: 5eb2 98c0 83fa c040 e0de 8b40 72ea 08c0
00000080: 817e f8ba 1a24 8bbf c3b5 133e 1b2c c2be
00000090: c418 e53e 8b63 8e3f bccf 8cbe 679c d73e
000000a0: d9a6 3cbf 2dd5 a53f c915 92be 114d 50bf
000000b0: 73da 68be 8fc3 a6bd 6a30 8d3f a3d1 4bbf
000000c0: 80cf 7740 b105 cf40 cc64 8e40 391c 1a40
000000d0: 8b06 aebf cbd2 f3be d72b ff3e 8e7b 54c0
000000e0: 708e 06c1 66a8 0641 ef3e 2d41 f895 2540
000000f0: 2f81 95c0 3846 2040 47bc 1cc1 27ac 2e40
00000100: 273d c8bd 45dd c03e 0b9f 203f b3bc b53f
00000110: 2959 883f 8306 903f 1c0c da3e 36db d6bd
00000120: bd40 c7bf 3001 943f ad98 bb3e 6a40 2abf
00000130: 3579 7f3f 2b74 e9be be51 053f 91b8 79be
00000140: 8a9f 7540 a271 f1c0 efb5 80bf 398b 1140
00000150: 1be3 c040 8be5 3640 9dd3 c83f 41d5 fc40
00000160: c977 33c1 3b5f 0d41 660e a0c0 3453 10c0
00000170: 8f49 c2c0 4aad b03f d4b7 47c0 2fb3 b340
00000180: c9f4 aa3e 3585 d1be f3b5 813f 4dc2 15bf
00000190: e080 afbe ab94 92bf ecb0 2cbf 9cdc 263e
000001a0: 008b bd3d 8978 933e 4848 0fbf e632 643e
000001b0: 8feb 1fbf 68b5 3abf 6e82 ac3e 2c63 f1be
000001c0: 49dd c4c0 73a9 fe3e a8fb 4fc0 d489 ddbf
000001d0: 89d6 18c0 5404 35bf 24e8 7840 abb0 c1c0
000001e0: 11b5 cf40 4d6e ab40 6a9f 95c0 8abe 92c0
000001f0: 315a f63d 4c9b d43f ff3b 2a40 0b68 3c3f
00000200: c3db c53e afa7 1b3e 9296 163f 3211 853f
00000210: ac97 aa3f 50a4 d53f 60af 483f bf96 a13e
00000220: 27fb a5bf 26cf 663f 5c2b ef3e e020 37bf
00000230: 6c84 5c3f b6c3 9bbd 8078 b33e 69e2 a63e
00000240: 8fc4 a940 0d48 21c1 6c92 4440 5b9f bc40
00000250: e017 aa40 63f5 f73e 6692 7c40 62c7 9040
00000260: 4d44 52c0 26c9 0041 af31 dfc0 ed53 61bd
00000270: 706e a6c0 0986 9b40 5549 3ac0 9774 bd40
00000280: 757b 133f 59ed 8cbf a2dd 253f 1245 d3be
00000290: a614 9cbe dcc9 6cbf 06e5 213f e8fd b33e
000002a0: 68cd 653d 8e71 df3e b644 c3be f11d 913b
000002b0: c69b 60be f953 21be f4c9 503b 5ce6 51bf
000002c0: 055c 9440 17c6 5a40 201d 833f d9c3 98bf
000002d0: 324b b5c0 5d8d 3cbf 200e 8dbf 5784 64c0
000002e0: cfd8 7f40 3f3f 9440 5ff1 4ec0 5f74 acbf
000002f0: d2e7 90bf 8d95 5b40 2f60 8840 9b2c ad40
00000300: d52d 553e fc22 cebe ad1a 403f 1c49 81bf
00000310: 02a0 1abf 4507 c1bf c1ff 1bbf 92ba 753d
00000320: a423 b1be 050c a83e 50b1 14bd c81a adbd
00000330: ace6 e0be 90f3 22bf 047d c63e a271 97be
00000340: d355 cac0 5afe 8a3f 81af 2fc0 62cd bbc0
00000350: dedf 5bc0 8cc6 5bbf f580 f03f 39fc 83c0
00000360: e60e ce40 b60e cb40 95d6 91c0 9d6e b5c0
00000370: ce4b 0040 dfd1 3940 33b1 2e40 ae14 6a3f
00000380: f4a4 84bf 1419 de3e c613 1fbf 35eb 81bf
00000390: b307 0640 571e 813e 7773 a9bf acab 813e
000003a0: aa5d debe fd92 943f d7a3 28bd 8388 52bf
000003b0: e415 0f3f 250e e3be 4397 2cbf 28fb 04bf
000003c0: 8c21 5fc0 3345 b840 f31f 3241 eaa6 3bc0
000003d0: a332 d840 2391 0c41 0dc9 52c0 8535 c340
000003e0: 0322 82c0 c213 2a41 b9fb 1541 9287 cb40
000003f0: 0eb4 0dc1 2286 a040 83fb ce40 6e21 5d40

relation_embeddings.weight f4 [46, 32]
0.074355416 -0.9106736 -0.33345568 -0.14000444 -0.34851363 -0.20146285 0.12227381 -0.4574582
0.083146445 -1.5946714 -0.02052305 -0.08129161 -0.01586849 -0.05110827 -0.29425228 0.19894017
-0.070536785 -2.455975 -1.4669914 0.06262896 -12.911836 -1.3039745 -2.7613094 4.111456
3.7823627 -5.4152417 1.0444816 1.368583 0.91426516 4.99613 1.24424 -1.26346
-0.26401865 1.2288747 -1.0549113 -1.0794138 -0.15806721 0.010104224 -0.774482 -0.48945892
0.10079789 -1.8095865 0.40144458 -0.8135609 0.09588441 -0.09097697 0.050640333 1.4619752
-2.6718493 1.1479329 -3.2720056 1.1788197 -3.6862605 5.9091854 8.932038 -0.14265661
-1.4087106 -0.14018454 2.3253317 4.1772265 0.24253164 2.5198243 0.41563082 -4.791652
-0.35112128 0.7638643 -0.24570498 0.38294587 0.67122924 0.17276198 0.1449045 0.22238402
0.6662992 -1.273185 0.21153839 0.5959467 -0.21556339 -0.6535956 -0.008125143 0.50100636
-2.9664404 -1.768055 -4.072008 8.064516 -0.35749906 4.4001765 -1.5677369 2.405325
-2.5203395 -1.003631 3.4411516 -4.6131635 -4.876911 5.2111354 1.4041691 -1.0143124
1.1435838 -0.81919616 0.31534433 -0.113767855 0.018620042 0.6033356 -0.77678835 0.15909071
1.1539798 -3.2276518 -0.2516485 0.1621866 -0.89196545 -0.60421926 0.5688104 -0.4859999
2.6544604 -4.048685 -1.2523689 -1.1350523 -7.230891 1.3451732 6.459036 2.4842074
-6.8604126 -1.862052 -4.917187 -4.237543 6.464258 -1.2374038 -5.0225286 7.7538743
-0.82558304 0.2856732 -0.9766547 -0.50389856 1.068654 -0.63911736 0.30976668 0.425494
0.9355863 -1.467919 -0.86881477 -0.5102731 -0.47098425 -0.07499572 -2.4109888 1.5698156
5.388952 2.8177752 6.263269 6.7856326 -2.2546005 -7.5792427 1.262576 -2.0092332
-4.3905683 -4.903748 3.6275792 -1.1163458 -6.649131 4.1101747 -6.076857 -0.5273184
-0.1260682 0.5328897 -0.39734048 0.2064043 0.78533596 0.83664286 -0.15180068 0.121088006
0.13828175 -2.0025983 0.12498127 0.015476566 0.24122795 -0.49182874 0.040266946 -0.6096489
-1.2836444 -3.3384962 -0.4953701 0.551366 -3.7945416 9.24522 -1.5475724 2.252957
10.426874 4.8252263 -5.289199 -3.0367262 1.047328 -0.0059669428 -1.5236399 -6.861398
-0.40113345 0.3738618 0.054135755 -0.42953086 0.5085024 -0.08052026 -0.6945856 0.3902208
-0.93375874 -1.3280582 0.17490548 0.39035738 0.13669144 -0.5258939 -0.09592699 0.20542106
-0.4300304 1.4619755 4.917057 -2.2403371 -2.0172164 4.027282 -1.3092184 3.2444277
6.06807 -3.7180893 3.173605 -4.774874 -5.4116774 7.543441 -0.2402909 -3.672661
-2.0728579 0.62589335 -0.852169 -0.67778397 1.4095519 1.0297195 -1.0754759 -0.52110445
-1.2804958 -2.8924437 -1.6383243 0.6465957 -0.66234714 -0.52837735 -0.58717924 -0.54273635
0.42237106 -4.7078686 4.490189 -6.2114606 -5.2460084 5.4375787 -5.9345694 8.623683
-2.259501 -3.841534 1.8336935 -14.367994 -11.161037 0.29365763 13.211705 -8.070261
00000000: a747 983d e821 69bf b4ba aabe 535d 0fbe
00000010: 6170 b2be 474c 4ebe b16a fa3d f637 eabe
00000020: af48 aa3d 311e ccbf f51f a8bc 377c a6bd
00000030: a3fe 81bc e856 51bd 3ca8 96be f9b6 4b3e
00000040: 9775 90bd b22e 1dc0 60c6 bbbf 9d43 803d
00000050: e196 4ec1 a3e8 a6bf 4bb9 30c0 0c91 8340
00000060: 3b12 7240 a949 adc0 93b1 853f ba2d af3f
00000070: 480d 6a3f 4ce0 9f40 4243 9f3f 0fb9 a1bf
00000080: 742d 87be c44b 9d3f 5507 87bf 3b2a 8abf
00000090: 5fdc 21be 308c 253c 7444 46bf 5c9a fabe
000000a0: 206f ce3d 88a0 e7bf 258a cd3e 8745 50bf
000000b0: 0c5f c43d 2252 babd 3d6c 4f3d 0122 bb3f
000000c0: 94ff 2ac0 77ef 923f 8a68 51c0 90e3 963f
000000d0: b1eb 6bc0 0c18 bd40 a1e9 0e41 9314 12be
000000e0: a150 b4bf 898c 0fbe 3cd2 1440 d7ab 8540
000000f0: 375a 783e cd44 2140 90cd d43e 3755 99c0
00000100: 2bc6 b3be 9c8c 433f 169a 7bbe 7b11 c43e
00000110: aed5 2b3f 84e8 303e d861 143e a3b8 633e
00000120: 9692 2a3f baf7 a2bf 859d 583e f78f 183f
00000130: a6bc 5cbe 0b52 27bf 521f 05bc f441 003f
00000140: 29da 3dc0 a04f e2bf e44d 82c0 4208 0141
00000150: 1e0a b7be 3fce 8c40 9aab c8bf d8f0 1940
00000160: 3e4d 21c0 fb76 80bf d43b 5c40 099f 93c0
00000170: a80f 9cc0 9fc1 a640 d0bb b33f fdd4 81bf
00000180: f460 923f d7b6 51bf d074 a13e 1fff e8bd
00000190: 0f89 983c 3474 1a3f 9adb 46bf ade8 223e
000001a0: 9cb5 933f d991 4ec0 12d8 80be 3e14 263e
000001b0: d957 64bf 1dae 1abf 8f9d 113f fbd4 f8be
000001c0: aee2 2940 d48e 81c0 a04d a0bf 6549 91bf
000001d0: 7663 e7c0 a32e ac3f 6cb0 ce40 41fd 1e40
000001e0: 8088 dbc0 b857 eebf 9959 9dc0 f499 87c0
000001f0: 34db ce40 3f63 9ebf 8eb8 a0c0 bd1f f840
00000200: 6959 53bf c243 923e 0b06 7abf 7fff 00bf
00000210: a7c9 883f 329d 23bf bd99 9e3e 59da d93e
00000220: 9582 6f3f c5e4 bbbf a56a 5ebf 42a1 02bf
00000230: d924 f1be 5b97 99bd a44d 1ac0 b8ef c83f
00000240: 4b72 ac40 6e56 3440 b36c c840 e723 d940
00000250: 604b 10c0 2889 f2c0 179c a13f 4797 00c0
00000260: 897f 8cc0 81eb 9cc0 422a 6840 6be4 8ebf
00000270: aec5 d4c0 8d86 8340 9d75 c2c0 57fe 06bf
00000280: 0618 01be 766b 083f 3670 cbbe a65b 533e
00000290: c70b 493f 3a2e 563f a371 1bbe fdfc f73d
000002a0: bb99 0d3e 922a 00c0 2ef6 ff3d 6c91 7d3c
000002b0: 7604 773e fad0 fbbe f4ee 243d f311 1cbf
000002c0: 764e a4bf eca9 55c0 26a1 fdbe 5226 0d3f
000002d0: c5d9 72c0 6cec 1341 da16 c6bf 7330 1040
000002e0: 7ad4 2641 4168 9a40 1e41 a9c0 b959 42c0
000002f0: d80e 863f 5886 c3bb a206 c3bf 9390 dbc0
00000300: 5d61 cdbe d06a bf3e 74bd 5d3d 78eb dbbe
00000310: 372d 023f cee7 a4bd 5dd0 31bf 05cb c73e
00000320: d00a 6fbf d0fd a9bf 6c1a 333e ecdc c73e
00000330: d7f8 0b3e fca0 06bf 5f75 c4bd e659 523e
00000340: f22c dcbe 0322 bb3f 8858 9d40 af61 0fc0
00000350: 131a 01c0 7fdf 8040 7894 a7bf b4a4 4f40
00000360: a12d c240 2df5 6dc0 581c 4b40 c5cb 98c0
00000370: 762c adc0 de63 f140 d10e 76be e10c 6bc0
00000380: b4a9 04c0 8c3a 203f bf27 5abf 4083 2dbf
00000390: 326c b43f d9cd 833f 32a9 89bf 1a67 05bf
000003a0: 49e7 a3bf cc1d 39c0 9cb4 d1bf 4c87 253f
000003b0: 958f 29bf bd43 07bf 6151 16bf c5f0 0abf
000003c0: 0541 d83e dca6 96c0 a1af 8f40 49c4 c6c0
000003d0: 4ddf a7c0 a500 ae40 fee7 bdc0 9bfa 0941
000003e0: aa9b 10c0 b1db 75c0 78b6 ea3f 4ee3 65c1
000003f0: 9c93 32c1 4b5a 963e 2563 5341 ca1f 01c1
