bbox_poisoning/lightning_logs/version_2119/checkpoints/epoch=99-step=600.ckpt (torch, 75320 bytes, 6 tensors)

entity_embeddings.weight f4 [135, 32]
0	0xbd0d9650	-0.034567177
1	0x3e5288be	0.20559976
2	0x3e80cb64	0.25155175
3	0xbec2836a	-0.37990886
4	0xbdbbe491	-0.09174455
5	0x3f3311b3	0.6994888
6	0x3f6285fa	0.8848568
7	0xbd793e84	-0.060850635
8	0x3d8fd5a0	0.070231676
9	0xbe128530	-0.1430862
10	0xbf42aa5c	-0.760412
11	0x3f28e3cc	0.6597259
12	0x3f873516	1.0563076
13	0xbdae3bc5	-0.08507494
14	0xbf825451	-1.0181981
15	0xbf139f30	-0.57664776
16	0xbe6e35be	-0.23262689
17	0xbf3de69c	-0.74180007
18	0x3ed649b1	0.41853097
19	0x3dff6d58	0.124720275
20	0x3f655288	0.8957906
21	0x3f48d0ee	0.784438
22	0xbec80afc	-0.3907088
23	0xbf0e3c72	-0.5556098
24	0x3f5216f6	0.82066286
25	0xbecc4bb5	-0.3990151
26	0x3f42ed8e	0.7614373
27	0xbda4ab1c	-0.08040449
28	0x3ea94b81	0.33065417
29	0xbf30b1db	-0.69021386
30	0xbfa89738	-1.3171148
31	0xbef74c38	-0.48300338
32	0x3f0a51cc	0.5403106
33	0x3f047091	0.5173426
34	0x3ca442ab	0.020051321
35	0xbd70fa03	-0.05883218
36	0x3c91ac0c	0.017782234
37	0x3f8e5155	1.111857
38	0xbf867e53	-1.0507301
39	0xbf15374e	-0.58287513
40	0x3f019e42	0.5063211
41	0xbf06ad75	-0.52608424
42	0x3f4cc4c9	0.7998777
43	0xbf59f118	-0.85133505
44	0x3f3e93f8	0.7444453
45	0x3f65c0db	0.897474
46	0xbe97cab1	-0.2964683
47	0xbef1a097	-0.47192833
48	0x3eeddb5c	0.4645642
49	0xbfa985e0	-1.324398
50	0x3eaa5c55	0.3327357
51	0x3f559aa1	0.8343907
52	0x3f9d04b6	1.2267063
53	0x3f6a51b4	0.9153092
54	0xbfe3006b	-1.7734503
55	0xbf89477b	-1.0724939
56	0xbeb5f499	-0.35538176
57	0xbf1d83e8	-0.615294
58	0xbff578d6	-1.9177501
59	0x3f98910d	1.1919266
60	0xbf14a363	-0.5806181
61	0x3f740605	0.95321685
62	0x3dd4ac7c	0.10384461
63	0xbf15846f	-0.584052
64	0x3f882d67	1.0638856
65	0xbf4c8359	-0.7988792
66	0x3e681f5f	0.22668217
67	0xbd7612a9	-0.06007639
68	0xbd952477	-0.07282346
69	0x3fa8d8e0	1.3191185
70	0xbef9724e	-0.4872002
71	0xbe310bd2	-0.17289665
72	0xbe28f55a	-0.16499844
73	0xbddace14	-0.106838375
74	0x3eebef20	0.46080875
75	0xbe8bb108	-0.27283502
76	0xbeb3615c	-0.35035217
77	0x3eefdb44	0.46846974
78	0x3fad52b7	1.3540868
79	0xbeea1219	-0.45716932
80	0x3cc2bfac	0.023773037
81	0xbf13eec1	-0.57786185
82	0x3e38bf3f	0.18041705
83	0xbf021e82	-0.508278
84	0x3fa36699	1.2765685
85	0x3fcd0b23	1.6019024
86	0xbf81e650	-1.0148411
87	0xbf905cfc	-1.1278377
88	0xbf9c8f7d	-1.2231289
89	0xbf9d102a	-1.2270558
90	0xbf0767e0	-0.52892876
91	0xbfa11bbc	-1.2586589
92	0x3f88e3fd	1.0694577
93	0xbf9bde83	-1.217728
94	0xbe481f37	-0.19543158
95	0x3e757ffc	0.23974603
96	0xbe9290ae	-0.28626007
97	0xbe447959	-0.19186915
98	0xbe0025f1	-0.12514473
99	0x3f4f65b1	0.81014544
100	0xbfc59b1d	-1.5437962
101	0x3faefa82	1.3670199
102	0xbfaaf4dc	-1.3355975
103	0xbcdddb4e	-0.027082112
104	0xbf0f9bbc	-0.56097007
105	0xbe9a359e	-0.30119032
106	0xbd84ee33	-0.064907454
107	0x3ff3c5c9	1.9044734
108	0xbf4de4f7	-0.804275
109	0x3ebff855	0.3749415
110	0x3e4143a3	0.18873458
111	0x3f934fba	1.1508706
112	0x3f56e1c7	0.8393826
113	0xbf454a47	-0.77066463
114	0xbf8de9f6	-1.1087024
115	0xbfd079f5	-1.6287218
116	0x3fdd4802	1.72876
117	0x3fd01b92	1.6258414
118	0xbf04a6ea	-0.5181719
119	0xc009a4b4	-2.1506777
120	0x3f9d1c2a	1.227422
121	0xc02cc6e1	-2.6996386
122	0xbdda8900	-0.10670662
123	0x3e9c5a32	0.30537564
124	0xbea0e552	-0.31424958
125	0xbf12ce03	-0.573456
126	0xbd7f2769	-0.062293444
127	0x3f191deb	0.59811276
128	0x3e765fef	0.24060033
129	0x3e3788dd	0.17923303
130	0x3ea467de	0.32110494
131	0xbc9e73a9	-0.01934226
132	0xbdad7e92	-0.08471407
133	0x3ee0ffda	0.439452
134	0x3f3d2af7	0.73893684
135	0xbe0bbd2d	-0.13646384
136	0x3e979720	0.29607487
137	0xbe969f5c	-0.29418457
138	0xbf31a6e1	-0.6939526
139	0x3f4dbb8f	0.80364317
140	0x3f81019b	1.0078615
141	0x3d3a19d3	0.045434784
142	0xbf88e69d	-1.0695378
143	0xbeffad58	-0.49936938
144	0xbddecf2c	-0.10879359
145	0xbf6aed12	-0.9176799
146	0x3dc7e5f4	0.09760657
147	0x3e584f4f	0.21124004
148	0x3ef4a634	0.47783053
149	0x3f35d099	0.7102142
150	0xbeb6dc67	-0.3571503
151	0xbf2e003e	-0.6796912
152	0x3f4c44e5	0.79792625
153	0xbe469286	-0.19391832
154	0x3f77eb2f	0.96843237
155	0xbe7d9d31	-0.24766995
156	0x3dcc7232	0.099827185
157	0xbf9229e7	-1.1419038
158	0xbf6a5395	-0.91533786
159	0xbf218a4b	-0.63101643
160	0xbf6938ad	-0.91102105
161	0xbf1af2ab	-0.6052653
162	0xc029f174	-2.6553621
163	0x3ead10d7	0.3380191
164	0x3ec46048	0.38354707
165	0x3ebd5c90	0.36984682
166	0x3f6eb5d4	0.932462
167	0x3c7776fc	0.015104052
168	0x3f2c714b	0.6736037
169	0x3e60566a	0.21907964
170	0xbf92a912	-1.1457846
171	0x3e87dd1a	0.26535875
172	0xbf1bb216	-0.6081861
173	0xbf250869	-0.6446596
174	0xbf4e2630	-0.8052702
175	0xbed7d778	-0.42156577
176	0x3f3b1030	0.73071575
177	0xc013ce34	-2.3094606
178	0x3f1e8bf9	0.6193233
179	0x3ff93f3f	1.9472426
180	0x3fe5e09a	1.7959168
181	0x3f64eb72	0.8942176
182	0x3fadcbce	1.3577821
183	0xbfd918c6	-1.6960685
184	0x3e4df759	0.20113887
185	0xbe7be38e	-0.24598524
186	0xbf07746c	-0.5291202
187	0x3f0a62ed	0.540572
188	0xbef9e132	-0.48804623
189	0x3f336af0	0.7008505
190	0x3e1fe3b0	0.156142
191	0x3fc1dd37	1.5145634
192	0xbe4bbefe	-0.19897076
193	0xbd68d69e	-0.0568453
194	0x3ed7e9cc	0.4217056
195	0xbf0dc2af	-0.5537519
196	0xbe1cdbea	-0.15318266
197	0x3ebd5a3d	0.3698291
198	0x3f957c8c	1.1678634
199	0xbe04414d	-0.12915535
200	0x3e6f1418	0.23347509
201	0xbd7fc4f6	-0.062443696
202	0xbf6aec7c	-0.91767097
203	0x3f2ccb3e	0.6749762
204	0x3f510de4	0.8166182
205	0xbec0965b	-0.37614712
206	0xbf79b262	-0.97537816
207	0xbf361249	-0.7112165
208	0xbe7cb089	-0.24676718
209	0xbf8d0a00	-1.1018677
210	0xbe481cf8	-0.195423
211	0x3df71ce9	0.12066061
212	0x3f2ad07a	0.6672436
213	0x3f4a9c1b	0.7914445
214	0xbefa2e4d	-0.4886345
215	0xbf22c295	-0.6357816
216	0x3f120215	0.57034427
217	0xbeaa5a7b	-0.33272156
218	0x3f41409c	0.7548921
219	0x3e05a57c	0.13051409
220	0x3da6d2b8	0.0814566
221	0xbfacbf8d	-1.3495957
222	0xbf636ae9	-0.88835007
223	0xbf4ac52c	-0.7920711
224	0xbe85108c	-0.25989187
225	0xbf8ee135	-1.1162478
226	0x3d17ad50	0.037030518
227	0xbe8a2acd	-0.2698578
228	0x3e8cb72e	0.27483505
229	0x3f380323	0.71879786
230	0xbf80c985	-1.0061499
231	0xbe569b68	-0.2095772
232	0x3eb248f7	0.34821293
233	0x3b86468c	0.0040977653
234	0xbe5196e3	-0.20467715
235	0xbdc07cd6	-0.093988106
236	0xbe055235	-0.1301964
237	0x3e81ea5e	0.2537412
238	0x3faaecad	1.3353478
239	0xbefb3850	-0.490664
240	0x3f60547d	0.8762892
241	0xbfed820d	-1.8555313
242	0x3f5331b0	0.8249769
243	0xbf44b933	-0.7684509
244	0x3f8429c0	1.0325241
245	0x3f64e291	0.8940821
246	0xbe8ad0a4	-0.27112305
247	0xbf904a95	-1.1272761
248	0xbf98d0bf	-1.1938704
249	0x3e61eda7	0.22063313
250	0xbeb783a9	-0.35842636
251	0xbf03edc7	-0.51534694
252	0x3f5a9217	0.85379165
253	0xbfa47ac6	-1.2849967
254	0x3ef67d8d	0.48142663
255	0xbf0f2a5a	-0.55924

relation_embeddings.weight f4 [46, 32]
0	0x3dd081e1	0.101810224
1	0xbedb87ed	-0.4287714
2	0x3ded47b6	0.115859434
3	0xbfb2852c	-1.3946891
4	0xbf6241a4	-0.8838141
5	0xbf4d3134	-0.80153203
6	0x3f402bef	0.7506704
7	0xbfd428bf	-1.6574935
8	0x3e614f89	0.22002997
9	0xbe808a44	-0.25105488
10	0x3f028e0e	0.5099801
11	0xbe0a4b77	-0.1350535
12	0x3fd02e21	1.6264077
13	0x3ebeaff5	0.3724362
14	0xbef851ea	-0.48499995
15	0x3ea5b1a6	0.32362098
16	0xbe5add38	-0.21373451
17	0xbe954bb6	-0.29159325
18	0x3d53bd00	0.051693916
19	0x3f339b0b	0.7015845
20	0x3c11759c	0.008878138
21	0x3d33a7e7	0.043861296
22	0x3f5057d0	0.8138399
23	0x3d645be6	0.055751704
24	0x3ef4f0fd	0.4784011
25	0xbd17f005	-0.037094135
26	0xbf3d62a5	-0.73978645
27	0x3e07fea9	0.13280739
28	0x3c816481	0.015794994
29	0xbe1986ff	-0.14992903
30	0xbe3d90ae	-0.18512222
31	0x3e5b8849	0.21438707
32	0xbdae52be	-0.085118756
33	0xbf47f577	-0.78108925
34	0x3f499c07	0.78753704
35	0xbc33ee36	-0.010982087
36	0xbf457c15	-0.7714246
37	0xbf5bcba9	-0.85857636
38	0xbf8444c0	-1.0333481
39	0xbf938647	-1.1525353
40	0xbe10dcb4	-0.14146692
41	0xbe10825d	-0.1411223
42	0x3d14107c	0.036148533
43	0x3d9e8628	0.07740432
44	0x3f53b5f9	0.82699543
45	0x3eed077e	0.4629478
46	0xbf2bcc6b	-0.6710879
47	0x3ec04272	0.37550694
48	0xbd82f9ee	-0.063953266
49	0xbd78f597	-0.060781088
50	0xbe064154	-0.13110858
51	0x3f4606d9	0.773542
52	0xbe0d677f	-0.13809012
53	0xbf250992	-0.6446773
54	0xbea5d97d	-0.32392493
55	0xbd70580a	-0.05867771
56	0xbf5bddf4	-0.8588555
57	0x3e38c064	0.18042141
58	0x3f6d815f	0.9277553
59	0xbc9455ad	-0.01810726
60	0xbdc8aa4f	-0.09798109
61	0x3edc7f82	0.4306603
62	0xbf22507f	-0.6340408
63	0x3f2bf3db	0.6716897
64	0xbcfa8301	-0.030580046
65	0xbe975175	-0.29554334
66	0xbc96218e	-0.018326547
67	0xbfb23c59	-1.3924667
68	0xc01cf0a5	-2.4521878
69	0xbf31c680	-0.6944351
70	0x3e8637fc	0.26214588
71	0xbf385076	-0.71997774
72	0xbf898426	-1.0743454
73	0xbf424300	-0.75883484
74	0xbc132904	-0.008981947
75	0x3e555bf6	0.20835862
76	0x3dd9a884	0.10627845
77	0x3f6f74e1	0.9353772
78	0x3f574bfc	0.8410032
79	0x3fd2fa01	1.6482545
80	0x3f33db38	0.70256376
81	0x3f2feab8	0.6871753
82	0x3f069cd4	0.5258305
83	0xbf4fa3d1	-0.8110934
84	0xbe4d5c73	-0.20054798
85	0x3e7a320f	0.24433158
86	0x3f420833	0.7579376
87	0x3e71579e	0.2356858
88	0x3db527c4	0.08845475
89	0x3e481f48	0.19543183
90	0xbe1cdd04	-0.15318686
91	0x3ef22779	0.4729574
92	0xbfa15ee8	-1.2607088
93	0xbf773b86	-0.965752
94	0xbcf22a99	-0.029561328
95	0xbf34a361	-0.70561796
96	0xbdc30caf	-0.095239036
97	0xbee72fbf	-0.45153615
98	0x3d850919	0.06495876
99	0x3e494b4d	0.19657631
100	0xbf8d798a	-1.1052716
101	0xbec755dc	-0.38932693
102	0xbe0de0e8	-0.13855326
103	0x3cfdc841	0.030979278
104	0xbe6dbbee	-0.2321622
105	0xbe79881d	-0.2436833
106	0xbdadc508	-0.08484846
107	0x3dbff651	0.09373153
108	0xbcfb02f5	-0.030641058
109	0xbd39f627	-0.045400765
110	0x3e8a6c9f	0.27035996
111	0x3e162785	0.14663513
112	0x3ee64041	0.44970897
113	0x3dc92b4e	0.09822713
114	0x3e6befc0	0.23040676
115	0xbd7454f5	-0.059651334
116	0x3de89a16	0.113575146
117	0x3dfced51	0.12349952
118	0x3d492d57	0.049115505
119	0xbe77dc08	-0.24205029
120	0xbc2cf113	-0.010555523
121	0xbe932e0b	-0.28746065
122	0xbdb43389	-0.08798892
123	0x3d468a51	0.048471753
124	0x3d330431	0.04370517
125	0xbe1224b7	-0.14271818
126	0x3e92a039	0.28637865
127	0xbd0325e0	-0.032018542
128	0x3f494398	0.78618765
129	0xbf6be738	-0.92149687
130	0x3e8595e5	0.26090923
131	0x3dc25f09	0.09490783
132	0xbf901524	-1.1256452
133	0xc00d2689	-2.205477
134	0x3f2e8aac	0.68180346
135	0xc01264d1	-2.2874033
136	0x3f8bd39f	1.0923957
137	0xbe8c9850	-0.27459955
138	0xbe87adbc	-0.26499736
139	0x3f9b7dce	1.2147768
140	0x3eec9a6c	0.46211565
141	0xbd17eb1e	-0.03708946
142	0x3f5613ef	0.83624166
143	0x40169125	2.352609
144	0xbf09e3b9	-0.538631
145	0x3ecc43dd	0.39895526
146	0xbf85a8c4	-1.0442128
147	0x3fa60ea8	1.2973223
148	0x3ec4b8e4	0.3842231
149	0xbd9bc182	-0.07605268
150	0xbe9b9d23	-0.30393323
151	0xbfb1e4d3	-1.3897957
152	0xbd8c0240	-0.06836367
153	0x3e81693c	0.252756
154	0xbf9978e1	-1.1990014
155	0x3d826ae5	0.06368045
156	0x3d8b2dea	0.06795867
157	0xbf256928	-0.6461358
158	0xbe714554	-0.23561603
159	0xbf186cb0	-0.59540844
160	0x3ec8f557	0.3924968
161	0xbebfb630	-0.37443686
162	0xbf04838b	-0.5176322
163	0xbd85f03e	-0.06539963
164	0xbfb861a7	-1.4404801
165	0xbf2f3531	-0.6844054
166	0xbee87447	-0.45401213
167	0xbf29026a	-0.6601931
168	0xbd38a8fa	-0.045083024
169	0xbe40a6e7	-0.18813668
170	0xbe7d2057	-0.24719368
171	0xbf020b37	-0.5079836
172	0xbf3fbb67	-0.7489533
173	0x3e8895bd	0.2667674
174	0xbf68fe0b	-0.9101264
175	0x3f630d9d	0.8869265
176	0x3e6a95cb	0.22908704
177	0xbe3b3815	-0.18283112
178	0x3f290bb7	0.660335
179	0xbec85306	-0.39125842
180	0x3e57eea2	0.21087125
181	0x3dc9aac8	0.09847027
182	0xbe455b0e	-0.19273016
183	0x3e3ef497	0.18647991
184	0xbdaf9132	-0.08572616
185	0xbd2c6918	-0.042092413
186	0x3e89593e	0.268259
187	0x3eca2853	0.3948389
188	0xbf7329ed	-0.9498585
189	0xbf5dce46	-0.86642873
190	0xbea764f4	-0.3269421
191	0x3fa1a34a	1.2627957
192	0x3effa2d6	0.4992892
193	0x3dc805a4	0.09766701
194	0x3eaefd8b	0.34177813
195	0xbb9cef6d	-0.004789284
196	0xbf93be34	-1.154242
197	0xbf8d17de	-1.1022909
198	0xbd0d8587	-0.03455117
199	0xbfda21fb	-1.704162
200	0xbde1d08f	-0.110261075
201	0xbed4b341	-0.4154301
202	0x3df12636	0.11774866
203	0x3f12b7ec	0.5731189
204	0xbf824aef	-1.0179118
205	0xbd38ee04	-0.045148864
206	0xbf695b52	-0.9115497
207	0x3fa775fc	1.3082881
208	0x3f5dd35a	0.8665062
209	0xbf28e4a4	-0.6597388
210	0x3d3f85b1	0.046758357
211	0x3e144630	0.144799
212	0xbd5b0222	-0.05346883
213	0xbe1c9545	-0.15291317
214	0xbf7d3ca3	-0.9892065
215	0xbe9ea790	-0.30987215
216	0x3f143df3	0.57907027
217	0x3ecf8496	0.40530843
218	0x3ecaab87	0.3958399
219	0x3fecebfb	1.8509516
220	0x3fb73fcc	1.4316344
221	0xbef60829	-0.480531
222	0x3ea166f4	0.3152386
223	0x3f259cdc	0.64692473
224	0x3d3037e4	0.04302205
225	0xbf5db3ff	-0.8660278
226	0xbd89c093	-0.06726184
227	0xbf1049e9	-0.5636278
228	0xbfb0fb76	-1.382674
229	0xbfa443d0	-1.2833195
230	0x3dd29764	0.10282782
231	0xbe9576f0	-0.29192305
232	0xbe49b9a4	-0.19699723
233	0xbf35c32a	-0.7100092
234	0xbd47cc53	-0.048778843
235	0x3e1ce860	0.15323019
236	0x3ced4e3e	0.028967973
237	0x3e4604de	0.19337794
238	0xbea7c925	-0.3277065
239	0xbedcd848	-0.4313376
240	0x3dcb8735	0.09937898
241	0x3e9f00ac	0.310552
242	0x3deadedb	0.114682876
243	0x3d4c3b2d	0.049861122
244	0x3f16a00d	0.5883797
245	0x3f0cb28c	0.5495994
246	0x3e7fd9c4	0.24985415
247	0x3f6120ff	0.87940973
248	0xbd3c0221	-0.045900468
249	0x3f467284	0.77518487
250	0x3f068084	0.5253985
251	0x3e51973f	0.20467852
252	0x3d1e789c	0.03868924
253	0xbfdf0bc5	-1.7425467
254	0x3f12962f	0.5726041
255	0x3e76a1cc	0.24085158

exp_avg f4 [135, 32]
0	0x3ea90f12	0.3301931
1	0x3c68be54	0.014205534
2	0xbb75840f	-0.0037462746
3	0x3cfbeee2	0.030753557
4	0xbba0e813	-0.004910478
5	0xbee87ff0	-0.4541011
6	0xbc8c7ffa	-0.017150868
7	0x3f227227	0.6345543
8	0xbe121207	-0.1426469
9	0xbb9f7080	-0.004865706
10	0x3d230597	0.039800253
11	0x3ddcc7e8	0.107803166
12	0x3e45ab42	0.19303611
13	0x3ced0899	0.028934764
14	0x3d05ccc7	0.032665994
15	0xbcae88b5	-0.021305421
16	0x3e9594bc	0.29215038
17	0x3e2476a2	0.1606088
18	0xbcc967c7	-0.024585618
19	0x3cca45dd	0.024691517
20	0xbe929ef1	-0.28636888
21	0xbb122b21	-0.002230354
22	0x3ea1aa38	0.3157518
23	0x3e2195fc	0.15779871
24	0x3eb2d625	0.34929004
25	0xba909340	-0.0011030212
26	0x3d121e51	0.035673443
27	0xbe95b7c0	-0.29241753
28	0xbe9c82e7	-0.3056862
29	0xbf1ea49e	-0.61969936
30	0x3e801dce	0.2502274
31	0x3d818e24	0.06325939
32	0x3b19d7fb	0.0023474682
33	0x3da5b1aa	0.08090527
34	0x3c686d46	0.014186209
35	0x3af85e7b	0.0018949056
36	0xbca70eaf	-0.020392744
37	0xbdba2594	-0.09089199
38	0xbd58d94c	-0.052941605
39	0x3ebff387	0.37490484
40	0xbc4ccc68	-0.012499906
41	0xbe238c78	-0.15971553
42	0xbc3874b5	-0.011258294
43	0xbd81bf6e	-0.063353404
44	0x3f0cd0a7	0.5500588
45	0x3c974803	0.018466955
46	0xbd4db55f	-0.050221797
47	0xbc22638a	-0.009911427
48	0x3cdd99b3	0.027050829
49	0xbd55676c	-0.052100584
50	0x3d2c61c2	0.042085417
51	0x3d43c799	0.047797773
52	0xbd997053	-0.07492127
53	0xbd1b12bd	-0.037859667
54	0xbdcd7599	-0.100321956
55	0x3eadd2b5	0.3394982
56	0x3b9b316b	0.0047361157
57	0x3b002710	0.0019554533
58	0xbd5b0ab0	-0.05347699
59	0x3d685f27	0.05673137
60	0xbe178893	-0.14798193
61	0x3d89e4cb	0.06733092
62	0x3bf11707	0.0073574814
63	0xbc06411c	-0.008194234
64	0x3c19ff9b	0.00939932
65	0xbd3b08d6	-0.045662723
66	0x3e1d7bb7	0.15379225
67	0xbcf3a5cb	-0.029742142
68	0x3c96e757	0.018420858
69	0xbcbb7cb5	-0.022886613
70	0xbd2c2b2b	-0.042033356
71	0x3f2891f9	0.65847737
72	0x3db28289	0.08716304
73	0xbcc0cfce	-0.023536589
74	0xbea88132	-0.32911068
75	0xbddaf299	-0.10690803
76	0x3c1256e1	0.008931846
77	0x3dd454c8	0.10367733
78	0x3e99bed3	0.300284
79	0xbd8d4c92	-0.0689937
80	0x3dbd27f1	0.09236134
81	0xba6b63b3	-0.0008979395
82	0xbb9d7e13	-0.004806289
83	0x3c5e595d	0.013571111
84	0xbdcc8fa7	-0.09988337
85	0xbda1ee3f	-0.0790677
86	0xbd0a1aa0	-0.033716798
87	0x3f2434b4	0.6414292
88	0xbe3636e7	-0.17794381
89	0x3d25ba50	0.040460885
90	0x3ee2967a	0.4425543
91	0xbe03efd6	-0.12884459
92	0x3ec3a64b	0.3821281
93	0xbdc4ace4	-0.09603289
94	0x3c966af9	0.018361555
95	0x3c3232c1	0.0108763585
96	0xbed35a9d	-0.4128007
97	0x3e8df768	0.27727818
98	0xbe93a1f4	-0.28834498
99	0xbde7ebc5	-0.11324266
100	0x3e8b4290	0.2719922
101	0x3efb6664	0.49101555
102	0xbf1c86ce	-0.61143196
103	0x3e53dba3	0.20689254
104	0xbdbc65e7	-0.09199124
105	0xbeb0dca4	-0.34543335
106	0x3f17bc2f	0.5927152
107	0x3effb329	0.49941376
108	0x3cb353dd	0.021890575
109	0xbeb49ef9	-0.35277537
110	0xbdf461c7	-0.11932712
111	0x3e08ae03	0.1334763
112	0x3ebce7bb	0.36895546
113	0xbca93e65	-0.020659635
114	0xbcd60cd9	-0.026129173
115	0x3d06bdeb	0.032895964
116	0xbee98d41	-0.4561558
117	0xbf2f09f4	-0.6837456
118	0x3d9adadf	0.075612776
119	0x3e824cfc	0.2544936
120	0xbe502419	-0.2032627
121	0xbf359dbc	-0.7094381
122	0x3d2de0a4	0.042450562
123	0x3eae9f55	0.34105936
124	0x3c988caa	0.018621761
125	0xbca70f92	-0.020393167
126	0xbd7280d4	-0.05920489
127	0x3a7c71c6	0.00096299907
128	0xbd94f2fb	-0.07272907
129	0x3cd66d0f	0.02617505
130	0x3e4a2f81	0.19744684
131	0x3d2a7bf7	0.04162213
132	0xbd5599ee	-0.052148752
133	0xbd14c55e	-0.036321037
134	0x3e0602d8	0.13087022
135	0x3b58a2e4	0.0033056075
136	0x3c7c3786	0.015394097
137	0x3d1b6699	0.03793964
138	0xbd9800fd	-0.074220635
139	0xbc8d8a56	-0.017277878
140	0x3d38bb18	0.0451003
141	0xbd1323e5	-0.035922904
142	0x3c6feb32	0.014643477
143	0x3e9f2eeb	0.31090483
144	0xbe932b73	-0.28744087
145	0x3cd9a6fe	0.026568886
146	0xbc2f20b0	-0.010688946
147	0x3b6bee3c	0.0036000153
148	0xbd7c2c78	-0.061565846
149	0xbef6268f	-0.48076293
150	0xbe11c224	-0.14234215
151	0xbc5967ee	-0.013269408
152	0x3d05c71d	0.032660592
153	0xbbc05930	-0.005870007
154	0xbd45e08a	-0.04830984
155	0x3d00d453	0.03145249
156	0xbd0285c1	-0.03186584
157	0xbe439c1b	-0.19102518
158	0x3d243ff9	0.04010007
159	0x3e0abe4f	0.1354916
160	0x3d23026f	0.039797243
161	0xbd76a203	-0.0602131
162	0x3e8b0ebe	0.27159685
163	0xbe16277f	-0.14663504
164	0xbc02cbf7	-0.007983199
165	0x3e53c38a	0.20680061
166	0xbd67826e	-0.05652087
167	0xbd5c2552	-0.05374653
168	0xbba6638f	-0.0050777863
169	0x3d8d50c1	0.06900168
170	0xba430618	-0.00074395677
171	0xbc676633	-0.014123487
172	0x3c3b6b4c	0.011439156
173	0xbcf8d7b6	-0.030376296
174	0xbce0eb4c	-0.027455948
175	0x3d1df43e	0.038563006
176	0xbcaa4b3b	-0.020787826
177	0xbd67eaed	-0.056620527
178	0xbd28a3d9	-0.041171882
179	0xbe0025b4	-0.12514383
180	0x3ea64ee0	0.32482052
181	0x3f0aa761	0.5416165
182	0x398e3fcf	0.00027131892
183	0xbe551ef1	-0.20812584
184	0xbca43315	-0.020043889
185	0xbba85e89	-0.0051382226
186	0xba3ebec8	-0.00072763534
187	0xbd02a981	-0.031899933
188	0x3d899a7a	0.06718917
189	0xba56705f	-0.0008180197
190	0x3c14e64e	0.009088112
191	0xbd187e21	-0.03722966
192	0xbbe99ac5	-0.0071290457
193	0x3e4c0fc0	0.19927883
194	0xbe8acb0b	-0.27108034
195	0xbc0266d2	-0.007959085
196	0xbd022330	-0.03177184
197	0xbad40814	-0.0016176724
198	0x3ee14ae8	0.4400246
199	0xbafdb778	-0.0019357046
200	0xbc9332e4	-0.017968602
201	0xbcb9a7ca	-0.022663016
202	0x3cc31362	0.023812953
203	0x3e113ab7	0.14182554
204	0xbd720c9e	-0.059094064
205	0xbf2711db	-0.6526162
206	0xbd828cfb	-0.06374546
207	0xbbeae4ec	-0.007168403
208	0x3d3984dd	0.045292724
209	0x3daadd50	0.08342993
210	0x3e0b37df	0.13595532
211	0x3e1527ec	0.1456601
212	0xbd8f2c55	-0.069908775
213	0xbea99538	-0.33121657
214	0x3ed68833	0.41900787
215	0x3c85ce36	0.01633368
216	0x3efd8efd	0.49523154
217	0xbcedc32b	-0.029023727
218	0x3e5381c3	0.20654969
219	0xbdd6f0b6	-0.10495131
220	0x3d357b90	0.04430729
221	0xbef02a43	-0.46907243
222	0x3dc26667	0.09492188
223	0x3d6d1559	0.057881687
224	0x3c87e736	0.016589742
225	0xbd0d7038	-0.03453085
226	0xbcb6d002	-0.022315983
227	0xbdcba3db	-0.09943362
228	0x3d86bb81	0.06578732
229	0x3e04fd7a	0.12987319
230	0x3d99041b	0.07471486
231	0x3d88cfde	0.066802725
232	0xbbd7dff1	-0.006587975
233	0xbc0f1677	-0.008733383
234	0x3a801e6d	0.0009774693
235	0x3d94b216	0.0726053
236	0x3df08032	0.11743201
237	0x3d7a2437	0.061069693
238	0xbeb81c65	-0.35959163
239	0x3dc25980	0.09489727
240	0x3d834aff	0.06410789
241	0xbda217e1	-0.07914711
242	0xbdb26235	-0.08710138
243	0xbd8c3a33	-0.06847038
244	0xbd2cb427	-0.042163994
245	0x3d93f7be	0.072249874
246	0x3dcbeac9	0.09956891
247	0x3e5506e5	0.20803411
248	0xbdaddb67	-0.08489113
249	0x3d199db4	0.037503913
250	0xbe3e5078	-0.18585384
251	0xbd58c27a	-0.052919842
252	0x3c27a1b5	0.010231425
253	0xbd50e825	-0.05100264
254	0xba69ab59	-0.00089137774
255	0xbcc79269	-0.024361806

exp_avg_sq f4 [135, 32]
0	0x340c6ece	1.3078827e-07
1	0x384f2ce1	4.9394443e-05
2	0x37464362	1.1817408e-05
3	0x343887c9	1.7185734e-07
4	0x37e8c303	2.7747365e-05
5	0x353acd4c	6.9589146e-07
6	0x3782b2e4	1.558051e-05
7	0x34dfab63	4.1661687e-07
8	0x36f4e2d8	7.2981748e-06
9	0x376b49f4	1.402431e-05
10	0x38159c67	3.567003e-05
11	0x36d13e69	6.235951e-06
12	0x36a6d9d0	4.9725422e-06
13	0x37458a56	1.1774324e-05
14	0x372ed89b	1.0421641e-05
15	0x3704e565	7.921223e-06
16	0x33873639	6.2962904e-08
17	0x34930df1	2.7391027e-07
18	0x390c2376	0.0001336465
19	0x37c81b79	2.385465e-05
20	0x35595fde	8.0978305e-07
21	0x36c81be3	5.963711e-06
22	0x36e21c5a	6.7386254e-06
23	0x3604b4b6	1.977472e-06
24	0x36d018d3	6.201773e-06
25	0x38177e00	3.6118552e-05
26	0x3854379f	5.059654e-05
27	0x35d877bb	1.61281e-06
28	0x350c2acc	5.221634e-07
29	0x35473ec8	7.4224636e-07
30	0x3424ffd5	1.5366761e-07
31	0x37c625b7	2.3621002e-05
32	0x3749b834	1.2023422e-05
33	0x37547e6c	1.266562e-05
34	0x3588c985	1.019144e-06
35	0x37bc5b6b	2.2453916e-05
36	0x3592e5a4	1.0944682e-06
37	0x3554af25	7.9231023e-07
38	0x35ae5d86	1.2991229e-06
39	0x342bd260	1.600215e-07
40	0x374ba83b	1.2138912e-05
41	0x33580078	5.0291845e-08
42	0x37b91ee2	2.20681e-05
43	0x36c551ce	5.880581e-06
44	0x345bfb65	2.0487421e-07
45	0x3756b967	1.2798561e-05
46	0x372caaf4	1.0291802e-05
47	0x36812ced	3.8497296e-06
48	0x366b05e5	3.502116e-06
49	0x365bef20	3.2772732e-06
50	0x3761fc15	1.34697375e-05
51	0x37113744	8.655541e-06
52	0x377cef41	1.5076076e-05
53	0x359d8a5c	1.1737679e-06
54	0x33a00cd7	7.452916e-08
55	0x35ad1363	1.2895147e-06
56	0x37f0bd8c	2.8698494e-05
57	0x35586b0b	8.062204e-07
58	0x3469c6fa	2.1772203e-07
59	0x3740b0b4	1.1485234e-05
60	0x352acd3a	6.362858e-07
61	0x360695a3	2.0054656e-06
62	0x36560381	3.1890524e-06
63	0x38149552	3.5425015e-05
64	0x3785dc07	1.5957294e-05
65	0x381aa9ec	3.6874713e-05
66	0x359804a5	1.1326234e-06
67	0x35f64345	1.8348006e-06
68	0x376f8e07	1.4278578e-05
69	0x368e14c8	4.234349e-06
70	0x35021b16	4.846819e-07
71	0x3407484c	1.2599156e-07
72	0x375a4878	1.30106855e-05
73	0x36f1df14	7.2083294e-06
74	0x34c421f0	3.6532538e-07
75	0x3664c846	3.4091222e-06
76	0x36a85a06	5.0172703e-06
77	0x36920071	4.3511905e-06
78	0x33ce81c7	9.616229e-08
79	0x35fe44db	1.8944514e-06
80	0x35f0d0bf	1.7942147e-06
81	0x370e8c39	8.496508e-06
82	0x364af075	3.024031e-06
83	0x37828121	1.5557338e-05
84	0x375df444	1.3229499e-05
85	0x3702af80	7.789466e-06
86	0x36207fb6	2.3916195e-06
87	0x3490ce70	2.6972293e-07
88	0x35d45a00	1.5821424e-06
89	0x34b3af3b	3.3468845e-07
90	0x33fba7e8	1.171864e-07
91	0x3587c873	1.0116622e-06
92	0x35511c73	7.7899966e-07
93	0x36d86ff2	6.450334e-06
94	0x36bfba00	5.713897e-06
95	0x3799bf70	1.8328166e-05
96	0x36bde1f6	5.6589442e-06
97	0x33c952fc	9.374887e-08
98	0x361d6c6f	2.345794e-06
99	0x37344ab8	1.0746233e-05
100	0x358ad865	1.034478e-06
101	0x356c0e33	8.7937514e-07
102	0x324cd708	1.1923255e-08
103	0x365a2efa	3.2511875e-06
104	0x3674baef	3.6467643e-06
105	0x36b00a4b	5.246407e-06
106	0x3485802f	2.4866446e-07
107	0x35ad06b9	1.2891461e-06
108	0x35883086	1.0146912e-06
109	0x365e79b5	3.315142e-06
110	0x355f7204	8.323989e-07
111	0x35db6990	1.6347494e-06
112	0x346f1d4a	2.2269265e-07
113	0x358885d9	1.0171744e-06
114	0x3559f24e	8.11914e-07
115	0x32ee910c	2.7772806e-08
116	0x35065ef9	5.0057093e-07
117	0x331ad73c	3.6051674e-08
118	0x361529b5	2.2227007e-06
119	0x3607d481	2.0240261e-06
120	0x36f10908	7.183411e-06
121	0x3224fa4c	9.602967e-09
122	0x36effd17	7.1522186e-06
123	0x377fb723	1.5241824e-05
124	0x36e1391a	6.71217e-06
125	0x367f61ee	3.8054964e-06
126	0x373b222a	1.1154023e-05
127	0x3658ee96	3.2325383e-06
128	0x37083901	8.119504e-06
129	0x3795b95c	1.7848499e-05
130	0x363313a3	2.6684509e-06
131	0x37991442	1.8248455e-05
132	0x365a0b84	3.2491234e-06
133	0x37c3ffbd	2.3364899e-05
134	0x372b59ef	1.0213334e-05
135	0x35f61dcb	1.8337099e-06
136	0x389518a4	7.109463e-05
137	0x36868681	4.0091695e-06
138	0x3779eeb2	1.4897132e-05
139	0x37e26947	2.6990323e-05
140	0x36d1cceb	6.252541e-06
141	0x38523704	5.011914e-05
142	0x37a8731a	2.0080759e-05
143	0x361a163f	2.2960737e-06
144	0x362c47af	2.5671723e-06
145	0x38a31c7c	7.777751e-05
146	0x37f765af	2.9492045e-05
147	0x3925b2b9	0.00015802206
148	0x379bf30a	1.8590614e-05
149	0x35262433	6.1892496e-07
150	0x35989a8c	1.1369862e-06
151	0x3841c500	4.6198256e-05
152	0x37c39d1e	2.3318975e-05
153	0x372c88da	1.0283862e-05
154	0x374f7a0b	1.2366577e-05
155	0x38bbf871	8.963131e-05
156	0x38313a25	4.225424e-05
157	0x36ccadd6	6.099911e-06
158	0x37d0f361	2.4908864e-05
159	0x36323abb	2.6558253e-06
160	0x36002b0e	1.9098547e-06
161	0x35dec5bf	1.6597841e-06
162	0x3435c406	1.6928252e-07
163	0x351f2553	5.928643e-07
164	0x3675a9bc	3.6606643e-06
165	0x35228791	6.054698e-07
166	0x351f72bb	5.939907e-07
167	0x35914e6f	1.0826169e-06
168	0x3710da32	8.633871e-06
169	0x33a9243c	7.876267e-08
170	0x366b49db	3.5060718e-06
171	0x3739fc16	1.1085553e-05
172	0x3697efc4	4.528063e-06
173	0x3588e519	1.0199466e-06
174	0x35849767	9.87883e-07
175	0x355f035b	8.3078857e-07
176	0x3770c97f	1.4352029e-05
177	0x33a6c965	7.766611e-08
178	0x36928227	4.366291e-06
179	0x354cf52e	7.6352705e-07
180	0x3385be2c	6.227887e-08
181	0x345a6384	2.0339036e-07
182	0x37039802	7.8436005e-06
183	0x34d370c0	3.938385e-07
184	0x35b2471d	1.328273e-06
185	0x3691d595	4.346201e-06
186	0x378c24c5	1.6706423e-05
187	0x36a1f22d	4.826367e-06
188	0x34e8a4e1	4.3333333e-07
189	0x36fa6b76	7.4630907e-06
190	0x3693fc87	4.4103394e-06
191	0x36e69d43	6.872842e-06
192	0x36ea9b0b	6.991793e-06
193	0x33afee70	8.192444e-08
194	0x35cb5473	1.5149257e-06
195	0x39afc6f2	0.00033526827
196	0x389d5678	7.5024494e-05
197	0x37081c1e	8.112778e-06
198	0x35880f21	1.0137193e-06
199	0x392a558a	0.00016244329
200	0x38278465	3.9939205e-05
201	0x372bdaa1	1.0243298e-05
202	0x37c2d6bb	2.3226594e-05
203	0x371324c6	8.770445e-06
204	0x35e40119	1.6987643e-06
205	0x342db7b7	1.6178716e-07
206	0x368897d1	4.0707896e-06
207	0x379f8186	1.9014591e-05
208	0x36e9b597	6.965081e-06
209	0x378afae1	1.6567707e-05
210	0x35e1e67f	1.683089e-06
211	0x37892442	1.6348557e-05
212	0x38a50742	7.869165e-05
213	0x35b5f931	1.3558075e-06
214	0x35e609cd	1.7139188e-06
215	0x388b06ef	6.629328e-05
216	0x34cf96e4	3.8666542e-07
217	0x36be05c3	5.663112e-06
218	0x36530c2e	3.144854e-06
219	0x372c0ac1	1.0254503e-05
220	0x38a6cc32	7.953531e-05
221	0x3614b4d6	2.215898e-06
222	0x3695c21c	4.4631433e-06
223	0x36dbf652	6.555384e-06
224	0x38c2dfa2	9.292296e-05
225	0x37c4c8d4	2.3458539e-05
226	0x3708b065	8.147302e-06
227	0x36f49169	7.2886946e-06
228	0x365696cf	3.1976267e-06
229	0x34b64290	3.3948572e-07
230	0x3697055d	4.500775e-06
231	0x34d25920	3.9180395e-07
232	0x37ad079e	2.0626754e-05
233	0x36dcf515	6.5850422e-06
234	0x36cd8557	6.124999e-06
235	0x374805ff	1.1922325e-05
236	0x339cf86b	7.309503e-08
237	0x36dbe94f	6.5538693e-06
238	0x33b54d8d	8.442576e-08
239	0x35eaae3b	1.7485066e-06
240	0x35c77ee8	1.486359e-06
241	0x35b4b2a7	1.346304e-06
242	0x36111c88	2.162329e-06
243	0x35f39549	1.8148359e-06
244	0x37bc9269	2.2479524e-05
245	0x36f375d2	7.2556804e-06
246	0x35d906c5	1.616973e-06
247	0x356db024	8.85457e-07
248	0x34daf943	4.0787026e-07
249	0x35e28d0b	1.6879361e-06
250	0x354161b7	7.2040297e-07
251	0x34be50d1	3.544906e-07
252	0x370d8c1b	8.436876e-06
253	0x35119b2e	5.4242525e-07
254	0x37989e90	1.8193648e-05
255	0x36aa00fb	5.066509e-06

exp_avg f4 [46, 32]
0	0xbd71514c	-0.05891542
1	0xbc10fa27	-0.0088487035
2	0x3bf95191	0.0076086004
3	0x3b703ab1	0.0036656077
4	0xbe4ae7c8	-0.1981498
5	0xbd76d41b	-0.060260873
6	0xbd7b77df	-0.061393615
7	0xbbe277db	-0.0069112605
8	0xbd28f4d2	-0.041249104
9	0x3bd4ec11	0.006497868
10	0xbda4de62	-0.08050229
11	0x3ce3a582	0.027788881
12	0xbc84fdf9	-0.016234385
13	0xbd671799	-0.05641899
14	0xbe37635b	-0.17908995
15	0xbcb31e4f	-0.021865038
16	0xbd828008	-0.06372076
17	0xbd832dcb	-0.06405219
18	0x3d04e884	0.032448307
19	0xbd6f245d	-0.058384288
20	0xbb8fe264	-0.0043910015
21	0x3d60de3f	0.05489945
22	0xbc8d7f1d	-0.017272526
23	0xbbaeea7f	-0.0053380127
24	0xbd256567	-0.040379908
25	0x3d122d4b	0.035687726
26	0x3d035e2a	0.032072224
27	0x3ceccc2f	0.028905956
28	0x3ab06118	0.001345667
29	0x3ee88aa9	0.4541829
30	0xbe840169	-0.25782326
31	0xbdba083f	-0.09083604
32	0xbe79abd3	-0.24381952
33	0x3e26089e	0.16214225
34	0x3e3c3c4a	0.18382373
35	0xbe69aa03	-0.2281876
36	0x3f0b96c1	0.5452691
37	0x3e1c82d6	0.15284285
38	0xbeebff08	-0.4609301
39	0x3eae4bc3	0.34042177
40	0xbd9fd83a	-0.07804914
41	0x3d44271a	0.047888853
42	0x3e9403e0	0.28909206
43	0xbe25cd30	-0.16191554
44	0xbd55bcb1	-0.052181903
45	0x3ce81c32	0.028333757
46	0xbe47852e	-0.19484398
47	0x3d00116a	0.031266607
48	0x3dc64fd6	0.09683196
49	0x3bdc0bd3	0.0067152767
50	0xbd51e1c3	-0.051240694
51	0x3cda2c1c	0.026632361
52	0x3dd4a902	0.10383798
53	0x3f049053	0.5178272
54	0xbc896bb8	-0.016774997
55	0x3f0d6bf6	0.5524286
56	0xbcf9be4f	-0.030486254
57	0xbdf6b508	-0.12046248
58	0x3f25d76d	0.6478184
59	0xbca08c17	-0.01959805
60	0x3e2857c5	0.16439731
61	0x3e558d8d	0.20854779
62	0xbe9060e9	-0.28198937
63	0x3dd41a59	0.10356588
64	0xbc971de2	-0.018446866
65	0x3b73c038	0.0037193429
66	0xbd46f16c	-0.04857008
67	0x3d6d480a	0.05793003
68	0x3e2cca80	0.16874123
69	0x3c7d5925	0.015463148
70	0xbddd0b94	-0.10793224
71	0x3d74d8e7	0.059777167
72	0x3d5afc17	0.053463068
73	0xbb917e9a	-0.004440141
74	0x3da590ca	0.08084257
75	0x3c1471df	0.009060352
76	0xbc441daa	-0.011969963
77	0x3d66c84d	0.056343365
78	0xbc3e0ec5	-0.011600201
79	0x3e1e8ca8	0.15483344
80	0x3b005061	0.001957916
81	0xb906b724	-0.00012847461
82	0xbd95094d	-0.072771646
83	0x3b1264e9	0.002233798
84	0x3d6b672e	0.057471447
85	0xbc6a7e99	-0.01431241
86	0xbe49c144	-0.19702631
87	0x3c0458c8	0.008077808
88	0x3c406eaa	0.011745134
89	0xbd810e70	-0.06301582
90	0x3dabe4c1	0.08393241
91	0xbc953148	-0.018211976
92	0x3e0caa76	0.137369
93	0x3c1c1c7d	0.0095282765
94	0x3d8ef047	0.06979423
95	0xbc29c459	-0.010361754
96	0xbcb81c1c	-0.022474341
97	0x3deef802	0.116683975
98	0x3c5d4a81	0.013506533
99	0x3cc644ac	0.024202667
100	0x3d87556d	0.066080905
101	0x3dc131a5	0.09433297
102	0xbe0d9503	-0.13826375
103	0x3e207b67	0.15672074
104	0x3df147be	0.11781262
105	0x3d8d87b2	0.069106475
106	0xbdbe6803	-0.092971824
107	0x3e6ceeaf	0.23137926
108	0x3bc9747e	0.00614792
109	0x3d8e9734	0.069624335
110	0x3d913925	0.070909776
111	0x3e8afc8c	0.27145803
112	0xbc4a1509	-0.012334117
113	0x3d952b5d	0.072836615
114	0xbb203526	-0.0024445741
115	0x3e6b9cf9	0.23009099
116	0x3c305ae1	0.010763855
117	0xbd4059eb	-0.046960752
118	0xbe13ae5d	-0.14421983
119	0xbeb3319a	-0.3499878
120	0x3cbdbd08	0.023161426
121	0xbe1e18b7	-0.15439115
122	0xbc17cfc3	-0.009265843
123	0x3c4f48c0	0.012651622
124	0x3cba9610	0.022776634
125	0xbe85790a	-0.26068908
126	0xbe43a348	-0.19105256
127	0xbc200aad	-0.00976817
128	0xbdb13473	-0.08652582
129	0xbc85e1ae	-0.016342964
130	0xbc4a0ac1	-0.0123316655
131	0xbd9af35d	-0.07565949
132	0x3c1cf8ee	0.009580834
133	0xbd888a23	-0.066669725
134	0xbeaaba41	-0.33345225
135	0xbe3ceab9	-0.18448915
136	0xbc5ff7e1	-0.013669939
137	0xbe274ff3	-0.16339092
138	0xbec27e20	-0.3798685
139	0xbd9bba52	-0.07603897
140	0xbdbcf29c	-0.092259616
141	0xbe33f525	-0.17573984
142	0xbde32926	-0.11091833
143	0xbd8f148f	-0.06986343
144	0xbc796819	-0.015222573
145	0x3dced2d5	0.10098807
146	0x3eb0abc1	0.34506038
147	0x3c96fc35	0.018430809
148	0xbac808d0	-0.0015261415
149	0xbed5211e	-0.4162683
150	0x3d0ca2fc	0.03433512
151	0x3bcf4b93	0.006326148
152	0x3c90768b	0.01763465
153	0x3c2a8bd2	0.010409312
154	0xbd9d52c0	-0.07681799
155	0x3df8db6c	0.121512264
156	0xbc50f4bc	-0.012753662
157	0xbd11b3b2	-0.03557176
158	0xbdc3b2fc	-0.09555623
159	0xbc96a324	-0.018388338
160	0x3eb7a295	0.35866228
161	0x3efd0685	0.49419037
162	0x3d356b51	0.044291798
163	0xbce1058f	-0.02746847
164	0x3d3a161e	0.04543125
165	0x3ddc506f	0.10757529
166	0x3e12d87e	0.14340398
167	0x3d8e2769	0.06941111
168	0x3c7db0d4	0.015484054
169	0x3d14537f	0.03621244
170	0xbe61457d	-0.21999164
171	0xbda08629	-0.07838089
172	0xbd4ac3b4	-0.049503043
173	0x3e94c0d3	0.29053363
174	0xbcb6a69d	-0.022296244
175	0x3cf98329	0.03045805
176	0xbd3afbe1	-0.045650367
177	0x3d3681a4	0.04455723
178	0xbd25bf00	-0.040465355
179	0x3d9630f7	0.07333558
180	0xbcf65032	-0.030067537
181	0xbc3e4a79	-0.011614435
182	0x3de3e0ab	0.111268364
183	0xbeb57d90	-0.3544736
184	0x3da29298	0.07938117
185	0xbcf12a9f	-0.029439269
186	0xbd9185ef	-0.07105624
187	0x3e535376	0.20637307
188	0xbf339485	-0.701485
189	0xbf1e2bf3	-0.6178581
190	0xbf3c35f0	-0.735198
191	0x3e09ba1f	0.13449906
192	0x3d26e47e	0.04074525
193	0xbd448294	-0.04797609
194	0xbeaac2dc	-0.3335179
195	0xbc696e52	-0.014247494
196	0x3caf70db	0.021416118
197	0x3d3450bb	0.044022303
198	0x3e5ee5fc	0.2176742
199	0xbd467a15	-0.04845627
200	0x3d525d76	0.051358663
201	0x3d0c013e	0.034180872
202	0x3d1f417c	0.03888081
203	0xbd5fd560	-0.05464685
204	0x3eaf7070	0.3426547
205	0xbd7ea318	-0.062167257
206	0xbe91c6ed	-0.2847208
207	0x3defb25c	0.11703941
208	0xbcc774d5	-0.024347702
209	0x3e584f8c	0.21124095
210	0xbdd56538	-0.104196966
211	0xbe1fab48	-0.15592682
212	0x3bfdf827	0.0077505293
213	0x3bdcc7bc	0.0067376774
214	0xbd52388a	-0.05132345
215	0xbbe08395	-0.0068516233
216	0x3e0b23b5	0.1358784
217	0x3c61c93d	0.013780889
218	0x3d21d71a	0.039511777
219	0x3ba07b50	0.0048975125
220	0xbde61e6a	-0.1123627
221	0xbf13d64d	-0.5774887
222	0xbc801295	-0.01563386
223	0xbc3a41b1	-0.011368201
224	0xbe763473	-0.24043445
225	0x3cf8efbc	0.030387752
226	0x3c1f8324	0.009735856
227	0x3bcb3c4d	0.006202257
228	0xbd84087c	-0.06446931
229	0xbdd1ba73	-0.102406405
230	0xbdf45905	-0.11931042
231	0xbdb0ce4d	-0.08633099
232	0xbc7cc22d	-0.0154271545
233	0x3b82225e	0.003971382
234	0x3c27367e	0.010205863
235	0xbc2632d3	-0.010143953
236	0xbe2d51b3	-0.16925697
237	0x3d8574d5	0.065164246
238	0x3cf3ce95	0.029761592
239	0x3c8866ff	0.016650675
240	0xbd4507c6	-0.048103116
241	0xbd4a15cb	-0.04933719
242	0xbe57dbcf	-0.21079944
243	0x3c41b507	0.011822945
244	0xbd98b198	-0.07455748
245	0xbdba5521	-0.09098268
246	0xbd02e178	-0.031953305
247	0xbe81600c	-0.2526859
248	0xbd5fc4a3	-0.054630887
249	0xbcac2da2	-0.021017853
250	0xbd21ab8b	-0.039470237
251	0x3c88e199	0.016709136
252	0x3bedf609	0.0072619957
253	0x3dd4f2e7	0.103978924
254	0xbc9fffdb	-0.019531181
255	0x3d8cc407	0.06873327

exp_avg_sq f4 [46, 32]
0	0x3887e593	6.480063e-05
1	0x38bf029c	9.108076e-05
2	0x39136851	0.00014057873
3	0x3a016c69	0.0004937114
4	0x35f48c5d	1.8220268e-06
5	0x37ce5666	2.4597346e-05
6	0x39942606	0.0002825709
7	0x38c04923	9.168896e-05
8	0x382184fa	3.8509235e-05
9	0x38b2d22a	8.5268475e-05
10	0x373f2008	1.1391945e-05
11	0x3786fee1	1.6092732e-05
12	0x36032a6a	1.954521e-06
13	0x37083149	8.117707e-06
14	0x362d254c	2.5800719e-06
15	0x38207f3c	3.826547e-05
16	0x388822e2	6.491483e-05
17	0x379d85a4	1.877809e-05
18	0x368170b9	3.8576222e-06
19	0x38003220	3.056426e-05
20	0x3956f55a	0.00020500031
21	0x3712a958	8.741707e-06
22	0x39373a29	0.00017473906
23	0x386a68dd	5.588761e-05
24	0x38e38097	0.00010848155
25	0x3735c967	1.0835333e-05
26	0x361234a7	2.1786343e-06
27	0x397ccefd	0.00024109702
28	0x38282902	4.0092513e-05
29	0x354c4dcf	7.610915e-07
30	0x344d9150	1.9144977e-07
31	0x35cceb29	1.5267625e-06
32	0x363f58f1	2.8512989e-06
33	0x37619036	1.3444622e-05
34	0x37320dc7	1.0612835e-05
35	0x370ecc73	8.511462e-06
36	0x360bbdf6	2.0823186e-06
37	0x3658716b	3.2252526e-06
38	0x348e324c	2.6486157e-07
39	0x367775b8	3.687439e-06
40	0x37265534	9.914209e-06
41	0x36335ecb	2.6728255e-06
42	0x356c17db	8.7951565e-07
43	0x36e63bd8	6.861501e-06
44	0x3634163b	2.683503e-06
45	0x3770f107	1.4361233e-05
46	0x3693fada	4.4101444e-06
47	0x3674be8f	3.6469753e-06
48	0x36487664	2.9871235e-06
49	0x36fe6411	7.581439e-06
50	0x3711a34f	8.680697e-06
51	0x381b902a	3.7089143e-05
52	0x369b6493	4.6310684e-06
53	0x34c596d5	3.6803854e-07
54	0x35a5dcc0	1.2357705e-06
55	0x344b10bd	1.8911938e-07
56	0x371dc4b4	9.403728e-06
57	0x36b22ac3	5.3097915e-06
58	0x3718fd81	9.1189295e-06
59	0x370ab32f	8.26716e-06
60	0x369f1601	4.741131e-06
61	0x352b1969	6.373944e-07
62	0x3390df9c	6.746197e-08
63	0x33dfa162	1.0413602e-07
64	0x391193ab	0.00013883288
65	0x390df501	0.00013538079
66	0x377e1677	1.514481e-05
67	0x35e1eb06	1.6832207e-06
68	0x35c3aca7	1.4578881e-06
69	0x376f85b0	1.4276637e-05
70	0x37554f21	1.2714213e-05
71	0x37158e2e	8.914196e-06
72	0x36977ca8	4.5146626e-06
73	0x37f57bfe	2.9264014e-05
74	0x375298a3	1.2552514e-05
75	0x36d6efb4	6.405602e-06
76	0x37c94303	2.3992272e-05
77	0x3748e424	1.1974047e-05
78	0x36171e6a	2.2518457e-06
79	0x355ba494	8.182335e-07
80	0x389d2609	7.493428e-05
81	0x38dc68cf	0.000105099396
82	0x3393e3a9	6.886632e-08
83	0x39005b88	0.0001224113
84	0x3777ffa0	1.4781865e-05
85	0x38b94ac9	8.835417e-05
86	0x362d1fc6	2.5797503e-06
87	0x35aae1a0	1.2731653e-06
88	0x38f1eee0	0.000115362694
89	0x352318ce	6.075833e-07
90	0x34457429	1.8389314e-07
91	0x38e7e721	0.000110579895
92	0x35d34c1b	1.5742875e-06
93	0x382ede8c	4.1692096e-05
94	0x36ffd0e1	7.623909e-06
95	0x395099c8	0.00019893714
96	0x383422e0	4.2947824e-05
97	0x3506cb52	5.021476e-07
98	0x38211193	3.840176e-05
99	0x37e9adf7	2.7856773e-05
100	0x367d6ce5	3.7763323e-06
101	0x381433e3	3.5334273e-05
102	0x35289cbd	6.281296e-07
103	0x37f2c46c	2.8940114e-05
104	0x350e9b95	5.3125524e-07
105	0x366f1a34	3.5629027e-06
106	0x392e73d5	0.00016637084
107	0x364e0398	3.0698484e-06
108	0x397d62e1	0.00024164795
109	0x3616486f	2.2393904e-06
110	0x3759eb33	1.29889695e-05
111	0x36d8cfdb	6.461499e-06
112	0x36e16c78	6.71815e-06
113	0x36b2c42f	5.327652e-06
114	0x388c064e	6.6768946e-05
115	0x3532650c	6.645721e-07
116	0x3753e421	1.2629695e-05
117	0x37bad32f	2.2271268e-05
118	0x376925c6	1.3896677e-05
119	0x35bb296e	1.3944643e-06
120	0x3862ebb8	5.410213e-05
121	0x36adb567	5.17692e-06
122	0x396ac273	0.00022388417
123	0x3833c33b	4.285875e-05
124	0x38aa73c5	8.1277954e-05
125	0x370f78c4	8.551582e-06
126	0x369924c3	4.564035e-06
127	0x3734f65c	1.0786196e-05
128	0x3412facb	1.3688548e-07
129	0x36697b5f	3.4791517e-06
130	0x360b7bd2	2.0784687e-06
131	0x34c4ffee	3.6694058e-07
132	0x3618e758	2.2784425e-06
133	0x34185a71	1.4189006e-07
134	0x33888be6	6.358441e-08
135	0x33a3f10f	7.634127e-08
136	0x3788b7d0	1.6298058e-05
137	0x328271f2	1.5185808e-08
138	0x3404cc14	1.2367701e-07
139	0x36520486	3.1295071e-06
140	0x352daf9a	6.4703056e-07
141	0x34835979	2.446575e-07
142	0x3691117a	4.3233713e-06
143	0x32a5a424	1.928317e-08
144	0x33585f97	5.0378357e-08
145	0x35212446	6.002996e-07
146	0x323fbda2	1.1160781e-08
147	0x370349f8	7.825431e-06
148	0x36a521f7	4.921337e-06
149	0x3318278a	3.542622e-08
150	0x3592d848	1.0940794e-06
151	0x35e20b6a	1.6841634e-06
152	0x3468957f	2.166107e-07
153	0x3653b533	3.1546922e-06
154	0x36dd1507	6.588761e-06
155	0x358bd43b	1.0418074e-06
156	0x37870452	1.6095266e-05
157	0x363bfb5c	2.8011482e-06
158	0x356383c1	8.4755817e-07
159	0x355ef980	8.3064515e-07
160	0x34e89a82	4.3325787e-07
161	0x359bf12f	1.1618594e-06
162	0x379bdfcc	1.8581653e-05
163	0x38665319	5.4913664e-05
164	0x385585e5	5.0907856e-05
165	0x38687ec6	5.5431177e-05
166	0x36d1d7cb	6.253807e-06
167	0x37fd19d7	3.0171983e-05
168	0x37076972	8.071178e-06
169	0x3897e8ad	7.24358e-05
170	0x369b307b	4.625004e-06
171	0x377fdc20	1.5250436e-05
172	0x398610ed	0.00025571082
173	0x35a98b84	1.2632086e-06
174	0x38f88d48	0.00011851877
175	0x37becf8f	2.2746417e-05
176	0x350d6473	5.2672766e-07
177	0x388f4cb2	6.833057e-05
178	0x35a8ad0e	1.2567341e-06
179	0x367c38aa	3.758391e-06
180	0x391ee8da	0.00015154798
181	0x37bd6eb8	2.2582113e-05
182	0x386a4119	5.5850574e-05
183	0x35042e6f	4.92414e-07
184	0x38afbb63	8.379554e-05
185	0x37a9065c	2.0149331e-05
186	0x372e40b6	1.0386275e-05
187	0x37a7c013	1.9997393e-05
188	0x35dae227	1.6308085e-06
189	0x358ccd44	1.0490553e-06
190	0x351be84f	5.8080053e-07
191	0x34f8afed	4.6321603e-07
192	0x37563246	1.2767099e-05
193	0x38a13cfc	7.6884375e-05
194	0x34c6d742	3.7036995e-07
195	0x378ff672	1.7161688e-05
196	0x38cdd8f3	9.815572e-05
197	0x360e07e5	2.1164244e-06
198	0x3712b325	8.7439885e-06
199	0x35f45e13	1.8206796e-06
200	0x3829f86d	4.0524104e-05
201	0x343d047b	1.7603627e-07
202	0x37993126	1.8261908e-05
203	0x34f25643	4.5138776e-07
204	0x34a3c92f	3.0507496e-07
205	0x37abdcf6	2.0487681e-05
206	0x35839ecd	9.806478e-07
207	0x35b8ddd1	1.3773625e-06
208	0x37abed09	2.0495167e-05
209	0x34e60992	4.2847802e-07
210	0x339f251f	7.410767e-08
211	0x36700df1	3.5770902e-06
212	0x37b7a8b0	2.1893851e-05
213	0x37863e8e	1.6003174e-05
214	0x36763731	3.6688982e-06
215	0x391016dd	0.00013741427
216	0x37957f33	1.7821416e-05
217	0x380e6704	3.395138e-05
218	0x39327c15	0.00017021627
219	0x3a497dc3	0.00076862815
220	0x36df0b3e	6.6472267e-06
221	0x357dd62a	9.4561494e-07
222	0x3913d4df	0.00014098313
223	0x386ab03f	5.595409e-05
224	0x34104c04	1.34387e-07
225	0x37a27fc1	1.9371395e-05
226	0x3580ca8b	9.595691e-07
227	0x38c930a4	9.593487e-05
228	0x37a04b7e	1.910864e-05
229	0x3724b5e0	9.817508e-06
230	0x369b32cc	4.6252735e-06
231	0x37d3f00a	2.5264937e-05
232	0x37d1a544	2.49917e-05
233	0x37c3b9f3	2.33324e-05
234	0x382180aa	3.850522e-05
235	0x3821ae4a	3.854771e-05
236	0x34e7c8b7	4.3173142e-07
237	0x37e45264	2.7218084e-05
238	0x36812e94	3.849922e-06
239	0x38e73398	0.000110245484
240	0x36ae0599	5.1862557e-06
241	0x379bbb00	1.8564519e-05
242	0x34e7aeaa	4.3154188e-07
243	0x37d0c0a4	2.4885238e-05
244	0x3680c20e	3.837288e-06
245	0x37bafbd2	2.229019e-05
246	0x362163cd	2.4048961e-06
247	0x3433ed09	1.6756907e-07
248	0x38dc2d20	0.00010498823
249	0x391fcf76	0.00015240707
250	0x379a869e	1.8420917e-05
251	0x375fa6dc	1.3330686e-05
252	0x381d98f3	3.7574162e-05
253	0x3716f202	8.997044e-06
254	0x35affc97	1.3112029e-06
255	0x382ff4f8	4.1951396e-05
