prob-kge/running_experiments/without_recipriocal/delete/63/random_Nations_DistMult_831769172/model.pt (torch, 10965 bytes, 2 tensors)

entity_embeddings.weight f4 [14, 32]
00000000: a398 993f 88ed 54bf 88ea 5a3a 346b cabf
00000010: ac20 023f 896d cdbe ad93 163f 1b2c 423f
00000020: 6582 f7bb ecfa dc3f 2a20 d73f 6dde c63f
00000030: de41 b1bf 754e 283f 9b60 bfbf cabf acbd
00000040: f468 983f 1bde c0bf 3415 093a 5632 423f
00000050: d2cc 9d3d b58c a4be e143 a6be 5316 fb3f
00000060: 57d7 07c0 2a47 cdbd d268 b53f a4e5 9e3f
00000070: 6ad6 a9bf 4c06 2a3f 8be7 2f3e b42d 723f
00000080: 3a16 be3e ff50 dd3e 3c9e 1f3f 42fd 90bf
00000090: d47e 31bf 4a40 04c0 f770 7740 cc61 1a40
000000a0: 1567 a73f cc6c 623f 3e16 82be 24ee 473e
000000b0: 27df 053f 4801 9abf eb09 1dbf 05d9 30bf
000000c0: f38f 133f e27a bbbf 52bb 523f a30d ff3f
000000d0: 5586 c1bf e7d8 323e 369c e93e c17d 303f
000000e0: f47d 0040 449e 483e b864 c0be 305d cc3f
000000f0: 3e5d b33f f421 643f cc8a cb3d 0a56 9abe
00000100: 982b b83f 9c27 2dbf 6e40 cc3e efd6 953f
00000110: d780 783f 2333 863e 230c 833c b4ba 4c3f
00000120: 1d2b e03f dddc 1440 732d 943c 2c14 643f
00000130: 9106 21bf 5f6c 65be 6a94 393f e27b fd3e
00000140: 3d45 533e dd8c 9dbe 66a1 d73e 3aa8 b23f
00000150: d4be b9bf dcbc 0540 34c5 05bf f621 023e
00000160: 3ae3 cf3f 19d3 973f 6d54 0ebe b5d3 543f
00000170: 0b7f b8bf 558b 34bf fbfb 3abf 8a14 1040
00000180: 0877 5ebe 4084 51be a992 3e3f f3e9 42bf
00000190: 0673 7ebf b236 bcbf 9bd4 9e3f 0f87 583e
000001a0: 533a 133f 5fc4 a53f cbd2 87bf b4d2 993f
000001b0: c7ee a03f fcf2 2c3d d12b 6f3f 2770 843f
000001c0: 87e2 ad3f c775 50bf 1a47 643e ecd7 febb
000001d0: 43f8 ddbf 84ec 823f 12dd d63e 7f6a 9d3f
000001e0: 0b13 bf3f dd14 903f 0000 853f 3e4f c33f
000001f0: f92d ddbf e1f2 4f3f e1ab 233f 2dc3 ed3f
00000200: 630b 483f 73f5 2240 5198 193f 5aa5 e0bf
00000210: 46be 26bf efe3 8a3f c6da 913f 8ae1 be3f
00000220: d140 f1be 15dd 183f 57ec b8bd 9412 ee3f
00000230: cea6 57bf 408d 393f 89f3 c6bf 11bb a63f
00000240: c085 8e3f 2f6e a3bf de5b b3be 017a fcbe
00000250: bc4e 03c0 8b24 09bd 5140 a93e 7efd 523f
00000260: 1e94 af3f 0c2f d33e 74bb 193f de6a a7be
00000270: c2ac a33f f07a fcbd be01 9a3e 1c1d 003f
00000280: a546 96bf f492 5a3f b022 b7be 6805 89bf
00000290: 82c8 0d3e 3a60 5dbf 49b5 c7bc 5d8b ba3f
000002a0: 334d c9bf ea06 fc3f 6157 133f fa9a eb3f
000002b0: 6c03 93be 2adb 62be 7446 f3be 222d f83f
000002c0: 85b5 16be b5ad 16bf 5a70 35c0 a9b3 fe3f
000002d0: 9647 9ebc 6432 9bbf 15ca ca3f 3a8f 9fbe
000002e0: 3511 d33f 2291 043f 61f9 e63d 99bf d23f
000002f0: 1e81 9fbd 23a9 0240 deca a7bd 8bcb 4cbf
00000300: 7216 833f cb2f 9abf 019c 2c3f 9058 06c0
00000310: f9b0 14c0 71a6 37bf 6f8f 843f a5b6 b43f
00000320: 56ee b23f 1303 96bd 95a4 6a3f bb52 b03f
00000330: 4623 62bf fd3c f13d e065 2abf aace c23f
00000340: faaa a1bd 3716 533e 2677 27bf 3319 bf3e
00000350: 5035 93bf 9138 b1bf 90f4 0e40 adf0 ac3e
00000360: b061 4c3f 702c 823f 84c4 a8bf 7da2 413f
00000370: 5478 063e 39f5 d13f c0bd 78bf 7542 253f
00000380: 19c2 5f3f dab3 04bf cb9a 873f eb85 a1bf
00000390: 20a8 813f bcd0 543e ba33 2e40 dacc a33e
000003a0: 40cd d2bf 3e8a ef3f 2ed6 e1be c3c3 17bf
000003b0: f795 4bc0 1207 cabe 9aa5 443e 06ab 0240
000003c0: 80a2 ebbe a63b ce3e b5aa 8a3f c811 c53f
000003d0: d267 99bf 152b 8abf e5d6 f63f 6334 fa3f
000003e0: 891d 99be 6a8b a63e 3582 753f f9fc 983f
000003f0: 0c5c e63f 488c fa3f bf63 82bf bc5a 7a3c
1.1999706 -0.83174944 0.0008350988 -1.5813966 0.50831103 -0.4012263 0.58819085 0.7584855
-0.007553386 1.7264075 1.6806691 1.5536629 -1.3848226 0.65744716 -1.4951357 -0.08435018
1.1907029 -1.5067781 0.0005229295 0.75858057 0.07705082 -0.321386 -0.32473662 1.9616188
-2.1225183 -0.10023339 1.4172614 1.2413831 -1.3268559 0.6641586 0.1717817 0.9460099
0.37126333 0.43225858 0.6235082 -1.1327288 -0.6933415 -2.066424 3.8662698 2.412219
1.3078333 0.8844726 -0.25407594 0.19524437 0.5229363 -1.2031641 -0.6134326 -0.69081146
0.57641524 -1.4646876 0.8231708 1.9926037 -1.511912 0.17465554 0.45626992 0.68941885
2.0076876 0.19591624 -0.37576842 1.5965939 1.401283 0.8911431 0.09938583 -0.30143768
1.4388304 -0.67638564 0.39892906 1.1706218 0.97071594 0.2621089 0.015996998 0.79972386
1.7513157 2.3259804 0.018088078 0.8909328 -0.62900645 -0.22404622 0.72492087 0.49508578
0.20631881 -0.30771533 0.42115325 1.3957589 -1.4511361 2.089652 -0.52254033 0.12708268
1.6241219 1.1861297 -0.13899393 0.8313554 -1.441377 -0.70525104 -0.7304074 2.2512536
-0.21725094 -0.20460606 0.74442536 -0.7613823 -0.9939426 -1.4704192 1.2408632 0.21145271
0.5751087 1.2950553 -1.0611204 1.2017426 1.2572869 0.042223915 0.93426234 1.0346726
1.3584756 -0.81429714 0.22292748 -0.0077772047 -1.7341388 1.0228429 0.41965538 1.2298125
1.4927686 1.1256367 1.0390625 1.5258558 -1.7279655 0.8122998 0.6393414 1.8575188
0.78142375 2.546231 0.5999804 -1.7550461 -0.65134084 1.085081 1.1394889 1.4912579
-0.47119763 0.59712344 -0.09029453 1.859942 -0.842389 0.72481155 -1.5543071 1.3025838
1.1134567 -1.2768 -0.35031027 -0.49311832 -2.0516806 -0.033482116 0.33056882 0.8241805
1.3717077 0.4124683 0.60051656 -0.3269872 1.2787097 -0.12328136 0.30079454 0.5004442
-1.1740309 0.8538048 -0.35768652 -1.0704775 0.13846019 -0.86474955 -0.024378436 1.457378
-1.5726684 1.968961 0.57555205 1.840667 -0.28713548 -0.22153917 -0.4751469 1.9388773
-0.14717682 -0.58858806 -2.8349824 1.9898578 -0.019321244 -1.2124753 1.584292 -0.3116396
1.6489626 0.51783955 0.11278034 1.6464721 -0.07788299 2.0415733 -0.08192991 -0.7999808
1.0241225 -1.2045835 0.67425543 -2.0991554 -2.3233016 -0.71738344 1.0356272 1.4118239
1.3978984 -0.07324805 0.9165738 1.3775247 -0.88335073 0.11779211 -0.665617 1.5219319
-0.07893939 0.20613943 -0.6541618 0.37323913 -1.1500645 -1.3845388 2.233677 0.3377737
0.7983656 1.0169811 -1.3184972 0.7563856 0.13131839 1.6402961 -0.97164536 0.6455453
0.87405545 -0.5183693 1.0594114 -1.2618994 1.0129433 0.20782751 2.7219071 0.31992227
-1.6468887 1.8714063 -0.4410872 -0.59283084 -3.1810281 -0.3945852 0.19203797 2.0416884
-0.46022415 0.40279883 1.0833346 1.5396051 -1.1984808 -1.0794398 1.9284331 1.9547237
-0.29905346 0.3252824 0.95901805 1.1952201 1.799684 1.957406 -1.018669 0.015280422

relation_embeddings.weight f4 [55, 32]
00000000: 9cde e5bf bb3e 043f 9648 5d3e 7792 063f
00000010: 8e14 5fbf 2b4e eabf 823e 9abf f724 b13d
00000020: ee93 73bf b37a d9bf 82ae 88bf a660 07c0
00000030: 7676 f43f 0813 cabe a218 bfbf 4705 88bf
00000040: f244 c4bf 22fd 773e 82a3 b0bf c68c 11bf
00000050: 5135 05c0 1bfc 51c0 1642 e53f 320f d8bf
00000060: 9936 bbbf 4709 bc3e bbfc 0ec0 de53 653f
00000070: 5414 c83f d405 12c0 d6ea 2dc0 1465 32c0
00000080: ccd8 b3bf 8095 153f f3a9 543f c5f1 f63f
00000090: e2a0 853f fbeb fbbe 17c7 e2be 6940 8abf
000000a0: 0e0b adbf 1fa8 2bbf ec0b 5dbf 0994 88c0
000000b0: d6f3 e5bf fdb9 b13e 5826 a73e 9490 6bc0
000000c0: 6f33 e0bf 1292 25bf a57f 8bbf 06c5 06c0
000000d0: 2ef3 93bf 1e1e 76bf be0c 0340 25bf c5be
000000e0: 0aa5 c2bf 9749 cbbf bea7 ffbe 2710 66c0
000000f0: 58b3 4ebf 2870 15bf 831a 45bf 4a80 b3c0
00000100: 7949 043f eb0b e83e 9310 4fbf bd38 1b40
00000110: 7d2f 28c0 68f0 c3bf 4b45 fbbe e716 0dbf
00000120: 2390 a8bf eb39 1fc0 fcbe c9bf 1b05 91bf
00000130: c968 81be e659 c0bf 83da 00c0 3a14 ffbe
00000140: 59cf f8bf bff1 d7bf a6f8 fb3f 91a4 fdbf
00000150: d454 dc3f cd16 e43e 29b4 8040 39a1 2bbe
00000160: 8a9d 35c0 0b9f 90bf 1e24 9b3f 1706 0d40
00000170: fab8 edbe 4442 1dc0 49b5 443f 0191 313f
00000180: bbc8 a53f b4ab 8d3e a654 1ac0 dd8d 8ec0
00000190: 92d1 d6bf c075 87bd c2fa bcbe d807 c5bf
000001a0: 89fb 15bd 9666 95bf 26c6 2dc0 5ecf 733f
000001b0: 30c9 55be f97d 533f 8048 b93d 1e15 75c0
000001c0: 85be 2bbe 6b31 173f 556a 493f d8c8 29c0
000001d0: 5696 b2bf 087a 1c40 01ee 8c40 82d6 f83e
000001e0: 9fb6 d3bf 4c4c 0bc0 80d4 cdbf 1a47 9f3d
000001f0: b303 a33f 678b 62bf 8935 14bf 6e3e 1fbf
00000200: a4cc 7dbe 123b aabe 5d60 5abf fe6c 03bf
00000210: 2ef3 60bf f5c8 303f 6ec2 a4bf 1a2a 293f
00000220: 2a71 76bf ffa3 ffbf 60da d0bf 9353 e8bf
00000230: 9e3b afbf da84 b83e eb49 eebd 4cae 0bc0
00000240: 8b94 813e b655 1e3e b188 14bf e6b3 f8bf
00000250: c3f6 aabf 76db d73d e450 c5be fab8 19be
00000260: 0ef6 843f 792c 02c0 edd0 963f 1e86 fb3c
00000270: 3ddb bd3e a76b 56bf be10 b83f ca27 33be
00000280: 2885 50bf 0f02 6abf 9845 a2bf 3aba 1d3c
00000290: e4c8 e0bf 74d7 c0bf 9e44 4bc0 5726 c1bf
000002a0: d38f 13c0 4557 6cc0 8a47 4ec0 4ebc 3ac0
000002b0: c7db 85be 167a 033f ca4b 67be 1cc2 3cc0
000002c0: b1be c8bf fedd e2bf 5e36 de3e 1283 3140
000002d0: 7ab8 6cc0 ef4e 46c0 4efb 2ebf 2439 123f
000002e0: 8c41 9abf 0f2b eabf 94d5 0cbf 2d7c a03f
000002f0: 7c34 b4bf b5b3 b1be 6e78 15c0 a000 5cbe
00000300: 2152 10bf 50d9 b5bd cba1 6ec0 b75d d6bf
00000310: 73c4 e93f 73c1 b6bf f8a3 b0bf dcc6 eebf
00000320: 92b3 60c0 49c9 10c0 13e4 39c0 44ca 70bf
00000330: ecf6 d83e b0b4 d93c b534 853d 8f0d 3bc0
00000340: 193a 183f b716 bbbf e20e 8e3d 765d e2bf
00000350: c633 97bf c2d7 a0bf 3a65 353f 84ae 5abf
00000360: 4b97 c63d 790c 87c0 3fc2 133d f6b9 243f
00000370: 0239 7040 5bef c2bf 9f16 b2bf 94a8 9a3e
00000380: 1541 88be 07dd 04be 6c19 213f e6b8 8abf
00000390: ef6b da3f 5ec4 f8bf 7546 7bbf cf8c a03d
000003a0: d788 d13e 3e5b ecbe ce4b 64bf f179 aa3e
000003b0: f671 0d40 75ec 56be 5e32 6dbf 4d89 81bf
000003c0: 97ec 49c0 ae23 af3e 81a5 b23e f349 a4bf
000003d0: db2b bdbe c462 e6bf 7aa9 53bf 5e7d 2dbf
000003e0: 432a 3fbe 0f46 7dbf 3170 05c0 8dbb 893e
000003f0: e50a a3c0 f0e8 ce3f 777d b9bf eb74 c8bf
-1.795856 0.5165822 0.2160972 0.5256724 -0.8714074 -1.8305105 -1.2050326 0.086496286
-0.951476 -1.699057 -1.0678256 -2.115274 1.9098651 -0.39467645 -1.4929392 -1.062661
-1.533354 0.24217656 -1.3799899 -0.5685543 -2.0813792 -3.2810123 1.7910793 -1.6879637
-1.4626037 0.36725828 -2.2341754 0.89581096 1.5631204 -2.2816057 -2.7174582 -2.7874193
-1.4050536 0.58431244 0.8307182 1.9292532 1.0439723 -0.49203476 -0.44292518 -1.0800906
-1.3518999 -0.6705341 -0.86346316 -4.2680707 -1.7965038 0.3471221 0.3264644 -3.6806993
-1.7515696 -0.6467601 -1.0898329 -2.1057754 -1.1558588 -0.96139705 2.0476527 -0.38622394
-1.5206616 -1.5881833 -0.49932665 -3.5947359 -0.80742407 -0.5837426 -0.7699358 -5.6094103
0.5167461 0.45321593 -0.80884665 2.425338 -2.6278985 -1.5307741 -0.49076304 -0.5511307
-1.3168987 -2.48791 -1.5761409 -1.1329683 -0.25275257 -1.5027435 -2.013337 -0.4982012
-1.9438277 -1.687065 1.9685256 -1.9815847 1.7213387 0.44548646 4.021992 -0.1676072
-2.8377404 -1.1298536 1.2120397 2.2034967 -0.46430188 -2.4571695 0.7683912 0.69361883
1.2951883 0.27670062 -2.4114165 -4.4548173 -1.6782706 -0.06614256 -0.36910063 -1.5393019
-0.036616836 -1.1671932 -2.715219 0.9523829 -0.20877528 0.82614094 0.090470314 -3.829414
-0.16771896 0.5905978 0.78677875 -2.6528835 -1.3952129 2.4449482 4.404053 0.48601156
-1.6540107 -2.1765318 -1.6080475 0.077772334 1.2735504 -0.8849396 -0.5789419 -0.62204635
-0.24785095 -0.33248192 -0.8530329 -0.51338184 -0.8787106 0.69056636 -1.2871835 0.66079867
-0.96266425 -1.9971923 -1.6316643 -1.8150505 -1.3690069 0.36038858 -0.116351925 -2.1825132
0.25308642 0.15462384 -0.58021075 -1.9429901 -1.3356556 0.10539906 -0.38538277 -0.15011969
1.038759 -2.0339644 1.1782509 0.0307036 0.37081328 -0.83758014 1.4380109 -0.17495647
-0.8145318 -0.9140939 -1.2677488 0.009626919 -1.7561307 -1.5065751 -3.176063 -1.5089825
-2.3056533 -3.6928265 -3.2231164 -2.9177432 -0.2614424 0.51358163 -0.22587505 -2.9493475
-1.5683194 -1.7723997 0.43400854 2.773625 -3.6987596 -3.0985677 -0.6835221 0.5711844
-1.2051253 -1.829439 -0.55013394 1.2537895 -1.4078517 -0.34707418 -2.3354754 -0.21484613
-0.5637532 -0.0887934 -3.728625 -1.674735 1.8263077 -1.4277786 -1.3800039 -1.8654437
-3.51096 -2.2622855 -2.9045455 -0.9405863 0.42375886 0.026575416 0.06504194 -2.9227026
0.5946365 -1.4616307 0.069364324 -1.7684772 -1.1812675 -1.2565844 0.70857584 -0.8542254
0.096968256 -4.2202725 0.03607392 0.64346254 3.7534795 -1.5229295 -1.3913153 0.3020674
-0.26612154 -0.1297494 0.62929416 -1.0837677 1.7064189 -1.9434927 -0.98154384 0.07839357
0.40924713 -0.46163362 -0.8917817 0.3329616 2.2100806 -0.20988639 -0.9265498 -1.0120026
-3.1550653 0.3420691 0.34891894 -1.2835068 -0.36947522 -1.7998891 -0.82680476 -0.6776942
-0.18668465 -0.98935026 -2.0849726 0.26900902 -5.09508 1.6164837 -1.4491414 -1.566068
