prob-kge/running_experiments/without_recipriocal/delete/156/random_UMLS_ComplEx_2376066489/model.pt (torch, 25301 bytes, 2 tensors)

entity_embeddings.weight f4 [135, 32]
0	0xbf3da691	-0.74082285
1	0xbca9b496	-0.020715993
2	0x3e6c7d71	0.23094727
3	0xbf6a7345	-0.9158214
4	0xbe1b9f05	-0.1519738
5	0x3d4217bb	0.047385912
6	0x3d82dcd9	0.063897796
7	0x3fe215c8	1.7662897
8	0x3e1d4cae	0.15361282
9	0x3fddf30a	1.7339795
10	0xbf565ba1	-0.83733565
11	0xbeae385c	-0.34027374
12	0x3eb025ce	0.34403843
13	0x3ed1d642	0.40983778
14	0xbed78e4d	-0.42100754
15	0xbeb274f4	-0.34854853
16	0xbf389189	-0.7209707
17	0x3f9209ef	1.1409281
18	0x3f8c3599	1.0953857
19	0x3e0d42c0	0.13794994
20	0xbf0d8e97	-0.552957
21	0x3dd7252e	0.10505138
22	0x3ee63e67	0.44969484
23	0x3ed8f7fd	0.423767
24	0xbe907b55	-0.28219095
25	0x3ee1ba24	0.44087327
26	0xbf50136f	-0.81279653
27	0x3ea97e1c	0.33104026
28	0x3fbc98ed	1.4734169
29	0x3d2cb21e	0.042162053
30	0x40123c22	2.2849202
31	0x3fa8dfb2	1.3193266
32	0xbfc00a02	-1.5003054
33	0xbda85622	-0.082195535
34	0xbecffb28	-0.40621305
35	0x3f2c9f1b	0.67430276
36	0x3f338ec8	0.7013974
37	0x3c319966	0.010839796
38	0x3ed8d62a	0.42350894
39	0x3fd028a6	1.6262405
40	0xbef50739	-0.47857073
41	0x3f6396a3	0.8890173
42	0x3e8bb0ad	0.2728323
43	0x3fec401b	1.8457063
44	0xbe9979f1	-0.29975846
45	0xbe9de6d1	-0.3084016
46	0x3f742427	0.95367664
47	0x3e177edc	0.14794487
48	0xbf16db54	-0.5892842
49	0x3ed8eee9	0.42369774
50	0x3f0c688f	0.54847044
51	0xbfc0406c	-1.501966
52	0x3f0c2210	0.54739475
53	0xbe4decb9	-0.20109834
54	0xbf8edc5c	-1.1160998
55	0x3fabc5b3	1.3419708
56	0xbfb78f8e	-1.4340684
57	0xbf869800	-1.0515137
58	0x3f013c24	0.5048239
59	0x3ee4c87b	0.44684204
60	0x3f8a1860	1.0788689
61	0x3edcace0	0.43100643
62	0x3dbb69fa	0.09151073
63	0xbdd1a2b5	-0.10236112
64	0xbf996bf1	-1.1986066
65	0x3da24ee6	0.07925205
66	0xbec2d9ca	-0.38056785
67	0x3f43bbb6	0.764583
68	0x3eead334	0.4586426
69	0xbf5f59e8	-0.8724656
70	0x3f1ae058	0.6049857
71	0x3fba4338	1.4551764
72	0x3e7658fe	0.24057385
73	0x3e5a2aa4	0.21305329
74	0x3dbd8d69	0.092554875
75	0x3edb50d7	0.42835113
76	0xbd11e494	-0.03561838
77	0xbe2877d2	-0.16451958
78	0x3e71ab4f	0.23600505
79	0x3ed51c17	0.41622993
80	0xbdc1110f	-0.09427082
81	0x3fb46f15	1.40964
82	0xbe00d6a6	-0.12581882
83	0x3eede683	0.4646493
84	0x3f77e58e	0.9683465
85	0xbfbb3633	-1.4625915
86	0x3f34e421	0.706606
87	0x3fb385dc	1.4025226
88	0x3e1211dd	0.14264627
89	0x3f2eeb87	0.68328136
90	0xbc6ad122	-0.014332088
91	0x3fc269d4	1.5188546
92	0x3f6ba8cc	0.9205444
93	0x3de4f6bb	0.111798726
94	0xbf2e013e	-0.67970645
95	0x3e163f17	0.14672504
96	0xbfd89562	-1.6920588
97	0x3fbdb6c8	1.4821405
98	0xbf96a75d	-1.1769825
99	0xbf0d6a29	-0.5524011
100	0xbf43ac90	-0.76435184
101	0xbee0cc3d	-0.4390582
102	0x3dc4de57	0.096127205
103	0x400097ba	2.0092607
104	0x3eb1c184	0.34717953
105	0xc00b2b87	-2.1745317
106	0xbefb9d19	-0.49143293
107	0x3f5568a2	0.8336278
108	0x3ec7b3ef	0.39004466
109	0x3e9170df	0.28406426
110	0x3d23ddd5	0.040006477
111	0xbf446cf1	-0.7672873
112	0xbeaa92ee	-0.33315223
113	0x3f78df52	0.9721576
114	0x3f16fd18	0.5897994
115	0xbf02adc1	-0.5104638
116	0x3e37c9e2	0.17948106
117	0xbe8393a0	-0.25698566
118	0x3e9d1828	0.30682492
119	0x3f839ba3	1.0281872
120	0xbf72c931	-0.94838244
121	0xbf3cb8f0	-0.7371969
122	0x3f2a0d57	0.66426605
123	0x3e1f3edb	0.15551321
124	0x3e9bef55	0.30456033
125	0xbede8871	-0.43463472
126	0xbe51b3ba	-0.20478716
127	0xbd0b69b8	-0.034036368
128	0xbfcfbf2e	-1.6230218
129	0x3f4abce2	0.7919446
130	0xbfd923bd	-1.6964031
131	0xbf561cab	-0.83637494
132	0x3df914f8	0.121622026
133	0x3e3744ab	0.17897289
134	0xbe3743e6	-0.17896995
135	0x3fde0e4e	1.7348115
136	0xbf3c9cc5	-0.7367671
137	0x3f43aaae	0.7643231
138	0x3db77dbb	0.08959528
139	0xbe9bb211	-0.3040929
140	0x3f3f2589	0.7466665
141	0xbcf1054a	-0.029421467
142	0x3fed6aa6	1.8548172
143	0xbeefcfac	-0.4683813
144	0x3e230c92	0.15922764
145	0x3fa26b85	1.2689062
146	0xbec817b2	-0.39080578
147	0x3f970c89	1.18007
148	0xbe2f5135	-0.17120822
149	0x3e28d959	0.16489162
150	0x3ef0c2fb	0.47023758
151	0x3fae3845	1.3610922
152	0xbdd8c38c	-0.105841726
153	0xbf7a0671	-0.9766608
154	0xbeccc189	-0.39991406
155	0x3e047420	0.12934923
156	0x3f1bdec4	0.6088679
157	0x3eb73dcd	0.35789338
158	0x3f0bad7f	0.5456161
159	0xbf3c2790	-0.7349787
160	0xc00547ee	-2.0825152
161	0xbf18384b	-0.59460896
162	0xbe854c47	-0.26034757
163	0x3f157b06	0.58390844
164	0x3e501f58	0.20324457
165	0x3ecb967c	0.39763248
166	0x3e330800	0.1748352
167	0x3ff9c8d7	1.9514416
168	0x3dc1549c	0.09439966
169	0x3e4982e3	0.19678836
170	0xbe95b983	-0.29243097
171	0xbf243ea8	-0.64158106
172	0x3f0e51ab	0.55593365
173	0x3e2ed1af	0.17072175
174	0xbf87e537	-1.0616826
175	0xc000da96	-2.0133414
176	0xbf1a5c7c	-0.6029737
177	0x3ebe5713	0.37175807
178	0x3fbc0084	1.4687657
179	0x3f6a2938	0.91469145
180	0x3f843f5b	1.0331835
181	0x3ed6bd8c	0.41941488
182	0xbf193ee0	-0.59861565
183	0x3f9e0c58	1.2347517
184	0xbeb1986f	-0.3468661
185	0xbece4c18	-0.4029243
186	0xbe99e463	-0.30057058
187	0xbf2e2ef8	-0.6804042
188	0x3f3519c9	0.7074247
189	0x3d7c8c1a	0.06165705
190	0xbf303ba6	-0.68841016
191	0x3f8f5839	1.1198798
192	0xbfa0dc9d	-1.2567326
193	0x3f514478	0.817451
194	0xbfaac883	-1.3342441
195	0xbdaf2f78	-0.08553976
196	0x3ea48476	0.3213231
197	0xbed0ef1c	-0.40807426
198	0x3f19d07b	0.6008374
199	0x3f9325ad	1.1495873
200	0x3f1cdad0	0.6127138
201	0xbfcf9d66	-1.6219909
202	0xbc88b88c	-0.016689561
203	0x3ec06f1e	0.37584776
204	0x3f3a1897	0.7269377
205	0x3e8227e9	0.25421074
206	0xbe8ad190	-0.27113008
207	0xbe5261fe	-0.20545194
208	0x3ecaf4de	0.39639944
209	0x3fd2cdc5	1.6469046
210	0x3fb77e4b	1.4335417
211	0xbf5eedb2	-0.87081444
212	0x3f2b498f	0.66909117
213	0xbdfd53f6	-0.1236953
214	0x3ecb3cc5	0.396948
215	0x3fc4579d	1.5339237
216	0xbeb86159	-0.3601177
217	0xbf0472c1	-0.517376
218	0x3f5f73e0	0.87286186
219	0x3ebeaa72	0.37239414
220	0x3e8f74e5	0.2801887
221	0xbddb8b18	-0.107198894
222	0xbe6a6ff2	-0.22894266
223	0x3ed36843	0.41290483
224	0xbf7cdae1	-0.9877148
225	0xbdfd1180	-0.123568535
226	0x3ec3367d	0.3812751
227	0xbf5c9c5f	-0.86176103
228	0xbdbf2722	-0.09333636
229	0xbe87dfb2	-0.26537853
230	0x3f67bfce	0.90527046
231	0x3fcd758e	1.60515
232	0x3eb1dfde	0.3474111
233	0x3fe93130	1.8218136
234	0x3e311881	0.17294504
235	0x3e92745e	0.28604406
236	0x3f146800	0.5797119
237	0x3ebc8cd1	0.36826184
238	0xbed8c3a0	-0.4233675
239	0xbeb08f3a	-0.34484273
240	0xbf1a7d12	-0.6034709
241	0x3f8e1aec	1.1101966
242	0x3f9a3959	1.2048751
243	0x3eb189e8	0.34675527
244	0xbe2e204a	-0.17004505
245	0x3e011e98	0.12609327
246	0x3fad4538	1.3536749
247	0x3ee423bd	0.44558516
248	0xbe456317	-0.19276081
249	0x3eb94553	0.36185703
250	0x3e442886	0.19156083
251	0x3f279d26	0.65474164
252	0x3fc4ae50	1.5365696
253	0xbeca78fe	-0.39545435
254	0x400d8e9d	2.2118294
255	0x3fc30e1c	1.5238681

relation_embeddings.weight f4 [46, 32]
0	0xbff904ce	-1.9454591
1	0xbff42477	-1.9073628
2	0x3ea6e83d	0.3259906
3	0x3e39353c	0.18086714
4	0xbd2ea4ed	-0.042637754
5	0x40069e1e	2.1034007
6	0x3d233c08	0.039852172
7	0xbfccd241	-1.6001664
8	0xbfab157e	-1.3365934
9	0xbe182100	-0.14856339
10	0xbd84e475	-0.06488887
11	0xbf42329e	-0.75858486
12	0xbf70bae1	-0.94035155
13	0xbedca5b7	-0.4309518
14	0x3f74dc9b	0.9564912
15	0xbd2aabe9	-0.041667853
16	0xbe4aff36	-0.19823918
17	0x3d98397f	0.074328415
18	0x3f01c185	0.5068591
19	0xbf20f650	-0.62875843
20	0x3e3556d6	0.17708907
21	0xc00b1ce2	-2.1736379
22	0xbf5b9bf2	-0.8578483
23	0x3ecea0bb	0.40357003
24	0xbec16948	-0.37775636
25	0x3f4190a2	0.7561132
26	0xbeba9bb9	-0.36446932
27	0x3df81a58	0.121144
28	0xbf9f827d	-1.2461697
29	0xbf2061fc	-0.6264951
30	0x3f964104	1.1738591
31	0x4065b6b3	3.589276
32	0xbe2d6f0d	-0.16936894
33	0xbeef779d	-0.46770945
34	0x3f67a438	0.9048495
35	0x3f34e3cb	0.70660084
36	0xbe529be3	-0.20567279
37	0x3c9923e4	0.018693872
38	0x3c4c0255	0.012451728
39	0xbfd68346	-1.6758811
40	0xbefa5fe7	-0.48901293
41	0xc007e750	-2.1234932
42	0xbf2c613e	-0.6733588
43	0x3ec0bd87	0.37644598
44	0x3d6d7236	0.05797025
45	0xbe4973ae	-0.19673035
46	0x3f2e89a5	0.6817878
47	0xbe0e43f1	-0.13893105
48	0x3f836635	1.0265566
49	0xbe33617e	-0.17517659
50	0xbe8ee285	-0.27907196
51	0x3ed473a2	0.4149447
52	0xbe5bacd8	-0.21452653
53	0xbdc90c0e	-0.098167524
54	0x3db0de40	0.08636141
55	0xbefaf919	-0.4901817
56	0x3f267fbf	0.65038675
57	0x3f935020	1.1508827
58	0xbed726d5	-0.42021814
59	0xbeadfc76	-0.33981675
60	0xbf57ffd5	-0.84374744
61	0xbf83b7f8	-1.0290518
62	0x3e7c73aa	0.24653497
63	0x3f7573a2	0.95879567
64	0xbfc00b48	-1.5003443
65	0xbe9d7dbc	-0.3075999
66	0xbfa21ce6	-1.2665069
67	0xc063fda2	-3.5623555
68	0xbe995dc2	-0.29954344
69	0x401971d9	2.3975737
70	0x3f34d594	0.70638394
71	0xbf96a021	-1.1767617
72	0x3f0b5723	0.54429835
73	0x3f70b42c	0.9402492
74	0x3fb3f084	1.4057775
75	0xbc91153a	-0.017710317
76	0xbf93ff58	-1.15623
77	0x3e77897a	0.24173537
78	0x3f417110	0.75563145
79	0xbfdfe07a	-1.749038
80	0xbf59dba1	-0.8510075
81	0x3d0ee824	0.034889355
82	0x3f9ea3a3	1.2393688
83	0xbf1aa367	-0.6040558
84	0xbe860113	-0.26172695
85	0x3fe42edd	1.7826802
86	0x40054640	2.0824127
87	0x3f3dfdc2	0.7421533
88	0xbef2fb45	-0.47457328
89	0x3fc35cf1	1.5262738
90	0xbf02ff59	-0.5117088
91	0xbe7e95e3	-0.24861865
92	0xbc7d7361	-0.015469403
93	0x3f906fc0	1.1284103
94	0x3f93c4ce	1.1544435
95	0x3f766f9a	0.9626404
96	0xbd723c1e	-0.059139363
97	0xbec85fd6	-0.39135617
98	0x40031eaf	2.0487478
99	0xc0322f36	-2.7841315
100	0xbd5bd82c	-0.053672954
101	0xbe906f13	-0.28209743
102	0x3eb4dc5d	0.35324374
103	0xbff9f5d7	-1.9528149
104	0xbe0bc28e	-0.13648435
105	0x3fcc0edb	1.5942034
106	0xbf4e5678	-0.8060069
107	0x3e5d6fda	0.21624699
108	0xbf83d4d5	-1.0299326
109	0xbc8bc670	-0.017062396
110	0x3f060c2c	0.5236232
111	0xbfb6cf23	-1.4281963
112	0x3f0e91ef	0.55691427
113	0x3e3330bb	0.17499058
114	0x3f5c5efd	0.8608244
115	0x3fbb86fc	1.4650569
116	0xbd7c64f0	-0.0616197
117	0x3fd34e77	1.650832
118	0xbf44aaaa	-0.7682291
119	0xbe3d9e65	-0.18517454
120	0x3da51342	0.08060314
121	0xbd11f6db	-0.03563581
122	0x3f4268dd	0.7594126
123	0xbf7932b7	-0.9734301
124	0xbfc3d037	-1.5297917
125	0xbf6c1b2c	-0.9222896
126	0xbef62d29	-0.4808133
127	0x3f8d2e06	1.102967
128	0xbfca916e	-1.5825632
129	0xbf9b785b	-1.2146105
130	0x3d46d5a1	0.048543576
131	0xbf2957ba	-0.66149485
132	0x3deea24e	0.11652051
133	0x3e78b406	0.24287423
134	0x3efad134	0.48987734
135	0xbfdc14af	-1.7193812
136	0x3f0800ae	0.5312604
137	0xbf50ea85	-0.8160785
138	0xbf2721ac	-0.65285754
139	0x3f3a857f	0.7285995
140	0xbec23ad7	-0.37935516
141	0xbdc2e0ab	-0.09515508
142	0x3f993d78	1.1971884
143	0xbe89c36a	-0.26906902
144	0x3ec3be8c	0.38231313
145	0x3eebc1b8	0.46046233
146	0xbfdb8fe3	-1.7153286
147	0xbde8199d	-0.1133301
148	0x3e0fc88b	0.14041345
149	0xbeb0bec2	-0.34520537
150	0x3f428018	0.75976706
151	0xbfb2b68d	-1.396196
152	0x3f9b3b30	1.2127438
153	0xbf132ad9	-0.57487255
154	0x3e0bcfb2	0.13653448
155	0xbedb4dcb	-0.4283279
156	0x3ff8d6cb	1.944055
157	0x3f88ab3d	1.0677258
158	0x40114f8f	2.2704809
159	0xbf183fd0	-0.5947237
160	0xbfb18d8b	-1.387132
161	0xbf8cca44	-1.0999227
162	0x3e8be11b	0.2732018
163	0x3f963914	1.1736169
164	0xbf98edc0	-1.1947556
165	0xbff00355	-1.8751017
166	0xbf861f50	-1.0478306
167	0xbf85b8f3	-1.0447067
168	0xc001557f	-2.0208433
169	0xbfaab17b	-1.3335413
170	0x3ebe8daf	0.3721747
171	0xbf0aa450	-0.5415697
172	0xbebfc6c1	-0.37456325
173	0xbca222f5	-0.01979206
174	0x3eba2c89	0.36362103
175	0xbf47190d	-0.777726
176	0xbe6906a5	-0.22756441
177	0x3f316678	0.6929698
178	0x3edbb0ef	0.42908427
179	0x3f82df5f	1.0224417
180	0x3efbb3ea	0.491607
181	0x3f73c915	0.952287
182	0x3f96703f	1.1753005
183	0x3f67f0d2	0.9060184
184	0xbf61c588	-0.88192034
185	0x3e8247a9	0.25445297
186	0xbf16c176	-0.5888895
187	0xbf95c405	-1.1700445
188	0xbfcbe1bd	-1.5928265
189	0xbf282d68	-0.65694284
190	0xbf1d73ba	-0.6150471
191	0xbf889c14	-1.0672631
192	0xbfbb20d9	-1.4619399
193	0xbed69414	-0.4190985
194	0xbee4def9	-0.44701365
195	0xbe93ca0e	-0.28865093
196	0x3ea8e020	0.32983494
197	0xbc1d623e	-0.009605942
198	0x3eb6a7c4	0.3567487
199	0xbfd7526a	-1.6822026
200	0xbe944522	-0.28958994
201	0x3e15dbfe	0.14634702
202	0x3ef46106	0.47730273
203	0xbe286b96	-0.16447291
204	0xbe922d55	-0.2855021
205	0xbfa04752	-1.2521765
206	0x3e942b3a	0.2893923
207	0x3ef18a04	0.4717561
208	0x3f3237c0	0.6961632
209	0x3e177d44	0.14793879
210	0xbf075270	-0.52860165
211	0x3f55fb0c	0.8358619
212	0xbe75c72d	-0.24001761
213	0xbf1580c0	-0.5839958
214	0xbd18a2ca	-0.037264623
215	0xc00dc5dd	-2.2152016
216	0x3f2f6edc	0.68528533
217	0x3e0c9202	0.13727573
218	0xbe3fe038	-0.18737876
219	0x3f540e12	0.8283397
220	0x3e90c98a	0.28278762
221	0x3eb31229	0.34974793
222	0x3f09c24d	0.53812104
223	0xbfaea206	-1.3643196
224	0xbfc11c99	-1.5086852
225	0xbdbb1c3f	-0.09136247
226	0x3f0d3c56	0.5517019
227	0xbe05e903	-0.13077168
228	0x3e582eed	0.21111651
229	0xbe4fef75	-0.2030619
230	0x3f895923	1.0730327
231	0xbfa2ad8a	-1.270921
232	0x3f979f13	1.1845421
233	0x3f8a9b29	1.0828601
234	0xbf248353	-0.64262885
235	0xbf2fea9d	-0.68717366
236	0xbfad2b0f	-1.3528765
237	0xbf979ae3	-1.1844143
238	0x3fa9baf9	1.3260185
239	0xbfba2b9c	-1.4544559
240	0x3fd16f74	1.6362138
241	0x3ef86d80	0.48521042
242	0xbea37708	-0.3192675
243	0x3fe1a445	1.7628256
244	0xbec56b47	-0.3855841
245	0x3eb01916	0.3439414
246	0xbed3517d	-0.41273108
247	0xbedfc673	-0.43706092
248	0x3da51988	0.0806151
249	0x3f66b4f1	0.90119845
250	0x3d049c79	0.032375786
251	0xbf31d14a	-0.69459975
252	0xbf6a3e9f	-0.915018
253	0xbe0bb621	-0.13643695
254	0xbf2f2827	-0.6842064
255	0xbfcc1fc0	-1.5947189
