bbox_poisoning/lightning_logs/version_4603/checkpoints/epoch=99-step=600.ckpt (torch, 76079 bytes, 6 tensors)

entity_embeddings.weight f4 [135, 32]
000000 5a 50 ce be 7d 15 54 bf 0d 99 44 3c dc dc 9f be
       -0.40295678 -0.8284529 0.011999381 -0.3122319
000010 25 89 b9 be 99 5b 60 bf 7a f0 4b bf c2 d5 86 be
       -0.36237445 -0.87639767 -0.79663813 -0.2633496
000020 90 54 53 bf fb b4 d0 3e 58 68 81 3f a6 65 ef 3b
       -0.8255091 0.40763077 1.0109968 0.0073058186
000030 87 ce f2 bd eb 31 8c 3e 43 3e 56 3f 8f e1 6a bf
       -0.11855798 0.27381834 0.83688754 -0.91750425
000040 3f 43 78 c0 de 92 3c 3e 69 c5 8b c0 7f de 58 40
       -3.8791044 0.184154 -4.367848 3.38858
000050 cb 26 77 c0 8a 5f 0b 40 47 63 33 40 ee 01 8f 40
       -3.8617427 2.1777062 2.8029344 4.4689856
000060 1c c4 18 bf 5c 4c 42 bf b3 62 6c 3f 25 05 96 3f
       -0.5967424 -0.75897765 0.92338103 1.172032
000070 f1 2a c6 be ec 55 bc 3d f5 58 29 c0 81 eb 03 40
       -0.38704637 0.09196076 -2.6460545 2.061249
000080 17 32 46 be 51 1a 6f bf a5 d4 ca bd 1f 14 3a be
       -0.19355045 -0.9339953 -0.0990384 -0.18171738
000090 cf 9e c9 be 62 1b 70 bf 02 4e 49 bf 8e eb dc be
       -0.39378974 -0.9379178 -0.78634655 -0.43148464
0000a0 e5 24 0e bf 84 a6 60 3e 53 a7 76 3f 30 25 70 be
       -0.55525047 0.2193852 0.96349066 -0.23451686
0000b0 b1 55 ad 3e 88 e6 62 3e cd 2c 60 3f d3 ea 10 bf
       0.3385444 0.22158253 0.8756836 -0.56608313
0000c0 03 40 81 c0 da 41 f7 3e d8 b6 94 c0 b0 de 42 40
       -4.039064 0.48292428 -4.64732 3.0448418
0000d0 70 4e 74 c0 5f 30 f0 3f af a8 c4 3f ae 0a 69 40
       -3.8172874 1.8764762 1.5363978 3.6412768
0000e0 a9 d8 ae bf ac cd b9 bf 1b bc cd 3e 1c af dd 3f
       -1.365987 -1.4515891 0.40182576 1.7319064
0000f0 d3 20 26 be 1d a6 5c 3e 75 53 03 c0 e3 f8 20 40
       -0.16223459 0.21547742 -2.0519688 2.5151908
000100 59 98 48 bd 78 34 51 3f 2d df 32 40 11 be 4c 3f
       -0.048973415 0.81720686 2.7948716 0.7997752
000110 35 ed 2f bf fd c3 76 3f 00 f4 0a c0 9d e8 cf bd
       -0.68721324 0.96392804 -2.1711426 -0.10151789
000120 fe b8 aa 3e 1a 93 19 be ff dc 39 bf 56 ce 67 3e
       0.33344263 -0.14997521 -0.7260284 0.22637305
000130 8e 17 30 3f b3 cf 08 c0 50 08 08 40 5a c4 31 3e
       0.6878594 -2.137677 2.1255074 0.17360058
000140 ed 36 e1 40 07 e1 c5 3e e9 b9 20 bf ac 04 8d 40
       7.037955 0.38648245 -0.62783676 4.4068203
000150 60 25 56 be a7 05 b1 3d cb 34 e5 40 06 2b a7 c0
       -0.20912695 0.08643656 7.1626945 -5.224002
000160 f0 05 60 c0 87 42 57 c0 bc 1a b5 40 4e 6f d5 c0
       -3.5003624 -3.3634355 5.6595135 -6.669837
000170 63 12 c9 c0 8e f9 f8 c0 b1 51 b6 bf 86 12 b0 c0
       -6.2834945 -7.780463 -1.424368 -5.502261
000180 cc 3c bb 3f 26 d3 9e bf c7 9b 9a 3d 54 df 2e bf
       1.4627929 -1.2408187 0.075492434 -0.6830952
000190 2d 91 6c 3e 59 10 e4 3e 79 ac c1 bf 6d 7f 86 bf
       0.23102255 0.44543722 -1.513076 -1.0507637
0001a0 1c 89 90 bd 3a 4c 8b 3f f4 c0 8a bf ab 5b e1 3f
       -0.070574015 1.0882638 -1.0840135 1.76061
0001b0 df eb 91 3e 78 56 12 bf a3 c5 65 bf ab 1d e8 bf
       0.28500268 -0.5716319 -0.89754695 -1.8134054
0001c0 2e 98 a6 bf 68 0c 20 c0 11 e8 c7 3f 69 a2 90 40
       -1.3015192 -2.5007572 1.5617696 4.5198255
0001d0 25 32 9e 3f 44 5a 80 c0 55 44 d9 40 7c 4a 41 c0
       1.2359053 -4.0110188 6.7895913 -3.0201712
0001e0 0e 44 f2 40 38 eb 5b 3e c0 8f 94 bd 22 02 40 bf
       7.5708075 0.21476448 -0.07253981 -0.75003254
0001f0 40 ee 69 bf 82 bf 88 bf d1 ee f5 bf d8 72 14 c1
       -0.91379166 -1.0683444 -1.9213506 -9.278038
000200 2c 64 9f be a9 d4 4f bf d9 50 44 3e a8 08 cc be
       -0.31131113 -0.8118387 0.19171466 -0.39850354
000210 cd de 60 3f e1 69 e2 be 0e 0b 3f bf 65 71 11 3e
       0.87839967 -0.44221404 -0.74626243 0.14203413
000220 cc d1 3a bf 68 6a 68 be 31 71 30 3f 24 29 b3 3d
       -0.72976375 -0.22696841 0.68922716 0.08748081
000230 f4 cc eb 3e 9c 7e 0b bd 74 58 62 3f 99 9a 43 bf
       0.46054804 -0.03405629 0.8841622 -0.7640777
000240 d4 53 01 41 85 90 c3 bf 35 8c 37 c0 c8 26 98 40
       8.082966 -1.5278479 -2.8679326 4.754734
000250 c1 cb 1b c0 1d b5 5e 40 ef 54 62 40 0d 76 d7 40
       -2.4343112 3.4798043 3.536434 6.7331605
000260 0f d0 25 3f 3e ff e4 be 8d ce 9c 3f 43 df 0e 40
       0.647706 -0.44725984 1.2250534 2.2323768
000270 0d ae cc 3e ca 8f 0f 40 ed fd 0a 40 61 92 f5 3f
       0.3997654 2.2431512 2.1717484 1.9185296
000280 40 4e ad 3e 4b 0c c2 bd 8f 9a 64 3f 23 87 27 3f
       0.33848763 -0.09475001 0.8929834 0.6544058
000290 a7 17 a6 3f 87 f2 cb be 2a 7c aa bf ad 26 d3 be
       1.2975968 -0.3983347 -1.3319142 -0.41240445
0002a0 73 ac 9c 3f dd 4e 3d be d2 24 1d bf f2 5c 66 bf
       1.2240127 -0.18487115 -0.6138431 -0.89985573
0002b0 b9 95 4a bf 62 2e 4e 3f 68 ba 80 bf 4f 8b c3 bf
       -0.7913471 0.80539525 -1.0056887 -1.5276889
0002c0 92 82 e0 c0 c0 1f 29 c0 20 84 f9 3f 91 93 a9 40
       -7.0159388 -2.6425629 1.9493446 5.2992635
0002d0 5d 7f e7 bf 88 8f af be 68 8c 8d 40 87 09 fa c0
       -1.8085743 -0.34289193 4.4233894 -7.813663
0002e0 d4 14 8f 40 24 a5 91 40 bb b9 c7 3f 04 7a 85 3e
       4.4712925 4.551409 1.5603555 0.26069653
0002f0 c9 e9 aa c0 18 05 3a c0 94 5c 59 c0 25 22 66 c0
       -5.341038 -2.906561 -3.3962755 -3.595834
000300 7c 27 ab 3f 75 07 92 3e 9a 4f e9 3f 43 0e 60 bf
       1.3371425 0.28521314 1.8227417 -0.8752176
000310 eb ea 09 3f ce 95 22 bf b2 bc 90 bf a8 71 0b 3e
       0.5387408 -0.63509834 -1.1307585 0.13617575
000320 ba 7b 7c 3f 2b e1 50 3e 4d a9 99 be 59 77 75 be
       0.9862629 0.20398395 -0.3001198 -0.23971309
000330 e2 8d aa 3d f5 b3 bd bf 4d a4 b6 3f 16 82 ae 3f
       0.08327843 -1.4820544 1.4268891 1.3633449
000340 42 56 1b 3f 4c d0 a1 40 9a 1d dd 3e ac cf 4e 40
       0.60678494 5.056677 0.43186647 3.2314253
000350 c7 1c b5 40 e2 5d 4b c0 80 ad cd 40 5c ed 1c bd
       5.659763 -3.1776052 6.427429 -0.0383123
000360 b8 9d a0 3f 7b 6e a9 40 8c c0 c4 3f 5b a4 0f c0
       1.2548132 5.2947364 1.5371261 -2.2444065
000370 c3 48 2e 41 68 a9 5f 40 89 0c 8a c0 03 05 3c c0
       10.892764 3.4947147 -4.31403 -2.937806
000380 52 41 e0 3d c2 83 23 bf fb 4b 4e 3f ef 09 d7 be
       0.10949959 -0.6387292 0.80584687 -0.41999766
000390 37 42 92 3f 2c de 90 be 00 12 1c bf 89 81 14 3e
       1.1426457 -0.28294504 -0.60964966 0.14502539
0003a0 be 3c 76 bf be cd be be 07 2f 4d 3f be 05 af be
       -0.96186435 -0.37266344 0.80149883 -0.34184068
0003b0 be 62 bc 3e 6b e7 d8 3e ee 3b 8f 3f fb 76 e5 be
       0.36794084 0.42364058 1.1190164 -0.44817337
0003c0 9d bb 00 41 8f ba 07 bf 62 32 67 3f 57 45 a6 40
       8.045804 -0.5301904 0.90311253 5.1959643
0003d0 51 d2 43 c0 23 f5 4c 40 e7 ac 58 40 59 f4 da 40
       -3.0597117 3.202462 3.3855531 6.8423276
0003e0 12 d7 b5 bd e1 84 a0 bf 5e 4f 96 3f 5b 63 6a 40
       -0.08878912 -1.2540551 1.1742971 3.6623142
0003f0 db 9a ae 3f 20 50 1a 40 f9 8c 64 3f 06 7b 1f 40
       1.3641008 2.4111404 0.8927761 2.4918838

relation_embeddings.weight f4 [46, 32]
000000 98 33 c5 3e 11 d3 db 3e d3 8a 3a bf 84 ec 64 bf
       0.38515925 0.42934468 -0.7286808 -0.89423394
000010 59 79 ad 3e f3 c3 df 3e 6a 6c 10 bf be 03 b6 3d
       0.33881643 0.43704185 -0.56415427 0.088874325
000020 06 25 b3 3e 27 b2 b2 3e 59 8f 27 3f b8 a1 87 3e
       0.34989184 0.34901544 0.65453106 0.2649057
000030 3d 8d c2 3e 58 5f 8f 3e 37 e1 6d 3d 5d d7 25 3f
       0.3799838 0.2800243 0.05807611 0.64781743
000040 47 7a 82 c0 d0 dd 99 c0 37 72 91 3e 0a b4 8a 40
       -4.0774264 -4.8083267 0.28407452 4.3344774
000050 6d 2b b7 3f f3 1b d1 3e bc d8 1d 41 56 79 d6 3f
       1.4310127 0.40841636 9.865414 1.6755779
000060 28 5e b7 bf e7 dc 46 40 d5 2b 23 40 70 e7 65 bd
       -1.4325609 3.1072328 2.5495503 -0.05612892
000070 c4 60 9f 40 0e 4c 78 40 f4 b8 ae c0 c1 6d 21 bf
       4.980562 3.879642 -5.4600773 -0.63058096
000080 98 41 0b 3e 9e a1 b3 39 1a 6c 8e bc 70 74 01 bf
       0.13599241 0.00034261955 -0.017385531 -0.50568295
000090 0a 1e a3 be b5 88 4f be 79 cd b4 bf c9 42 7f 3f
       -0.31858855 -0.20266993 -1.4125205 0.9971128
0000a0 7e 07 4c 3f 30 f4 f5 bc 46 54 86 3f c2 85 0b bd
       0.7969893 -0.030023664 1.0494468 -0.03406311
0000b0 6c 44 56 be 47 c7 15 bf 08 e8 c6 3e e9 8b 35 3f
       -0.20924538 -0.585072 0.388489 0.7091661
0000c0 bc 56 c9 bf 58 5a aa bf c5 35 8b bf f0 24 06 40
       -1.5729594 -1.3308821 -1.0875784 2.0960045
0000d0 03 39 63 3f e1 c6 07 3f 75 cf e0 3e 37 d6 2d 40
       0.8875887 0.5303784 0.43908277 2.7161996
0000e0 28 48 7f 40 ff 3c 5e c0 14 4b b1 bf 50 74 af 3e
       3.988779 -3.472473 -1.3851037 0.34268427
0000f0 d4 6a 9f 40 44 3f 02 bf c2 3e 48 3f e4 90 2a c0
       4.9817905 -0.50877786 0.7822076 -2.6650934
000100 e2 00 66 bd b3 6f b9 3c 25 80 b0 3e 21 9e db 3e
       -0.056153186 0.02263627 0.34472767 0.4289408
000110 8d 3f 95 3d e0 e7 5a 3e fd b7 94 bf 31 dc e8 bd
       0.07287512 0.21377516 -1.1618649 -0.11370123
000120 7b b1 44 be 23 22 19 bd ad 99 4f bb 1f 91 e2 3d
       -0.19208328 -0.03738607 -0.0031677291 0.11062836
000130 ed 7a 90 be f5 16 af bd 80 33 1f 3d 82 ad 62 3e
       -0.28218785 -0.085493006 0.038867474 0.221365
000140 99 dd c1 3e 58 6a 71 3e ff a9 50 be e4 88 11 bf
       0.37864378 0.23575723 -0.20377348 -0.56849504
000150 e1 dd 0b 3d 04 a1 6c bf 11 c9 84 40 da b0 88 bf
       0.034147147 -0.9243319 4.1495442 -1.0678971
000160 3c 2c 34 3f bb f1 10 3d c1 ec 43 3e 4c 68 88 bd
       0.70379996 0.035386782 0.19133283 -0.06660518
000170 16 eb dc be e6 a8 9e be 5b 89 47 be 8a 11 35 3f
       -0.43148106 -0.30988234 -0.1948599 0.7072989
000180 26 b8 11 3e 62 53 ad 3d cd c8 8b bf e4 47 3d bf
       0.14230403 0.0846317 -1.0920655 -0.7393782
000190 ac a9 31 3d d3 b1 5d 3f 42 5e ab bf 31 0f e9 bd
       0.043374702 0.86599463 -1.338814 -0.11379851
0001a0 17 83 a4 bd 7c 05 9e 3e 13 b4 b4 bf 16 55 d5 bd
       -0.08032816 0.3086356 -1.4117454 -0.104166195
0001b0 35 ce 86 bd f0 83 d4 3d 36 57 fd be 32 c8 68 3e
       -0.065822996 0.103767276 -0.494806 0.22732618
0001c0 74 cf d5 c0 5a 2e 89 3f f7 70 7e bf bd ef 83 3e
       -6.681574 1.071727 -0.9939112 0.25768843
0001d0 17 3e a2 bc 0b fc 03 40 e2 54 9f 40 97 58 28 bf
       -0.019804997 2.0622585 4.9791117 -0.6576018
0001e0 94 4c 5e bf 1d 1b 74 bf 7c 4c 2b 40 1d 83 0b be
       -0.868356 -0.9535387 2.6765432 -0.13624234
0001f0 53 c1 22 c0 42 fd 18 c0 f0 71 08 40 8d bc d4 c0
       -2.5430496 -2.3904576 2.1319542 -6.6480165
000200 87 c5 8e 3f 17 f7 bb 3f 9b df 35 3f 29 62 6a bf
       1.115403 1.4684781 0.7104432 -0.9155603
000210 2f 78 df 3f 59 59 88 3f f3 59 26 c0 12 d9 e8 3e
       1.7458552 1.0652267 -2.59924 0.45478112
000220 a1 f9 34 3f cf 78 32 40 c0 44 60 bd f8 ee 72 bf
       0.70693403 2.7886236 -0.054753065 -0.9489589
000230 63 65 22 bf 6c 9a 8c bf 67 4b 97 3e 03 94 8f be
       -0.63435954 -1.0984626 0.29549715 -0.2804261
000240 d7 c1 b9 be 8e f1 16 c0 35 2c 23 3e 36 c9 e9 40
       -0.362807 -2.3584933 0.15934832 7.305812
000250 24 fe bf be f7 42 d6 40 f1 25 d8 40 54 0f e1 3f
       -0.3749858 6.6956744 6.7546315 1.7582803
000260 50 95 b2 3f f9 78 2b c1 3c 4b c7 40 a4 40 d7 c0
       1.3951817 -10.717034 6.227934 -6.7266407
000270 e5 27 0c 41 98 17 20 41 98 85 2c 40 38 f5 13 3f
       8.75974 10.00576 2.695654 0.5779605
000280 24 26 63 3f d5 7c 85 be f0 64 5d 3f ca 01 19 bf
       0.8873007 -0.26071802 0.86482143 -0.59768355
000290 fb 2e e8 3e db e0 ce 3f 64 82 eb bf c7 38 13 bf
       0.45348343 1.616237 -1.8399167 -0.5750851
0002a0 ee 18 0c bf b9 c0 99 3e bd cc 4b 3f 7c f1 44 be
       -0.5472554 0.30029848 0.7960928 -0.19232744
0002b0 2c 67 f6 be 5c cf aa bd c4 13 0d bf 4c cb 8a 3f
       -0.4812559 -0.08340332 -0.55108285 1.0843291
0002c0 80 42 32 bf fd f5 4c c0 85 e3 59 c0 6d 72 13 41
       -0.6963272 -3.202514 -3.4045117 9.215436
0002d0 62 a7 72 c0 d6 d2 49 40 54 e3 be 40 ef 2f 6f c0
       -3.7914662 3.1534934 5.96525 -3.7373006
0002e0 1f 64 91 3f f1 55 0a 40 f6 59 5f c0 02 28 98 be
       1.135868 2.1614954 -3.4898658 -0.29718024
0002f0 6b 93 83 40 af d1 de 3f 2e f6 30 3d db 02 04 c1
       4.1117454 1.740774 0.043203525 -8.250697
000300 a0 6f 17 3f b4 74 7e bf 34 fc 84 3e 1c d7 82 bf
       0.591547 -0.99396825 0.25973666 -1.0221896
000310 4b d6 d6 be f5 bb 42 bf d8 5a 80 bf 65 ad c6 be
       -0.41960368 -0.7606805 -1.0027723 -0.38804165
000320 2a 93 ed bd e7 1d 7d be 1c 8d 06 bf ac 7e fc 3d
       -0.11600335 -0.24718438 -0.52559066 0.12328848
000330 90 92 fe 3e 4f 00 0e 3f 2d 19 1f bf a8 ce 18 3f
       0.49721193 0.5546922 -0.6214779 0.5969033
000340 d7 db 06 c0 0a 62 9f 40 42 a8 16 40 98 88 27 40
       -2.107168 4.9807177 2.3540196 2.617712
000350 e1 e4 cd bf 3c cf 51 c0 23 61 a5 40 99 43 1b be
       -1.6085473 -3.2782736 5.1681075 -0.15162505
000360 67 f1 bf be 92 b8 9e be 50 e2 71 3d 11 c1 cf be
       -0.37488863 -0.3100019 0.05905372 -0.40576985
000370 56 4b 1c c1 f9 2b 8e c0 e1 92 80 bf 22 a0 64 40
       -9.768393 -4.4428678 -1.0044824 3.5722737
000380 ea 4d e7 bd f1 fe 25 3f 53 e5 a3 3d ac ab 14 bf
       -0.11294158 0.64842135 0.080027245 -0.5807445
000390 e3 85 e4 3d 8b 17 e7 bd 6b d9 64 bf c7 06 e8 3e
       0.11158349 -0.11283787 -0.89394253 0.4531767
0003a0 f9 c1 22 3f e3 ad 23 be 90 b9 a7 be d3 ad a0 3d
       0.6357723 -0.15984301 -0.3275876 0.07845654
0003b0 a1 2c c3 bf c6 71 0d 3f 21 d4 d4 be 62 56 86 3e
       -1.5247995 0.5525173 -0.41568092 0.2623778
0003c0 3f 01 20 3f c6 94 39 c0 42 cb 40 bf 38 b1 4a bf
       0.625019 -2.8997054 -0.75310147 -0.79176664
0003d0 9d fb c9 c0 47 25 cd c0 32 27 b4 40 e0 4f 13 c1
       -6.3119645 -6.4108005 5.6297846 -9.207001
0003e0 ba 64 3e 3e 46 c2 51 c0 dc 1b 3a 40 18 77 47 bd
       0.18593112 -3.2774825 2.9079504 -0.04869756
0003f0 67 ca 71 40 8c 5b 14 40 23 b0 72 3f e0 9f 5a c0
       3.7779787 2.3180876 0.94800013 -3.416008

exp_avg f4 [135, 32]
000000 ce af 4e bd 2f 41 63 bd e6 cc c7 bd 67 d9 2c bd
       -0.05046063 -0.055482086 -0.09755878 -0.04219952
000010 6c 77 a8 3d d7 88 85 bd c4 16 e0 3d de 56 13 3d
       0.08225903 -0.06520241 0.10941842 0.035971515
000020 89 9a 0d be bc a9 5f bd 2e 45 9d be 12 e7 ed 3c
       -0.13828482 -0.05460523 -0.30716842 0.029040847
000030 83 1f 05 3f 8e d5 a1 3d e7 74 7d bd fd ae ca bd
       0.5200121 0.079020604 -0.061879065 -0.098966576
000040 69 00 69 3f 69 f0 31 bf 2b ea c7 3d 14 0e 3d be
       0.9101625 -0.6950746 0.09761461 -0.18462402
000050 1d 82 e6 3d 79 79 11 bf ce 87 c6 bd 18 37 35 3f
       0.11255286 -0.5682598 -0.096938714 0.7078719
000060 89 2d 7d 3e 0a b8 d9 3e ef a6 e0 3d ee c6 5c bc
       0.24724402 0.42523223 0.1096934 -0.013475163
000070 a8 d4 36 be 99 d9 43 3f ff 1c 59 3f de 5b 56 3e
       -0.1785456 0.765039 0.8480987 0.20933482
000080 c4 ea bb 3c cf 94 80 bd 48 51 a6 3e d1 2c 35 bd
       0.022939093 -0.06278383 0.32483888 -0.044232193
000090 08 12 07 3e 0d e1 a8 bd a4 92 49 bd 4c c6 74 3d
       0.13190472 -0.0824605 -0.049212113 0.059759423
0000a0 b9 ba ed 3b 1e ea ce 3c df 20 b3 bd fd d3 5f 3d
       0.007254925 0.02525812 -0.08746504 0.054645527
0000b0 45 9c 00 3d 23 76 a0 3c 18 68 79 bd fc 8e 10 3e
       0.03139903 0.019587582 -0.060890287 0.14117044
0000c0 e1 9e 93 3f 1f 27 a8 3e d6 93 8b 3f 1e c5 32 3f
       1.1532861 0.32842347 1.0904491 0.69832027
0000d0 2c 60 57 be 9c 4f b9 be fd 47 13 3f 85 6b 1f bf
       -0.2103278 -0.3619355 0.5753172 -0.62273437
0000e0 97 0e 8d 3f 42 9b 1f 3e 3d 55 be 3d a4 6e 1e 3e
       1.1020077 0.1558657 0.09293602 0.15471894
0000f0 71 7c 9c bf d5 2a 81 3f 71 59 f3 3e 52 2b 39 be
       -1.2225477 1.0091196 0.47529176 -0.18082932
000100 f5 ac 4c bd f4 0d e5 bc b5 69 f7 be 92 20 68 be
       -0.049969632 -0.027960755 -0.48322836 -0.22668675
000110 53 cc 0f 3d eb 9e e7 3c 8d e5 2a bf ea 52 ae 3c
       0.035106968 0.02827402 -0.66756517 0.02127977
000120 14 4d f1 bc 26 85 bd 3c b5 09 fb 3d bd 3e ce bd
       -0.029455699 0.02313478 0.12257711 -0.1007056
000130 27 ed c3 bb 4b c8 36 3e b0 fd 53 bf 85 9e b1 bd
       -0.0059791985 0.17849843 -0.8280897 -0.08672813
000140 3b 62 1a bf 31 cd e2 bd 36 74 13 bf 03 85 58 3f
       -0.6030614 -0.110742934 -0.575992 0.8457796
000150 7a 7b c1 be 92 a0 c3 3e 55 b7 2b 3d 5e 76 92 3d
       -0.37789518 0.38208443 0.041922886 0.07151483
000160 ce 22 de be ca c9 cf be e5 df 82 3e df fd 70 bf
       -0.4338593 -0.4058364 0.25561443 -0.94137377
000170 12 0b 7f 3e 55 fb 11 3f a0 e1 10 3f 36 b7 ad 3e
       0.24906567 0.5702413 0.56594276 0.3392884
000180 f9 8a 31 be e2 ea 5c 3e 2e 1f 17 3e 15 e9 88 be
       -0.1733817 0.21573976 0.14757988 -0.26740327
000190 92 b6 01 bd ef a1 a1 bc ae 86 26 be 4c 86 f5 3e
       -0.031668253 -0.019730536 -0.16262314 0.47954023
0001a0 fa 0a 30 bc 96 5a 14 bd 8b 0b d8 3c d4 d5 89 3d
       -0.0107448045 -0.036219202 0.026372692 0.067302376
0001b0 bd 9d ab 3c 5c 0f 68 3b 2d 75 82 3e f6 2f ac 3d
       0.020949239 0.0035409546 0.25480023 0.08407585
0001c0 15 b8 05 3e 5b 6b 2c bd c4 a2 73 3f 29 6d 3b 3d
       0.13058503 -0.04209457 0.95170236 0.0457584
0001d0 b3 8e 5d bf 24 c3 d2 be 28 3a ea bd af c0 6b 3d
       -0.86545867 -0.41164505 -0.11436874 0.057556804
0001e0 c7 a8 4c be ba 1c 25 bf cf aa 1a 3f 7b 63 15 3f
       -0.19986258 -0.6449696 0.60416883 0.5835492
0001f0 6a 38 b3 3e 81 8e 96 3e 5b 47 4d 3d 72 8b 97 3e
       0.35003978 0.29405597 0.050116878 0.29598576
000200 e7 a4 37 bc 1d e5 d8 bd 13 62 93 3e 82 de 01 be
       -0.011208749 -0.10590575 0.28785762 -0.12682536
000210 b3 83 5f 3d 84 8d 03 bf ec 5c d6 3e fc fb 6f bd
       0.054568958 -0.5138781 0.4186777 -0.05858992
000220 7f d0 96 be 97 82 84 bd 7d dd b6 3e a6 96 82 bd
       -0.29455945 -0.064702205 0.35715857 -0.0637639
000230 bf a3 51 3d d7 4b 0a 3f 75 2c be bd 54 ae eb be
       0.05118155 0.5402197 -0.09285823 -0.4603144
000240 2c 5b 05 3f 01 04 b8 3d 8e ed 5a 3e 26 d1 df be
       0.5209224 0.08985139 0.21379682 -0.43714255
000250 98 86 10 bf 58 1a f7 bd 08 ec 61 bf 11 34 dc 3e
       -0.56455374 -0.120655715 -0.8825078 0.43008474
000260 35 f7 17 3e 7d c9 ea 3d 28 cc 75 bf 7e 9c 31 bf
       0.14840396 0.11464212 -0.9601464 -0.69379413
000270 60 a3 12 bf 0f 56 c3 bd 1b dc 1e be 44 2a c7 bc
       -0.5728054 -0.09537899 -0.15513651 -0.024312146
000280 13 50 6a bb c2 a4 8c be 35 2a 37 3e 04 f2 0c 3f
       -0.0035753294 -0.2746945 0.17887194 0.55056787
000290 d8 57 f2 3d 01 51 fd bd 12 eb 1a 3f 36 0e 99 bd
       0.11833161 -0.12368966 0.6051494 -0.07473414
0002a0 62 71 14 bd 8d 5e 63 bd cf 77 fb bd 7d fc 74 3c
       -0.036240943 -0.055510093 -0.12278711 0.014952776
0002b0 c5 94 fb bd 36 c2 bc 3d e3 02 83 ba 6a fe ba be
       -0.12284235 0.0921673 -0.0009995367 -0.36522228
0002c0 e1 19 e1 3d c8 01 10 3d 18 64 50 3f 54 bf 60 bf
       0.10991264 0.03515795 0.8140273 -0.87791944
0002d0 34 26 5e be 20 d1 c2 be a6 9e 65 bf 0b 80 c4 be
       -0.21694261 -0.38050175 -0.89695203 -0.3837894
0002e0 f4 30 b4 3c ff 0c 4c 3f b3 6c d6 3e 6b 3c 1c 3d
       0.021995999 0.7970733 0.41879806 0.038143557
0002f0 be e2 51 be ab 21 be 3d 25 16 1d 3f cf ff bc 3e
       -0.20496652 0.092837654 0.61361915 0.36913916
000300 cf 69 34 3d 59 c0 8f 3c dc 1d f1 3c 8c 85 2c 3d
       0.04404622 0.017547773 0.029433183 0.042119548
000310 a3 f5 27 3e 3d 18 42 3c a9 af 63 3e 09 ba dc bc
       0.16402297 0.011846599 0.22234978 -0.026944177
000320 76 0f b2 3b cc 31 68 be d2 46 e7 bc a8 43 b0 3c
       0.005433972 -0.22675246 -0.028232012 0.021516636
000330 c6 ac 75 3c e9 07 1a be 9f e1 9f 3e 12 39 0a 3c
       0.014994806 -0.1504208 0.31226823 0.008436458
000340 26 71 88 3e 49 8c 0d 3e a4 db 96 3e 59 5d a8 be
       0.26648825 0.13823046 0.29464447 -0.3288372
000350 8c 29 b2 3e b1 ce 9b 3e df ce 38 be 97 93 32 3e
       0.34797323 0.3043113 -0.18047665 0.17439114
000360 d5 4f a0 bb 53 7d d9 3e 32 f6 7e 3e f5 3a aa be
       -0.004892329 0.42478427 0.24898604 -0.33248106
000370 ce 7d fb bc 49 25 b4 3d bb 2f 51 3e bb 73 1c be
       -0.030699637 0.08796174 0.20428364 -0.15278523
000380 65 51 d9 3c 64 7d 6b bc 06 ab 2b bd 58 ae ff 3c
       0.02652807 -0.014373157 -0.041911148 0.031211063
000390 4e 20 8b bd c9 e9 0b 3e b9 0d 62 bd 9d 71 1e 3d
       -0.06793271 0.136634 -0.05518887 0.03868257
0003a0 cc bc f3 3e 83 e3 55 3c b6 27 8a 3c 1f f3 cf 3c
       0.47604978 0.013054731 0.016864639 0.025384484
0003b0 05 1a c6 bc c3 8d 80 be a4 36 e4 bc 0e 63 b6 bd
       -0.024182329 -0.25108156 -0.027858086 -0.08905612
0003c0 01 a8 d8 3c 02 f5 68 be 73 87 2c bf d3 c4 b9 be
       0.026447298 -0.22749713 -0.6739418 -0.36282977
0003d0 15 aa af 3e c1 c4 92 bd 11 5f 2d 3e b4 68 6b 3d
       0.3430945 -0.07166434 0.16930796 0.0574729
0003e0 25 02 11 be 31 d5 87 3d fc 05 63 be 97 c0 5a 3e
       -0.14160974 0.0663246 -0.22170252 0.2136253
0003f0 a8 a6 a1 3e 05 c8 2c bf f2 48 98 be 56 b1 ed 3e
       0.3157246 -0.67492706 -0.29743153 0.4642436

exp_avg_sq f4 [135, 32]
000000 10 d1 31 38 a4 ae b1 37 b0 f3 10 37 9e f4 3c 38
       4.2394793e-05 2.1181368e-05 8.639807e-06 4.505051e-05
000010 4a a0 24 37 40 76 25 38 6f 8a b8 37 43 e1 3a 38
       9.812482e-06 3.9449194e-05 2.1998972e-05 4.4555647e-05
000020 41 dd 45 37 ff 92 3a 37 ff 32 e5 35 37 bf 3d 37
       1.179363e-05 1.1120689e-05 1.7076671e-06 1.13097985e-05
000030 47 0f d3 34 97 c2 68 38 51 41 0a 36 89 49 69 38
       3.9312928e-07 5.5494336e-05 2.0601622e-06 5.5620014e-05
000040 8e 85 1e 32 03 67 71 31 10 71 55 31 1d ad f5 31
       9.227177e-09 3.512867e-09 3.1059848e-09 7.150119e-09
000050 bb b3 6b 31 0a 2e f8 31 34 2d aa 33 6c f4 0f 32
       3.4299166e-09 7.222984e-09 7.924464e-08 8.379271e-09
000060 57 64 c4 31 6d 69 f2 30 af bc b5 31 33 b2 8d 30
       5.715758e-09 1.7637781e-09 5.289244e-09 1.0309748e-09
000070 3f bf 73 31 8b 6a 38 31 61 29 c9 31 69 88 ee 31
       3.5469865e-09 2.6836087e-09 5.854574e-09 6.9422197e-09
000080 ac 6c c7 37 89 9f a0 36 c4 f9 22 35 af 90 26 38
       2.3773253e-05 4.786944e-06 6.071316e-07 3.971223e-05
000090 4c b0 7f 36 91 0d 41 37 18 b2 00 36 91 ce a7 37
       3.810058e-06 1.1506855e-05 1.917715e-06 2.0004141e-05
0000a0 cd 36 ca 34 e0 f5 a5 37 d8 05 b9 37 31 a3 a2 35
       3.7665305e-07 1.9784027e-05 2.205644e-05 1.2117436e-06
0000b0 35 c0 48 39 a6 7f 0b 38 21 8c 70 37 37 58 ca 35
       0.00019145089 3.3259064e-05 1.4337741e-05 1.5075847e-06
0000c0 68 90 19 32 87 4e 9c 31 e0 50 75 31 c4 aa 24 32
       8.938606e-09 4.549125e-09 3.5698164e-09 9.584884e-09
0000d0 89 4b d7 31 a0 10 0f 32 a5 b1 f8 33 a9 30 2c 32
       6.265911e-09 8.327476e-09 1.1580713e-07 1.0022782e-08
0000e0 c5 15 1c 32 62 b5 96 31 07 51 18 32 76 dc b8 30
       9.085345e-09 4.3861954e-09 8.865988e-09 1.3450421e-09
0000f0 39 a1 ce 31 52 a7 04 31 a3 46 cb 31 2a 3d 4e 32
       6.013718e-09 1.9303639e-09 5.916108e-09 1.2004685e-08
000100 1d b5 18 35 45 b4 cd 34 7c 38 1a 32 90 fd a7 35
       5.6887967e-07 3.831539e-07 8.976823e-09 1.2516266e-06
000110 49 63 95 32 44 37 b9 35 4b 62 9f 33 d6 ea 60 33
       1.7391033e-08 1.3799659e-06 7.421894e-08 5.2367646e-08
000120 12 24 60 36 e4 de 80 36 4b f9 25 34 56 8e 93 35
       3.3399597e-06 3.840645e-06 1.5457515e-07 1.0993779e-06
000130 1c c0 1f 37 5e db 0e 35 d9 a8 8a 33 c7 9c 67 36
       9.5218675e-06 5.3218344e-07 6.456839e-08 3.4512939e-06
000140 5a ad 98 2f 72 54 b7 2f b6 46 d9 2f f9 ff 8f 30
       2.7771813e-10 3.3347508e-10 3.9522313e-10 1.0477371e-09
000150 b1 1a 37 2f 07 4f 26 30 ea 41 2e 31 1a 56 1e 2f
       1.6653236e-10 6.0502753e-10 2.53578e-09 1.4400606e-10
000160 4f e5 b9 2f 16 5b 5a 2f 88 46 5e 2f a9 52 ed 2e
       3.3814238e-10 1.9859345e-10 2.021584e-10 1.07921956e-10
000170 7d dd 82 2f ab 99 78 2f 17 2f e8 2f 6d 88 07 30
       2.380424e-10 2.2610062e-10 4.2234014e-10 4.9306587e-10
000180 45 21 94 35 15 71 97 32 d4 24 c4 33 4f c3 51 35
       1.1036542e-06 1.7630137e-08 9.13366e-08 7.814278e-07
000190 37 18 a8 36 ea 15 02 33 ca 85 dd 36 33 9c 17 35
       5.009609e-06 3.0287914e-08 6.6018883e-06 5.6479183e-07
0001a0 be f4 38 36 b0 b8 2c 34 dd 01 80 35 c4 50 01 35
       2.7560595e-06 1.6085937e-07 9.537285e-07 4.8173774e-07
0001b0 ee ba 1a 37 92 cc a0 36 b8 e1 ff 34 38 75 41 34
       9.222638e-06 4.7921867e-06 4.7661683e-07 1.801717e-07
0001c0 c5 04 81 2f 9e 1c ed 2f 41 5b 3c 30 8c 83 b2 30
       2.3468352e-10 4.3130383e-10 6.852368e-10 1.2988592e-09
0001d0 4f 23 e0 2f 88 ea 06 30 3c a9 a2 31 d7 db ad 30
       4.077045e-10 4.9082205e-10 4.7340603e-09 1.2649889e-09
0001e0 d0 30 6e 30 65 ef d0 2f 50 94 d4 2f 82 ba 98 2f
       8.665326e-10 3.800508e-10 3.8667958e-10 2.778116e-10
0001f0 5e 05 b7 2f f2 54 ee 2f 0b 85 e9 2f a2 33 34 30
       3.329132e-10 4.3352305e-10 4.2476986e-10 6.5556993e-10
000200 fb b8 b7 36 2f fc 42 35 31 f6 19 35 00 95 51 37
       5.4753596e-06 7.263761e-07 5.73552e-07 1.24920625e-05
000210 87 27 8e 34 6d 51 aa 34 cb 0a 6d 36 17 89 02 36
       2.647832e-07 3.1724213e-07 3.5322034e-06 1.9451306e-06
000220 e3 a4 84 35 05 24 83 36 c8 66 ca 35 16 c3 49 36
       9.882755e-07 3.9082975e-06 1.5080086e-06 3.006489e-06
000230 2c f0 6f 39 ce 74 9a 34 a8 a2 0b 36 ae 2c 51 36
       0.00022882287 2.8769722e-07 2.0807292e-06 3.1169434e-06
000240 02 0f d9 30 85 b4 20 31 1c b7 88 30 68 f2 81 31
       1.5793093e-09 2.3385678e-09 9.947345e-10 3.7819525e-09
000250 c0 ba 82 31 ae 76 c5 31 83 ad 03 33 04 fb 01 32
       3.804729e-09 5.746947e-09 3.0658622e-08 7.565863e-09
000260 49 da 61 31 1b 3a 46 30 9d 20 51 31 a4 3f 36 30
       3.286589e-09 7.2114553e-10 3.0432041e-09 6.6301653e-10
000270 06 01 cd 31 23 9a f9 30 30 85 21 31 2e fc 7a 31
       5.9664016e-09 1.8160943e-09 2.3504292e-09 3.6523136e-09
000280 b8 c5 e0 35 b2 49 7f 33 ba ae ec 34 33 33 39 34
       1.6746844e-06 5.943884e-08 4.4085556e-07 1.7248094e-07
000290 13 3a 62 34 9e e1 27 35 79 42 74 35 c2 78 6d 37
       2.1069017e-07 6.2540664e-07 9.0993814e-07 1.4154417e-05
0002a0 39 64 c6 36 37 c8 f7 34 e6 bd 64 36 c2 bb 4d 37
       5.9125273e-06 4.615301e-07 3.4085183e-06 1.2262668e-05
0002b0 92 0d 32 35 e8 28 00 34 dc 52 92 35 3c 5c 03 35
       6.6329915e-07 1.193581e-07 1.0901963e-06 4.893552e-07
0002c0 85 45 03 31 a5 31 57 30 89 30 17 31 c2 ad 94 31
       1.9102526e-09 7.8287093e-10 2.200098e-09 4.327121e-09
0002d0 2b 63 ca 30 af 71 9e 30 06 62 01 32 c1 18 03 31
       1.472562e-09 1.1528324e-09 7.531076e-09 1.907708e-09
0002e0 a4 87 a7 30 80 f8 dd 2f 36 ac 03 30 62 8d 06 30
       1.2189401e-09 4.0376236e-10 4.790225e-10 4.8949833e-10
0002f0 5e b4 6d 30 01 e5 06 30 3e 56 27 30 61 ac a9 30
       8.6476415e-10 4.907435e-10 6.0876804e-10 1.2345361e-09
000300 e4 70 a2 34 72 b3 8d 36 47 05 e8 32 70 c9 97 35
       3.025699e-07 4.2230176e-06 2.7010755e-08 1.1309003e-06
000310 c6 63 48 35 d6 5b 42 37 5d 3f 1b 36 c8 6f 5a 37
       7.4650995e-07 1.1584683e-05 2.3133682e-06 1.3019839e-05
000320 00 61 8a 36 3c de f4 33 05 53 87 37 b0 61 1a 35
       4.124013e-06 1.14025596e-07 1.6131913e-05 5.7511625e-07
000330 72 94 2f 37 c7 ad 53 33 fc 4e 70 35 83 13 ec 37
       1.0465375e-05 4.9285315e-08 8.9521905e-07 2.8142478e-05
000340 2b c4 eb 2f ae 63 02 31 c3 18 61 30 26 18 68 31
       4.2885637e-10 1.8974151e-09 8.188971e-10 3.377417e-09
000350 05 ea 4e 30 4d bf f4 30 13 23 03 32 f3 1e 0b 30
       7.5274925e-10 1.7807708e-09 7.6331785e-09 5.0611887e-10
000360 f9 0b 1d 30 76 57 a8 30 be ba e0 2f 71 96 bf 2f
       5.713328e-10 1.2248467e-09 4.087805e-10 3.4849593e-10
000370 dc 73 a8 30 0a cb 54 30 1c 5b 2d 31 c4 c7 93 30
       1.2256538e-09 7.7413687e-10 2.5226603e-09 1.0752434e-09
000380 56 1c f4 35 21 dc 97 37 ef 3a 03 35 9b 77 11 38
       1.8187663e-06 1.8103108e-05 4.888706e-07 3.4682085e-05
000390 7e 0e cd 37 6f 55 be 37 75 8c 45 36 d4 65 c7 37
       2.4444653e-05 2.2689548e-05 2.9437044e-06 2.3770066e-05
0003a0 d9 43 88 36 2c 84 52 36 25 86 1c 34 c0 45 93 37
       4.0610144e-06 3.1369373e-06 1.4577434e-07 1.7556245e-05
0003b0 66 a5 27 39 6f 19 c0 36 39 04 c3 36 72 52 07 36
       0.00015987977 5.7250068e-06 5.8119444e-06 2.0164557e-06
0003c0 b3 aa 1a 31 27 55 75 31 c4 42 c3 30 c0 83 04 32
       2.250698e-09 3.5700596e-09 1.4207093e-09 7.713368e-09
0003d0 79 d2 81 31 06 19 a9 31 4d 88 30 33 e2 07 14 32
       3.778322e-09 4.921392e-09 4.1102158e-08 8.616526e-09
0003e0 4b a6 f4 31 2c 46 a5 30 96 13 9d 31 87 a7 06 31
       7.12024e-09 1.2025274e-09 4.571528e-09 1.9594795e-09
0003f0 ba 6e d5 31 12 02 be 30 10 d4 1c 31 b4 95 9f 31
       6.211704e-09 1.3824908e-09 2.2821531e-09 4.6445283e-09

exp_avg f4 [46, 32]
000000 49 10 9a 3d d8 ba 02 be 78 d6 e7 be a0 ad fa ba
       0.075226374 -0.12766588 -0.45280814 -0.0019125231
000010 03 cb b3 be f8 c9 b8 bd a7 67 5e 3c 1d ff d4 bb
       -0.35115823 -0.090228975 0.013574517 -0.0065001384
000020 79 0f 54 3e 35 e8 e6 bd d9 b2 0e bf f1 43 0e be
       0.20709027 -0.11274759 -0.5574165 -0.13893105
000030 f6 6a 91 bc 23 7b 26 be 0e 7a 1c bf 21 05 0a bd
       -0.017751198 -0.1625791 -0.6112374 -0.033696298
000040 21 01 f2 be 66 de 3f 3e b1 c9 8e be 77 65 98 be
       -0.47266486 0.18737182 -0.27888253 -0.29764912
000050 06 c3 07 3f 49 a1 0d 3f 99 7c 58 3c fc 88 44 3f
       0.5303196 0.55324227 0.0132133 0.7677152
000060 9a f6 34 bf 98 f5 f7 3d b6 d9 17 bf b5 33 1a be
       -0.70688784 0.1210739 -0.59316576 -0.15058787
000070 ea 1e a6 bd 9c c1 94 3e 41 b3 55 bf ae 4c 88 be
       -0.08111365 0.29053962 -0.83476645 -0.26621002
000080 44 f0 4e 3d 95 60 bf bd bc 12 18 3e 95 b6 f0 bc
       0.050522104 -0.093445934 0.14850897 -0.029383937
000090 26 d4 4b 3d da 51 8e 3e db 3a 8d be 62 42 91 bd
       0.049762867 0.27796823 -0.27583966 -0.0709274
0000a0 0e 91 b0 be 1d 08 59 bd e1 d3 70 be f3 a1 26 3b
       -0.34485668 -0.052986253 -0.23518325 0.002542612
0000b0 f1 db 76 bc 1a e4 15 3c 94 96 7f 3d aa 5f b3 3b
       -0.015067087 0.009148622 0.062399462 0.0054740505
0000c0 e8 70 9a be 99 4d 55 be 6a 31 65 3c da 51 40 3f
       -0.30164266 -0.20830382 0.013988832 0.75124896
0000d0 fc 97 72 bc d7 a6 12 3c 9f 0b 1e 3f 1b 91 75 3e
       -0.014806744 0.0089509105 0.6173648 0.23981135
0000e0 3b 32 b0 bf 20 ee 63 3f ce 9c 30 3b 08 b9 9f 3e
       -1.3765329 0.89035225 0.0026948932 0.31195855
0000f0 ec ff ac 3e ee bc b4 be ce be c1 be ff ae e3 3d
       0.33789003 -0.35300392 -0.37840885 0.11117362
000100 8c c8 61 be 68 7f 0a bf 8e 4f b4 3e 09 a3 ec 3c
       -0.22049159 -0.54100657 0.35216945 0.028886335
000110 4b 2c 09 3e 48 9e 08 bf 7c 6b 64 3e e5 d0 43 3b
       0.13395803 -0.5336652 0.22306627 0.002987915
000120 cf 02 25 3f e4 e3 95 bd 3c 4d 76 3e d7 a6 93 3c
       0.6445741 -0.07318857 0.240529 0.018023891
000130 88 72 7f be 5f c0 f6 3b b8 a1 e6 3d 0f 65 a9 3d
       -0.24946034 0.0075302566 0.11261314 0.082712285
000140 50 92 44 3f 16 35 f6 3d 47 af 14 3e c7 c9 bf bd
       0.76785755 0.12021844 0.14519988 -0.09364658
000150 98 99 be be 85 1e a4 bd c4 a4 89 be 39 93 88 bf
       -0.37226558 -0.08013634 -0.2688352 -1.0669929
000160 0f f5 47 3e 85 86 27 3e 08 dd 9d 3f 46 54 0c 3e
       0.19527076 0.16359909 1.2333078 0.13704023
000170 e9 fd 89 be 78 c3 82 bf fe ac 06 3e bb 76 43 3d
       -0.2695153 -1.0215902 0.13151929 0.047720652
000180 43 c7 43 3c 2d df 6e 3d 9c c7 b3 bd e5 07 ea bb
       0.011949363 0.058318306 -0.08778307 -0.0071420544
000190 e7 e3 c6 bc e9 d8 51 3d c9 f0 8b 3c 20 4c ae ba
       -0.024278594 0.051232252 0.017082589 -0.0013297834
0001a0 eb 4c 30 be 66 da d5 3d 15 47 94 bc 47 98 98 bd
       -0.17216842 0.10442047 -0.0181003 -0.074509196
0001b0 dd bc d3 bc 08 3d b4 bb 26 fc a5 bd 21 89 4a 3e
       -0.025846893 -0.0055004396 -0.08104734 0.19778873
0001c0 58 ea 97 3e 9a e9 d0 bd dc 45 f1 bd 3a 5b 99 3e
       0.29670978 -0.10200806 -0.11780903 0.29952413
0001d0 1e 85 2a bd 87 2f 5a be 2d 04 17 3e 19 52 99 be
       -0.041630857 -0.21307193 0.14747687 -0.29945448
0001e0 2d f0 9d be f1 69 d2 3e ff 43 88 3e 2b 7a 09 3e
       -0.30847302 0.41096452 0.26614377 0.1342551
0001f0 9d 85 4c 3e 29 8e 0c 3f 31 63 74 bd 62 61 ae 3d
       0.19972844 0.5490442 -0.05966491 0.08514668
000200 17 27 42 be f7 d9 ce bc 66 95 61 be 00 54 f8 bc
       -0.18960224 -0.025250418 -0.22029647 -0.030313492
000210 39 14 d6 bd 1c 08 82 bd 2a 21 87 3c fa 08 b2 bd
       -0.10453076 -0.06349203 0.016495306 -0.086931184
000220 d0 87 d9 ba ac 6e 14 3e 79 08 2f 3d bc 28 bd 3c
       -0.0016596261 0.14495343 0.04273269 0.023090713
000230 48 9d 91 bb d5 b3 8d bc 49 99 76 3b 52 43 02 3d
       -0.004443798 -0.017297665 0.0037627986 0.031802483
000240 20 a4 13 3e b1 09 6a 3e 17 a7 01 3e 29 74 a7 3f
       0.14418077 0.2285526 0.12661396 1.3082324
000250 d6 59 79 3e 3e 61 87 3e ee 30 9d 3e c7 13 94 3f
       0.24350676 0.26441377 0.30701393 1.1568536
000260 19 cb a3 3e 7f 55 ae bc 40 26 88 be c8 8c 83 be
       0.3199089 -0.021281002 -0.26591682 -0.25693345
000270 4b 74 18 bf 45 58 ae be 40 01 fa 3d ac 73 ed 3e
       -0.5955245 -0.3405172 0.1220727 0.46377313
000280 a1 88 f0 be b7 12 3f bc 4f 58 fe be ec bd 00 bd
       -0.4697924 -0.011662177 -0.4967675 -0.031431124
000290 a8 d8 b6 bc 00 84 c7 bd 50 dd 9a be a1 c8 ba bc
       -0.022320107 -0.09741974 -0.30246973 -0.022800745
0002a0 7e ff c9 bc a5 0e 1a 3c 97 57 46 bc b0 15 6c bb
       -0.024657961 0.009402906 -0.012105844 -0.003602367
0002b0 55 7d 1d 3d ed 0d 07 3c 42 17 91 bc 6d de 0a 3c
       0.038449604 0.008243066 -0.017711286 0.008475882
0002c0 e5 4f b3 be a6 89 5f 3e 2b cc a9 3e 65 11 a9 bd
       -0.35021892 0.21829852 0.3316358 -0.08255271
0002d0 f8 30 90 3d 43 f1 42 3e d1 cc 0b 3f a0 7f 6b 3e
       0.0704059 0.19037347 0.546094 0.22997904
0002e0 00 9b 9d be 49 4f 2a 3e a4 26 58 bd 3b e2 25 be
       -0.30782318 0.16631807 -0.052771226 -0.16199581
0002f0 7e 9a e5 3e 90 e8 b1 3d 65 d1 bb 3e ee a7 eb 3e
       0.4484443 0.08686936 0.36683193 0.46026558
000300 92 d9 a8 3e d6 97 db 3d fd 6f d4 bc db 57 cc 3d
       0.32978493 0.1072232 -0.025932306 0.099776946
000310 18 28 7c be 3a 7c 91 be 58 cd 6d 3e 00 82 26 3f
       -0.2462467 -0.2841509 0.23222864 0.65042114
000320 13 d1 30 be 44 af 0c 3f d9 69 3b 3e bb d9 5c be
       -0.17267255 0.54954934 0.18302096 -0.21567433
000330 4e c2 e7 3d 76 42 9b bc bc 1b 52 bc c7 4b 83 3d
       0.113163576 -0.01895259 -0.012823995 0.06410938
000340 c4 3d 0b 3c 24 b1 a9 3e 0c 3b 88 bf 9e 46 61 3d
       0.008498613 0.3314296 -1.064302 0.054998986
000350 1f 10 00 bf a7 35 b4 3e a7 40 56 be 82 5a 69 bf
       -0.500246 0.35197183 -0.209231 -0.9115373
000360 11 e7 7b 3e 58 e9 d1 3e 65 9e d6 be 8f e6 85 3e
       0.24599864 0.4099834 -0.4191772 0.26152465
000370 87 7a 71 be 30 a4 35 be 51 cc 23 bd cc 53 8c 3e
       -0.23581897 -0.17738414 -0.039989773 0.27407682
000380 d1 46 1c 3e 89 89 19 3f eb 1e 00 bf 99 32 0f 3d
       0.1526139 0.59975487 -0.5004718 0.034960363
000390 09 6b 8e 3d e0 2b a5 bd 33 72 35 3e 65 8b 9a be
       0.06954009 -0.08065009 0.17719345 -0.30184475
0003a0 a9 38 ae 3d 78 24 3d 3c 02 0c 97 bd a0 a7 39 3c
       0.08506901 0.011544339 -0.07375337 0.011331469
0003b0 12 8b f9 bb a4 61 16 bc a4 df 19 be c0 96 58 3d
       -0.0076154554 -0.009178553 -0.15026718 0.05287814
0003c0 f7 50 97 bd 8f e7 89 bd 08 22 64 be 57 5a 95 3c
       -0.0738849 -0.067336194 -0.22278607 0.018231554
0003d0 29 0d b2 3e ce d2 99 be 1d c8 28 bf 61 36 04 be
       0.34775665 -0.30043644 -0.6593035 -0.12911369
0003e0 29 c7 56 bf 8b a5 84 3e 29 e8 1a 3d 99 75 25 bf
       -0.83897644 0.2590755 0.03781906 -0.64632565
0003f0 64 33 10 3f ac ca 20 3f b3 47 90 be ab b4 93 bf
       0.56328416 0.6280925 -0.28179702 -1.153951

exp_avg_sq f4 [46, 32]
000000 46 4a d7 37 01 05 64 35 d5 64 06 35 a0 65 81 39
       2.5664584e-05 8.49439e-07 5.006562e-07 0.00024680514
000010 85 b8 7d 36 80 b2 91 36 93 9f 08 39 6e b2 48 39
       3.7807342e-06 4.342117e-06 0.00013029417 0.00019139957
000020 1b e6 c7 35 e8 e0 f3 36 15 17 06 36 f5 f5 cf 37
       1.4893625e-06 7.268147e-06 1.9980992e-06 2.4790856e-05
000030 78 69 77 39 6f 99 c0 35 a8 7b 1c 35 c6 5f 79 39
       0.00023595046 1.434977e-06 5.829447e-07 0.00023782169
000040 cc 94 1b 33 f7 5b c7 31 0b 96 d1 31 ae 39 32 32
       3.622408e-08 5.8021175e-09 6.0997585e-09 1.03740785e-08
000050 74 90 9a 31 64 ec d4 31 47 ee f4 33 bb 70 03 32
       4.4984123e-09 6.1968866e-09 1.1405478e-07 7.6508355e-09
000060 ad 6e e9 31 4f 80 3c 32 7a 10 15 32 ce a3 bc 31
       6.793775e-09 1.0972214e-08 8.676688e-09 5.4901426e-09
000070 01 f9 9e 31 16 4a 4c 32 e4 ed c7 32 e4 55 1b 32
       4.6267137e-09 1.1891208e-08 2.327483e-08 9.041717e-09
000080 1b 1a d9 38 49 d5 60 37 47 d5 7f 37 de 6c ce 38
       0.00010352229 1.34011e-05 1.5248842e-05 9.8431236e-05
000090 e3 dd f6 36 b5 1f 95 37 fc fd bb 37 70 16 e6 37
       7.3572023e-06 1.7776949e-05 2.2410408e-05 2.7428585e-05
0000a0 ce ce 4d 36 0c e5 7b 37 95 c1 80 37 bd 51 5a 39
       3.0667757e-06 1.5014095e-05 1.5348933e-05 0.0002082055
0000b0 62 4f 56 37 d9 01 88 39 48 35 1c 38 e2 cb 2c 3a
       1.2773877e-05 0.00025941318 3.724292e-05 0.000659166
0000c0 19 2b aa 31 42 ad d3 31 5b bd ab 30 96 b6 71 31
       4.952551e-09 6.1606054e-09 1.2495706e-09 3.5173904e-09
0000d0 bc d2 9d 31 b2 e4 83 31 09 49 ea 32 00 75 e3 31
       4.593259e-09 3.8386014e-09 2.7274398e-08 6.619871e-09
0000e0 37 7b 18 32 90 73 1f 31 15 37 a8 31 4a ae 5b 31
       8.87558e-09 2.3203235e-09 4.8957056e-09 3.1967766e-09
0000f0 b5 50 2b 30 d4 22 4f 31 0a 5c 7d 31 b6 7f 0a 32
       6.232413e-10 3.0142262e-09 3.6868664e-09 8.061695e-09
000100 bd 45 0b 37 ee fe 43 34 0a 35 93 35 29 ae 04 37
       8.301283e-06 1.8253533e-07 1.096779e-06 7.908363e-06
000110 b6 be db 36 e3 d0 46 35 9a 46 44 36 69 e4 9f 36
       6.5489103e-06 7.406472e-07 2.9247371e-06 4.7651597e-06
000120 58 8b 99 34 dc 06 e3 37 f3 75 81 36 68 eb 10 39
       2.8599857e-07 2.7063703e-05 3.8582307e-06 0.00013820606
000130 5e 52 1b 33 4d c7 bc 37 1e 26 3c 36 98 6c a6 36
       3.6163662e-08 2.2504153e-05 2.803637e-06 4.9598275e-06
000140 8c d2 17 32 ce 71 b2 30 18 cf 02 31 c3 f3 9f 33
       8.83723e-09 1.298355e-09 1.903521e-09 7.4483545e-08
000150 b7 e0 1e 31 90 5d 10 31 77 45 28 34 3e 89 de 31
       2.3119762e-09 2.1007942e-09 1.567149e-07 6.476653e-09
000160 7c a9 f9 30 8e 08 d6 30 f2 95 3f 31 ec c9 5f 30
       1.8165305e-09 1.5572981e-09 2.7879392e-09 8.1413876e-10
000170 ac 88 e5 2f 55 67 c6 30 c7 63 a7 31 7b d2 82 31
       4.1751969e-10 1.4435765e-09 4.871683e-09 3.807427e-09
000180 f2 e8 a5 36 d9 6c 19 38 c7 c8 38 35 40 da 63 37
       4.9445016e-06 3.6579415e-05 6.883751e-07 1.358107e-05
000190 cd 11 5a 38 9f e4 62 37 55 26 d3 38 86 21 40 35
       5.199183e-05 1.352388e-05 0.00010068404 7.1574357e-07
0001a0 a5 5e 16 35 26 75 c3 37 01 92 5c 35 85 3c 19 38
       5.601708e-07 2.3300363e-05 8.216885e-07 3.6534406e-05
0001b0 e0 4a 39 38 1b 75 9c 37 ab c3 24 38 c6 d1 fe 36
       4.417717e-05 1.865118e-05 3.9282877e-05 7.5942107e-06
0001c0 2e f0 16 33 a8 7e 49 30 05 7b c7 31 77 9b 7b 31
       3.514304e-08 7.3303363e-10 5.805648e-09 3.6613679e-09
0001d0 8c 59 99 31 77 de ca 30 b1 34 da 32 7c ef 1e 32
       4.4630664e-09 1.4760663e-09 2.5402501e-08 9.251263e-09
0001e0 1d 21 c1 30 e9 37 ef 30 75 df 79 30 ac f0 af 30
       1.405201e-09 1.7405429e-09 9.0903224e-10 1.2801329e-09
0001f0 04 49 8a 30 47 04 86 30 d9 d2 a2 32 72 73 a7 32
       1.0061574e-09 9.750999e-10 1.8955165e-08 1.9493857e-08
000200 d7 d2 a5 34 4f 83 0e 36 05 51 0b 34 a1 a9 37 36
       3.088705e-07 2.123608e-06 1.2974859e-07 2.7367862e-06
000210 70 86 9a 34 39 a7 93 36 c6 d2 ac 35 5c 5a f7 35
       2.8782551e-07 4.4004087e-06 1.2876342e-06 1.8429232e-06
000220 ec 63 e7 33 b8 b8 10 35 11 e3 1e 36 3a 1d 5a 36
       1.07749514e-07 5.391298e-07 2.3676005e-06 3.2501544e-06
000230 ce 05 46 38 dc 19 10 37 56 c0 0f 37 da 94 b0 34
       4.7212285e-05 8.58909e-06 8.568246e-06 3.2890858e-07
000240 e4 6d 93 2f 43 6c 73 2f 80 0c d0 2e 7f 1e 19 2f
       2.6817226e-10 2.2139184e-10 9.460965e-11 1.3926103e-10
000250 7e 7a b6 2f 8c c0 e3 2f 12 57 20 30 77 83 09 2f
       3.3192643e-10 4.1427872e-10 5.8331395e-10 1.2506783e-10
000260 ae 02 30 2f d4 88 08 2f bf f2 51 2f f8 8a 1f 2f
       1.6008059e-10 1.2417739e-10 1.909468e-10 1.4510337e-10
000270 7c ae 27 2e 1d ae 9d 2f 6e 6e 9a 2f 67 18 8d 2f
       3.8126377e-11 2.8681849e-10 2.8090902e-10 2.566509e-10
000280 5c b3 00 35 f3 59 50 37 8f 2a ce 34 1d 13 02 39
       4.794472e-07 1.2418709e-05 3.8401456e-07 0.00012404886
000290 61 9a 27 38 20 25 a2 37 75 9e fd 35 38 d6 19 38
       3.995968e-05 1.9329193e-05 1.8896086e-06 3.667755e-05
0002a0 11 34 c8 37 8d d8 72 38 86 e6 36 38 32 30 06 39
       2.3866103e-05 5.7898975e-05 4.3606873e-05 0.0001279719
0002b0 55 67 98 37 43 43 3d 37 10 89 3c 37 7f 40 ed 37
       1.816793e-05 1.1280938e-05 1.1237586e-05 2.8282635e-05
0002c0 52 e6 cc 31 df 1e 63 30 0e ac 0f 31 0a af b7 30
       5.963366e-09 8.262599e-10 2.090704e-09 1.3364752e-09
0002d0 d3 d5 1a 31 6b a6 ca 30 e9 22 99 31 f1 20 e0 31
       2.2531494e-09 1.4744733e-09 4.456855e-09 6.523003e-09
0002e0 a3 78 5f 30 40 88 6c 30 97 91 97 2f 79 06 38 30
       8.129836e-10 8.604992e-10 2.7570188e-10 6.694801e-10
0002f0 5e c8 4c 30 a5 9a 52 30 9c 01 94 31 32 f6 a2 31
       7.4499507e-10 7.661732e-10 4.30755e-09 4.7428097e-09
000300 1d 82 67 35 30 31 ed 35 98 9a 0b 37 b2 37 0f 36
       8.6243546e-07 1.7672191e-06 8.32104e-06 2.134108e-06
000310 65 50 a7 36 6b 25 cd 35 5a e5 b2 37 1f 07 6a 33
       4.986347e-06 1.528458e-06 2.1326054e-05 5.4488847e-08
000320 fd ea 5e 36 b1 1b 40 34 38 79 af 35 bf 98 34 34
       3.321736e-06 1.7891468e-07 1.3073795e-06 1.6819375e-07
000330 91 ee b1 37 bd b2 6b 36 86 bf 45 35 dc 0f 79 37
       2.1211135e-05 3.5121768e-06 7.366692e-07 1.4845249e-05
000340 79 fb e5 30 74 d1 bc 2f 0b 94 fe 30 ec 41 ab 30
       1.6733416e-09 3.4345826e-10 1.8523009e-09 1.2460624e-09
000350 72 97 10 30 d0 1e 04 32 5f ca 38 32 5b af bb 2f
       5.260211e-10 7.690417e-09 1.07562235e-08 3.41397e-10
000360 bf 46 29 31 9e 54 de 30 b7 78 50 31 a2 05 30 30
       2.4632951e-09 1.6176676e-09 3.0336602e-09 6.403643e-10
000370 53 88 02 30 31 58 34 31 2b 2d 72 31 25 6c 22 32
       4.7487453e-10 2.6243578e-09 3.524131e-09 9.45423e-09
000380 5d 51 ad 37 3c 7b 7e 36 69 b4 26 37 44 12 23 3a
       2.0661095e-05 3.7920681e-06 9.936376e-06 0.00062206783
000390 38 f0 90 39 14 6d ee 37 ba 75 91 39 e0 78 7e 37
       0.00027644797 2.8422604e-05 0.00027744268 1.5167723e-05
0003a0 d5 42 da 36 07 fd a5 38 94 dc 72 37 62 22 e1 39
       6.5046866e-06 7.914943e-05 1.4475681e-05 0.0004294096
0003b0 15 d7 8e 3b a5 3b 4b 39 4b ee 92 38 4e 72 c4 38
       0.004359136 0.00019381808 7.006208e-05 9.367299e-05
0003c0 d6 63 29 33 c3 e5 b7 31 11 a5 e8 31 65 24 07 32
       3.943918e-08 5.352122e-09 6.7708545e-09 7.866309e-09
0003d0 1f 11 db 32 54 8e 6f 33 8d 63 90 33 c3 47 17 34
       2.5502741e-08 5.577597e-08 6.723631e-08 1.4089078e-07
0003e0 81 09 63 32 50 1b c0 31 88 cc bc 32 58 9a d6 31
       1.32153e-08 5.5910405e-09 2.197909e-08 6.2457666e-09
0003f0 e6 b3 1a 31 16 01 09 32 0f 68 5e 32 c1 97 bf 32
       2.251221e-09 7.9746965e-09 1.2945761e-08 2.2304336e-08
