prob-kge/running_experiments/without_recipriocal/delete/31/random_Nations_QMult_694443915/model.pt (torch, 10965 bytes, 2 tensors)

entity_embeddings.weight f4 [14, 32]
0	0xbff646f4	-1.9240403
1	0x3f99287a	1.1965477
2	0xbd74a93c	-0.059731707
3	0xbf14d2b4	-0.5813401
4	0xbf0d9585	-0.55306274
5	0xbfa3c332	-1.2793944
6	0xbf714e7d	-0.9426039
7	0x3ed8b9b3	0.42329177
8	0xbf2cc054	-0.6748097
9	0xbfd0e4fe	-1.6319883
10	0x3f9daff0	1.2319317
11	0xbd9094fb	-0.07059666
12	0xbfe21c84	-1.7664952
13	0x3e97cbde	0.29647726
14	0xbf15e1f4	-0.585479
15	0x3e803093	0.2503706
16	0xbf229a75	-0.6351693
17	0xbf011580	-0.5042343
18	0xbf6b7b51	-0.9198504
19	0xbdad5f97	-0.08465498
20	0xbfa0bcbd	-1.2557598
21	0xbfbc15bc	-1.4694133
22	0x3ec29d79	0.38010767
23	0xbe89d419	-0.2691963
24	0xbf36083b	-0.7110631
25	0xbfacb481	-1.3492585
26	0x3f0af57d	0.54280835
27	0x3f8d71b0	1.105032
28	0xbf1de7ca	-0.6168181
29	0xbfdb146e	-1.711561
30	0x3eb138be	0.34613603
31	0xbf49bf47	-0.7880749
32	0xbf443007	-0.76635784
33	0xbe150822	-0.14553884
34	0xbcbe2b0e	-0.02321389
35	0xc01d05ea	-2.453486
36	0x3f88f5b7	1.0699986
37	0xbff8a7c0	-1.9426193
38	0xbf33d228	-0.7024255
39	0xbf8f6c6f	-1.1204966
40	0xc013027b	-2.2970264
41	0xc016b81b	-2.354987
42	0x401cce14	2.450078
43	0xbf926493	-1.1436943
44	0xbfc3e2de	-1.5303609
45	0x3ea209bb	0.3164805
46	0x3f524171	0.82131106
47	0x3d84853d	0.06470726
48	0x3db5377b	0.08848473
49	0xbe74cc00	-0.23905945
50	0xbf303fb7	-0.6884722
51	0xbf5ffad6	-0.8749212
52	0xc0070734	-2.1098146
53	0xbfff58db	-1.9948992
54	0x3fc7edf9	1.5619498
55	0x3eadc810	0.33941698
56	0xc0115d6f	-2.2713277
57	0xbe09aab6	-0.13444027
58	0x3f0ce2af	0.5503339
59	0xbea61190	-0.32435274
60	0x3f66357e	0.8992537
61	0xbf87ffc6	-1.0624931
62	0x3f8ea0ce	1.1142824
63	0x3e3c38fd	0.18381114
64	0xc0298533	-2.6487548
65	0x3f8071ca	1.0034726
66	0xbeb7ce82	-0.3589974
67	0xbf4f171d	-0.80894643
68	0x3de549be	0.11195706
69	0xbe83fb05	-0.2577745
70	0x3c593150	0.013256386
71	0xbf0c2d02	-0.54756176
72	0xbfb88d42	-1.4418108
73	0x3ec70b98	0.38876033
74	0x3f688964	0.9083464
75	0x3f35091b	0.7071702
76	0xc019cd15	-2.4031422
77	0x3fa81c06	1.3133552
78	0x3f27a831	0.65491015
79	0x3e8edf5c	0.27904785
80	0xbfdbf16d	-1.7183052
81	0xbf07c3f2	-0.53033364
82	0x3e62d7b4	0.22152597
83	0x3fc081c2	1.5039599
84	0x3e6876dd	0.22701593
85	0xc00e4e66	-2.223535
86	0xbf08e8b3	-0.5348007
87	0x3f1779a4	0.59169984
88	0xbecf6c4e	-0.40512317
89	0x3e49890a	0.19681183
90	0x3e2fcb68	0.17167437
91	0x3f8a416f	1.0801219
92	0x3eb97696	0.36223286
93	0xbf39d2b3	-0.72587126
94	0x3fe7107a	1.8051903
95	0xbef98ef6	-0.48741883
96	0xbf67af34	-0.90501714
97	0x3f8f68d2	1.1203864
98	0xbf881c3d	-1.0633618
99	0xbf3e7e47	-0.74411434
100	0xbd6cf82b	-0.05785386
101	0xbfa077c3	-1.2536548
102	0xbfaf7920	-1.370884
103	0xbf990a9a	-1.195636
104	0xbf322d3d	-0.6960028
105	0xbf54e43d	-0.83160764
106	0x3f69a4d4	0.9126713
107	0x3f921dbf	1.1415328
108	0xbfec8cd7	-1.8480481
109	0x3f5446a1	0.8292027
110	0xbf5d0ff0	-0.86352444
111	0xbe949ad2	-0.2902437
112	0x3f6f54ce	0.93488777
113	0xbf92d28c	-1.1470504
114	0x3e225e2d	0.15856238
115	0x3fb5baa6	1.4197586
116	0xbf6708a1	-0.9024754
117	0xbfa2fb35	-1.2732912
118	0x3e8039e0	0.25044155
119	0x3fb4f5b5	1.4137484
120	0xc00a524c	-2.161273
121	0xbf8d9820	-1.106205
122	0xbdba9b86	-0.09111695
123	0x3f909235	1.1294619
124	0x3f5e5e42	0.86862576
125	0xbf76d567	-0.96419376
126	0x3f07510d	0.5285805
127	0x3f53b508	0.82698107
128	0xbf80c875	-1.0061175
129	0x3cc35177	0.023842556
130	0x3eb990eb	0.36243376
131	0xbfbc9398	-1.4732542
132	0xbf413a12	-0.75479233
133	0xbfcdf37e	-1.6089933
134	0xbeafc2a5	-0.3432819
135	0xbfa8986b	-1.3171514
136	0x3d1e3def	0.038633283
137	0xbff98521	-1.9493753
138	0x3f104ca4	0.56366944
139	0xbf5d7fd0	-0.8652315
140	0xc0098d17	-2.1492364
141	0x3ea66cd6	0.3250491
142	0xbef79da6	-0.48362464
143	0xbe61bada	-0.22043934
144	0xbea57cdc	-0.32321823
145	0xbe79533b	-0.24348156
146	0xbf8cc735	-1.0998293
147	0x3eed92ae	0.4640097
148	0xbf978946	-1.1838768
149	0xbf831954	-1.0242105
150	0x3f9d1415	1.2271754
151	0xbe51fcbd	-0.20506568
152	0xbf86b34d	-1.0523468
153	0x3dd24b0b	0.102682196
154	0x3e245662	0.16048577
155	0x3e3248df	0.1741061
156	0xbe4837a4	-0.19552475
157	0xbf4a0e6e	-0.7892827
158	0x3f034016	0.5126966
159	0x3ebaa436	0.36453408
160	0xbec81edd	-0.39086047
161	0x3f3c3169	0.73512894
162	0xbf342c0d	-0.70379716
163	0xbf95f006	-1.1713874
164	0xbef7277c	-0.48272312
165	0xbf8879ca	-1.0662167
166	0xbf35d3cc	-0.710263
167	0xbf65f2d1	-0.89823633
168	0xbf3e7f42	-0.7441293
169	0xc007ad8f	-2.1199682
170	0xbe2552e3	-0.161449
171	0xbf4e5770	-0.8060217
172	0xbfbe3fac	-1.4863181
173	0x3f000df8	0.50021315
174	0xbf347627	-0.70492786
175	0xbec70e97	-0.3887832
176	0xbd60c4dc	-0.05487524
177	0xbe07e6bd	-0.13271613
178	0xbe8979e9	-0.26850823
179	0x3ed94320	0.42434025
180	0xbf52140c	-0.8206184
181	0xbebf4b35	-0.37362066
182	0x3f87f3c5	1.0621268
183	0xbef6f9bb	-0.48237404
184	0xbf365141	-0.71217734
185	0x3e07e4cd	0.13270874
186	0x3ed5cfe6	0.41760176
187	0xbe2e57d5	-0.17025693
188	0xbe375ac2	-0.17905715
189	0xbed9885c	-0.42486846
190	0xbf15393c	-0.5829046
191	0x3f8747c4	1.0568776
192	0xbfd0e3d7	-1.6319531
193	0xbf034c07	-0.51287884
194	0xbfa32113	-1.2744468
195	0xc000625c	-2.0060034
196	0x3e883fcc	0.26611173
197	0xbddfc3d3	-0.109260224
198	0xbe293a42	-0.1652613
199	0xbf789955	-0.97108966
200	0xbf80fda2	-1.0077403
201	0xc0288a2c	-2.6334333
202	0x40350dde	2.8289714
203	0xbf92a705	-1.145722
204	0xc03f5cb9	-2.9900343
205	0x3f366eb0	0.71262646
206	0x3e817d1e	0.2529077
207	0xbe89f5c9	-0.26945332
208	0x3ec5ec0f	0.3865666
209	0x3ec25fc3	0.37963685
210	0xbe14a035	-0.14514239
211	0x3fa5afb0	1.294424
212	0xbe859458	-0.2608974
213	0x3f7d2f8a	0.98900664
214	0x3f327c16	0.6972059
215	0x3e1415ac	0.14461392
216	0xc02243ed	-2.5353959
217	0x3f063200	0.52420044
218	0x3f342d46	0.7038158
219	0x3e780ead	0.24224348
220	0x3f851335	1.0396487
221	0x3efe58ef	0.49677226
222	0xc001279b	-2.0180423
223	0x3f290a5d	0.6603144
224	0xc0037b1f	-2.0543897
225	0x3e14b13d	0.14520736
226	0x3c981ac2	0.018567447
227	0xc00773da	-2.116446
228	0xbf0dd490	-0.5540247
229	0xbf0eeb77	-0.5582804
230	0x3eaa144d	0.33218613
231	0xbfa16328	-1.2608385
232	0xbffbcf8f	-1.9672717
233	0xc00e2335	-2.2208989
234	0x3f722012	0.94580185
235	0xbfcaf151	-1.5854894
236	0xbfe1f0f4	-1.7651658
237	0x3d9a2864	0.07527235
238	0x3ac608c4	0.0015108814
239	0xbeb2b31f	-0.34902284
240	0xbf88003b	-1.062507
241	0x3e13eb6b	0.14445274
242	0x3f369827	0.71325916
243	0x3d1ade31	0.037809554
244	0xc0238096	-2.5547233
245	0xbf67774b	-0.904164
246	0x3fcf975a	1.6218064
247	0xbef5805f	-0.47949502
248	0xbe246bef	-0.16056798
249	0xbd5cd49f	-0.05391371
250	0x3dc40219	0.095707126
251	0xbf88b740	-1.0680923
252	0xbe702a1e	-0.23453566
253	0x3ca6e184	0.020371206
254	0x3eac2252	0.33619934
255	0x3f4b206a	0.79346335

relation_embeddings.weight f4 [55, 32]
0	0xbf2b583d	-0.66931516
1	0xbfe642a7	-1.7989091
2	0xbfaf3437	-1.368781
3	0x404ac4bc	3.1682577
4	0xbfa322a2	-1.2744944
5	0xbfe39d6d	-1.7782418
6	0xc03d1550	-2.9544258
7	0xbffa253b	-1.9542612
8	0xbf27aff8	-0.6550288
9	0x3fcd1f8e	1.6025255
10	0xbf10eee3	-0.5661451
11	0x3fc3fcac	1.5311484
12	0x3f61f22d	0.88260156
13	0x3f818f0c	1.012178
14	0xbfb09fc1	-1.3798753
15	0x401ee256	2.4825644
16	0xbeab30f9	-0.334358
17	0xc0002ddd	-2.0027993
18	0x3fd36f3b	1.651832
19	0xc0589833	-3.3842895
20	0xc037a176	-2.8692298
21	0xbdbfccc7	-0.0936523
22	0xc02b6fa8	-2.67869
23	0xbface6a0	-1.3507881
24	0xbf91b334	-1.1382813
25	0x3fcbb250	1.5913792
26	0x3fd1474c	1.6349883
27	0x3f740758	0.95323706
28	0xbfd05037	-1.627448
29	0xbfcd9cf2	-1.6063521
30	0x3d1c7aa6	0.038202904
31	0xbfedf1a9	-1.8589374
32	0xc01a5597	-2.411474
33	0x3f9d03e9	1.2266818
34	0xbf112da5	-0.56710273
35	0xbfbeb497	-1.4898862
36	0xc03f3080	-2.9873352
37	0xbfd72e2e	-1.6810968
38	0xbf488247	-0.7832379
39	0xbf4de697	-0.8042998
40	0x3f3fad51	0.74873835
41	0x40078788	2.1176472
42	0x400ea5fd	2.2288811
43	0x3fc2855e	1.519695
44	0xc01de8e5	-2.4673398
45	0x402698b1	2.6030695
46	0x3fd86ae5	1.6907622
47	0x3ee23ef6	0.4418866
48	0x40077b5e	2.1169047
49	0x3fe80a8c	1.8128219
50	0xbfc9e167	-1.5771912
51	0xbf7fe612	-0.99960434
52	0xbe91837a	-0.2842062
53	0x4027aac9	2.619799
54	0xbfa46b6b	-1.2845281
55	0x401eac89	2.4792807
56	0xbfceafe7	-1.6147431
57	0xbfad1ee9	-1.3525058
58	0xbfac4bc9	-1.3460628
59	0x3fa578a3	1.292744
60	0x40226ee7	2.538019
61	0x3fd5eccf	1.6712893
62	0xbd3bf52e	-0.04588812
63	0x3f0f5697	0.559915
64	0xc0155db5	-2.3338444
65	0xbf541067	-0.8283753
66	0x3f745042	0.95434964
67	0x3fc95a9b	1.5730776
68	0xbeeb3ff1	-0.4594722
69	0xc01c5bf9	-2.4431136
70	0xbfff05de	-1.9923666
71	0x3e0d5dff	0.13805388
72	0x3ea3c47b	0.3198584
73	0xc083bdf6	-4.1169386
74	0xbee4aaab	-0.4466146
75	0xbecaa53a	-0.39579183
76	0x3f7d6aaf	0.9899091
77	0x4040ed44	3.0144815
78	0x4032624b	2.7872493
79	0x3e57dc82	0.21080211
80	0xc0560a9a	-3.344397
81	0xbe342707	-0.17593013
82	0x3fb80d65	1.4379088
83	0xc044fb0a	-3.0778222
84	0x3edf22e0	0.43581295
85	0xbfdc0976	-1.7190387
86	0xc0443ce7	-3.0662172
87	0xbe0917cf	-0.13387989
88	0xbdc784b1	-0.09742106
89	0xc02470f8	-2.569395
90	0x401b3a9b	2.425452
91	0x4014c13b	2.3242939
92	0xbf40de97	-0.75339645
93	0xbf8e4157	-1.111369
94	0xbf869b24	-1.0516095
95	0xc0219356	-2.5246177
96	0xbebd0b19	-0.3692253
97	0xc00fcf7f	-2.2470396
98	0xc0143bf3	-2.316159
99	0xbf0fe014	-0.5620129
100	0xbf9d27bf	-1.2277755
101	0x3fa515fc	1.2897334
102	0x404c45e6	3.1917663
103	0xc02a2aa7	-2.6588533
104	0xc00cedd3	-2.2020156
105	0x4042ec19	3.0456603
106	0x402f9502	2.7434697
107	0xbef96808	-0.48712182
108	0xbf6c2c2b	-0.92254895
109	0x3f6f838c	0.935601
110	0xbe6649f1	-0.22489144
111	0x40817fca	4.0468493
112	0x3f2d75a8	0.67757654
113	0xbf65d27f	-0.89774317
114	0x3fa502b3	1.2891449
115	0xbf38f17e	-0.7224349
116	0xbfa332b9	-1.2749854
117	0xbeada6a6	-0.33916205
118	0xbf9fb596	-1.2477291
119	0x3f149378	0.5803752
120	0xbe4b81f7	-0.19873796
121	0x3fed7390	1.8550892
122	0xc020422c	-2.5040388
123	0xbf0b2edf	-0.54368395
124	0xbf692b6f	-0.910819
125	0x3fd95506	1.6979072
126	0x3e93a9e6	0.2884056
127	0xbf1ac5e1	-0.6045819
128	0xc032ca07	-2.7935808
129	0x3f88db41	1.0691911
130	0xc010b306	-2.2609267
131	0xbfc0335f	-1.5015677
132	0xbfdf1f0f	-1.7431353
133	0xc03c2c95	-2.940221
134	0x3e6cbd0c	0.2311899
135	0xbf4cd23b	-0.80008286
136	0x3d9375ac	0.072001785
137	0x3c2b26b2	0.010446237
138	0x3da5253a	0.08063741
139	0x403f43fb	2.9885242
140	0xc00533ec	-2.081294
141	0xbe708bc5	-0.23490818
142	0xc00ae152	-2.1700025
143	0xbf55652b	-0.83357495
144	0x3ef89b6d	0.4855608
145	0x401a522a	2.411265
146	0xbf20a1f7	-0.6274714
147	0xbf9a0d7b	-1.2035364
148	0x3fc200e3	1.5156521
149	0x3faa6a4b	1.3313688
150	0x3fd8b14a	1.6929104
151	0xc024e1cd	-2.5762818
152	0x40287a79	2.6324751
153	0x3ff9776e	1.9489572
154	0x3eaef156	0.341685
155	0xbfeed776	-1.8659503
156	0x4023f19e	2.5616221
157	0xbeeec9a1	-0.46638206
158	0x4005888f	2.0864599
159	0xbf471d7d	-0.7777937
160	0xbe2fa8b9	-0.17154206
161	0xc0266f31	-2.6005366
162	0xbfdeeb28	-1.7415514
163	0xbf989f46	-1.1923606
164	0xbfc2beea	-1.5214512
165	0xc01505fc	-2.3284903
166	0xbf0a4f05	-0.54026824
167	0xbfe6c07e	-1.8027494
168	0xbf7acd09	-0.9796911
169	0x4025f973	2.5933502
170	0xbc69e464	-0.014275644
171	0xbfab28bc	-1.3371806
172	0x404b18da	3.1733918
173	0x3f31e7b7	0.69494194
174	0x3fd12072	1.6338027
175	0xbfe1c9b2	-1.7639678
176	0x3f7c8afc	0.98649573
177	0x3f450bbf	0.7697105
178	0x3fe21d93	1.7665275
179	0xc00639f9	-2.0972884
180	0xbf78938f	-0.97100157
181	0xbe8dd705	-0.2770311
182	0xbc5e40dc	-0.013565268
183	0xc080d6bd	-4.026213
184	0x401fe283	2.4982002
185	0x3f838f48	1.0278101
186	0xbfc1d354	-1.5142617
187	0x3ff18934	1.8869996
188	0x4003bd07	2.0584123
189	0xbeafa944	-0.34308827
190	0x3fa9b029	1.3256885
191	0x3f6495f2	0.892913
192	0xbf834031	-1.0253965
193	0xbce25529	-0.027628498
194	0xbfd7c782	-1.685776
195	0xc092d1da	-4.5881166
196	0xbd9d8c2e	-0.07692753
197	0x3f146cf8	0.57978773
198	0x3e0eb372	0.1393564
199	0xc0470e87	-3.1102617
200	0x3d4ca212	0.04995925
201	0x4024ee06	2.5770278
202	0x3f21aa64	0.6315062
203	0xbf5bde70	-0.8588629
204	0xc02fab72	-2.7448392
205	0xbf006b0b	-0.50163335
206	0xbc2cf01d	-0.010555294
207	0x3f070163	0.5273649
208	0xbdd55399	-0.104163356
209	0x3f8be118	1.0928068
210	0x3f0bc945	0.5460399
211	0xc02030fd	-2.50299
212	0xbe33a400	-0.1754303
213	0x3f169d50	0.5883379
214	0x3fc7d2bf	1.561119
215	0x40618b86	3.5241408
216	0xbe9beaa5	-0.30452457
217	0xbfe553f6	-1.7916248
218	0x3dbdb9fd	0.0926399
219	0xbf5ae3c2	-0.8550378
220	0xbea0cb9b	-0.3140534
221	0xbfc3d0eb	-1.5298132
222	0xc01396e0	-2.3060837
223	0xbfcf46a5	-1.6193434
224	0x3e143fe6	0.144775
225	0xc008714e	-2.1319156
226	0x3ed054e6	0.40689772
227	0xc0015cdf	-2.0212934
228	0x3f14516c	0.5793674
229	0xbe700e1e	-0.23442885
230	0x4046a32c	3.1037092
231	0xbef62133	-0.48072204
232	0x3f890efe	1.07077
233	0x3fbdbd74	1.4823442
234	0xc0665ec5	-3.5995343
235	0xbf7613f1	-0.9612418
236	0xbe3e934b	-0.18610875
237	0x3fb2d595	1.397143
238	0x4034fa1c	2.8277655
239	0x3ff3069f	1.8986396
240	0x3e5d6bc0	0.21623135
241	0xbff95aa2	-1.9480784
242	0xc036001e	-2.8437572
243	0x405774cd	3.366504
244	0x400400a0	2.0625381
245	0xbf805f29	-1.002904
246	0xc003c57b	-2.0589283
247	0xbfb40836	-1.4065006
248	0x3d55f82f	0.05223864
249	0xc00c4245	-2.1915448
250	0xbfd11b93	-1.633654
251	0xbfbabd5d	-1.4589039
252	0x403d9bb6	2.9626288
253	0xbfb511c9	-1.4146053
254	0xbf2e4df5	-0.68087703
255	0xbf9511d4	-1.1646066
