prob-kge/running_experiments/without_recipriocal/delete/365/random_UMLS_DeCaL_2376066489/model.pt (torch, 25615 bytes, 2 tensors)

entity_embeddings.weight f4 [135, 32]
0.3688302 0.84247243 -0.11056495 0.81462055 1.3129472 -0.13462982 1.3909612 1.2457482
0.38928276 0.25725603 -1.0464301 1.0244169 1.7005389 -0.34533355 -1.4816092 1.2223647
-0.6659803 -1.3440046 -0.21673925 1.4301792 -0.6474537 5.689846 1.3917922 0.97236884
-1.6816376 0.0998827 -1.3033714 1.1987493 -1.658293 1.6039698 -1.0499227 -0.87298924
0.45816082 -0.55742157 1.9867487 0.48709923 -1.217505 -0.72475886 1.8902086 1.948681
-0.11023341 2.3913043 -0.3791334 0.60051817 0.39025652 -1.4062818 -1.4524976 1.1497604
-0.114366524 2.6823792 -0.3259566 1.9760407 -6.6264887 1.8357283 -4.016506 -0.70976174
-2.4097874 2.8158371 2.9462032 -1.8475429 3.144358 -0.65664434 -0.8100779 0.49560443
1.7250444 0.9366656 -1.5368681 0.39237165 0.2139196 0.8208041 1.6612895 1.093506
0.57846195 1.1512274 0.634749 -0.92447877 0.28860238 -0.69269925 -1.0436877 -0.51597685
1.7050792 -0.22413829 1.1078339 1.5143279 -3.647421 1.1705699 -1.3068968 0.011714367
2.6042497 0.38114232 -1.8386699 1.7756498 0.2633674 -1.0480794 -1.59802 0.4560087
1.1162615 -0.49545273 1.2650992 -0.36918634 0.4363712 -1.4287422 1.5532819 1.8968489
0.13336726 1.8062925 -0.3285734 -0.18967092 -0.5999673 -1.2154943 -0.92499965 0.38152122
2.58433 -1.5925215 2.0355432 -2.668636 4.3863063 -2.5455427 -0.63176733 -1.0247488
-0.09847071 1.544487 1.5977912 -0.30944696 0.6073392 1.0446802 2.2064168 -0.53396696
0.94102925 0.40293723 -1.0009896 -0.501253 0.3956212 1.3217406 2.3390336 1.1462716
-0.7748927 0.18901446 -1.3403646 0.50736845 1.2834136 -0.8405868 -1.5111316 -1.4517887
-1.6086032 1.8259021 3.1234622 -2.901523 1.3689609 0.665574 -1.01875 0.4326781
-1.2885551 -0.4283159 -1.6445323 -1.273001 -2.8651714 -1.3782172 -2.5185113 -2.3155444
1.8688767 1.0173683 0.3710084 0.13964866 0.7195641 0.54701877 1.7462175 1.7906009
1.3350499 1.0530678 0.1316265 2.6645226 1.1993881 -1.4669275 -1.3897021 0.23004825
0.62900317 0.84736353 -1.6862804 4.007499 -2.0650084 0.50624 -3.9646287 -4.109914
-0.5475349 2.8776734 0.5658072 0.24568059 -1.1746889 -1.9782121 0.9445558 1.0561975
2.1581752 0.76724744 0.7010043 0.8666443 0.16027564 0.43511742 1.3399163 0.75650126
0.6944523 1.6585605 0.09580197 0.8621906 0.081605524 -1.3965015 -0.8674888 0.021248585
1.9993587 1.4105947 -4.634315 -3.4471264 2.8681014 0.39895862 1.4635609 0.44774538
0.33620176 0.5674414 0.25939122 0.34050107 -3.3397799 1.0672162 2.2062316 -0.098030195
0.6295383 0.7085951 -0.431265 1.198482 1.4632863 0.20658079 1.1177212 1.2610165
0.67471904 0.350391 -1.1597798 0.816836 0.36161473 -0.14793256 -1.1259099 0.6350617
-0.45073745 -2.7987766 1.4156635 1.3430954 -0.8521496 4.4609957 2.0701582 1.1098403
0.7238501 -0.19570275 -0.18743236 1.7727103 -1.4733037 1.2058779 -1.5072612 -0.23409228
00000000: 50d7 bc3e 46ac 573f e06f e2bd f98a 503f
00000010: a70e a83f 66dc 09be 040b b23f ad74 9f3f
00000020: 1250 c73e 10b7 833e 6cf1 85bf 1820 833f
00000030: 42ab d93f 8fcf b0be 5fa5 bdbf 7276 9c3f
00000040: af7d 2abf 5808 acbf e5f0 5dbe 1d10 b73f
00000050: 87bf 25bf 3813 b640 3f26 b23f 2aed 783f
00000060: e73f d7bf 4d8f cc3d e0d4 a6bf 9e70 993f
00000070: f242 d4bf e24e cd3f de63 86bf 397c 5fbf
00000080: 0e94 ea3e 2eb3 0ebf c84d fe3f 1265 f93e
00000090: 34d7 9bbf cc89 39bf 5bf2 f13f 616e f93f
000000a0: 0ec2 e1bd 210b 1940 c61d c2be 8fbb 193f
000000b0: b4cf c73e 0b01 b4bf 71eb b9bf 592b 933f
000000c0: ff38 eabd 1aac 2b40 c9e3 a6be e7ee fc3f
000000d0: 320c d4c0 25f9 ea3f 3887 80c0 f2b2 35bf
000000e0: f539 1ac0 ad36 3440 988e 3c40 497c ecbf
000000f0: 293d 4940 d819 28bf 4461 4fbf ddbf fd3e
00000100: 41ce dc3f 51c9 6f3f 18b8 c4bf f0e4 c83e
00000110: bd0d 5b3e 3820 523f 22a5 d43f 01f8 8b3f
00000120: 1516 143f 6b5b 933f e97e 223f a4aa 6cbf
00000130: b1c3 933e bd54 31bf 8f97 85bf 0f17 04bf
00000140: 0940 da3f 8284 65be 80cd 8d3f 7fd5 c13f
00000150: 586f 69c0 3cd5 953f 6548 a7bf 9eed 3f3c
00000160: 07ac 2640 1625 c33e 8959 ebbf 7e48 e33f
00000170: 18d8 863e 7727 86bf eb8b ccbf f979 e93e
00000180: a8e1 8e3f fbab fdbe c5ee a13f fe05 bdbe
00000190: 0c6c df3e 06e1 b6bf f1d1 c63f f2cb f23f
000001a0: 6d91 083e 9834 e73f c63a a8be 1839 42be
000001b0: 7597 19bf 5195 9bbf c7cc 6cbf c056 c33e
000001c0: aa65 2540 bfd7 cbbf 5746 0240 efca 2ac0
000001d0: 9f5c 8c40 2cea 22c0 81bb 21bf f82a 83bf
000001e0: 03ab c9bd c0b1 c53f 6c84 cc3f d56f 9ebe
000001f0: 957a 1b3f 15b8 853f ef35 0d40 0fb2 08bf
00000200: 4be7 703f ca4d ce3e 6d20 80bf 1e52 00bf
00000210: dd8e ca3e cc2e a93f bab2 1540 07b9 923f
00000220: 5e5f 46bf 028d 413e 1191 abbf e6e2 013f
00000230: e646 a43f b230 57bf c36c c1bf 36d4 b9bf
00000240: b6e6 cdbf 29b7 e93f cee6 4740 8eb2 39c0
00000250: 1c3a af3f 0f63 2a3f 6666 82bf fc87 dd3e
00000260: 60ef a4bf 394c dbbe 0980 d2bf b2f1 a2bf
00000270: f85e 37c0 6c69 b0bf 4a2f 21c0 e131 14c0
00000280: 5a37 ef3f 2039 823f d0f4 bd3e 0f00 0f3e
00000290: 5a35 383f 6c09 0c3f 0e84 df3f 6932 e53f
000002a0: eae2 aa3f edca 863f 19c9 063e 8a87 2a40
000002b0: 8d85 993f 48c4 bbbf c2e1 b1bf c591 6b3e
000002c0: 5a06 213f d1ec 583f 09d8 d7bf 6f3d 8040
000002d0: 1929 04c0 f298 013f 7abc 7dc0 6a84 83c0
000002e0: 3f2b 0cbf cd2b 3840 bed8 103f b193 7b3e
000002f0: 355c 96bf 0e36 fdbf 69ce 713f 7b31 873f
00000300: 8b1f 0a40 546a 443f 0575 333f 67dc 5d3f
00000310: 4c1f 243e b6c7 de3e 6182 ab3f 11aa 413f
00000320: a0c7 313f b64b d43f d333 c43d 86b8 5c3f
00000330: cc20 a73d 90c0 b2bf bf13 5ebf 8311 ae3c
00000340: fcea ff3f 5e8e b43f 4f4c 94c0 b89d 5cc0
00000350: f98e 3740 4e44 cc3e f755 bb3f e23e e53e
00000360: a322 ac3e d743 113f edce 843e 2856 ae3e
00000370: f4be 55c0 8a9a 883f e632 0d40 0ec4 c8bd
00000380: 6c29 213f 7d66 353f c4ce dcbe dc67 993f
00000390: f74c bb3f ea89 533e 7d11 8f3f fd68 a13f
000003a0: 63ba 2c3f 7366 b33e aa73 94bf 2a1c 513f
000003b0: 9125 b93e a27b 17be d11d 90bf 6793 223f
000003c0: 0fc7 e6be 281f 33c0 7634 b53f 8dea ab3f
000003d0: 7a26 5abf 7ac0 8e40 797d 0440 3f0f 8e3f
000003e0: 3d4e 393f 4d66 48be 45ee 3fbe 2ce8 e23f
000003f0: 3795 bcbf 355a 9a3f efed c0bf e3b5 6fbe

relation_embeddings.weight f4 [46, 32]
-0.07873273 -0.39031598 -0.049917202 -1.4784571 -0.6418303 -0.8442361 -2.0714962 -1.687445
-1.5549488 -1.573398 -0.24142247 0.16336079 -0.838642 -1.0567098 -0.75587875 -0.188786
-2.9339254 1.1196973 -2.382608 -2.5231783 -3.219992 6.0685053 -0.8694083 5.9666696
-1.2940797 -0.1804535 -5.2006836 3.804574 -3.4426417 1.4085648 -0.7398045 5.345204
-1.2752721 0.4664462 -0.19972314 -0.001780997 -0.67326105 0.5008083 -0.3663874 -0.54246503
-0.35728008 -0.43832326 -0.112773165 -0.5198176 0.17641717 -0.9430637 -0.5664656 -0.5201354
1.4521126 1.6970216 -2.2859077 0.22655265 -2.8645978 0.6141934 -2.9866529 2.251561
0.20336239 1.6189928 -2.0656617 -0.13569272 -1.4929973 1.452445 3.955145 -1.2052312
-1.7000455 -1.6567911 -0.95084405 -2.9709637 -0.19728662 0.68647385 -0.908036 -1.0669261
-0.40824592 -0.3876884 -1.0555449 -0.17579076 -1.4339104 -1.3437762 -0.706499 -0.1094539
1.5006555 -2.340902 -3.6377568 -1.6591247 0.42001933 0.4613422 2.1223493 -0.18024853
-1.9968115 1.7476416 3.0194638 7.303057 -0.95929 -2.0620382 1.5533328 -3.7073598
-2.0745578 -1.7606446 -1.7444175 -3.143229 -0.27862722 -0.5504051 -0.78947395 -1.1038139
0.91042924 -0.69091153 0.8267583 -0.9028922 -0.60427815 0.6092636 0.20882368 -0.5042943
0.764253 3.8110764 2.5680025 2.8481748 -4.219643 -1.9484788 -1.7449604 1.7138944
3.5663042 5.3077345 1.3536053 1.5448925 0.85621077 -0.30596396 -0.7530464 -0.06788335
-1.278005 1.3488606 0.031187566 -1.4436891 -0.4704012 1.2170949 -1.1087152 -1.363021
0.64029354 -1.0154055 -1.2957464 -0.6521413 0.38020632 -0.3966959 -0.5499468 0.7336862
3.1642463 -0.5930651 -2.6344743 -0.8156919 -0.2758801 3.8173816 -4.050189 -4.00418
-3.4881783 1.7415215 -3.6801999 -1.3310248 -0.88343316 4.413739 -0.0145871695 0.11379031
0.17327577 -0.06857169 0.017323785 -0.77281433 -0.25661865 0.41379684 -2.0917654 -1.5079879
-0.24084651 -0.6241476 -0.060965806 -0.91080076 0.2678824 -0.71531457 -0.2522332 -0.20009992
5.79894 4.1902943 -0.4661021 -1.5820557 1.2649906 1.3782555 0.7622114 -0.9251237
2.3053663 -0.5148226 -4.3812776 -2.0044503 0.3493132 -1.1485432 -0.13382725 -0.2940873
-1.2372057 0.41188097 0.085033 0.15626869 -1.0173103 -0.21908452 -0.4015438 -1.395372
0.30912235 -0.73353326 -0.8573672 -0.49774203 0.19452366 -1.1911076 -1.1323593 -0.63358366
1.2661233 0.38652027 -2.749594 2.015293 3.8467271 -1.766312 -2.9559526 -3.641303
3.417573 1.1667562 -2.5646985 -1.1970104 -2.2113304 3.9729056 -0.2378657 -0.87264735
-1.0603149 0.09411821 -0.43940946 -0.4144007 -0.102786854 -0.9449449 -1.4211992 -1.6088413
-0.77574027 -2.209366 -0.650916 -0.759683 -0.48473763 -1.5886153 -1.1130563 -0.5967572
-1.2278011 -1.3781351 4.165273 -1.3585948 1.6915158 -3.6010218 -1.4169893 2.014661
1.1292324 -0.84920967 -1.7817439 -0.67125964 -0.32802603 0.8490244 -2.0822177 -1.3001628
00000000: a03e a1bd 7fd7 c7be fb75 4cbd 153e bdbf
00000010: fe4e 24bf db1f 58bf 6593 04c0 33fe d7bf
00000020: 9008 c7bf 1b65 c9bf 7437 77be 0d48 273e
00000030: 3eb1 56bf 4442 87bf 4581 41bf 1e51 41be
00000040: 6fc5 3bc0 3e52 8f3f a67c 18c0 c17b 21c0
00000050: 5914 4ec0 3231 c240 8b91 5ebf f5ee be40
00000060: 67a4 a5bf cdc8 38be 006c a6c0 247e 7340
00000070: 3e54 5cc0 da4b b43f d463 3dbf e90b ab40
00000080: 1e3c a3bf 09d2 ee3e 3984 4cbe 5870 e9ba
00000090: d65a 2cbf f934 003f 2197 bbbe fdde 0abf
000000a0: 6aed b6be e86b e0be 9ef5 e6bd c412 05bf
000000b0: b4a6 343e 9f6c 71bf e403 11bf 9827 05bf
000000c0: d3de b93f 0138 d93f 504c 12c0 6bfd 673e
000000d0: 9255 37c0 c73b 1d3f 5225 3fc0 9319 1040
000000e0: 3b3e 503e 283b cf3f cd33 04c0 08f3 0abe
000000f0: 891a bfbf b8e9 b93f 1821 7d40 0445 9abf
00000100: 179b d9bf bb11 d4bf 846a 73bf 4524 3ec0
00000110: 8105 4abe c0bc 2f3f 0c75 68bf 0991 88bf
00000120: 9c05 d1be 187f c6be 181c 87bf 7e02 34be
00000130: 608a b7bf dc00 acbf 1edd 34bf 5e29 e0bd
00000140: 7b15 c03f 57d1 15c0 02d1 68c0 335e d4bf
00000150: c60c d73e 0b35 ec3e 92d4 0740 1293 38be
00000160: 8597 ffbf b8b2 df3f e53e 4140 a5b2 e940
00000170: 0894 75bf 6ff8 03c0 9cd3 c63f 6245 6dc0
00000180: 8ec5 04c0 cd5c e1bf 1349 dfbf aa2a 49c0
00000190: 3aa8 8ebe 59e7 0cbf f71a 4abf c649 8dbf
000001a0: e411 693f 94df 30bf 6fa6 533f f123 67bf
000001b0: f9b1 1abf b3f8 1b3f e0d5 553e 6e19 01bf
000001c0: 16a6 433f ade8 7340 275a 2440 7f48 3640
000001d0: 5107 87c0 c167 f9bf dd5a dfbf e460 db3f
000001e0: 543e 6440 f6d8 a940 f042 ad3f 0abf c53f
000001f0: a130 5b3f 4fa7 9cbe a6c7 40bf 6d06 8bbd
00000200: ab95 a3bf 77a7 ac3f 117d ff3c ceca b8bf
00000210: 6dd8 f0be c4c9 9b3f 61ea 8dbf 7977 aebf
00000220: 47ea 233f cff8 81bf 05db a5bf bbf2 26bf
00000230: 67aa c23e ba1b cbbe 50c9 0cbf dcd2 3b3f
00000240: 0383 4a40 1dd3 17bf 3a9b 28c0 2fd1 50bf
00000250: 2840 8dbe fb4f 7440 269b 81c0 3e22 80c0
00000260: 503e 5fc0 2dea de3f 6588 6bc0 055f aabf
00000270: ad28 62bf 5a3d 8d40 06ff 6ebc e50a e93d
00000280: 346f 313e 506f 8cbd 9cea 8d3c 29d7 45bf
00000290: 8563 83be 2edd d33e 7cdf 05c0 bf05 c1bf
000002a0: 78a0 76be 23c8 1fbf 48b7 79bd 3d2a 69bf
000002b0: e227 893e db1e 37bf b624 81be fee6 4cbe
000002c0: eb90 b940 e416 8640 efa4 eebe cd80 cabf
000002d0: 36eb a13f ad6a b03f 4920 433f e8d4 6cbf
000002e0: 1f8b 1340 6acb 03bf 6d33 8cc0 ea48 00c0
000002f0: 2ed9 b23e 7703 93bf 030a 09be 9c92 96be
00000300: c25c 9ebf 10e2 d23e c825 ae3d e604 203e
00000310: 3937 82bf b157 60be 2697 cdbe 8d9b b2bf
00000320: 4945 9e3e d6c8 3bbf 6b7c 5bbf 0bd8 febe
00000330: 3631 473e 3776 98bf 26f1 90bf 8a32 22bf
00000340: 5410 a23f fce5 c53e 59f9 2fc0 8ffa 0040
00000350: c730 7640 8316 e2bf 542e 3dc0 1c0b 69c0
00000360: 84b9 5a40 4458 953f 0524 24c0 a337 99bf
00000370: 7086 0dc0 1644 7e40 1193 73be d165 5fbf
00000380: 66b8 87bf 0cc1 c03d 47fa e0be 542c d4be
00000390: ea81 d2bd e9e7 71bf dbe9 b5bf 83ee cdbf
000003a0: ea96 46bf 4166 0dc0 6ea2 26bf 967a 42bf
000003b0: 882f f8be bf57 cbbf a178 8ebf 14c5 18bf
000003c0: 9628 9dbf bb66 b0bf eb49 8540 6fe6 adbf
000003d0: 9783 d83f 2477 66c0 e85f b5bf 35f0 0040
000003e0: b08a 903f ce65 59bf 2f10 e4bf acd7 2bbf
000003f0: 07f3 a7be aa59 593f 0e43 05c0 bc6b a6bf
