prob-kge/running_experiments/without_recipriocal/delete/5/random_UMLS_ComplEx_2164385946/model.pt (torch, 25301 bytes, 2 tensors)

entity_embeddings.weight f4 [135, 32]
00000000: a2c1 0abf 5c9a dd3e f3a3 1e3f 2bae 853f
00000010: da4b 8bbf 847c 06c0 9aba cabe 35fb 17bf
00000020: 0dd0 543f 65b0 5b3f b7c3 87be f36d c83e
00000030: c6d4 733e c571 70bc 3478 01c0 354f c73f
00000040: 7b6c c03f 2894 41bc 275c 933f c08b 8a3f
00000050: dc98 a93f 43c0 af3f b491 d53d 5655 c63f
00000060: 632c 713d 41f0 a43e 92c9 183f c938 cc3f
00000070: 75aa 863e c39f 703f 2282 e3bd 5ef7 893e
00000080: bd8a 60be 0cdf 7f3e 5500 5d3d f80a 9c3f
00000090: 9269 d4bf b3bc 0d3f fd25 123f a1e6 0fbf
000000a0: 8c7f 7c3f 4bee 9d3f a2dd ca3e 6ba4 983f
000000b0: 1916 23c0 fdb0 babd 7005 1dc0 840e 243f
000000c0: e0fc b03f ecfb cbbe 1f14 89bf b729 87bf
000000d0: fb08 573f cc99 a13f 6829 4b3f 8b6d 573f
000000e0: 09f4 bf3f 79c5 203f a3ee 063f 4d38 9fbf
000000f0: a8f0 263f ca1a 913f 4a81 06bd e8a0 ba3e
00000100: e166 b33e 53d4 073f 7ae1 523f 1a73 8e3f
00000110: 5d9d ebbf 7e12 a6bf 0086 e13f 3a59 133f
00000120: 5e02 d83e 0d21 b03e 5782 c03e dc16 893f
00000130: abbc e9be 9325 f63e ae8e 323b ff8b bd3e
00000140: 0405 d03f 3009 de3e 5585 4c3e 96e8 8f3e
00000150: 688e 7dba d12a 3f3f c2c7 6bbf f5e4 993f
00000160: 68cf f53e 89fa b43e 8fc8 30be 0587 6e3e
00000170: 727a 493f 35f1 913f 83a9 773f a1c8 153f
00000180: 402c 093f ee38 073f cc37 ebbe 7054 b83e
00000190: 3a34 f1bf 89a0 f93c e8ec 4abf 5156 433c
000001a0: 1010 a3bf 0844 693f 3cdc d4be b06e b83f
000001b0: 85a4 17bf 3b11 723f 65ef dfbe 76a7 95bc
000001c0: 7e24 df3f b372 37be f899 af3f d2ce 83bf
000001d0: ac54 073f 1705 ccbf 323c bc3f d8c5 dc3f
000001e0: 1239 303f 5a6f 813d e65f 283f ee62 7a3d
000001f0: 5b23 563f beaa ae3f b2c0 153f 1dde 063f
00000200: a1bd 833f 4688 29bf a7c1 a43d 4254 6f3f
00000210: 34e1 b7bf 69cc cd3d 3fbd babe 0945 923e
00000220: ae5c 04bf deff 433f 31d7 b23e 2064 d93f
00000230: 5ee4 063f 9d71 ff3e 7de6 c5bf 6998 3140
00000240: 1a49 443f abc2 61be cb5f 13c0 df42 77be
00000250: 0fb0 ef3e 65e4 dd3e 86b7 74be a053 0640
00000260: 6c52 1f3f 406f 72bf 08cc f73e 63d4 8abb
00000270: d36c 6cbd ab15 b73f 56f6 203e 5f09 7a3f
00000280: 4574 a13f 6690 8bbe 0c27 7c3f 0f0f 4c3f
00000290: f36f 0fc0 69c9 8bbd 8a4e b7bc 6d62 22be
000002a0: 34f9 36be 204d 623f 8ffd cd3e 0d57 853f
000002b0: b973 bdbe 379c 0c3f e0f3 8dbe 7a3c 763f
000002c0: dde8 a03f 7796 25bf cbbb 0c3f 01d8 ebbb
000002d0: 51ca 6c3f a41b 613f 4694 11bf ca8c 343f
000002e0: cb5a e0bf 15bd 52bf 62bc 143f 187d 11bf
000002f0: fdfd 103f d195 b93f 206b ac3e 7ef3 3fbf
00000300: e4d7 a93f f2df 1e40 19b3 5f3f 62bb 473f
00000310: e9e3 02c0 10d8 803e 3676 a9bf db46 873f
00000320: a1a1 fcbe 231a e23f f5ec 0040 8cd0 193f
00000330: 9383 9c3e 1f1b f8bc c445 6bbf 7362 0a3f
00000340: 07e7 c93f 639e 74be a0a3 8f3f 75e3 f2be
00000350: 2a1c 6abd 1e41 3abf b1b8 a53f 6d38 de3f
00000360: 082a 3abf 2543 19bf 1781 303d 3326 013f
00000370: 7df0 803f 87b9 8f3f 02f9 e1bc d4c7 8f3d
00000380: 3aac 4ebe f375 83be f64c 933e 9cb2 983f
00000390: 18cd 69bf 21e3 efbf 7f52 8bbe 0cdb e2be
000003a0: 26db 8d3f 6cec 733f d05e d9be 19f5 9c3e
000003b0: 5c85 e2be 669d b63e cbf7 0ac0 a9f7 a63f
000003c0: b18c 963f 9693 3ebf 4508 993f 1894 9a3f
000003d0: 86f7 823f e528 aa3f cee7 d8bd b6f7 893f
000003e0: 0826 dcbe 6cf2 223f 74de 393f b1c9 bd3f
000003f0: e56f 0c3e 0087 a93f 886a 8a3c 2d9a 31be
-0.5420171 0.4328183 0.61968917 1.0443777 -1.0882523 -2.1013498 -0.3959549 -0.59367687
0.8312996 0.8581603 -0.26516506 0.39146385 0.23811635 -0.014675562 -2.0229616 1.5571047
1.5033106 -0.011815108 1.1512498 1.0823898 1.3249774 1.3730549 0.10428181 1.5494792
0.05888022 0.3221455 0.5968257 1.595483 0.26301923 0.9399378 -0.11108805 0.2694654
-0.21927924 0.2498743 0.053955395 1.2190847 -1.6594718 0.5536606 0.57089216 -0.56211287
0.9863212 1.2338346 0.39622217 1.1925176 -2.5482237 -0.09115789 -2.4534569 0.6408465
1.3827171 -0.3984064 -1.0709265 -1.0559605 0.8399808 1.262506 0.79360056 0.84151524
1.4996349 0.6280132 0.5270788 -1.2439057 0.6521096 1.13363 -0.032838143 0.36450887
0.35039428 0.53058356 0.823753 1.1128876 -1.8407398 -1.2974393 1.7619019 0.57558024
0.42189306 0.34400216 0.3759944 1.0710101 -0.45651755 0.48075542 0.0027245688 0.3702087
1.6251531 0.43366385 0.19972737 0.28107136 -0.0009672404 0.7467471 -0.9210168 1.2022997
0.480098 0.35347393 -0.17264007 0.23293693 0.7870246 1.1401736 0.9674303 0.5850926
0.53583145 0.5282124 -0.45941007 0.3600192 -1.8844063 0.030472057 -0.7926774 0.011922435
-1.2739277 0.9111943 -0.41574275 1.4408779 -0.5923541 0.9455754 -0.4373733 -0.018268328
1.7433012 -0.17914848 1.3718863 -1.0297492 0.52863574 -1.5939053 1.470587 1.7247877
0.6883708 0.06320067 0.6577133 0.061129503 0.836477 1.3645856 0.58497155 0.5268267
1.0292245 -0.6622356 0.08044749 0.9348794 -1.4365602 0.10048754 -0.36472508 0.28568295
-0.5170392 0.765623 0.34929803 1.6983681 0.5269221 0.49891368 -1.5460964 2.7749274
0.76674044 -0.22046916 -2.3027217 -0.24146603 0.4681401 0.43338314 -0.23898134 2.098854
0.6223514 -0.94701004 0.4839785 -0.0042367443 -0.05772097 1.4303488 0.1571897 0.9767055
1.2613608 -0.27258605 0.9849708 0.7971048 -2.2412078 -0.06825525 -0.022376318 -0.15857859
-0.17868501 0.88398933 0.40232512 1.0417191 -0.37002352 0.54925865 -0.27725124 0.9618603
1.2571064 -0.64682716 0.5497405 -0.0071973805 0.9249621 0.879328 -0.5686687 0.7052733
-1.7527708 -0.82319766 0.5809995 -0.568315 0.56637555 1.4498845 0.3367548 -0.74980915
1.326901 2.4824185 0.87382656 0.780203 -2.0451605 0.25164843 -1.32392 1.0568498
-0.49342063 1.7664226 2.0144627 0.6008384 0.30569133 -0.03028637 -0.9190333 0.5405647
1.5773629 -0.23888545 1.1221809 -0.4743916 -0.057155766 -0.7275561 1.2946988 1.736097
-0.72720385 -0.5986808 0.04309186 0.5044891 1.0073391 1.1228493 -0.027584556 0.07020536
-0.20182887 -0.25675926 0.28769654 1.1929507 -0.91328573 -1.8741189 -0.27211377 -0.44307745
1.1082504 0.95282626 -0.4245515 0.30655745 -0.4424237 0.3566696 -2.171374 1.304433
1.1761686 -0.7444395 1.1955649 1.2076445 1.0231788 1.329373 -0.10591088 1.077872
-0.42997766 0.63651156 0.7260506 1.4827176 0.1371456 1.3244324 0.016896501 -0.1734397

relation_embeddings.weight f4 [46, 32]
00000000: a959 cdbd 5194 ef3c 3a68 3abf f884 8fbf
00000010: 6769 33bf d070 1bbe af42 3b3f 0111 4bbf
00000020: 69ad 703f 2b23 6abf a682 77bf 6ae1 7d3f
00000030: e44f fa3f 1173 8cbf f175 91be 7e3d e5bf
00000040: f2f8 c5bf e19c 2dbf 3331 013d 9fb6 3fc0
00000050: b134 733e 1ca2 7f3f 888d 65be 5aa3 e23d
00000060: dcc9 13c0 c4fe 02c0 0699 b7bf 3ed1 2dc0
00000070: b066 a83f 37ab 1340 eaae 373e 9ffa 0dc0
00000080: 99cf 5b3e 90db 563e 1333 e23e 8eb6 81bf
00000090: b6db 8dbf 6f5d d9be 45b7 a03f 8199 adbe
000000a0: e74e 11bf d667 b8bf bc01 0e3f 1c99 a2bd
000000b0: 2b95 843e abd8 13bf 7cd2 003f 7a15 6abf
000000c0: 7152 6cbf bc12 683e 4837 bcbe da4f b73e
000000d0: 6d1d 6cbf d7a1 893f 3e91 12bf 77d9 fcbd
000000e0: dbf2 9dbe 5e2d 9ebf ee64 1dbf b186 9a3f
000000f0: a0b0 933e c519 6cbf 7e62 30bf e3e4 a33f
00000100: 7ff5 22bf f806 b9bf d5c5 083f b8da 03bf
00000110: 890d f8be b4b1 dd3f a327 f4bf 61c6 58bf
00000120: 5462 823f 2486 533f 611d 40c0 1774 01be
00000130: f894 00bf 2d13 b9bf cc8b 24bf 36d6 acbf
00000140: 2872 f6bf 2096 c33d 1614 63c0 52da 773f
00000150: b64b ed3e c1e6 19c0 565e f2bd 5c48 b03f
00000160: 65eb a03f 873f eabf 7768 2abf 202a d93e
00000170: ac41 ccbe b2af 3240 8739 283f 506e c8bf
00000180: cf0a e0bf daf1 593e 5bc8 1a3f da6c d53d
00000190: 6934 503f 459f 15bf f616 fdbe 829f 953e
000001a0: 7585 383f 18e6 763e c70a babf a286 febe
000001b0: de80 aebf 1608 61bf c34f 8bbc 4ab2 acbf
000001c0: 7a58 28c0 1a2c 3340 1a5a 7bc0 2cb5 f4bd
000001d0: 6772 533f 644f b7be f121 a240 412c 6040
000001e0: bfbb 3640 8de7 a4bf 9ea5 37bf 7aed 3b3f
000001f0: fe64 b63f 3485 c7be f695 033e ce12 813f
00000200: a833 28bf ef3e 503f 685b 0fbf 0a1a fabe
00000210: 7457 4dbf 2bdc 913f 95f6 873f a862 02bf
00000220: 677b 9dbe 51ea 0bbe 2f53 0f3f 9472 99bf
00000230: d155 ec3e dd21 94bf 62bd 8bbf 072e 7dbe
00000240: 693b e13c 402c 633e 1261 2f3f 4491 c83e
00000250: 5db9 27bf 8aef b3bf 1351 33bf cee8 3440
00000260: 8829 f13e 7306 a73f 928e ffbd 3258 e03f
00000270: c22e 23be 7bc8 e0be 199a 95bf 22af 90bd
00000280: f0f1 16bf 71a5 44bf f1df 81be 8f80 803e
00000290: 40aa bebf 9f30 13bf 33c9 eabe bc8f d6bf
000002a0: 4a83 2440 560b 6e3b 570d 443f 6287 ee3e
000002b0: 2ae0 073c c19e 43bf 1f2e 64c0 269c fdbe
000002c0: dc02 54bf b2f6 7240 0007 be3e edff 3dbe
000002d0: d4d0 98bf 5e66 24bf 1ac9 5a3d 2b6d 873f
000002e0: ebd2 383f 127a 99bf 0f55 b53e e885 b73f
000002f0: bb39 e93e 1e4d 913f ec49 82bf 5613 7bbf
00000300: c774 35be 4339 83bf 076e dbbe 579e 53bf
00000310: 96ba f0bf 0381 82be 6094 d5be ce5c 083e
00000320: bf58 a2be f188 fdbe bda6 13bf 38c4 7abf
00000330: 0b98 dc3e 2ce6 90bf 37a8 2bbf 071e d1be
00000340: ae66 8e3f 7249 ef3e db1c b43e b6eb f33e
00000350: 4da4 efbf 4ac7 963e 2ef9 fa3e 6286 353f
00000360: a3ed 033e 1018 c63f 759d 2abf aabf d03f
00000370: ed9a 79bf ca88 b03e 5296 513c 11e0 e63e
00000380: 98c9 f7bf 55ce 1cbf fb54 923e 8e25 be3f
00000390: 7e00 84bf ee3c 9c3f 5ee9 7d3f 6fa5 b4bf
000003a0: ac45 02bf e4bf fd3f c655 24be c719 6f3f
000003b0: 424a 87bd 84b1 f3bf 3713 08bf 10e0 4ebe
000003c0: ead4 653e 3e4b 1b3f 96fb f2bf 35cd 07bc
000003d0: e312 dcbf 8435 203f 709f 3dbf 8e35 0440
000003e0: 26d5 edbe 5e81 963e 8eaa 5b3c 9dc5 df3f
000003f0: 5979 963e e7c2 24bd 0d85 2a3f d204 153e
-0.10026867 0.029245527 -0.7281529 -1.1212454 -0.70082706 -0.15179753 0.73148626 -0.7932282
0.940146 -0.9145991 -0.9668373 0.9917208 1.9555631 -1.0972615 -0.28410295 -1.7909391
-1.5466597 -0.67817503 0.03154106 -2.9955213 0.23750569 0.99856734 -0.22417271 0.11066313
-2.3091955 -2.0467997 -1.4343574 -2.7158961 1.3156338 2.3073251 0.17937818 -2.2184217
0.21465911 0.20982194 0.44179592 -1.0133836 -1.1082675 -0.42454097 1.255593 -0.33906177
-0.5676102 -1.4406688 0.55471396 -0.079393595 0.25895056 -0.57752484 0.50321174 -0.9143902
-0.92313296 0.22663397 -0.36760926 0.3580311 -0.922324 1.0752515 -0.5725287 -0.123461656
-0.30849347 -1.2357595 -0.6148213 1.2072355 0.28845692 -0.9222682 -0.6890029 1.2804226
-0.6365585 -1.4455252 0.5342687 -0.51505613 -0.48447827 1.7319856 -1.9074596 -0.846777
1.0186257 0.8262656 -3.0017931 -0.12641941 -0.5022731 -1.4458977 -0.64275813 -1.3502872
-1.9253588 0.095501184 -3.548101 0.96817505 0.46346825 -2.404709 -0.118343994 1.3772082
1.2571837 -1.8300637 -0.6656565 0.4241495 -0.39893854 2.7919736 0.6571278 -1.5658665
-1.7503299 0.21283665 0.6046197 0.104211524 0.8132997 -0.5844615 -0.4943158 0.29223257
0.7207864 0.24111211 -1.4534539 -0.49712092 -1.3633077 -0.87902963 -0.017005807 -1.349191
-2.6304002 2.7995667 -3.9273744 -0.11948618 0.8259644 -0.35802758 5.066643 3.502701
2.855209 -1.2883164 -0.71737087 0.73409235 1.424957 -0.38968813 0.12850174 1.0083864
-0.6570382 0.8134603 -0.5599885 -0.4884799 -0.8021157 1.1395315 1.0622126 -0.5093179
-0.3075821 -0.13663603 0.55986303 -1.1988091 0.46159223 -1.1572834 -1.091717 -0.2472459
0.02749415 0.22184849 0.6850749 0.3917333 -0.65517217 -1.4057477 -0.70045584 2.8267093
0.47101998 1.3048843 -0.12478365 1.7526915 -0.15935805 -0.43902954 -1.1687652 -0.07064654
-0.5896292 -0.76814944 -0.25366166 0.25098082 -1.4895706 -0.57496065 -0.45856628 -1.6762614
2.5705132 0.0036322675 0.76582855 0.46587664 0.008293191 -0.76414114 -3.565315 -0.49533194
-0.82816863 3.796307 0.37114716 -0.18554659 -1.1938729 -0.642187 0.05341444 1.058019
0.72196835 -1.1990378 0.35416457 1.433774 0.45551857 1.1351659 -1.0178809 -0.9807638
-0.17720328 -1.025185 -0.42857382 -0.8266348 -1.8806942 -0.25489053 -0.41714764 0.13316652
-0.31708333 -0.4951854 -0.576763 -0.97955656 0.4308475 -1.1320243 -0.6705355 -0.40843222
1.1125085 0.46735722 0.35178265 0.4764077 -1.8722016 0.2944892 0.49018234 0.70908177
0.1288362 1.5476093 -0.6664651 1.6308491 -0.97502023 0.34479362 0.012792187 0.45092824
-1.9358397 -0.6125234 0.2858046 1.4855211 -1.031265 1.2206094 0.99184215 -1.4112986
-0.5088756 1.9824185 -0.16048345 0.9339871 -0.066059604 -1.9038548 -0.5315432 -0.2020266
0.22444502 0.60661685 -1.8983028 -0.008288671 -1.7193264 0.6258166 -0.7407141 2.0657687
-0.46451682 0.29395574 0.013407363 1.7482182 0.29389456 -0.040224936 0.6660927 0.1455262
