prob-kge/running_experiments/without_recipriocal/delete/208/random_UMLS_QMult_636282949/model.pt (torch, 25301 bytes, 2 tensors)

entity_embeddings.weight f4 [135, 32]
0	0x3cc78558	0.024355575
1	0xbf45f62d	-0.7732876
2	0x4002bcfe	2.0427852
3	0xbdf746aa	-0.12074025
4	0xbf599d31	-0.8500548
5	0xbf826df4	-1.0189805
6	0x3f21e8f9	0.63246113
7	0x3e61db22	0.22056249
8	0x3fede3d5	1.8585154
9	0xbf26f826	-0.65222394
10	0xbc8d5844	-0.017254002
11	0x3fabd002	1.3422854
12	0x3ec9fad7	0.39449188
13	0x3e841b3e	0.25802034
14	0x3ee8cc6f	0.4546847
15	0x3e8d988e	0.27655452
16	0x3f78a9a0	0.9713383
17	0x3ec2dac2	0.38057524
18	0xbf8e3c66	-1.1112182
19	0x3f47d67f	0.7806167
20	0xbf151d4d	-0.58247834
21	0xbf30d11a	-0.69069064
22	0x401235bf	2.2845304
23	0x3f384910	0.71986485
24	0x3ee5093c	0.44733608
25	0xbdc09a6a	-0.09404452
26	0xbe988629	-0.29789856
27	0x3f9f221e	1.2432287
28	0xbf89e17a	-1.0771935
29	0xbed8a429	-0.42312744
30	0x3e479a7c	0.19492525
31	0xbdfbfd65	-0.123041905
32	0x3fcfdf7c	1.6240077
33	0x3e12c594	0.14333183
34	0x3e0c64b6	0.13710293
35	0x3fdd6e3c	1.7299266
36	0xbe1cdd3e	-0.15318772
37	0xc003c1f2	-2.0587125
38	0xbdc8868a	-0.09791286
39	0x3e012093	0.12610082
40	0x3fa30c15	1.2738062
41	0xbedc5f15	-0.43041292
42	0x3e2574d9	0.16157855
43	0x3f9ba16d	1.2158638
44	0xbe1ef1db	-0.15521948
45	0xbfc6fb31	-1.5545408
46	0x3f2ecf5d	0.6828516
47	0xbeb796ab	-0.35857138
48	0x3e5855ad	0.21126433
49	0x3fe0a505	1.755036
50	0x3ea37052	0.3192163
51	0xbe68da42	-0.22739509
52	0xc0122d22	-2.2840047
53	0xbff1f403	-1.8902591
54	0x3fe8f63b	1.8200144
55	0x3ebe872d	0.37212506
56	0xbf3b2c38	-0.7311435
57	0xbff4b130	-1.9116573
58	0x3fe30d9a	1.7738526
59	0x3fd1e44e	1.6397798
60	0x3e165e7c	0.1468448
61	0xc04cc617	-3.1995904
62	0x3f702d20	0.93818855
63	0xbf84445f	-1.0333365
64	0x400c3bd6	2.191152
65	0xbff6d618	-1.9284086
66	0xbf520772	-0.8204261
67	0xbfc4b7bb	-1.536857
68	0xbf0474bf	-0.5174064
69	0xbf9c0294	-1.2188287
70	0xbf2d7c8a	-0.67768157
71	0xbeaa6711	-0.33281758
72	0x3fee2d93	1.8607658
73	0xbe7efbc1	-0.24900724
74	0x3f591e37	0.8481173
75	0x3fc96723	1.57346
76	0x3f1124c0	0.566967
77	0xbffb1d41	-1.9618303
78	0x3e97a180	0.29615402
79	0x3fdd33ae	1.7281396
80	0x3f45cfaa	0.77269995
81	0x3f867283	1.0503696
82	0x3fc0a7bb	1.5051187
83	0x3f28517a	0.65749323
84	0x3c863523	0.01638276
85	0xbf878c90	-1.0589771
86	0x4005b81d	2.0893624
87	0xbf755844	-0.9583781
88	0x3ea156fd	0.3151168
89	0x3de517f5	0.1118621
90	0xbe87f93f	-0.26557347
91	0x3fc2e5f4	1.5226426
92	0x3f6f1aa2	0.93400013
93	0xbfd4dba1	-1.6629525
94	0x3f8efc1d	1.1170689
95	0xbe122429	-0.14271607
96	0x3f3c1a33	0.73477477
97	0xbeb579d1	-0.354445
98	0x3ece02ad	0.40236416
99	0xbda0152e	-0.0781654
100	0xbea2c77e	-0.31792825
101	0xbfb2d1df	-1.3970298
102	0xbf9a898b	-1.2073225
103	0xbfa2124a	-1.2661831
104	0x400f2497	2.2366083
105	0xbee6cfb1	-0.4508033
106	0x3ff2e7e9	1.8977023
107	0xbefd5b7a	-0.49483854
108	0x3e68889a	0.2270836
109	0xbf0a13a5	-0.53936225
110	0x3fa4ffe7	1.2890595
111	0x3f1d1024	0.61352754
112	0xbe876dc7	-0.2645094
113	0x3f9ffae1	1.2498437
114	0xbea07caf	-0.31345126
115	0xbf1d49d1	-0.6144076
116	0xbfa06bc4	-1.2532887
117	0xbf81a3b4	-1.0128083
118	0x4016302b	2.34669
119	0xbd3cb884	-0.046074405
120	0x3e6dc511	0.23219706
121	0x3a195554	0.00058492017
122	0x3f7396f0	0.9515219
123	0xbf007fb8	-0.50194883
124	0x3f3cad76	0.7370218
125	0xbef5a623	-0.47978315
126	0x3f615e19	0.88034207
127	0xbef873d0	-0.48525858
128	0x3f54c48a	0.83112395
129	0xbf8190e0	-1.0122337
130	0xbf6b8842	-0.9200479
131	0xbf481c9a	-0.7816864
132	0xbe428701	-0.18996812
133	0xbfb5b8ad	-1.4196984
134	0xbf93f447	-1.1558923
135	0x3f750ea1	0.95725447
136	0x400a6f82	2.163056
137	0xbf9f5140	-1.244667
138	0xbfd4c93b	-1.6623911
139	0x3f8a8113	1.082064
140	0xbf551959	-0.832418
141	0xbea05459	-0.31314352
142	0x3e3d3761	0.18478157
143	0x3f649b89	0.8929983
144	0x3f62d3c6	0.8860439
145	0x3f83a2b0	1.0284023
146	0x3f6c846e	0.9238957
147	0xbefd5178	-0.49476218
148	0xbfd57fcc	-1.6679626
149	0xbf53bd75	-0.82710963
150	0x3fd67108	1.6753244
151	0x3fb17c3c	1.3866038
152	0x3d518a74	0.05115743
153	0x3fbaf070	1.4604626
154	0x3ebc96fc	0.36833942
155	0x3f7b419b	0.9814698
156	0x3f935e19	1.1513091
157	0xbf981ff6	-1.1884754
158	0x3fb1a6ec	1.3879066
159	0x3f7fb878	0.9989085
160	0x4008bb61	2.1364367
161	0xbf701155	-0.93776447
162	0xbf022d81	-0.50850683
163	0xbf5a0cec	-0.8517597
164	0x3edc588e	0.43036312
165	0xbfc42bf1	-1.532591
166	0xbefd76fe	-0.49504846
167	0x3ce2e1ee	0.027695622
168	0x3feb9b39	1.8406745
169	0xbed4b923	-0.41547498
170	0x3f16c8e6	0.58900297
171	0xbeea2a10	-0.45735216
172	0x3ff2c265	1.8965575
173	0x3a0ead00	0.0005442649
174	0x3fda3686	1.7047889
175	0x3d004170	0.031312406
176	0x3fbb055c	1.461101
177	0x3f2e4fff	0.68090814
178	0x3f5a2a2d	0.85220605
179	0x3f9a6f91	1.2065297
180	0xbf1d0526	-0.6133598
181	0xbf4a5390	-0.79033756
182	0x3fe9d0e0	1.8266869
183	0x3eefaf49	0.4681342
184	0xbf986233	-1.1904968
185	0x3e8727a8	0.26397443
186	0xbeb5c488	-0.35501504
187	0x3f80ccbf	1.0062484
188	0x400dbd26	2.2146697
189	0xbff41b39	-1.9070808
190	0x3fc42f98	1.5327024
191	0xbe7d0da0	-0.24712229
192	0x3f44061b	0.76571816
193	0xbf35828c	-0.70902324
194	0xbf3fedff	-0.7497253
195	0xbf0a9b07	-0.541428
196	0xbf952add	-1.1653706
197	0xbfccf944	-1.601357
198	0xbfba68d3	-1.456324
199	0xbefc6ff4	-0.49304163
200	0x3fc0f3f5	1.507445
201	0x3db010c1	0.085969456
202	0x3fb7cfcc	1.436029
203	0xbef2d68d	-0.47429314
204	0xbf21bba4	-0.6317694
205	0xbf8182a5	-1.0117995
206	0x3f5c5647	0.8606915
207	0x3ea4287e	0.32062143
208	0x3e38a16a	0.18030325
209	0x3f923fb5	1.1425692
210	0xbfb22112	-1.3916342
211	0xbf07601e	-0.5288104
212	0xbf501237	-0.81277794
213	0xbf517373	-0.81816787
214	0x3fef0749	1.8674098
215	0x3e058dc5	0.13042362
216	0x3e8b98a3	0.2726489
217	0xbf00d254	-0.50320935
218	0x3fa3f2a5	1.2808424
219	0xbeeb97e5	-0.46014324
220	0xbd479ffd	-0.04873656
221	0xbf9d0b5f	-1.2269095
222	0x3f842deb	1.0326513
223	0x3fb59ffc	1.4189448
224	0x3ec2c37c	0.38039768
225	0xbf9dd28e	-1.2329881
226	0x4002bcf2	2.0427823
227	0xbd967264	-0.07346037
228	0xbf54e1f4	-0.8315728
229	0xbf37e368	-0.7183137
230	0x3f8bf405	1.0933844
231	0x3d275932	0.040856548
232	0x3fe13749	1.7594997
233	0xbe124e58	-0.14287698
234	0xbd7154b9	-0.05891869
235	0x3fa0e505	1.2569891
236	0xbe49fa05	-0.19724281
237	0xbeb1877d	-0.34673682
238	0x3f0c77d5	0.5487035
239	0x3e48477d	0.1955852
240	0x3f19af3f	0.6003303
241	0x3c14e362	0.009087415
242	0xbf57d18d	-0.84304124
243	0x3f8bd0b8	1.0923071
244	0xbf678138	-0.9043155
245	0xbf9764a6	-1.182759
246	0x3ffcd4eb	1.9752477
247	0x3f05818b	0.5215079
248	0x3dd8f0e0	0.10592818
249	0xbea424fb	-0.32059464
250	0xbf24de0f	-0.64401335
251	0x3f5a6dc2	0.8532373
252	0xbf522705	-0.8209079
253	0xbecc7b05	-0.39937606
254	0x3ee3ec68	0.445163
255	0xbedd2ca1	-0.43198112

relation_embeddings.weight f4 [46, 32]
0	0xc00dd8fb	-2.2163684
1	0xbca18fd5	-0.019721905
2	0xbf830126	-1.0234725
3	0x405caa90	3.4479103
4	0xc06ba568	-3.6819706
5	0x3f7e98c9	0.9945188
6	0xc00e758d	-2.2259247
7	0xbede46d4	-0.43413413
8	0x403d70d6	2.960012
9	0x3fa259f2	1.2683699
10	0xbf1d3d1a	-0.6142136
11	0xbd1a0827	-0.03760543
12	0xbf3a174f	-0.72691816
13	0xbee07f8b	-0.43847308
14	0xc02e2b30	-2.721386
15	0x3f84621a	1.0342438
16	0x3f556e71	0.83371645
17	0x4073e360	3.8107529
18	0x3f5b8538	0.8575015
19	0xbf84c414	-1.0372338
20	0xbfe40684	-1.7814488
21	0x3ff1243e	1.8839185
22	0xbfb7d19b	-1.4360842
23	0xbe9e7f35	-0.30956426
24	0xbf2d565f	-0.67709917
25	0xc02b883c	-2.68019
26	0xbe34bc83	-0.17650037
27	0xc00b0a0b	-2.172488
28	0xbefbdcd5	-0.4919192
29	0xbfffbe37	-1.9979924
30	0x3f8ce981	1.100876
31	0x3efb31f6	0.49061555
32	0xbf8c0704	-1.0939641
33	0xc040d8f3	-3.0132415
34	0x4030886c	2.7583265
35	0xbed3e4a8	-0.41385388
36	0xbef1ffeb	-0.47265562
37	0xc066116f	-3.594814
38	0xbfb3196b	-1.3992132
39	0x400200b3	2.0312927
40	0x3eca4023	0.39502057
41	0xbfd8e476	-1.6944721
42	0x404dfe6c	3.2186537
43	0xbebe06c0	-0.37114525
44	0x40872551	4.223305
45	0xbf8f209b	-1.1181825
46	0xbefc2ca6	-0.49252814
47	0xc0598ecb	-3.3993404
48	0x3fa30543	1.2735981
49	0xc006a02f	-2.1035268
50	0x403241c6	2.7852645
51	0x3fcd1383	1.602158
52	0xc023e36e	-2.5607562
53	0x408a25d4	4.3171177
54	0x3f3fd7ef	0.74938864
55	0x407076c7	3.7572496
56	0x40115b35	2.2711918
57	0x3f3ebef3	0.74510115
58	0xbf90b22c	-1.1304374
59	0xc03e3af6	-2.9723487
60	0x3e868c2f	0.26278827
61	0x40244ba6	2.5671172
62	0xbf80aa96	-1.0052059
63	0x3feca34f	1.8487338
64	0xbfef6031	-1.870123
65	0xc00422dd	-2.064628
66	0x3fad1122	1.3520854
67	0xbfd18534	-1.6368775
68	0xbf65cb74	-0.8976357
69	0xc0459878	-3.087431
70	0xbf9c0849	-1.2190028
71	0xc009c857	-2.1528528
72	0x3f18d1d8	0.59695196
73	0xc0a166ea	-5.0438128
74	0x3ff16989	1.8860332
75	0x4016fd19	2.3591979
76	0x3defec45	0.11714987
77	0xbfc9cf3b	-1.5766367
78	0xbdaa42f7	-0.08313554
79	0x3f95c036	1.1699283
80	0xc05b4689	-3.4261801
81	0x3fd8bec2	1.6933215
82	0xbf6a4098	-0.9150481
83	0xbfc9bd87	-1.5760964
84	0xbf544692	-0.8292018
85	0x3fa0aa00	1.255188
86	0x3ff1c8e1	1.8889428
87	0x4069b105	3.6514294
88	0xbfafdc34	-1.3739076
89	0xbf789d53	-0.9711506
90	0xbfcb0cb5	-1.5863253
91	0x405030b4	3.2529726
92	0x3d8c6484	0.06855109
93	0x404c5340	3.1925812
94	0xbe1ed99e	-0.15512702
95	0xbf6eae1b	-0.93234414
96	0x3e1c935a	0.15290585
97	0xbef2f17f	-0.47449872
98	0x40a52278	5.1604576
99	0x3f927229	1.1441089
100	0x3f6b5752	0.91930115
101	0xc051f19c	-3.2803717
102	0xbef28b9d	-0.4737214
103	0xc04c0dc9	-3.1883414
104	0xbe60fa37	-0.2197045
105	0xc0b5e298	-5.6839104
106	0xbf826a7c	-1.0188746
107	0x3f27a661	0.6548825
108	0xc0289113	-2.6338546
109	0xc034819d	-2.820411
110	0x3e12c5ca	0.14333263
111	0x3fe1170b	1.7585157
112	0xbd39bfff	-0.045349117
113	0x3ddec7c3	0.10877945
114	0x406a7c73	3.6638458
115	0xbfc2e181	-1.5225068
116	0xbfbb8c62	-1.4652216
117	0x3f73146b	0.9495303
118	0x3f17b749	0.59264046
119	0x409226d9	4.567242
120	0x4017ec14	2.373784
121	0x40304c8a	2.7546716
122	0x3f9a65db	1.2062334
123	0x3f9ba8fe	1.2160947
124	0x401c1bac	2.439189
125	0x401d8a7f	2.4615781
126	0x3ea16770	0.3152423
127	0x3e9a8927	0.30182764
128	0xbfa86465	-1.3155638
129	0xc06a531f	-3.6613233
130	0x3f90adcd	1.130304
131	0x3fd72fd6	1.6811473
132	0x3d9e2399	0.077216335
133	0xbfd32c73	-1.649794
134	0xc00d946b	-2.2121837
135	0xbfccdb0b	-1.6004347
136	0xbf99e71e	-1.2023656
137	0xbedaadbe	-0.4271068
138	0xbf43c6fc	-0.764755
139	0xc07b9bd9	-3.9313872
140	0x3f920068	1.1406374
141	0xc0598ba0	-3.399147
142	0x3f876a46	1.0579307
143	0xc002ca48	-2.0435963
144	0x3f0f798c	0.5604484
145	0x405b0c8a	3.4226403
146	0xbfa81dfc	-1.313415
147	0x3fa0f0be	1.2573469
148	0xbe5ccca1	-0.21562435
149	0xbf9ceb91	-1.2259389
150	0xc00e3769	-2.222132
151	0x3e94432a	0.28957492
152	0x40223d2c	2.5349836
153	0x400db9c7	2.214464
154	0xbfc096bb	-1.5045999
155	0x3f32f9a9	0.699122
156	0x3f9719d7	1.1804761
157	0x3fc80b88	1.5628519
158	0xbfa2c61d	-1.2716709
159	0x3fd6770c	1.675508
160	0xbf96a7ae	-1.1769922
161	0xbf2ed174	-0.6828835
162	0x4027ed54	2.6238604
163	0xbfc39893	-1.5280937
164	0x3f594665	0.8487304
165	0xc03ae4b2	-2.9202085
166	0xbfa3c8dc	-1.2795672
167	0xbe652e4d	-0.22380944
168	0xc03a18f5	-2.9077733
169	0xbf1bf858	-0.6092582
170	0xbf60f7c2	-0.8787805
171	0x3fac6455	1.3468119
172	0xbfc4d5c0	-1.5377731
173	0xbfb926e4	-1.4464993
174	0xc0327f00	-2.7890015
175	0xbf0f31f8	-0.5593562
176	0x3f6b8ee5	0.92014915
177	0xc04e1a0d	-3.22034
178	0x4080c6a9	4.0242505
179	0xc0093bf7	-2.144285
180	0x3f867b88	1.0506449
181	0xc04c7337	-3.1945322
182	0x3ef4abc0	0.47787285
183	0xbecf5b21	-0.40499213
184	0x3f841afc	1.0320735
185	0xc041e074	-3.0293245
186	0xc0200e87	-2.5008867
187	0xbec41043	-0.38293657
188	0x40595684	3.3959055
189	0x407159df	3.7711103
190	0x3e224edf	0.158504
191	0xbf76efbd	-0.9645956
192	0xbffefa72	-1.992018
193	0xc055b4ae	-3.3391528
194	0xbeeaef29	-0.4588559
195	0x3f4705fe	0.7774352
196	0xbef612b8	-0.48061156
197	0xbfe9d52c	-1.826818
198	0xbfef114e	-1.8677156
199	0x3f15e884	0.58557916
200	0x3f454674	0.7706063
201	0xc0201450	-2.5012398
202	0x3d0c2138	0.034211367
203	0xbf94b61b	-1.1618074
204	0xbfd173f7	-1.6363515
205	0xbffdb729	-1.9821521
206	0x3ff3f657	1.9059552
207	0x3f968c11	1.1761495
208	0x400b5700	2.177185
209	0x4013bfe8	2.308588
210	0xbf8e39c8	-1.1111383
211	0xbf31b804	-0.6942141
212	0xbf66d80a	-0.901734
213	0xbe186ad6	-0.14884505
214	0xbff3e009	-1.9052745
215	0x3ed471e0	0.4149313
216	0x3fcf56ef	1.6198405
217	0xbf28d0ec	-0.6594379
218	0xc006f846	-2.1089034
219	0x3f6d9d0e	0.9281777
220	0x4010c206	2.2618423
221	0x3f38b079	0.72144276
222	0xbf23f067	-0.640387
223	0xc0010c88	-2.0163898
224	0xbf3e191b	-0.7425706
225	0xc0943bad	-4.6322846
226	0x403edfb8	2.9824047
227	0xc038cfda	-2.8876863
228	0x3f8674a6	1.0504348
229	0xc020370b	-2.5033596
230	0xc011e82e	-2.2797961
231	0x3f69b01f	0.91284364
232	0x3ee0bc0d	0.4389347
233	0x3fe6af8d	1.8022324
234	0xbe12dd20	-0.14342165
235	0xc0833173	-4.0997863
236	0xc05152a1	-3.2706683
237	0xc01aa41a	-2.416266
238	0x3e7a15c0	0.2442236
239	0x3ff081a4	1.8789563
240	0x407859a0	3.8804703
241	0x3d781e1f	0.0605756
242	0x3fb2e299	1.3975402
243	0xbf9ff7ad	-1.249746
244	0xbfd136ca	-1.6344845
245	0x3fefd129	1.8735706
246	0x3e6d399f	0.23166512
247	0xbf1d600a	-0.6147467
248	0x3f98aa08	1.192689
249	0x4081e458	4.059124
250	0x3f3d61d6	0.7397741
251	0xbe9c12ae	-0.30483
252	0x401318cc	2.2983885
253	0x3fce0db7	1.6097935
254	0xbf872e44	-1.0560994
255	0xbdc33c4f	-0.09532987
