bbox_poisoning/lightning_logs/version_428/checkpoints/epoch=99-step=600.ckpt (torch, 92668 bytes, 6 tensors)

entity_embeddings.weight f4 [135, 32]
00000000: 56e3 7fbd a3e6 35bf 8741 89bf 9127 843d
00000010: 5a31 e9be 67fa 8f3e 4c98 4ebf c4cd 81bf
00000020: 8347 6ebf 6c05 8d3e d7e7 2cbf 2956 153f
00000030: 961e 00bf dd7b 943f 4562 643e 2784 7f3d
00000040: 266c 04c0 2b75 3b3f 58b3 f43d fc3f 3d3f
00000050: 6a77 b13f e707 03c0 fe1d 0ebe 81e7 a13f
00000060: 0116 78bf c8bf e03f dd39 383f 3ca9 81bf
00000070: 283d 7fbd b9ed 50bf f815 a33e 7f29 453e
00000080: 453e b13d 353e 953f 1fa7 febe cec9 b43f
00000090: c95d 0d3f c929 133f c525 6cbe e4a2 0e3e
000000a0: 457e db3f 9be0 293f 4f9a ecbe 324c 5c3f
000000b0: 6ae2 a83e e77a 723f a31a 1d3f f37a 6f3f
000000c0: 68cc 31c0 5609 63bf ac19 06bf b091 b5be
000000d0: e6cd 0bbf 36e8 5e3e b265 0e3e 0af9 06be
000000e0: 6bc5 573f 177f 1540 7e47 203e 1438 5dbe
000000f0: 14de 82bf d6d9 26be 617a 6bbd 7ea6 66bf
00000100: 69af 103d 43bb a73f 2ecc 2dc0 241a 97be
00000110: 6c2f c73f 3449 0d3f b4bb aebe d355 c63e
00000120: efb6 4d3c 70e2 a93b a57f b6be 1071 adbf
00000130: 5520 6d3e 64e1 8abf 6fc1 8dbf ad5f f93d
00000140: 8076 9abf 5da5 b83f bfaf cebe e099 733e
00000150: b400 64bf fde5 f23f a162 9fbf ec02 663e
00000160: dccf 113f e2c4 d83f 1385 5d3f 54b0 9e3e
00000170: fe5c e73d 2bb8 71be 55cc 6abf badc 45bf
00000180: 65cc 2bbe 465b 873f 2610 14bf 0b05 d4be
00000190: 5de1 8d3f c354 cf3e f052 f3be 6112 1c3f
000001a0: 176a d03e 4e65 8f3f c8cb 36be 2cc5 7fbf
000001b0: 6603 14bf f446 b0bf f6da 8dbf edaa 38bf
000001c0: 1771 32bf efd9 613f 885e 9f3e 385f 313e
000001d0: 69cd 71bf e786 0c3f 12ce b1bf abb3 8f3f
000001e0: cef9 953f 24ec a23f ab70 0b3f 6f1c 2c3f
000001f0: 520d 2ebe 1ceb 543d 848b 48bf 305e 6cbf
00000200: 8d99 823f 5f54 3fbf efb2 98bf 4708 e13f
00000210: 27a8 9a3e 8fe7 e1bd 0408 f43e abb4 8fbf
00000220: 2f36 90bf 9743 92bf f134 22bf 9cfa 213e
00000230: ebc3 f43c 5fdb bbbe 1a88 073f 436e d9be
00000240: 9f5a 8fbf de0b 20be 869a 3d3f 9f84 7b3f
00000250: d0be 3f3f efc6 973e 9e1e 1b3f 7a83 103f
00000260: e0c5 c6bf bc64 cd3f f515 373f b80c 163f
00000270: d60f 433f 92ff 293f 2cd5 8a3e 7d9d a43f
00000280: 4a73 5fbe 0b78 4ebf a020 2abf 1299 013f
00000290: f5c2 d33f dc39 483f 70a4 c9bf ae0a c03e
000002a0: 9be9 2bbd 70ff 08bf 7f4a 833f a31e b2bf
000002b0: 84c8 823f 3499 10bf 9239 4d3f faca 46bf
000002c0: a60e 4fbf 418c 87bd 6046 05be ac62 983e
000002d0: f28e 0bbe 1458 2abf 1c56 d23f 8d7a 2fbf
000002e0: 464b 24be 443f 1340 8f99 babf 3913 b2be
000002f0: 94dd 953e 9f1a dc3e ae42 60bd 9c4a 6a3f
00000300: 8bc0 903f 4d78 493f 1af4 843f af42 86bc
00000310: 0911 323c 1530 fd3c b051 3abf 1c53 2d3e
00000320: b70d 663f 0ebe 743e 6512 f2bd dbde 0abf
00000330: 8c3c 35bf 7274 aa3e 90b4 c2be 7fbf 183f
00000340: 65ae 36be 4fd3 93be 4264 d0be 859f 5c3f
00000350: 1c8a c63e 63dd 6e3f bf21 4f3f b08e 3abf
00000360: 01d4 05bf b919 ab3f e5d3 9f3f cafc bdbe
00000370: 6f09 163e 0431 17bc 0a52 47be 24f9 98be
00000380: 3a49 6dbf 877f 90bf 4ce6 e23f 6f41 ddbd
00000390: 7ed3 62be ae03 a53c bdd4 a73e 1f0b d33d
000003a0: 9f67 5fbf 0bff a03e 60fa bd3f e91b b63e
000003b0: a00e 83bf cc9e b3bf 7b58 94bf 89ac 133f
000003c0: a31c c8be 5805 f43f 2eeb 063f 9bd3 3abf
000003d0: 89b3 f5be 6f37 1a3f 471c 8ebe f265 a93e
000003e0: dd5e a5be 7913 0540 d7c6 b4bf 8c60 863f
000003f0: d6dc 55bf c14f 033f da6c 13bf ce02 d5be
-0.062472664 -0.7105505 -1.0723122 0.06452859 -0.45545465 0.2812073 -0.80701137 -1.014092
-0.9307787 0.275432 -0.6754126 0.58334595 -0.5004667 1.16003 0.22303112 0.06238189
-2.0691009 0.7322566 0.119482696 0.7392576 1.3864567 -2.0473573 -0.13878629 1.2648774
-0.96908575 1.7558527 0.7196329 -1.0129771 -0.062314183 -0.81612736 0.31852698 0.19254111
0.08654455 1.1659609 -0.49736878 1.4124086 0.5522123 0.57485634 -0.23061283 0.13929325
1.7147909 0.66358346 -0.46211478 0.86053765 0.3298524 0.94718784 0.6136877 0.9354698
-2.778101 -0.8868612 -0.5238292 -0.35462713 -0.5461105 0.21768269 0.13905981 -0.13180938
0.8428561 2.335882 0.15652272 -0.21603423 -1.0224023 -0.16294035 -0.057489756 -0.90097797
0.035323534 1.3104023 -2.7155871 -0.2951213 1.5561347 0.55189824 -0.3412758 0.38737354
0.012555822 0.005184464 -0.3564426 -1.3550129 0.23156865 -1.0850034 -1.1074656 0.12176452
-1.2067413 1.4425465 -0.4036846 0.23789167 -0.8906357 1.8976437 -1.2451974 0.22462052
0.56957793 1.6935084 0.8653118 0.30993903 0.11297034 -0.23605411 -0.91718036 -0.77289927
-0.16777189 1.057473 -0.5783714 -0.41410097 1.10844 0.40494356 -0.47524214 0.60965544
0.4070594 1.1202791 -0.17851174 -0.99910235 -0.57817686 -1.3771653 -1.1082447 -0.7213581
-0.6970381 0.88223165 0.3112681 0.1732148 -0.94454056 0.54893345 -1.3891013 1.1226705
1.1716859 1.2728314 0.5446879 0.67230886 -0.16997269 0.05198203 -0.78337884 -0.9233122
1.020311 -0.74738115 -1.1929606 1.7580651 0.30206415 -0.110304944 0.47662365 -1.122701
-1.1266536 -1.1426877 -0.6336203 0.15818256 0.029878577 -0.36690804 0.5294205 -0.42466936
-1.119953 -0.15629527 0.7406391 0.9824924 0.7490053 0.29643962 0.60593593 0.5645062
-1.5529137 1.6046367 0.7151788 0.5861316 0.7619604 0.66405594 0.27115762 1.2860562
-0.21821323 -0.8065192 -0.6645603 0.5062419 1.6543871 0.78213286 -1.5753307 0.37508148
-0.04197083 -0.53514767 1.0257109 -1.39156 1.0217443 -0.5648377 0.8016597 -0.7765347
-0.80881727 -0.06618548 -0.13015127 0.2976278 -0.13628748 -0.66540647 1.6432528 -0.6854637
-0.1604434 2.3007364 -1.4578112 -0.3478029 0.29270613 0.4298906 -0.05475109 0.91520095
1.130876 0.7869919 1.0386994 -0.01638922 0.010868319 0.030906716 -0.72780895 0.16926235
0.8986468 0.23900625 -0.11819915 -0.542463 -0.7079551 0.33291966 -0.38028383 0.596672
-0.17839964 -0.28872153 -0.4070149 0.8618091 0.38777244 0.9330656 0.8091087 -0.72873974
-0.5227662 1.3367225 1.248654 -0.37106925 0.14652036 -0.009227995 -0.19464889 -0.2987758
-0.9268986 -1.1288918 1.7726531 -0.10803496 -0.2215099 0.020143356 0.32779494 0.103048556
-0.8726749 0.31444582 1.4842033 0.3556817 -1.0238838 -1.4032836 -1.1589502 0.5768514
-0.39084348 1.9064131 0.52702606 -0.72979134 -0.47988537 0.60240835 -0.2775595 0.3308559
-0.32298937 2.0793135 -1.4123181 1.0498214 -0.83540094 0.5129357 -0.5758797 -0.41603702

relation_embeddings.weight f4 [92, 32]
00000000: 7756 1ebe c984 68be b043 c93e 2993 78be
00000010: 4741 403e e582 93be bfd6 4e3e a64e 23bf
00000020: abce 7c3f f1ac 633d 2fe4 643f 0b74 693f
00000030: 909a ec3d 3811 363e c107 903c 37f8 e13d
00000040: 985e d1be 6d65 0d3f a4b1 2abc 6c9d 31be
00000050: 199b b53e 0139 1ebe 1de5 d03e b713 953f
00000060: 8fcc 113f 8646 98bf 8d06 603f 0c6c f0be
00000070: be96 353e 4ba2 8d3d a208 0e3e ba47 aa3e
00000080: 38d6 8cbe c23d 37bd aaaf 11bd 3046 2bbe
00000090: 2e43 f03e 8867 cabd 800d 94be b53e cebe
000000a0: c664 e33f aca3 acbe 3f23 14bf ec06 c83e
000000b0: e8eb 193c c830 fa3e ae20 383e d1a7 b33f
000000c0: b920 0fbf cd99 0abe 8b49 b03e b3d6 dd3c
000000d0: 4f64 b6be e512 8c3f d8d2 1abf b21c 3c3f
000000e0: 9127 6ebe 601f 6bbf 3d6c 4d3e 1e05 90bd
000000f0: 14f9 17bd 0fff c73e b28d c4be d28e 153f
00000100: b3ab 8abf 0cc6 0f40 b5a0 523f c06d f2bf
00000110: 4860 55bf b4e3 2640 b30c 513d 78a8 51bf
00000120: c3d2 883f 478d 3dbe 73b6 d6be 92fa 80bf
00000130: 69af 903f 667d 213f d6be 05c0 0117 2b3f
00000140: 13c9 7abf 9487 443f 6fdc 963f 1cb0 053e
00000150: 8ba3 48bf d457 4bbf 2859 a03e 746f babf
00000160: bcb8 ef3f 115a 05c0 02c9 593f df10 643e
00000170: fa30 52bf 4e1f 56bf 4b92 8840 7d4a 2d3f
00000180: c403 833e 2d9a 6a3d bddd 5fbe 7911 603e
00000190: 6e55 043e 56bb b13e 54b4 663e e60e cabd
000001a0: ab94 abbe f019 963d edcf 113f 7b81 87be
000001b0: 8dc1 0dbe 860f c03d ba03 81be 66e5 c33e
000001c0: e95c 4cbf df95 1ebf 8924 a1be 4341 75be
000001d0: 99a6 26be 66a8 d33d 28af ecbe 629a 353e
000001e0: 1fd2 403e 0a8d 5cbf 4071 cf3f 9e50 06bf
000001f0: 9faf afbd 0629 d6be da6d a6bd 2667 80be
00000200: f0fb 6dbf 8e57 d43f 3504 74bf 0b88 41be
00000210: 7d78 49bf df27 c5bc 635e a7bf 37e0 793d
00000220: 875b fabd 61a8 e5be ec86 ec3c b04b 13be
00000230: 5b2a ac3e 12db 453e 14ad 14bf 5bc3 303f
00000240: f1c0 b7bf 6c5c 57be 2c27 8a3f 1792 05bf
00000250: 73ad c9bf f94e 913f 54bd b53f 8ba5 0d3f
00000260: f8e8 9f3e 8c9d a6bf 0e65 d13e c805 83be
00000270: 4f42 73bf 313b eabe 73f1 7bbf 2091 313f
00000280: 45f4 86be 9a73 b0bf 109b d5bf 0c43 423d
00000290: d825 4bc0 83c7 0140 3694 4740 dbe1 9dbf
000002a0: c216 6d3f 4181 e1bf e4a4 0b3f 6ed7 6e3f
000002b0: b0ca c33d 8743 43bf 773e 5cbf b7a9 033f
000002c0: ccf6 cabf ee40 8a3f 5f2e ba3d a670 0a40
000002d0: f361 db3f d071 7b3f 17f8 1fbf f9c5 e53d
000002e0: c2fe e43f f97b 08c0 5978 e4be e0fc dd3f
000002f0: ee14 a1be bb47 24c0 db56 ec3e ccaa babf
00000300: 13f8 a13d 29fc 083e b5ec a8bf bdfc 9b3f
00000310: 618a 68be 0914 56be 372d 7cbf dbf1 bb3d
00000320: b14a 2abd 4cd8 d1be 9a47 9fbf fe35 14bf
00000330: 5a6d 563f 7dd1 1bbf af34 04bf 04bd 513a
00000340: f7d1 93bf 31a2 5b3d 8e62 06be 2133 833d
00000350: bc87 8dbf bb34 8c3d f821 b13f f06f 5f3e
00000360: f128 9f3f beb3 9bbf 52c9 1d3f a263 a43c
00000370: 806e 4dbe c620 323f 7077 a2bf 3bad 04bf
00000380: d5b8 1a40 41d8 82c0 9e22 32c0 2653 833e
00000390: ca25 943f 28a8 acc0 4d7a 10c0 9a7d 723f
000003a0: bb35 c7bf 1671 a73f cb89 0b40 8bf3 4fc0
000003b0: 6cf5 7ac0 2135 48c0 b9b1 0f40 93e3 1ac0
000003c0: bb00 31c0 7a41 9abf cb32 603f e28a c63d
000003d0: ab46 1c40 62e6 6540 d4b9 db3f 131f 5b3e
000003e0: 70b6 4d40 1547 98c0 d456 9b3f e017 c8be
000003f0: cb1d aec0 786b adc0 22a4 88be fd1e d540
-0.15462671 -0.22706904 0.39309454 -0.24274887 0.18774901 -0.28810802 0.20199107 -0.63791883
0.9875285 0.05558485 0.8941068 0.9119269 0.11552918 0.17780006 0.017581822 0.11033671
-0.40892482 0.5523289 -0.010418329 -0.17345208 0.35469893 -0.15451433 0.407998 1.1646641
0.56952757 -1.1896522 0.87509996 -0.46957433 0.17733285 0.069157206 0.1387048 0.33257848
-0.27507186 -0.04473663 -0.035567917 -0.16725993 0.46926254 -0.09883028 -0.2891655 -0.40282217
1.7765129 -0.33718622 -0.5786628 0.3906778 0.009394623 0.48865342 0.17981216 1.4035589
-0.55909306 -0.13535233 0.3443111 0.027079916 -0.35623404 1.0943266 -0.6047797 0.73481286
-0.23257281 -0.9184475 0.20060821 -0.07032226 -0.037102774 0.39061782 -0.38389355 0.5842105
-1.0833648 2.2464628 0.8227647 -1.8939743 -0.8335004 2.607648 0.0510375 -0.8189769
1.0689319 -0.18510924 -0.41936073 -1.0076468 1.1303531 0.6308197 -2.0897727 0.66831976
-0.97963065 0.76769376 1.1786021 0.13055462 -0.78374547 -0.7943089 0.3131802 -1.4565263
1.8728251 -2.0836222 0.8507234 0.22272061 -0.8210598 -0.8364152 4.267858 0.67691785
0.2558881 0.05727594 -0.2186193 0.21881665 0.12923214 0.34713238 0.22529727 -0.09866123
-0.33511862 0.07329166 0.56957895 -0.26465973 -0.13843365 0.09377961 -0.25198156 0.38260955
-0.7982927 -0.61947435 -0.31473187 -0.23950677 -0.1627449 0.10334854 -0.46227384 0.17734674
0.18830155 -0.8615271 1.6206436 -0.5246676 -0.08578419 -0.41828173 -0.08126421 -0.25078696
-0.9296255 1.658922 -0.9531892 -0.18899553 -0.78699476 -0.024066864 -1.307568 0.061004844
-0.12224489 -0.44855025 0.02887293 -0.14384341 0.33626065 0.1932185 -0.58076596 0.6904809
-1.4355756 -0.2103135 1.0793204 -0.5217604 -1.5756058 1.1352226 1.4198403 0.55330724
0.3123243 -1.301683 0.4089741 -0.25590348 -0.95023054 -0.45748284 -0.984153 0.6936207
-0.26358238 -1.3785279 -1.6687946 0.047427222 -3.1741848 2.0278022 3.118421 -1.2334551
0.9261285 -1.761757 0.5454848 0.9329747 0.09560144 -0.76274914 -0.86032814 0.5143084
-1.5856566 1.0801065 0.09090876 2.1631255 1.7139267 0.9822054 -0.6248793 0.11219401
1.7890246 -2.1325667 -0.44623068 1.7342796 -0.3146128 -2.566878 0.46160015 -1.4583373
0.079086445 0.13377441 -1.3197237 1.2186505 -0.22709037 -0.2090608 -0.9850649 0.0917699
-0.041575138 -0.40985334 -1.2443726 -0.57894886 0.8376061 -0.6086653 -0.5164289 0.0008000883
-1.1548451 0.053621475 -0.13123533 0.064062364 -1.1057048 0.06845995 1.3838491 0.21820045
1.2434369 -1.2164228 0.61635315 0.02006704 -0.20061684 0.6958126 -1.26927 -0.5182683
2.4175313 -4.088898 -2.7833629 0.25649375 1.1574032 -5.395527 -2.2574646 0.947229
-1.5563272 1.3081386 2.1802852 -3.2492397 -3.9212294 -3.1282427 2.2452223 -2.42014
-2.7656696 -1.2051232 0.87577504 0.096944585 2.4418132 3.5921865 1.7166085 0.21398573
3.21426 -4.758677 1.2135873 -0.39080715 -5.441137 -5.4193687 -0.26687723 6.6600327

exp_avg f4 [135, 32]
00000000: 25c4 86bc 3f4c e13d eccc 46bc 226b dc3d
00000010: 05e8 243d f4f0 dcbe 7f6d d9bc 1c33 71bd
00000020: d800 c4be 5a68 853b 6173 dbbd 18ec b1bc
00000030: c9df 2fbc 3151 c23c 708c c9bb 51c6 393d
00000040: 9a98 683e d0b6 49bd 4c24 223c 199f e93c
00000050: 5cdb debd ab36 093f fbfd 78bc 352b 093c
00000060: cee0 3fbe ce96 213e c9c4 143e 345e 8f3d
00000070: 3ea8 d4bd 7488 40bd c72e 063d d7fb 9b3d
00000080: a62c 78bd 8a5c 393e 7934 e93c 49e4 2e3e
00000090: 62ec b5be 87cc 05be 0c93 8c3c 1a1d 4dbe
000000a0: 34de 5cbe f4e5 223d 62e7 08bc 74e2 f8bd
000000b0: 8acb 2fba 46f5 75be df94 423c 4262 f0be
000000c0: 5af5 cdbc 8397 fc3d f5d7 d83c 3b3d c5bc
000000d0: 576f 94bd 2c36 a53d 9287 01be fc5b 82be
000000e0: 26e2 283d 52dc 013e 858f 92bc 2243 993d
000000f0: c500 ef3b 22a2 803c a594 39be 0f17 89bd
00000100: a14f 973d 1c78 49bf db64 743e 5436 b43e
00000110: e6db 1a3e fc43 73be 3039 5a3d c823 8abd
00000120: 6c42 6fbd f3cd 1fbc 6a95 8c3e dd5c f4be
00000130: 03c0 1c3e dd2a 493e 716a 71be fe3e b93d
00000140: d6e4 e839 a580 b8be 00ab 3bbe d066 483e
00000150: 4c5b c0bd f928 53be 7c49 81bd f8d7 1ebe
00000160: 80e9 103d ebe2 013f 3ddc 613e 9a1b 673c
00000170: 17cd d1bd 412c 01bf 997c 9c3e 2246 fd3d
00000180: 10ee e439 2abc 0f3d bf00 95be 0674 95bd
00000190: e736 1bbd 4081 8b3c d7e9 46bd 9895 e53c
000001a0: af50 5c3e ac83 4abf 7b95 4c3d 4acf 443e
000001b0: 8571 02bd 00e6 5fbd 68ba d7bb 7a0e 333d
000001c0: 94ae b83d 6fe2 ce3d fa0d 4d3e 91dd 4f3e
000001d0: c49f a0be 759e 9bbd 78ce 4b3c fd0c cf3d
000001e0: 3ba4 233e 9c80 9a3c d399 a9bd d422 b53d
000001f0: a6c2 4b3e 06c3 473d e999 18be cf91 063f
00000200: 23c0 08be a5f9 e3bd f324 c43e a596 53bd
00000210: e7b1 c7bc 4cc4 5bbe e0b8 fcbc 39f2 5fbe
00000220: 658d 203e ea00 6a3b 1d42 71bc c379 cabd
00000230: f192 a9ba 1dcc c83b 973e 203e 5ef8 0ebd
00000240: e017 713d cdd3 05bd 3c60 2d3d 8527 a13d
00000250: b44b a13e d749 87be 7e49 42bd 1eec 3cbe
00000260: 85e9 393f d718 853e 56ee 88be 46ca 1ebc
00000270: afdc 97bb b9be 22bc 2957 5b3c f8e1 423c
00000280: 7b3c a8bd 8b64 7a3d 13e0 57be 2100 bcbe
00000290: 3d4e e0be c7ed f8be ba0c 4c3f 483d de3c
000002a0: 7cca 63be c536 303e f736 703d bec9 0f3e
000002b0: e8be 9fbe cd87 973e 4144 1f3e 2e44 1d3d
000002c0: 07e5 9bbe bf45 d2bc cd4d 0a3f 63a2 bbbd
000002d0: 92b0 643c 8dd1 7bbd bc19 27be 6ebd 293e
000002e0: 230e 6abd 1058 193f f942 0e3e da34 a93d
000002f0: b2b5 60bd 04f6 37bc f6a3 963d eacd f1bd
00000300: 3970 b23d b578 9fbd 9b48 1d3e 9124 ff3d
00000310: a1dc 503e d570 2fbf 8dcf 26bd 5b99 f0bc
00000320: b280 1fbd b4e3 60bd cb8a 963e 2bae b4bc
00000330: 0f91 79bd 6d11 29be 2356 2cbd b04d 89bd
00000340: 8bd2 e43c af0b 61bb dce7 26be d475 953c
00000350: 415f 8bbd ee9b 11be 4612 433f f8ab f03d
00000360: 0e32 d73b 4c8c 04bf 042d b8bc 0d68 863e
00000370: 8c43 8ebe fb38 acbc ba6a 9cbb 109f 633b
00000380: e57f 4a3d ec4f e9bb 125f 3cbf 85f0 2fbb
00000390: 1548 39bd 87ed 563d fd84 cc3c 1113 423b
000003a0: abe5 833e 3fea 093d 2a67 a23c 3240 48bc
000003b0: f321 8ebd ee71 4e3d 52d6 9b3d 760f 723c
000003c0: 74ba 46be e85b 42bc 1c30 0ebf 7187 413b
000003d0: 1dc0 833e 5d09 f83d 692a d8bc c05b 0abd
000003e0: 6408 fe3d 00cb 7d3d ad28 eabc 47bf b23c
000003f0: 790e 353a b514 3bbc 05d0 283c 7bdf aabd
-0.01645095 0.11000871 -0.012133818 0.107626215 0.040260334 -0.43152583 -0.02654147 -0.058886632
-0.38281894 0.0040712776 -0.10715366 -0.021719024 -0.010734507 0.023720356 -0.0061507747 0.045355145
0.22714463 -0.04924661 0.009896349 0.028518246 -0.10881683 0.5359904 -0.015197272 0.008372118
-0.187381 0.15780184 0.14528193 0.0700039 -0.10383652 -0.04700513 0.032759454 0.07616394
-0.060589455 0.18101707 0.028467404 0.17079271 -0.35531908 -0.13066302 0.017159961 -0.20030633
-0.21569139 0.03977008 -0.008355947 -0.121525675 -0.000670605 -0.24019346 0.011876314 -0.46949965
-0.025141407 0.12333586 0.026470164 -0.024077049 -0.07247799 0.08066973 -0.12649372 -0.25460804
0.041231297 0.12681702 -0.017890701 0.07483508 0.007293793 0.015702311 -0.1812311 -0.06693851
0.07388235 -0.786989 0.23866598 0.351977 0.15122947 -0.23756403 0.053277194 -0.06745106
-0.058412954 -0.009753692 0.27457744 -0.477271 0.15307622 0.19645257 -0.2357576 0.09045218
0.00044420984 -0.36035648 -0.1832695 0.1957047 -0.093924135 -0.20621099 -0.06312844 -0.15512073
0.035378933 0.50736874 0.2205667 0.014105702 -0.10244196 -0.5045815 0.3056381 0.123668924
0.0004366492 0.035091557 -0.29102132 -0.0729752 -0.037894156 0.017029405 -0.04856285 0.028025433
0.21515153 -0.79107165 0.049947243 0.192197 -0.031846542 -0.054662704 -0.0065835007 0.043714978
0.09017673 0.101017825 0.20024863 0.20299365 -0.31371891 -0.07598583 0.012439363 0.10109899
0.15980618 0.018860154 -0.08281293 0.088445336 0.19898471 0.048769973 -0.14902462 0.52566236
-0.13354544 -0.111316 0.3830944 -0.051657338 -0.024376823 -0.214616 -0.030849874 -0.21869744
0.15678938 0.0035706111 -0.014725235 -0.098865055 -0.0012937469 0.006127848 0.15648876 -0.03490483
0.05886066 -0.032672692 0.042328104 0.07868866 0.3150307 -0.26423523 -0.04743337 -0.18449447
0.7262195 0.25995514 -0.26744336 -0.00969178 -0.004634462 -0.009933167 0.01338748 0.011894695
-0.08214661 0.06113104 -0.21081571 -0.36718848 -0.4380969 -0.4861891 0.7970692 0.02712883
-0.2224521 0.17208393 0.05864617 0.14041802 -0.31200337 0.29595795 0.1555338 0.0383951
-0.30448171 -0.025668023 0.54024965 -0.09161832 0.013958113 -0.06147914 -0.1631841 0.16576168
-0.057142388 0.599 0.13892736 0.08262034 -0.05486078 -0.011228088 0.07355492 -0.11806853
0.08712811 -0.07786695 0.15359728 0.12458146 0.20396663 -0.68531543 -0.04072528 -0.02937
-0.038941093 -0.054904655 0.29402766 -0.022055706 -0.060929354 -0.16510554 -0.042074334 -0.06704271
0.027932426 -0.003433924 -0.16299385 0.018244661 -0.068052776 -0.14219639 0.7619976 0.117515504
0.0065672463 -0.51776576 -0.022482403 0.2625126 -0.2778591 -0.021023264 -0.004773465 0.003473226
0.049438376 -0.007120123 -0.73582566 -0.0026846242 -0.04523476 0.052472617 0.024965758 0.0029613415
0.2576116 0.03367066 0.019824583 -0.012222337 -0.06940069 0.05040162 0.07609238 0.014774194
-0.19407064 -0.0118627325 -0.5554216 0.0029530192 0.25732508 0.12111161 -0.02638741 -0.033778906
0.12403944 0.061961174 -0.028583849 0.021819724 0.00069067586 -0.011418511 0.010303502 -0.08343407

exp_avg_sq f4 [135, 32]
00000000: 46c7 c436 e71c 1235 ed38 7134 75f0 cf35
00000010: de5e 2435 5dac 1433 2a5e 8336 ae2d e836
00000020: b0bf 7f34 aebb 0635 b5f7 1535 9f88 c034
00000030: 0158 bb36 1098 3d36 32bd 1b34 c2c3 ba36
00000040: 8732 5735 f48a ea36 a7e7 7933 dd60 8936
00000050: 7fb1 4f36 aebc 9733 2cd1 bd35 e42a c136
00000060: c78b af33 ff48 ce34 3613 0236 4747 3c33
00000070: e16a 9534 2d9b bc35 c2b2 1c35 7a31 1a36
00000080: 08e5 8d36 100f 4b35 646e 2a36 a65b 3934
00000090: ed10 0233 d7a1 0134 c72a 7632 7097 d934
000000a0: aba6 f235 e9ad b435 bf34 e434 9e48 0234
000000b0: 5027 fc35 2382 9b34 a527 8c36 b141 0433
000000c0: 07a1 5735 77c0 bb34 3122 7834 a6be ef34
000000d0: 4416 0537 29b9 e535 a928 5b35 81e9 7934
000000e0: 1265 0035 1efa 4434 57c4 cf35 95d2 8735
000000f0: f1b2 1c34 17ef 9236 a4e9 1633 930c 0136
00000100: 9dd3 9835 691d 5e33 4081 a733 41e5 fd34
00000110: 4500 4834 40f8 5c35 6867 9336 e852 3936
00000120: 4d26 bd35 a025 ce34 cae6 2634 6ef8 1d33
00000130: d38d dc35 ed2a 7d35 5163 9334 ca97 7935
00000140: 11e1 3636 8b8b 1d33 49bd fd32 ba38 c535
00000150: dc85 9737 4446 de34 5592 cf33 705a 3d36
00000160: 35f9 d534 4218 d935 690c 2e37 bd8a 7d35
00000170: 5c9a 8535 6b66 7834 b8ca 5936 20d5 9936
00000180: 3bd8 1e37 0692 e734 eae4 9835 302c bb37
00000190: 91d2 c436 e7a3 e035 5d2b 1137 de01 aa37
000001a0: a633 df35 b8c4 ab33 93fc c136 def3 1035
000001b0: 3314 e537 dde8 3536 ec56 4d37 d25d 8b37
000001c0: 3bdc 0838 cbec ea35 e8c2 a133 e016 d435
000001d0: 92f1 cb35 03e0 af36 5811 fc36 5932 1037
000001e0: a6b7 8537 4cef bc36 a69a b736 bdba 9e35
000001f0: e755 e236 a5fb b337 3832 6735 ccfe d033
00000200: 1c23 dd35 0b6c fd35 0401 b234 46ba 3e35
00000210: f4a9 7d35 ce9b 6335 111a b836 2045 6b34
00000220: 4969 0537 07b2 6537 5b42 a737 e043 5937
00000230: cffa ae37 cc4c 3836 5066 d935 2c0a dc37
00000240: 087f e835 4499 7837 67b4 7c36 bee0 8236
00000250: 84f0 0f34 2924 2735 ca0e 5537 b2a8 f436
00000260: 0300 d033 5a9b eb36 e9e7 c036 ce52 ab37
00000270: 264f 1437 c764 8e37 69d7 3438 bfd4 e137
00000280: c203 0937 bf4d 5532 53da 8736 eb1c 5134
00000290: 3ba4 d135 1fe5 9c33 bee1 9233 4a3b 9136
000002a0: 3ed6 fb35 665e cd35 fbd2 1836 1c17 f335
000002b0: 1461 1135 952b 1e35 114c b634 f70d 1936
000002c0: 6e9b cb35 4492 7e35 6ea0 1634 ae3e 7034
000002d0: e3db 2f36 7271 f934 0a77 1633 e4e7 9b35
000002e0: cf3b 9d35 dcb5 1636 a93a a336 e25b 3d34
000002f0: dbea 8636 a21e a436 a965 0f35 a782 f535
00000300: f944 9736 db58 e434 f2dc d536 a16f 0935
00000310: 5825 ea35 76f0 9933 4725 8b37 e74f 2837
00000320: a72c 8536 b045 ba36 e327 2e36 f4d9 2e37
00000330: 440c 9437 c8bf 7036 2d6d 3036 af86 3e37
00000340: 061d 3637 0a53 5a38 53d2 5536 28c4 1b36
00000350: e28c 8e36 40d3 c635 a84e 1f35 4535 7036
00000360: 61a8 4537 4f12 de35 2191 b635 1e02 1834
00000370: 0ade a034 8df4 bc36 0891 2538 6448 1d38
00000380: 5739 8834 c06c 2136 e0fe ca33 b1b7 1c37
00000390: 362f f335 326c 1436 f3fc 7736 39ed e836
000003a0: 0877 9a34 320b e235 9b9a fa34 6377 4537
000003b0: b5e6 0535 478c 3b37 0151 4a35 bb4e e536
000003c0: de77 ed34 4a16 5635 f151 5f33 1056 aa35
000003d0: ff41 9d35 ca81 cc35 6065 2235 640a ac36
000003e0: dff7 5e36 c783 4f38 1817 6935 b4b4 e135
000003f0: 6a79 b236 b6ba a537 eebe a935 d3be 7635
5.8644537e-06 5.4431297e-07 2.2465584e-07 1.5492684e-06 6.123281e-07 3.46157e-08 3.9150664e-06 6.9194566e-06
2.3818461e-07 5.0192e-07 5.5867287e-07 3.5862192e-07 5.5832793e-06 2.8251707e-06 1.4504329e-07 5.566021e-06
8.016727e-07 6.9899197e-06 5.8185517e-08 4.0941945e-06 3.094872e-06 7.065806e-08 1.4142474e-06 5.7568413e-06
8.174498e-08 3.8423602e-07 1.9382692e-06 4.3836987e-08 2.7831177e-07 1.4052254e-06 5.8374656e-07 2.2976587e-06
4.22879e-06 7.564531e-07 2.539623e-06 1.7262809e-07 3.0283378e-08 1.2072938e-07 1.4328811e-08 4.0529585e-07
1.8078912e-06 1.346166e-06 4.2506687e-07 1.2133611e-07 1.8786905e-06 2.8965687e-07 4.1769404e-06 3.079339e-08
8.0328067e-07 3.49715e-07 2.3109239e-07 4.4655934e-07 7.932602e-06 1.7115718e-06 8.1643026e-07 2.327488e-07
4.783079e-07 1.8344915e-07 1.5479844e-06 1.0119571e-06 1.459373e-07 4.378973e-06 3.513709e-08 1.9229817e-06
1.138647e-06 5.171515e-08 7.800054e-08 4.7291726e-07 1.862655e-07 8.231764e-07 4.3929795e-06 2.7615406e-06
1.4092744e-06 3.8397866e-07 1.5543915e-07 3.6780357e-08 1.6432554e-06 9.431231e-07 2.7453146e-07 9.298061e-07
2.725112e-06 3.6681325e-08 2.9539153e-08 1.4694153e-06 1.8062936e-05 4.1401847e-07 9.665806e-08 2.8215836e-06
3.9855664e-07 1.617482e-06 1.0374098e-05 9.4451735e-07 9.954197e-07 2.313406e-07 3.2453518e-06 4.5845663e-06
9.467879e-06 4.313335e-07 1.1391505e-06 2.2312714e-05 5.8657683e-06 1.6737002e-06 8.65277e-06 2.0266449e-05
1.6629826e-06 7.998591e-08 5.7812517e-06 5.3999054e-07 2.7308333e-05 2.7106646e-06 1.223919e-05 1.661378e-05
3.2630032e-05 1.7503274e-06 7.5326e-08 1.5801888e-06 1.5194985e-06 5.241485e-06 7.5122043e-06 8.594791e-06
1.5940353e-05 5.6306944e-06 5.4718284e-06 1.1826265e-06 6.745325e-06 2.1455644e-05 8.6127284e-07 9.732102e-08
1.6476001e-06 1.8881414e-06 3.3155823e-07 7.105158e-07 9.449716e-07 8.4790815e-07 5.486662e-06 2.1911228e-07
7.951931e-06 1.3690914e-05 1.993885e-05 1.2950011e-05 2.0859208e-05 2.7462838e-06 1.6197537e-06 2.623078e-05
1.7322318e-06 1.4817637e-05 3.7655934e-06 3.9004653e-06 1.3405412e-07 6.226497e-07 1.2699233e-05 7.2914054e-06
9.685757e-08 7.021631e-06 5.749044e-06 2.0423347e-05 8.839916e-06 1.6974647e-05 4.311596e-05 2.6921158e-05
8.166711e-06 1.2415909e-08 4.04873e-06 1.9475162e-07 1.5619511e-06 7.305993e-08 6.839717e-08 4.328239e-06
1.876331e-06 1.5301164e-06 2.2772572e-06 1.8111637e-06 5.4157977e-07 5.8923007e-07 3.3955487e-07 2.2806905e-06
1.5169915e-06 9.483522e-07 1.4028203e-07 2.2374545e-07 2.6205023e-06 4.6462407e-07 3.5032862e-08 1.1615889e-06
1.1714818e-06 2.2457598e-06 4.8646075e-06 1.7635423e-07 4.020852e-06 4.891147e-06 5.3419586e-07 1.8291947e-06
4.50818e-06 4.253296e-07 6.373616e-06 5.119892e-07 1.7445227e-06 7.168357e-08 1.658745e-05 1.0032184e-05
3.968907e-06 5.5513447e-06 2.5951238e-06 1.0421954e-05 1.7648686e-05 3.5874418e-06 2.6289592e-06 1.1356241e-05
1.0854803e-05 5.2052586e-05 3.1861898e-06 2.3210978e-06 4.2483307e-06 1.4813631e-06 5.9346576e-07 3.5793794e-06
1.1781319e-05 1.6545617e-06 1.3602295e-06 1.4156873e-07 2.9963877e-07 5.631306e-06 3.9474136e-05 3.7499136e-05
2.5373694e-07 2.405417e-06 9.4527195e-08 9.341094e-06 1.8118651e-06 2.2116697e-06 3.6953104e-06 6.941755e-06
2.8771342e-07 1.684157e-06 4.667862e-07 1.1769912e-05 4.9882084e-07 1.1178729e-05 7.536874e-07 6.8338973e-06
4.4231905e-07 7.975365e-07 5.199576e-08 1.2691034e-06 1.1716619e-06 1.5236958e-06 6.0497223e-07 5.127209e-06
3.3224858e-06 4.9475373e-05 8.683287e-07 1.6816398e-06 5.318948e-06 1.9756477e-05 1.2647049e-06 9.1919827e-07

exp_avg f4 [92, 32]
00000000: 7bb9 793d ccf3 8b3e 76f0 81be 400c 0fbd
00000010: d9f2 063e 59dc f93b 9729 3e3d 052e f0bb
00000020: 37b8 46be dc47 3a3e 3d59 1a3f 2076 e8bb
00000030: 4ac8 0439 68ef d63d d2b0 a5bb 8a87 8f3c
00000040: 2400 253d 7677 df3d 3dc1 98bc a53a c7be
00000050: 1da2 fcbc b902 953d 86e3 913d aa3f fbbc
00000060: a01d 34be d244 07be 03f2 8c3e 64ff e43e
00000070: 6cfd e73b f7c7 ab3d 49a5 2f3d 4d54 0b3f
00000080: d152 ba3d fb8a acbc 5341 87be 5d6a cebd
00000090: b330 b9bd 7a58 88be bfed 06bd bad5 99bd
000000a0: d52f ccbe 2941 0eb8 ec40 203e 0816 04ba
000000b0: 60d2 7fbe 49e8 f7bd 85c2 b2bd 5fce 03bd
000000c0: 50f0 40be 3931 173d 9419 1f3e b382 03bd
000000d0: 2733 f03b 1078 8cbd 9f03 b5be a5e7 bd3d
000000e0: 0ffa 50bd 92ca 22bf b1fc 2bbf eba2 013d
000000f0: 4ad1 93bd cf45 e4bb 35d6 8cbe 3146 bb3b
00000100: b6ee 403c a838 033d afa3 7fbc 45b8 9bbb
00000110: 03a2 4a3d d703 89be ca5f df3b 9692 493c
00000120: 99e9 8d3c 1648 903c d4d8 12bc 83fe 503e
00000130: 5510 59bd 3f96 83bb df4c 903d 3eaa 6b3c
00000140: 3aa8 93bc f6f0 7b3d 365b 5bbd e28a ccbd
00000150: 59be f93d 6e21 77bd 24bd 843e 7018 89be
00000160: 43d3 9c3d 606b 50bf 5ceb 6ebe 2311 eb3c
00000170: 1353 7539 0899 e63d 7e63 23bf 9f02 97bd
00000180: 362c 223c df0a b03b 7b05 13be 879b 1dbd
00000190: f8ec 673d 920e 0b3c 393c b6bc 86c9 8dbe
000001a0: 8ea2 3abf d786 7bbc c1a4 c43d a787 083d
000001b0: 67c1 c83c 17f4 233e 3270 71bd caa6 3a3e
000001c0: f963 003e 064d 2dbc 9be7 633e b4d3 a3bc
000001d0: 1358 95bd 7744 dcbb 71c1 b7bd 7d87 ef3a
000001e0: 1a8f b13d 60f4 393f 69ab 893d a819 d5bb
000001f0: a1dd 2bbb 190b 24bd 0a45 b6bc b16f 3abd
00000200: e841 c5bd 1796 313c 91bd 5d3f 87e9 94bc
00000210: 6ee7 88be 84b8 4c3d 2eb5 efbe 39e5 813c
00000220: 99ed 913d 1f19 33bc 9053 61bd 630a 20bc
00000230: 02f7 49bd 4f3e 5ebc 351c 983c d975 3cbc
00000240: 4797 34bd 5a0c e93d 9e5d adbe 89df c5b9
00000250: d0ef 8d3c 8d1b 083d dc6f 373c 2a3d 44be
00000260: f1ec 553d 7ba6 02bd 4f0a fcbd dd2f e03d
00000270: b376 e5bc 5c2a 8abd b9e4 c4bc c08f ee3d
00000280: 482f 813a 81bc 903d 68e0 b43d 74e2 09b9
00000290: 4e45 223e 0413 01bd a1f5 04bd d1be 7d3b
000002a0: 1c70 79bc 90fc 4d3d fed5 70bc e11a ba3c
000002b0: 298e 95bb 5621 dd3b dc3e 603a 1a92 b2bc
000002c0: ff23 92bb d3e5 aabc d05c f4bd ba50 1f3e
000002d0: 0b6c 9eb9 034b acba d489 a33d e40b 7fbd
000002e0: 7d35 e0bc a185 99bd 9bc3 bdbb 8cfb 82bd
000002f0: 1d21 90bc 1b2f bc3c 5d83 1c3d dc68 a8bc
00000300: 10ed bf3d 68c0 be3d 80e1 043e 699d 813d
00000310: 6748 8fbc ebb0 9f3e 814e 993d 82b2 0bbc
00000320: f5b4 e1bb 3e81 28bb 1e22 d13e 86a0 b83e
00000330: 0b67 89bf 4fd7 c83c bf2d 5abe e491 9fbd
00000340: 40a9 afbd 53fc ffbb 0d33 c53c ba30 00bd
00000350: 980d 13be 9009 9e3d 77d9 cb3d e377 4fbd
00000360: c2ec a0bc d1dd 4bbe ecb2 25bf d41c b7bd
00000370: 9703 2d3d 33cd 45be a825 5a3e fe43 e73b
00000380: 8c01 7b3d a404 133e 0fcf 053d f870 973c
00000390: 5c33 6f3d 4a48 fc3d 57c4 7abd f0ab b8bd
000003a0: efd0 263d 26e8 60bd fd48 073d e075 ecbb
000003b0: 8741 0ebe 745c 07be 0852 693d c2d2 243e
000003c0: 2ca4 03bc 42d1 4cbd 86f4 4ebd 3ba2 483d
000003d0: 720f 66bd 288e 59bd a4c3 01bb 5d27 59bd
000003e0: b0d9 2fbd bb40 f63d bc02 8c3c 322b 913c
000003f0: fb5f bcbd dd18 4cbe fae9 62bd dbc4 90bd
0.060967904 0.2733444 -0.2537877 -0.034923792 0.13178577 0.0076251444 0.046426382 -0.0073297047
-0.1940621 0.18191475 0.60292417 -0.0070941597 0.00012663114 0.10494882 -0.005056479 0.017520685
0.040283337 0.10911457 -0.01864683 -0.3891193 -0.03083902 0.0727591 0.07123475 -0.030670006
-0.17589426 -0.13209847 0.2752839 0.44726098 0.007079771 0.0838775 0.042882238 0.5442551
0.09097827 -0.021062365 -0.26417026 -0.10078881 -0.09042492 -0.26630002 -0.032941576 -0.07511468
-0.39880243 -3.3916123e-05 0.15649766 -0.00050386833 -0.24982595 -0.12104852 -0.08728508 -0.032179233
-0.18841672 0.036912177 0.15537101 -0.032107066 0.0073303166 -0.068588376 -0.35354325 0.09272698
-0.051019724 -0.6359035 -0.6718245 0.03164951 -0.07217653 -0.0069663296 -0.27507177 0.0057151546
0.011775663 0.032036453 -0.01560299 -0.0047521912 0.049470913 -0.26760742 0.006816839 0.012303015
0.017323302 0.017612498 -0.008962829 0.20409589 -0.05299409 -0.0040157135 0.07045912 0.014383851
-0.018024553 0.061509095 -0.053553782 -0.09987427 0.12194509 -0.060334615 0.25925553 -0.26776457
0.076574825 -0.8141384 -0.2333197 0.028694695 0.00023395968 0.11259657 -0.6382369 -0.07373547
0.009898236 0.0053723897 -0.1435756 -0.0384784 0.056622475 0.008487361 -0.022245513 -0.27692813
-0.7290429 -0.015351973 0.09601737 0.033332493 0.024506284 0.16011082 -0.05894489 0.18227687
0.12538137 -0.010577446 0.22256319 -0.019998409 -0.072921894 -0.006722029 -0.08972443 0.0018274632
0.086698726 0.7263851 0.06722147 -0.0065033026 -0.002622463 -0.040049646 -0.022249717 -0.045516673
-0.09631711 0.010839007 0.8661738 -0.01817776 -0.26739067 0.049980655 -0.46817917 0.015856372
0.07125396 -0.010931282 -0.055011332 -0.009768101 -0.04930783 -0.01356466 0.018568138 -0.011502706
-0.04408958 0.11379309 -0.33860487 -0.00037741315 0.017326266 0.0332294 0.011196103 -0.19163957
0.052227918 -0.03189705 -0.12306654 0.10946629 -0.028010702 -0.06746361 -0.024034845 0.11648512
0.000985601 0.07067204 0.088318646 -0.00013149698 0.1584675 -0.031512275 -0.032460812 0.0038718472
-0.015224483 0.05028969 -0.014699457 0.022717895 -0.004564066 0.0067483587 0.00085542887 -0.021798182
-0.0044598575 -0.020861542 -0.11931765 0.15558138 -0.00030216607 -0.0013144914 0.07985273 -0.0622672
-0.027369255 -0.07496191 -0.0057911403 -0.06395635 -0.017593915 0.02297168 0.038211215 -0.020557813
0.09371388 0.09314042 0.12976646 0.06328852 -0.017490579 0.31189665 0.074856766 -0.008526446
-0.006888027 -0.00257118 0.40846342 0.3605997 -1.0734571 0.02451673 -0.21306513 -0.07791498
-0.08577204 -0.007812062 0.024072194 -0.03129647 -0.14360654 0.07716668 0.099535875 -0.050651442
-0.019644145 -0.19908835 -0.6472614 -0.089410454 0.04223975 -0.19316559 0.21303427 0.007057666
0.061280772 0.14357239 0.03266817 0.018486485 0.05839859 0.123184755 -0.0612224 -0.090171695
0.0407266 -0.054908894 0.03302859 -0.0072162 -0.13892184 -0.13218862 0.056962997 0.16096023
-0.008034747 -0.05000425 -0.050526164 0.04898284 -0.056167074 -0.053114086 -0.0019800449 -0.053016055
-0.042932212 0.12024065 0.017091148 0.017720792 -0.09197994 -0.1993136 -0.05539892 -0.07068797

exp_avg_sq f4 [92, 32]
00000000: d1c1 9a36 d0e9 1436 e29c b536 e8d4 6137
00000010: 95bf 8334 697f 3536 8c73 7438 8665 8a38
00000020: f700 5d36 4940 d235 aa06 c234 f2f9 2035
00000030: cd42 a839 9285 5237 051b 0036 f225 a138
00000040: 19b7 9237 ca5b 1337 2990 a337 1736 d336
00000050: f2a9 ba38 8e87 5c36 924f 4f37 8179 7e38
00000060: fee2 8836 840e 1237 8d06 5b34 de0e 8d34
00000070: 83b5 c139 f177 1a36 c8bb c935 53b1 5c34
00000080: 9340 4836 0f49 a738 e925 1636 a073 c537
00000090: 3a19 1237 27d4 f235 6e32 8a35 b291 5538
000000a0: cfe3 ea36 8e3d 1538 a9e5 1f36 8bd9 3838
000000b0: d81b 1137 dbb6 0338 d90e 0436 3db5 7f38
000000c0: 991f 3636 bd31 f636 2626 e834 b198 aa35
000000d0: b06e 3e38 754b 3c36 ae21 da36 252d ae36
000000e0: 431b 2037 8ffe 0b37 a2ba ab36 3a05 a937
000000f0: 968f 8438 d371 183a 5b77 3235 12cd e938
00000100: 818e 0b36 4bb3 0834 de29 b334 e978 d034
00000110: d16a 5934 6a84 0132 a974 1937 b757 1f34
00000120: 7e06 3233 fe88 9136 174f 0d35 8615 8732
00000130: 7d52 6435 e899 3235 ec8f dc34 17d6 2335
00000140: 2861 4d36 8c20 8131 8aa0 c232 f3b1 fb32
00000150: 3952 9e32 020b 8235 bf18 3733 1f91 9230
00000160: 13d8 0e34 4daa 9833 4dba 5434 44cd e534
00000170: a3c8 1135 c1a2 8233 41ab 8a31 f19c 4735
00000180: 4f15 5538 d5d6 a238 3c96 de37 36dd 0f39
00000190: f64f 0d39 9625 1439 6747 cb39 4889 cb35
000001a0: f8f9 de35 50b0 d037 d572 4f37 7915 8139
000001b0: 2c26 be37 09db 2536 2e67 5037 d19d a536
000001c0: 3f69 a838 11b3 5d3a 6e5a be35 5f39 a739
000001d0: 748f fb36 5f79 7f38 5acd 1839 89cd ad38
000001e0: d87f 2738 4764 a737 d0a0 3a39 25e9 153a
000001f0: b4c0 6938 b65c 2338 f146 d538 fe93 7938
00000200: d0e6 4c36 c926 4034 fc2d a334 0735 5337
00000210: 93eb c435 dde6 8435 e5e6 8e32 bbe2 5f37
00000220: 3958 7236 3bcc cb34 3f47 4436 9c78 9135
00000230: 598d 6d37 eec6 8e37 3aac 1e35 bcbd 8a38
00000240: e8ca 2b36 dd86 5f35 2955 1a35 883e a236
00000250: ae47 9533 ff4c 2436 d521 0f35 3a4a d032
00000260: 66d9 fc36 13c8 9135 ecb2 9635 031a 9635
00000270: 40e8 5637 af52 4e35 e174 4037 b284 2235
00000280: 8a12 cb33 21c6 3a33 9d4b d031 c91d a933
00000290: 2e17 d731 ec7b 3934 342b 7c32 7bcd 7835
000002a0: 8dec b234 a3ed 6133 f29a 3235 0dd0 6334
000002b0: 222f fa36 0807 d535 d7dc b034 b4cb b733
000002c0: cab5 4d35 7528 3c35 9785 9230 2be3 1131
000002d0: 89f8 9735 d574 8a36 e641 3632 474e 0032
000002e0: 7aef bd31 7479 b934 fd98 ba35 88cf b933
000002f0: 7eb1 5635 6ccf bf33 67c1 0e33 b818 6935
00000300: 8592 d936 fc90 6336 6a64 c536 68a2 a235
00000310: b38d 5c36 e1bd d433 1fff 3237 92e6 2a36
00000320: 0bcf 9a37 eeec d336 ddeb 9535 5e79 8635
00000330: a29a 7835 a877 a536 2480 5d35 ebe3 0d38
00000340: 3199 3e37 9db8 3837 c9d2 da36 8b43 9037
00000350: 3ffb 0934 b9a5 c737 fee8 cc33 ac45 9f37
00000360: f9fd ab37 9166 3838 8cb9 ef34 e366 bd36
00000370: 9254 9837 8c4f e534 a8ac 9d34 3060 f336
00000380: 5e99 a130 11e7 da30 d32b cd31 b80c a730
00000390: 3f76 f930 deef 2631 6b7f 7c31 c6b8 a931
000003a0: 5ecf a331 ec5e e031 b626 c231 5369 4e30
000003b0: 8f2a 5330 7fa8 a131 3b28 0032 6163 7b30
000003c0: f1ad ff32 9353 5630 dc93 1031 2c57 7930
000003d0: 95e9 bb31 1e69 c932 a4e6 0232 65ea bb32
000003e0: 49c2 3a32 d7bc 4033 6671 0f31 ca6b 7232
000003f0: 062e 8d30 e79a a330 fc89 3132 7e8e 7530
4.612121e-06 2.2189815e-06 5.412484e-06 1.3460616e-05 2.4540046e-07 2.7045264e-06 5.8281745e-05 6.599263e-05
3.2932128e-06 1.5664929e-06 3.6140165e-07 5.9968363e-07 0.00032093227 1.2548075e-05 1.9089214e-06 7.684146e-05
1.7489818e-05 8.783254e-06 1.9498244e-05 6.294587e-06 8.900826e-05 3.2861458e-06 1.2356688e-05 6.067148e-05
4.079541e-06 8.705658e-06 2.0398348e-07 2.6274114e-07 0.00036947065 2.3017603e-06 1.5030319e-06 2.0553607e-07
2.983991e-06 7.976789e-05 2.2373808e-06 2.3538072e-05 8.708152e-06 1.809215e-06 1.0296478e-06 5.0918847e-05
7.000264e-06 3.5581696e-05 2.3826526e-06 4.407162e-05 8.649156e-06 3.140313e-05 1.9678175e-06 6.096553e-05
2.7138506e-06 7.3371616e-06 4.3241124e-07 1.2710426e-06 4.5402616e-05 2.8058105e-06 6.500827e-06 5.1908596e-06
9.5430905e-06 8.344315e-06 5.117924e-06 2.0148804e-05 6.3209955e-05 0.0005815301 6.648385e-07 0.00011148503
2.0795562e-06 1.2731213e-07 3.337181e-07 3.8830993e-07 2.024856e-07 7.538896e-09 9.146673e-06 1.483994e-07
4.144976e-08 4.3372847e-06 5.2641684e-07 1.5725856e-08 8.5056655e-07 6.653413e-07 4.108291e-07 6.1033774e-07
3.0603933e-06 3.7580943e-09 2.2657577e-08 2.9301168e-08 1.8431011e-08 9.688958e-07 4.2630514e-08 1.0664144e-09
1.3303388e-07 7.109029e-08 1.9811814e-07 4.2803924e-07 5.4308674e-07 6.0832015e-08 4.035798e-09 7.4361657e-07
5.0803003e-05 7.7647775e-05 2.653442e-05 0.0001371995 0.00013476596 0.00014128382 0.00038772376 1.5164633e-06
1.6613039e-06 2.4877634e-05 1.2364898e-05 0.00024620796 2.266754e-05 2.4714411e-06 1.24217895e-05 4.9357554e-06
8.030468e-05 0.0008457164 1.4182422e-06 0.00031895467 7.497083e-06 6.0909773e-05 0.00014572349 8.287567e-05
3.9934966e-05 1.9954647e-05 0.0001779825 0.000571864 5.5730998e-05 3.8948572e-05 0.00010169845 5.9504055e-05
3.053272e-06 1.7895503e-07 3.0394574e-07 1.2588926e-05 1.4671699e-06 9.901956e-07 1.6635974e-08 1.3344626e-05
3.6112162e-06 3.7960294e-07 2.9247747e-06 1.0838444e-06 1.4159211e-05 1.7020353e-05 5.911021e-07 6.6156936e-05
2.5599093e-06 8.3270226e-07 5.7493395e-07 4.835256e-06 6.9513916e-08 2.4482722e-06 5.3320883e-07 2.4248141e-08
7.5354938e-06 1.0861571e-06 1.1227944e-06 1.1183441e-06 1.2809469e-05 7.68613e-07 1.1471305e-05 6.05428e-07
9.4562964e-08 4.3486697e-08 6.062193e-09 7.8750936e-08 6.2599588e-09 1.727455e-07 1.4678154e-08 9.268621e-07
3.3327197e-07 5.2603024e-08 6.653564e-07 2.1216711e-07 7.4560676e-06 1.5871783e-06 3.2943237e-07 8.558655e-08
7.663299e-07 7.009433e-07 1.0660867e-09 2.1229407e-09 1.132271e-06 4.1263215e-06 1.0608778e-08 7.468379e-09
5.5278493e-09 3.4547304e-07 1.3902605e-06 8.6524835e-08 7.99795e-07 8.9318604e-08 3.323785e-08 8.6835234e-07
6.484161e-06 3.3910028e-06 5.8827472e-06 1.2117207e-06 3.2865034e-06 9.906558e-08 1.0669027e-05 2.5466184e-06
1.8454642e-05 6.3158723e-06 1.117001e-06 1.00191e-06 9.261222e-07 4.931313e-06 8.2515385e-07 3.3829285e-05
1.136055e-05 1.1010238e-05 6.521445e-06 1.719759e-05 1.2850522e-07 2.379982e-05 9.541871e-08 1.898672e-05
2.0503054e-05 4.396454e-05 4.4652222e-07 5.6446165e-06 1.8159193e-05 4.2712452e-07 2.9369153e-07 7.253162e-06
1.1757881e-09 1.5927261e-09 5.9712675e-09 1.2154464e-09 1.8150742e-09 2.4292528e-09 3.6743255e-09 4.9395537e-09
4.7674993e-09 6.5300494e-09 5.650544e-09 7.509204e-10 7.682183e-10 4.7048725e-09 7.459728e-09 9.1454494e-10
2.9765006e-08 7.797151e-10 2.1038806e-09 9.070955e-10 5.4689715e-09 2.3447281e-08 7.6194375e-09 2.1876255e-08
1.08708e-08 4.4875232e-08 2.0873698e-09 1.4110762e-08 1.0272181e-09 1.1903837e-09 1.033413e-08 8.9332974e-10
