bbox_poisoning/lightning_logs/version_2869/checkpoints/epoch=99-step=600.ckpt (torch, 75320 bytes, 6 tensors)

entity_embeddings.weight f4 [135, 32]
0.43030787 -1.1333879 -0.7352589 -1.1541969 -0.7120983 1.2456372 1.3212914 -1.1302321
-1.1882184 -0.2066013 -0.6727168 0.8434722 0.4307916 0.89517474 -0.68325424 -0.10126729
0.34104142 -0.51149654 0.9545369 0.3533303 -0.6823284 0.61264443 0.21422547 0.11175763
0.46723607 -0.917611 0.86512285 0.7879079 -0.4026482 0.047213532 0.04990978 -0.5823432
0.8789553 -0.7750931 0.67554927 -0.24670492 -1.0975531 1.681924 -0.8874797 -0.863489
-0.34134805 -0.2686869 0.7993412 0.2396061 -0.4660933 0.48811194 0.9361422 -0.9928287
0.9624049 -0.10181481 0.3360945 0.9423164 -0.29007855 0.78230625 0.46542 -0.78710204
-1.0304385 -0.24480274 1.3167129 1.0247145 -0.72807205 1.1397477 -0.3685569 0.42974994
0.92552114 -1.1623967 0.29229626 -0.7471613 -0.008470003 0.61457026 -1.0542362 0.16405357
-0.13901979 1.3590049 1.305214 -0.05554653 0.98310715 1.1605798 -0.53034425 -0.15336117
0.28293017 -0.2094564 -0.2643213 0.22973022 -0.5688319 0.7596165 0.10463156 -0.48669723
0.4659038 0.101979114 -1.1752511 -0.9458963 0.5227357 -0.5993583 -0.19460987 0.71020424
-0.10967975 -1.4211564 -0.9490621 -0.39540875 -0.7319862 0.9865216 1.0659233 -0.07461774
-0.65958995 -0.5015984 -0.43110943 0.58697504 -0.7446166 1.2548686 -0.65345633 -0.5861867
-0.31729895 -0.3773311 0.9685841 0.74595743 0.118611954 0.8070745 -0.017995503 -0.45127377
0.9520915 -0.38089657 0.84444773 -0.3160427 0.5408799 0.76514596 0.49967602 -0.5373631
0.9208552 -1.0587915 0.15545723 -1.2648746 1.0322863 1.652963 -1.0840057 -0.4198434
-0.34236833 0.16928914 1.1198914 -1.0539632 -1.863035 0.801687 -0.5229989 1.1286007
-1.6618047 -0.4766068 -0.22482994 0.5826028 0.8144708 0.6951731 -0.22856285 0.7934431
0.8654665 1.5103297 -0.22984152 -0.4168487 0.7355336 1.7143966 0.7452449 -0.4503736
0.73718363 -0.9611609 -0.28115278 -0.26621157 -0.08208503 0.99032736 0.13063808 0.3882549
-0.39640906 0.19517751 0.49706396 -1.259764 1.2462863 0.7604297 -0.7050606 -0.5829771
0.5422977 -0.08157855 -0.42362106 0.28876892 -0.412807 0.21429972 0.91274035 -0.19428407
0.35393277 -0.17506343 -0.81120163 1.021898 0.86945635 -0.7569568 -0.5063566 1.010452
0.56057405 -0.35067967 0.371075 -0.7985706 1.2387854 1.8360506 -1.9101851 0.1786825
0.7914477 -0.14185542 0.26651394 -0.5232814 -1.03942 -1.027043 0.5695346 -1.1102816
0.9413838 -0.33641922 -0.08574979 -0.71281826 -0.050563514 1.3791274 -0.66118515 0.28368124
-0.92408264 -0.7659898 -0.07620013 -0.19488116 -0.20266488 1.5883557 -1.1350651 -0.44450456
0.46188024 -1.3828729 0.23347813 -0.25664333 -0.25045845 1.1000671 -1.210179 -0.6027219
-0.13479151 0.34051436 0.8794736 0.25168404 -0.85386974 -0.40061015 -1.0287874 -0.92201453
0.81155074 -0.2868089 1.8341855 -0.24759154 -0.48385367 0.7870301 -0.25144485 -1.3032914
-1.3570746 1.0767608 0.01106171 -0.26243147 -1.1132424 0.24887863 1.0611534 0.62507784
00000000: 5051 dc3e db12 91bf ed39 3cbf b9bc 93bf
00000010: 134c 36bf 0a71 9f3f 1420 a93f 72ab 90bf
00000020: 8a17 98bf 4b8f 53be 2b37 2cbf cbed 573f
00000030: b790 dc3e 2c2a 653f c0e9 2ebf 3a65 cfbd
00000040: fb9c ae3e 70f1 02bf 885c 743f b6e7 b43e
00000050: 13ad 2ebf 44d6 1c3f ec5d 5b3e 2fe1 e43d
00000060: 9139 ef3e 8ee8 6abf b178 5d3f 55b4 493f
00000070: e827 cebe fa62 413d 336e 4c3d 7214 15bf
00000080: 3703 613f 806c 46bf ccf0 2c3f 37a0 7cbe
00000090: 9f7c 8cbf 4949 d73f df31 63bf 9d0d 5dbf
000000a0: 2cc5 aebe 5491 89be a0a1 4c3f 4d5b 753e
000000b0: c8a3 eebe cfe9 f93e 04a7 6f3f 062a 7ebf
000000c0: 2b60 763f 4884 d0bd 9414 ac3e a63b 713f
000000d0: 2d85 94be 3945 483f 884b ee3e 857f 49bf
000000e0: 69e5 83bf 92ad 7abe 0c8a a83f d829 833f
000000f0: ee62 3abf 41e3 913f 7db3 bcbe 2f08 dc3e
00000100: f4ee 6c3f 6ac9 94bf dba7 953e f745 3fbf
00000110: c4c5 0abc 7a54 1d3f 36f1 86bf a9fd 273e
00000120: 345b 0ebe dff3 ad3f 4111 a73f c284 63bd
00000130: e9ac 7b3f e18d 943f a4c4 07bf b60a 1dbe
00000140: 39dc 903e bd7b 56be 1f55 87be 663e 6b3e
00000150: f89e 11bf 3a76 423f 1249 d63d 6130 f9be
00000160: f18a ee3e 6dda d03d a16e 96bf 4326 72bf
00000170: 02d2 053f 8c6f 19bf cf47 47be f2cf 353f
00000180: c79f e0bd 74e8 b5bf bcf5 72bf 0473 cabe
00000190: 7363 3bbf ae8c 7c3f 2d70 883f 30d1 98bd
000001a0: e3da 28bf c168 00bf 60ba dcbe ff43 163f
000001b0: 329f 3ebf 899f a03f ea48 27bf 5510 16bf
000001c0: 0275 a2be 8b31 c1be 21f5 773f 11f7 3e3f
000001d0: d3ea f23d 6f9c 4e3f 4e6b 93bc 5b0d e7be
000001e0: 45bc 733f e004 c3be ba2d 583f 59d0 a1be
000001f0: 1b77 0a3f 9be0 433f 89d5 ff3e a190 09bf
00000200: 2bbd 6b3f 7b86 87bf 2e30 1f3e 69e7 a1bf
00000210: f521 843f 4b94 d33f b3c0 8abf b7f5 d6be
00000220: e74a afbe 225a 2d3e 9a58 8f3f 44e8 86bf
00000230: ee77 eebf 5c3b 4d3f 42e3 05bf fd75 903f
00000240: 04b6 d4bf ce05 f4be d239 66be 7525 153f
00000250: 2981 503f ddf6 313f 610c 6abe 161f 4b3f
00000260: 368f 5d3f 7c52 c13f 935b 6bbe 316d d5be
00000270: ee4b 3c3f 5971 db3f 5fc8 3e3f 5e97 e6be
00000280: 11b8 3c3f a40e 76bf 42f3 8fbe e24c 88be
00000290: 321c a8bd 1886 7d3f fdc5 053e 59c9 c63e
000002a0: 21f6 cabe 9ddc 473e 2b7f fe3e f23f a1bf
000002b0: 4f86 9f3f 85ab 423f da7e 34bf fd3d 15bf
000002c0: 06d4 0a3f a812 a7bd dce4 d8be 85d9 933e
000002d0: 705b d3be 6371 5b3e 5aa9 693f 67f2 46be
000002e0: ad36 b53e d443 33be e9aa 4fbf 8ecd 823f
000002f0: b194 5e3f ecc7 41bf 96a0 01bf 7e56 813f
00000300: c881 0f3f 498c b3be 8bfd bd3e 1f6f 4cbf
00000310: 8590 9e3f b503 eb3f f280 f4bf 8cf8 363e
00000320: 519c 4a3f 8c42 11be 8474 883e c5f5 05bf
00000330: b70b 85bf 2576 83bf 05cd 113f b51d 8ebf
00000340: 87fe 703f 243f acbe 969d afbd 427b 36bf
00000350: b01b 4fbd 3f87 b03f 6e43 29bf ab3e 913e
00000360: ae90 6cbf e817 44bf d00e 9cbd ed8e 47be
00000370: 6287 4fbe 3d4f cb3f d049 91bf 1a96 e3be
00000380: 917b ec3e fb01 b1bf e414 6f3e c166 83be
00000390: 173c 80be 00cf 8c3f 25e7 9abf fc4b 1abf
000003a0: c906 0abe e657 ae3e 2f25 613f bbdc 803e
000003b0: 3597 5abf c61c cdbe 4eaf 83bf 2509 6cbf
000003c0: cac1 4f3f 9ed8 92be 97c6 ea3f a388 7dbe
000003d0: abbb f7be ce7a 493f 61bd 80be 41d2 a6bf
000003e0: 9fb4 adbf 4cd3 893f 2d3c 353c 6b5d 86be
000003f0: ba7e 8ebf 0ada 7e3e e0d3 873f 1a05 203f

relation_embeddings.weight f4 [46, 32]
-0.17717652 -0.91954464 0.18911558 -1.4544382 0.0014000573 -0.9764357 0.22110912 -0.7384056
0.43172148 0.2227965 -0.637076 -0.7205409 -0.0663516 -0.0646698 0.16203251 0.047490083
0.29221082 0.07239636 0.31795883 -0.21641618 -0.5201217 -0.0057932576 1.2066624 0.06737705
-0.019165695 0.025914842 -0.33241543 0.5070529 0.119875826 -0.63293415 -0.23520102 -0.05564191
-0.25890866 -0.924924 -0.8085948 -0.65166116 -0.11180818 -1.3852489 -0.22094248 0.20928445
0.882263 -0.5461683 -0.18696053 0.117229566 0.45622942 -0.23630652 -0.26014397 0.55053717
0.19800971 0.036150306 0.03973123 0.13045107 -0.5216326 -0.1434121 0.8750883 -0.5250382
0.614501 -0.88469833 0.044082914 -0.78075325 0.72179013 0.48628333 0.010108583 -0.68536997
0.31921768 -0.67663103 -0.38451925 -0.5654106 -0.37802932 -1.051508 -0.08074609 0.13505088
0.6116574 -0.077587895 -0.38949537 -0.13747185 0.9548418 0.61162883 -0.15910718 0.36423898
0.25547937 -0.033739176 -0.16917314 -0.15820101 0.60865355 0.06573201 0.81518036 -0.0738785
-0.07421802 0.40678188 -0.59886086 -0.17072214 0.12533522 -0.7255503 0.23765951 -0.58345836
-0.43719316 -1.4603714 0.5299511 -0.8242395 0.15091984 -0.74186736 0.21095718 0.5102599
0.54398507 0.69686383 0.11359162 0.18531787 0.57521987 0.29220927 -0.6486699 0.5112545
0.13531674 -0.9998974 0.20599085 0.05739588 0.7065024 0.11529728 -0.012685125 -0.58516407
-0.19556388 0.027848145 -0.25818807 0.660141 -0.62927085 0.40846714 0.4437928 0.164913
0.18941963 -0.30041546 0.04224636 -0.40725723 0.08032781 -0.9510209 -0.09962774 0.2417674
-0.022338877 -0.00573261 0.046955485 -0.19852838 0.0774566 0.027374063 -0.19654177 0.114663616
-0.110270545 -0.18503763 0.15724097 0.36266738 -0.14845334 -0.837255 0.092154674 0.030635899
-0.12762298 -0.07067386 -0.05709355 0.013294962 0.0048228106 0.19751911 -0.45045868 -0.2525489
0.41415253 -1.6928413 -0.18768011 -0.19827454 -0.57038176 -1.9646261 0.2411435 1.5154468
-0.8825318 -1.2337594 -0.2924739 0.7757485 0.9799539 0.33527038 0.22482945 1.3189821
-0.40627295 -0.20266126 -0.80813235 -0.03391702 0.9551758 0.030914951 0.71745443 -0.9549984
-0.18812852 0.8082119 1.4162463 0.5313283 0.44625115 1.1252761 -0.46725345 -0.72879547
0.92427784 -2.089285 0.3234115 -0.95179003 0.5886811 -1.3345226 0.8807904 -0.13358358
0.035277836 -0.5195876 0.36850548 -1.618698 -0.0016105745 1.368292 -1.042266 1.9375387
1.4639498 -0.7393143 0.16878349 0.6318138 -0.3203332 -0.13622965 0.009653887 -2.192194
-0.28252995 -1.0555948 -0.38074106 0.064000525 -1.2767383 -0.18211897 0.50009626 -0.4433291
0.53509295 -1.5124949 -0.13758452 -0.94252527 -1.123129 -1.4777906 0.62525356 0.039754875
-0.44682106 -0.02551723 0.12735946 0.17071415 -0.4767707 -0.27627537 -0.9294245 0.9977736
0.2361598 -0.12193652 -1.5416039 0.23282158 -0.66911983 0.13654508 -0.9247428 -0.18165618
0.5601019 -0.6676419 -0.64221686 -0.34465533 0.57396024 -0.36880404 0.5028381 -1.2686948
00000000: c36d 35be 4767 6bbf 84a7 413e 082b babf
00000010: 2182 b73a b1f7 79bf 6e6a 623e 2608 3dbf
00000020: 990a dd3e c424 643e 6a17 23bf 5e75 38bf
00000030: 59e3 87bd 9a71 84bd daeb 253e f684 423d
00000040: a89c 953e 8b44 943d 80cb a23e 349c 5dbe
00000050: b226 05bf 5ed5 bdbb ea73 9a3f fbfc 893d
00000060: 6001 9dbc 5d4b d43c 5b32 aabe 38ce 013f
00000070: 7581 f53d f907 22bf 89d8 70be c5e8 63bd
00000080: ad8f 84be d2c7 6cbf 1200 4fbf 44d3 26bf
00000090: b0fb e4bd d64f b1bf bf3e 62be aa4e 563e
000000a0: fddb 613f b0d1 0bbf 9572 3fbe 0e16 f03d
000000b0: e796 e93e 56fa 71be 9731 85be 01f0 0c3f
000000c0: 0fc3 4a3e 5812 143d 37bd 223d f794 053e
000000d0: b789 05bf 9fda 12be c905 603f e768 06bf
000000e0: f04f 1d3f 977b 62bf 4990 343d 72df 47bf
000000f0: 3dc7 383f 21fa f83e 789e 253c 6874 2fbf
00000100: 8070 a33e b137 2dbf b5df c4be c0be 10bf
00000110: 0f8d c1be d097 86bf 355e a5bd c74a 0a3e
00000120: 9495 1c3f 67e6 9ebd f06b c7be 6cc5 0cbe
00000130: 8370 743f b593 1c3f feec 22be 887d ba3e
00000140: 31ce 823e 1732 0abd b93b 2dbe 72ff 21be
00000150: b8d0 1b3f 819e 863d a9af 503f 9c4d 97bd
00000160: 9eff 97bd b745 d03e f24e 19bf c9d1 2ebe
00000170: e057 003e aabd 39bf 045d 733e 875d 15bf
00000180: c8d7 dfbe 73ed babf e0aa 073f 5c01 53bf
00000190: bb8a 1a3e 05eb 3dbf 2905 583e 65a0 023f
000001a0: 9b42 0b3f ab65 323f b9a2 e83d f8c3 3d3e
000001b0: 9c41 133f 749c 953e 3b0f 26bf 93e1 023f
000001c0: 7990 0a3e 47f9 7fbf 44ef 523e f117 6b3d
000001d0: 57dd 343f fb20 ec3d 45d5 4fbc 50cd 15bf
000001e0: e641 48be cb21 e43c 3a31 84be 00ff 283f
000001f0: e517 21bf 9b22 d13e cf38 e33e f4de 283e
00000200: 38f7 413e 0ed0 99be 850a 2d3d 0584 d0be
00000210: e882 a43d 1b76 73bf a109 ccbd e091 773e
00000220: 0500 b7bc 9ed8 bbbb 6554 403d 064b 4bbe
00000230: 91a1 9e3d 923f e03c 3f42 49be c2d4 ea3d
00000240: 86d5 e1bd 817a 3dbe c703 213e 8aaf b93e
00000250: 2704 18be 5856 56bf 97bb bc3d 23f8 fa3c
00000260: 99af 02be 75bd 90bd edda 69bd 1dd3 593c
00000270: ab08 9e3b 7342 4a3e 85a2 e6be 174e 81be
00000280: cd0b d43e 06af d8bf 372f 40be 7b08 4bbe
00000290: 8a04 12bf de78 fbbf 52ee 763e 29fa c13f
000002a0: 9bed 61bf d4eb 9dbf 24bf 95be 7497 463f
000002b0: 42de 7a3f 8fa8 ab3e b139 663e 68d4 a83f
000002c0: 0203 d0be 6f86 4fbe c3e1 4ebf 93ec 0abd
000002d0: 6786 743f 5a41 fd3c 18ab 373f c67a 74bf
000002e0: c3a4 40be fae6 4e3f 8f47 b53f 2205 083f
000002f0: 087b e43e 0c09 903f d83b efbe 5792 3abf
00000300: 799d 6c3f d8b6 05c0 3196 a53e 83a8 73bf
00000310: ceb3 163f a3d1 aabf 7b7b 613f 22ca 08be
00000320: 7e7f 103d b103 05bf c0ac bc3e 7f31 cfbf
00000330: ea19 d3ba 3124 af3f f968 85bf 4501 f83f
00000340: b562 bb3f b443 3dbf 94d5 2c3e 8dbe 213f
00000350: b702 a4be c97f 0bbe 562b 1e3c e84c 0cc0
00000360: c4a7 90be bb1d 87bf 7ef0 c2be b512 833d
00000370: 296c a3bf 657d 3abe 4f06 003f 08fc e2be
00000380: dafb 083f 6f99 c1bf f5e2 0cbe 5649 71bf
00000390: b1c2 8fbf 3e28 bdbf 9e10 203f 02d6 223d
000003a0: bbc5 e4be 8309 d1bc 856a 023e b1cf 2e3e
000003b0: 4a1b f4be f773 8dbe c4ee 6dbf 176e 7f3f
000003c0: e0d3 713e dbb9 f9bd 4753 c5bf c868 6e3e
000003d0: 704b 2bbf 79d2 0b3e f2bb 6cbf 1404 3abe
000003e0: d762 0f3f 94ea 2abf 5368 24bf aa76 b0be
000003f0: 0fef 123f e2d3 bcbe ffb9 003f 9764 a2bf

exp_avg f4 [135, 32]
-0.02247599 0.028539479 -0.011711084 0.12272092 -0.021226708 -0.01953914 -0.09848264 -0.56033057
-0.036148246 -0.00783048 -0.17707078 -0.043526333 -0.03960895 -0.03198263 0.13408181 0.017101673
0.026519699 0.31164864 0.009111177 -0.0005355438 -0.013388929 -0.12296488 0.046798777 -0.0031431424
-0.010907638 -0.08372888 -0.008229378 0.02951589 -0.06078816 0.015718423 -0.032904528 -0.075434804
-0.076523244 -0.26225868 -0.05609268 0.004877464 0.053105313 1.0143479 0.07108636 0.11258393
-0.018592237 -0.07886516 -0.14923757 0.010613897 0.033002365 -0.027969673 -0.09941249 0.088014096
-0.022467649 -0.4655698 -0.09549052 0.022340469 0.06796058 0.5646134 -0.21216378 0.07556804
0.00354683 -0.039331373 0.024083063 -0.11399092 0.00659383 -0.041496944 -0.012148671 -0.02900315
0.13049403 0.018891554 -0.02233408 -0.07054824 0.05298819 0.69855595 0.19709425 0.20473225
0.082724445 -0.1507662 -0.2207658 -0.067208156 -0.20308115 -0.18101059 0.061581958 0.12545708
-0.029833678 -0.03620679 0.12528709 0.0107898405 0.03577352 -0.29845908 -0.06319706 0.18142012
0.16192847 0.048432667 0.28283086 -0.11157582 0.037245132 0.1463721 0.05080156 -0.013785726
0.008851565 0.018410914 0.029863901 0.018944904 -0.091118805 -0.13116863 0.084071696 -0.030149229
-0.020975975 0.022530906 0.068499155 0.09361254 0.01842028 0.06285685 0.012975261 -0.04629797
-0.02006598 0.018318588 0.012491511 -0.0649656 0.0064918203 -0.048913773 0.14724493 0.027213419
0.026458887 -0.06501965 0.043777857 0.019863248 0.0129639255 0.15038873 -0.0051632356 0.027233522
0.23082347 0.052640703 -0.0070565497 0.03342521 -0.041126803 -0.20472553 0.053276826 0.26963514
-0.0067470176 0.024632653 0.012194819 -0.19133398 -0.080866426 -0.15683769 0.024864083 -0.18958046
-0.5979788 -0.029803319 0.0547274 -0.048014164 0.010031835 -0.15387955 0.15482385 0.012102443
0.0036529545 -0.00087609317 0.073750615 -0.36012462 -0.36625722 -0.12974085 0.0033611432 -0.12130411
0.17699572 0.19249487 -0.021722788 0.079988286 0.025905952 -0.5490255 0.354684 0.6853823
-0.0007152807 -0.16542947 -0.15174694 -0.1085989 0.6114765 0.037389297 0.056972727 0.16328828
-0.27286628 0.18985769 -0.007154424 -0.0053285128 -0.057253793 -0.83497125 0.11794102 -0.49888638
-0.022490244 0.3116792 -1.1297433 0.006574474 -0.2976396 0.080485456 0.046632558 0.03603769
0.0010142168 0.03236615 -0.02943801 0.0019482517 -0.0037201783 -0.025018642 0.04863495 -0.0049668266
-0.00022526522 0.027404409 -0.009479186 0.008933865 -0.010504308 -0.363081 0.0060827276 0.005412334
-0.012348021 -0.019941375 -0.005028171 0.023511993 -0.0019749945 -0.028714014 -0.08417369 0.07147248
0.011879035 -0.10039102 0.019533493 -0.01108285 0.020515554 -0.017540233 -0.0030511685 0.038263075
-0.15716283 -0.38914874 -0.29024744 -0.024124486 -0.0041203382 0.08940676 0.100278944 -0.4955237
0.0194296 -0.028917238 -0.10703602 0.02462995 -0.18796971 -0.21247324 -0.017961854 0.098248035
-0.015195566 -0.11860292 -0.20621364 -0.047857583 -0.03643205 0.07001727 -1.0028883 -0.010289119
0.0021930167 -0.013612531 0.0066973343 0.018241277 0.086035825 -0.08836832 -0.035968058 -0.016083006
00000000: 911f b8bc a0cb e93c d9df 3fbc 1b55 fb3d
00000010: a2e3 adbc 8c10 a0bc 44b1 c9bd d371 0fbf
00000020: 2f10 14bd 6a4b 00bc 0b52 35be ab48 32bd
00000030: ff3c 22bd 3800 03bd be4c 093e cf18 8c3c
00000040: d73f d93c 6990 9f3e 0c47 153c bc63 0cba
00000050: 3d5d 5bbc 03d5 fbbd 13b0 3f3d 2efd 4dbb
00000060: f3b5 32bc 0c7a abbd 83d4 06bc 4fcb f13c
00000070: 01fd 78bd ecc3 803c e6c6 06bd 907d 9abd
00000080: 38b8 9cbd c546 86be 70c1 65bd 22d3 9f3b
00000090: f584 593d 27d6 813f ba95 913d 6792 e63d
000000a0: bf4e 98bc 0f84 a1bd bcd1 18be e9e5 2d3c
000000b0: 7d2d 073d a820 e5bc c798 cbbd bc40 b43d
000000c0: 130e b8bc 2a5f eebe 8990 c3bd 5c03 b73c
000000d0: eb2e 8b3d 818a 103f 7641 59be 6bc3 9a3d
000000e0: ef71 683b ef19 21bd d849 c53c 1274 e9bd
000000f0: 0e11 d83b b3f8 29bd 380b 47bc 0498 edbc
00000100: 3aa0 053e 76c2 9a3c f6f5 b6bc 987b 90bd
00000110: 250a 593d 90d4 323f 13d3 493e 55a5 513e
00000120: 6f6b a93d 7462 1abe 6e10 62be 6ea4 89bd
00000130: 81f4 4fbe d75a 39be 5d3d 7c3d d277 003e
00000140: c265 f4bc 924d 14bd 424b 003e dfc7 303c
00000150: 4187 123d a1cf 98be 766d 81bd 32c6 393e
00000160: 94d0 253e 5561 463d 35cf 903e dd81 e4bd
00000170: 5a8e 183d 91e2 153e 4c15 503d 87dd 61bc
00000180: 2806 113c 7cd2 963c 24a5 f43c 5832 9b3c
00000190: 7f9c babd 1251 06be c82d ac3d 84fb f6bc
000001a0: cfd5 abbc bc92 b83c 4949 8c3d eeb7 bf3d
000001b0: 21e6 963c 18bb 803d 3096 543c f1a2 3dbd
000001c0: 6961 a4bc dd10 963c 32a9 4c3c af0c 85bd
000001d0: 56b9 d43b cf59 48bd 60c7 163e adee de3c
000001e0: 4fc0 d83c 0629 85bd 6950 333d 40b8 a23c
000001f0: a566 543c 81ff 193e 5c30 a9bb d618 df3c
00000200: fd5c 6c3e c79d 573d a13a e7bb dfe8 083d
00000210: 9474 28bd 92a3 51be cd38 5a3d 9e0d 8a3e
00000220: 1616 ddbb 6bca c93c c7cc 473c 0eed 43be
00000230: 4c9d a5bd 0f9a 20be c3af cb3c 6121 42be
00000240: 2315 19bf 1726 f4bc d729 603d 80aa 44bd
00000250: 915c 243c 9a92 1dbe 258a 1e3e 5349 463c
00000260: 6866 6f3b 9ea9 65ba 900a 973d 4162 b8be
00000270: 1186 bbbe c9da 04be a046 5c3b 4a6e f8bd
00000280: 5e3e 353e 601d 453e fdf3 b1bc e6d0 a33d
00000290: b838 d43c ef8c 0cbf 2499 b53e 3775 2f3f
000002a0: ad81 3bba 5866 29be 8d63 1bbe 1a69 debd
000002b0: b989 1c3f 8525 193d 3c5c 693d 0b35 273e
000002c0: 21b5 8bbe 0e6a 423e a96f eabb ce9a aebb
000002d0: f482 6abd adc0 55bf 108b f13d 096e ffbe
000002e0: 763d b8bc 6b94 9f3e 6e9b 90bf af6e d73b
000002f0: 3864 98be 8fd5 a43d c801 3f3d 429c 133d
00000300: 78ef 843a 5e92 043d fb27 f1bc 7b5c ff3a
00000310: 3cce 73bb e5f3 ccbc 7135 473d c3c0 a2bb
00000320: 2c35 6cb9 367f e03c 964e 1bbc 595f 123c
00000330: 431a 2cbc c1e5 b9be 9e51 c73b f359 b13b
00000340: 5b4f 4abc 185c a3bc 5bc3 a4bb 399c c03c
00000350: e96e 01bb a739 ebbc 4163 acbd 2a60 923d
00000360: 49a0 423c cf99 cdbd b404 a03c d894 35bc
00000370: 3c10 a83c 89b0 8fbc 1df6 47bb beb9 1c3d
00000380: 4bef 20be 813e c7be 509b 94be b7a0 c5bc
00000390: e703 87bb e41a b73d 0c5f cd3d 48b5 fdbe
000003a0: d32a 9f3c d8e3 ecbc b335 dbbd c0c4 c93c
000003b0: 227b 40be 9692 59be bd24 93bc 4436 c93d
000003c0: d3f6 78bc 16e6 f2bd ab29 53be 5006 44bd
000003d0: c639 15bd 3765 8f3d a55e 80bf b193 28bc
000003e0: b7b8 0f3b 1807 5fbc 5075 db3b bb6e 953c
000003f0: 8d33 b03d 73fa b4bd 3e53 13bd 82c0 83bc

exp_avg_sq f4 [135, 32]
1.5697928e-05 1.6412141e-05 2.972409e-05 2.0539285e-07 1.5664897e-05 2.962403e-05 7.2730927e-07 2.863699e-08
1.3277173e-05 1.8205707e-06 4.112763e-07 4.897155e-06 2.0799423e-06 6.829802e-06 3.8503785e-08 6.0081045e-05
3.4821555e-06 1.4186237e-07 2.998135e-05 9.8356e-06 1.4109618e-07 1.3076049e-06 2.0126977e-06 2.3168592e-05
3.577716e-06 5.551792e-07 1.3044479e-05 9.140634e-06 3.8116852e-07 2.773826e-05 9.185068e-06 2.3347864e-06
1.696199e-05 2.1947633e-06 3.871357e-06 6.147762e-05 1.195367e-05 3.307963e-07 1.1253983e-05 2.663539e-07
1.31206e-05 7.4951595e-07 2.5003574e-06 9.444891e-06 5.345045e-07 6.3638375e-08 4.0234193e-07 1.2123995e-05
4.6664052e-05 7.9631684e-07 4.7403396e-06 2.7435233e-06 1.7374115e-06 3.5069888e-07 7.156098e-07 4.5944657e-07
9.977246e-06 3.9140755e-08 1.0923559e-06 8.871884e-07 2.9807595e-06 5.7687366e-06 2.8509785e-05 3.0489897e-05
5.602931e-06 1.6834918e-05 4.3296823e-05 1.4443627e-05 4.2788677e-05 5.267263e-07 5.1829534e-06 8.955935e-07
3.709858e-06 1.1982701e-06 2.7029327e-07 5.6529657e-06 4.944161e-07 1.6695479e-07 1.091164e-05 1.8351253e-06
7.533302e-05 3.044083e-06 3.6847828e-06 2.1240732e-05 4.1192106e-05 1.0053988e-06 9.764751e-06 8.762444e-08
1.359677e-06 1.5503612e-05 2.408613e-06 1.3970532e-05 2.813611e-07 6.4811775e-06 2.912857e-06 7.669015e-05
8.858235e-06 2.0708248e-05 1.963634e-06 1.0435657e-05 1.734018e-07 3.4080554e-06 3.9227325e-06 1.332294e-06
2.7918668e-06 3.1021352e-06 1.1346696e-06 1.3411532e-06 1.1566847e-05 1.3543194e-06 2.2237803e-06 3.30148e-06
6.372974e-06 3.1955033e-06 2.157743e-06 7.4274085e-06 4.1380376e-06 7.306409e-06 2.190385e-07 8.367132e-06
1.9042045e-06 9.890566e-07 9.3673325e-06 4.9533764e-07 1.9925625e-05 4.4687928e-07 1.6502394e-06 1.39333415e-05
3.6107682e-08 8.159458e-06 1.0923318e-06 1.1864852e-06 4.624608e-07 5.200128e-07 1.8496518e-06 1.2562545e-08
2.573971e-06 2.7096646e-06 1.4150329e-07 1.2956313e-06 2.2062088e-07 2.234793e-08 2.117087e-06 6.747066e-07
2.4006187e-07 1.3064013e-06 9.3360273e-07 1.8431147e-06 7.12354e-07 9.142828e-07 6.319641e-07 3.4510433e-07
4.331409e-06 1.9242495e-07 3.8202984e-06 1.8468558e-07 2.5502626e-08 3.7126313e-07 4.217123e-06 5.4095943e-07
5.5818427e-06 6.074131e-05 0.00029580697 4.5073422e-05 4.1857926e-05 1.42306635e-05 2.058526e-06 1.5348152e-07
6.141416e-05 1.0063857e-07 2.3399599e-07 2.8887021e-05 2.1175572e-06 2.1860134e-05 2.438172e-05 1.0232025e-06
1.978527e-07 9.549077e-07 4.184993e-05 0.00023152739 7.078488e-06 2.2687136e-06 3.7392198e-05 1.0289439e-06
7.166841e-06 8.258869e-07 6.184058e-07 2.1718632e-05 2.6317358e-07 1.6496218e-05 8.4826046e-05 2.9592102e-05
4.271164e-06 1.313355e-05 4.41112e-06 3.1421775e-06 3.7339843e-05 2.923696e-06 1.3929198e-07 1.3581317e-06
3.6242059e-06 1.4394946e-06 3.7784355e-07 1.43594425e-05 6.525265e-06 9.054935e-09 2.1483726e-05 5.5456185e-06
1.3157483e-05 1.8399825e-07 1.0336907e-05 1.8908156e-07 1.119803e-06 1.957721e-06 4.016922e-07 3.085818e-07
3.8515036e-06 2.0434352e-07 6.401472e-07 4.434243e-06 3.7546495e-06 2.2831612e-06 6.354701e-07 2.5641061e-06
2.488978e-07 9.462106e-07 1.0470122e-06 4.2623383e-06 8.288655e-06 1.8098886e-05 3.0397928e-06 4.512766e-08
2.8828113e-06 6.1515025e-06 2.5232903e-06 4.2392597e-07 7.971646e-08 1.0065565e-07 2.7266622e-06 3.305163e-06
6.8088634e-06 2.4190924e-06 2.6760512e-07 1.014354e-06 1.0939941e-05 2.7587369e-06 5.5733995e-08 6.058539e-07
3.564126e-06 8.220389e-05 1.4605632e-05 2.349541e-05 1.4884399e-06 3.8905387e-06 1.4008233e-05 5.8788905e-06
00000000: 0baf 8337 ceac 8937 ff57 f937 f589 5c34
00000010: 1c68 8337 1f81 f837 503c 4335 68fd f532
00000020: 06c1 5e37 555a f435 62cd dc34 3e52 a436
00000030: 2395 0b36 8d2b e536 5c5f 2533 88ff 7b38
00000040: faae 6936 d552 1834 7580 fb37 9503 2537
00000050: 3980 1734 f680 af35 e211 0736 2c5a c237
00000060: b118 7036 a007 1535 9cd9 5a37 b95a 1937
00000070: 67a3 cc34 76af e837 9119 1a37 53af 1c36
00000080: 9949 8e37 bf49 1336 b4e6 8136 8ced 8038
00000090: 9f8c 4837 4c98 b134 7dcf 3c37 67ff 8e34
000000a0: 8c20 5c37 5832 4935 d0cb 2736 7f75 1e37
000000b0: df7a 0f35 91a9 8833 7401 d834 2968 4b37
000000c0: 25b9 4338 7ac2 5535 350f 9f36 5f1d 3836
000000d0: 0131 e935 b047 bc34 5518 4035 dba9 f634
000000e0: f263 2737 b71b 2833 109d 9235 1f27 6e35
000000f0: 0f09 4836 1291 c136 4c28 ef37 8ec4 ff37
00000100: d000 bc36 b638 8d37 9c99 3538 e852 7237
00000110: fe77 3338 5b64 0d35 3be9 ad36 b768 7035
00000120: e0f6 7836 3fd4 a035 d31c 9134 9bae bd36
00000130: 04b8 0435 2f44 3334 2311 3737 6d4e f635
00000140: 1bfc 9d38 f348 4c36 1648 7736 202e b237
00000150: b0c5 2c38 3df1 8635 49d3 2337 0c2c bc33
00000160: 257e b635 c10d 8237 a8a3 2136 fa62 6a37
00000170: fa0d 9734 e478 d936 817a 4336 b6d4 a038
00000180: d49d 1437 a0b6 ad37 fac6 0336 ce14 2f37
00000190: 5330 3a34 f2b5 6436 04a0 8336 46d1 b235
000001a0: e85b 3b36 472e 5036 f34a 9835 ac01 b435
000001b0: 3b0f 4237 0fc6 b535 413c 1536 ff8e 5d36
000001c0: 6ed7 d536 5472 5636 becd 1036 f438 f936
000001d0: 79d9 8a36 9329 f536 d830 6b34 8f60 0c37
000001e0: f893 ff35 babf 8435 6328 1d37 58f7 0435
000001f0: f425 a737 9fea ef34 cb7d dd35 3fc3 6937
00000200: d114 1b33 9be4 0837 3c9c 9235 523f 9f35
00000210: 2148 f834 0297 0b35 8d41 f835 a8d2 5732
00000220: 7cbc 2c36 afd7 3536 21f0 1734 8de5 ad35
00000230: cee3 6c34 9ef7 bf32 4713 0e36 7c1d 3535
00000240: dae1 8034 9b57 af35 b19c 7a35 f060 f735
00000250: 9838 3f35 096d 7535 3ea4 2935 c746 b934
00000260: 8556 9136 5e9d 4e34 1d30 8036 fc4d 4634
00000270: de10 db32 0452 c734 d080 8d36 7336 1135
00000280: aa4b bb36 7cc4 7e38 8a16 9b39 380d 3d38
00000290: 9b90 2f38 3cc0 6e37 3525 0a36 aecc 2434
000002a0: 7acb 8038 a41e d833 5440 7b34 6852 f237
000002b0: 5b1b 0e36 4860 b737 5887 cc37 f854 8935
000002c0: 5671 5434 612a 8035 0588 2f38 29c6 7239
000002d0: c083 ed36 3440 1836 91d5 1c38 3e1a 8a35
000002e0: b27a f036 84b2 5d35 8600 2635 6830 b637
000002f0: 4d4a 8d34 5c61 8a37 a3e4 b138 8e3c f837
00000300: 0551 8f36 2b58 5c37 3b03 9436 33de 5236
00000310: 5a9d 1c38 b734 4436 4a90 1534 0d49 b635
00000320: 6237 7336 a834 c135 6cda ca34 56e9 7037
00000330: 99f3 da36 0690 1b32 f337 b437 8014 ba36
00000340: f6be 5c37 0e91 4534 ad6c 2d37 5806 4b34
00000350: 234c 9635 6461 0336 28a8 d734 29ab a534
00000360: 2a3c 8136 8569 5b34 95d6 2b35 dbc9 9436
00000370: 63f8 7b36 6938 1936 2c95 2a35 0213 2c36
00000380: 41a0 8534 19ff 7d35 1187 8c35 3505 8f36
00000390: 810f 0b37 10d3 9737 3eff 4b36 63d2 4133
000003a0: 5276 4136 0169 ce36 cc55 2936 f197 e334
000003b0: 9630 ab33 0728 d833 b3fb 3636 45ce 5d36
000003c0: b177 e436 b157 2236 5eab 8f34 f024 8835
000003d0: b08a 3737 bd22 3936 2d60 6f33 f7a1 2235
000003e0: 382f 6f36 e164 ac38 b60a 7537 0218 c537
000003f0: 68c6 c735 798b 8236 e704 6b37 4943 c536

exp_avg f4 [46, 32]
0.112411365 0.004172753 0.024180988 -0.007127602 -0.0018566204 -0.011090885 -0.06537901 0.014597361
0.16475692 -0.024473805 0.04629344 -0.01742884 -0.020132348 0.025254799 -0.08029282 -0.013682165
-0.021583078 -0.03824661 0.02526583 0.01137898 -0.1448453 0.008999111 -0.04791086 -0.027271455
-0.046852153 0.045099944 -0.040453047 -0.08711346 -0.019306552 0.0076750577 -0.03107332 -0.11284914
-0.04591666 0.47260138 -0.0152676385 0.10481347 0.02196611 0.23377837 -0.9884654 -0.077044725
0.068843365 -0.20912829 0.00950334 -0.095922284 -0.02722668 0.18409744 -0.049791392 0.0010342529
-0.05351574 0.015708871 0.1665844 0.008701412 -0.72395545 -0.031049313 0.24963829 -0.029775636
-0.046661187 -0.0007110145 -0.20251681 -0.16283603 -0.039106235 -0.043597613 -0.09559067 -0.018185642
0.018881911 0.01290659 -0.104975075 0.54111075 -0.024938209 0.06515522 -0.0077200457 0.060451116
0.3332857 0.066852614 0.039293285 -0.06379694 -0.13876884 0.40563536 -0.01797326 -0.0009168278
-0.0070196036 0.03706887 0.019028423 0.0051675867 0.093682915 -0.2796238 -0.10661954 0.18008918
-0.010039034 0.023601752 0.007136135 -0.035296217 -0.12321399 -0.06818799 -0.0029243552 -0.0045523215
-0.0007713007 0.630287 0.26648846 0.276547 0.33970636 0.99013054 0.6199654 0.039172243
0.4692498 0.23538435 0.15588976 0.03835849 0.17255305 0.015033871 0.38483912 0.007819213
0.11296719 -0.7606037 -0.02847194 -0.0027396015 0.10625799 0.17377952 0.16556448 -0.12504
0.09965699 0.04299027 -0.032647274 0.12530597 -0.023948815 -0.02089961 -0.032847546 -0.10633763
-9.860622e-06 0.066795744 0.04657167 0.1977658 0.13136993 -0.049382575 -0.049898125 0.039469384
0.036884043 0.066898584 -0.17665668 0.024461986 0.18932508 0.020946274 -0.023141507 0.09508544
-0.13390541 -0.09473095 -0.1161214 0.02146313 0.052013163 -0.059831396 0.026045451 0.00096680806
0.42658058 -0.108395085 -0.008525973 0.7457217 -0.10626903 -0.12805976 0.015383213 -0.55827904
-0.052527003 0.74309725 0.03586112 0.15099266 -0.03233459 0.26389983 -0.13567135 0.3861204
-0.5698889 0.24390523 -0.43199143 -0.50648093 0.0063000345 -0.020995196 0.0033474416 -0.034352183
-0.049951676 -0.42747906 -0.12423113 0.020823479 -0.10037062 0.0123784 0.12835787 -0.7247901
-0.3843988 0.118436754 0.5248922 0.27353123 0.16172044 0.3222156 0.023552544 0.05646928
0.022990063 0.028040405 0.035366386 0.2060109 -0.0014425099 -0.0008999748 -0.05258472 0.00761682
-0.0020754714 -0.07798532 -0.020235712 -0.012852822 -0.08643126 -0.27999786 -0.034076907 0.014860056
-0.044792317 -0.30183938 0.21544792 -0.10015472 0.061851438 -0.005215542 -0.048132636 -0.007882165
-0.2826713 -0.15349698 0.11221873 0.035719015 0.08476207 0.041227866 -0.102343135 -0.010852666
-0.29622206 -0.12174898 0.42827332 -0.03460242 -0.008442432 -0.13385908 0.041242514 0.03437091
0.05826398 0.24194238 0.5811972 -0.1430947 0.30832162 0.5146745 0.013927724 -0.06931648
0.0941266 -0.04438526 0.31717676 0.034264144 -0.0058353688 -0.050600555 -0.02247514 -0.22168675
0.024939042 0.48668888 0.033387523 0.6847901 -0.05472917 0.030922053 0.026510965 0.51327246
00000000: ee37 e63d 97bb 883b 3517 c63c a98e e9bb
00000010: d859 f3ba 8bb6 35bc 6ee5 85bd c529 6f3c
00000020: 0ab6 283e 4a7d c8bc 319e 3d3d edc6 8ebc
00000030: 98ec a4bc 27e3 ce3c 9070 a4bd 292b 60bc
00000040: ffce b0bc 7aa8 1cbd 49fa ce3c e76e 3a3c
00000050: 5452 14be 0271 133c 2e3e 44bd 6368 dfbc
00000060: 0be8 3fbd b8ba 383d 18b2 25bd 8b68 b2bd
00000070: c628 9ebc 0d7f fb3b 7a8d febc 731d e7bd
00000080: 1c13 3cbd cff8 f13e 1e25 7abc 72a8 d63d
00000090: 46f2 b33c 9963 6f3e 120c 7dbf a0c9 9dbd
000000a0: c0fd 8c3d ba25 56be e6b3 1b3c e772 c4bd
000000b0: 7d0a dfbc 0a84 3c3e 0ff2 4bbd c58f 873a
000000c0: 5233 5bbd e4af 803c 1a95 2a3e 5e90 0e3c
000000d0: 2555 39bf 215b febc 2ea1 7f3e 09ec f3bc
000000e0: cd1f 3fbd 6063 3aba 9160 4fbe 7dbe 26be
000000f0: dc2d 20bd 6993 32bd 0bc5 c3bd 0efa 94bc
00000100: 3dae 9a3c 2976 533c 2cfd d6bd 3c86 0a3f
00000110: 374b ccbc 1a70 853d 70f8 fcbb 979b 773d
00000120: 6ca4 aa3e 06ea 883d fff1 203d f8a7 82bd
00000130: 6b19 0ebe 70af cf3e a83c 93bc 4657 70ba
00000140: b404 e6bb 87d5 173d 7fe1 9b3c dc54 a93b
00000150: d4dc bf3d da2a 8fbe 585b dabd 4c69 383e
00000160: c37a 24bc 7658 c13c 3dd6 e93b c492 10bd
00000170: 9e57 fcbd 25a6 8bbd 8aa6 3fbb a42b 95bb
00000180: 1d31 4aba 7d5a 213f 2d71 883e 9297 8d3e
00000190: feed ad3e 3279 7d3f 0db6 1e3f 1373 203d
000001a0: 8341 f03e 9808 713e 91a1 1f3e cb1d 1d3d
000001b0: bfb1 303e a050 763c a209 c53e 281c 003c
000001c0: 585b e73d edb6 42bf fc3d e9bc e38a 33bb
000001d0: ca9d d93d 42f3 313e bc89 293e 7c0a 00be
000001e0: f718 cc3d 9116 303d 26b9 05bd 3550 003e
000001f0: 4e30 c4bc a935 abbc 268b 06bd 8bc7 d9bd
00000200: 0d6f 25b7 35cc 883d efc1 3e3d 1e83 4a3e
00000210: d785 063e 6245 4abd fa61 4cbd a6aa 213d
00000220: b913 173d 2002 893d 7de5 34be 8164 c83c
00000230: 6fde 413e 8597 ab3c 4293 bdbc 28bc c23d
00000240: 801e 09be 4d02 c2bd 0ed1 edbd 72d3 af3c
00000250: c10b 553d c411 75bd 455d d53c 6471 7d3a
00000260: c568 da3e 3efe ddbd 86b0 0bbc 9ee7 3e3f
00000270: 94a3 d9bd 1922 03be df09 7c3c 60eb 0ebf
00000280: 8e26 57bd 9f3b 3e3f 1ce3 123d d29d 1a3e
00000290: 4671 04bd e11d 873e 6eed 0abe 93b1 c53e
000002a0: 3de4 11bf 4bc2 793e fb2d ddbe bca8 01bf
000002b0: 8570 ce3b 1efe abbc c060 5b3b e0b4 0cbd
000002c0: 219a 4cbd 89de dabe e46c febd 0096 aa3c
000002d0: 1d8f cdbd c6ce 4a3c 3f70 033e d88b 39bf
000002e0: ebcf c4be f88e f23d 565f 063f 490c 8c3e
000002f0: 0b9a 253e 71f9 a43e 44f1 c03c 554c 673d
00000300: a855 bc3c feb4 e53c 58dc 103d 85f4 523e
00000310: 9a12 bdba 49ec 6bba 1363 57bd 8496 f93b
00000320: a204 08bb c4b6 9fbd 5dc5 a5bc a594 52bc
00000330: df02 b1bd e15b 8fbe 3a94 0bbd 9877 733c
00000340: 2678 37bd b18a 9abe 619e 5c3e eb1d cdbd
00000350: ef57 7d3d 23e7 aabb ba26 45bd 3224 01bc
00000360: 4bba 90be 502e 1dbe efd2 e53d 1a4e 123d
00000370: bc97 ad3d 8dde 283d 4799 d1bd 61cf 31bc
00000380: 6baa 97be 8757 f9bd a446 db3e 44bb 0dbd
00000390: 2052 0abc 5b12 09be e9ed 283d 83c8 0c3d
000003a0: 36a6 6e3d bebf 773e 57c9 143f 6b87 12be
000003b0: 55dc 9d3e b5c1 033f 1c31 643c ccf5 8dbd
000003c0: 72c5 c03d 52cd 35bd fe64 a23e 8f58 0c3d
000003d0: 9f36 bfbb 8742 4fbd c91d b8bc da01 63be
000003e0: f64c cc3c 492f f93e 5bc1 083d 674e 2f3f
000003f0: b22b 60bd 3f50 fd3c 862d d93c d365 033f

exp_avg_sq f4 [46, 32]
3.0060697e-05 0.000120877325 0.00020315466 0.00013994718 0.00024396575 2.824166e-06 4.641075e-05 0.00017285395
2.5410768e-06 3.2910542e-05 4.681755e-06 9.5413576e-05 5.2303505e-05 5.1344305e-06 1.1465488e-05 3.2930264e-05
6.8581903e-06 7.663396e-07 1.106969e-06 0.00013047873 5.0022595e-06 1.8430166e-05 5.5071237e-06 5.6602566e-06
1.11668705e-05 5.1757006e-06 0.00010044872 6.0715745e-05 1.0151164e-05 0.00010741694 7.709693e-06 1.8972096e-05
6.243415e-06 7.2525097e-07 1.6779622e-05 3.2499627e-06 2.7604285e-05 1.2413414e-05 3.04928e-07 1.5462136e-06
4.763312e-05 3.4332156e-06 5.3489097e-05 4.8004813e-06 1.3348638e-05 9.620928e-07 7.356761e-06 8.9463974e-05
1.1742937e-05 2.0752628e-05 3.1206423e-06 3.9165614e-05 6.115673e-07 2.6635267e-05 3.3287114e-07 3.6697315e-07
0.00014755825 3.0488429e-05 2.7075457e-06 1.9428406e-05 1.8512139e-05 9.10782e-06 2.5905697e-06 7.949861e-06
0.00022523556 0.0011118564 8.562489e-06 1.2472625e-06 8.714937e-05 9.159126e-06 0.00037864686 1.15557705e-05
9.829134e-06 0.00015211491 0.00014605677 0.00012317642 6.63183e-06 1.8447085e-05 2.5963857e-06 0.0008913406
0.00043854935 0.00010719391 8.8433946e-05 7.223172e-05 9.312501e-05 7.224529e-06 3.1206582e-05 9.800443e-06
0.0008609858 5.0503e-05 0.00014493539 0.0012914789 6.585194e-05 0.00013493314 0.00031055784 0.00096352136
0.00013838669 8.838012e-06 9.3957115e-06 1.3826956e-05 9.833473e-06 2.5666415e-05 7.097809e-06 1.2972988e-05
3.864244e-06 6.816206e-06 7.150673e-05 3.081087e-05 1.5492522e-05 0.00018824122 4.4096825e-07 3.491677e-05
1.7883924e-05 8.699732e-06 0.00011229125 0.00014533034 0.00015437532 3.4433153e-05 4.870645e-06 3.674335e-05
3.2313153e-06 0.000188416 0.0003851086 0.00017118147 5.6075918e-05 0.00015575744 4.299274e-05 3.6301877e-05
7.459628e-06 5.6960405e-05 1.0805058e-05 1.5185273e-05 3.275131e-07 7.0746146e-06 1.1185772e-05 3.678847e-05
7.6283315e-05 3.1741863e-05 5.266907e-06 4.386027e-05 2.1995107e-05 8.2364284e-05 1.7402515e-05 3.16397e-05
1.4234188e-06 1.6580507e-05 2.00757e-05 8.049342e-05 4.9517777e-05 2.5510853e-05 2.560771e-06 5.4139382e-05
1.002547e-06 1.6074593e-05 8.634013e-05 1.6818133e-07 3.9022714e-05 1.9896097e-06 1.7721175e-06 2.6607816e-07
1.6983024e-06 1.9304807e-07 1.716636e-05 2.3749879e-05 1.1124772e-05 2.5470077e-05 8.331755e-06 9.796304e-08
1.0216484e-06 1.1716375e-06 4.1972394e-06 4.2406757e-07 4.3305423e-05 1.6510553e-07 1.1199871e-05 1.783246e-07
3.4271605e-05 3.3287978e-07 1.9447738e-07 1.7156912e-05 2.1743223e-05 3.4503024e-05 7.7997775e-08 8.044354e-08
9.906534e-06 8.107969e-06 7.7850194e-07 4.672558e-06 2.2883945e-05 1.02216646e-07 3.0812275e-06 2.3351222e-06
5.506251e-07 1.3953837e-06 1.3599005e-08 2.2356836e-08 1.2601876e-06 1.1194036e-07 7.5633017e-07 1.5743816e-06
3.8531233e-08 3.426905e-08 3.6881338e-06 4.626878e-07 6.4588704e-08 9.100459e-08 2.4445023e-07 2.9470672e-07
2.246707e-07 5.7434416e-08 3.160036e-08 1.6270953e-07 2.1496941e-08 8.7993266e-07 1.5150185e-07 5.8357244e-07
1.2537081e-08 7.344805e-08 9.8499925e-08 8.7864464e-08 5.1415018e-08 2.682208e-06 5.988055e-08 1.1078563e-06
2.9954144e-06 4.7880843e-05 4.927913e-06 2.9337767e-05 1.4242508e-05 6.3695814e-05 2.4174738e-06 4.468707e-05
5.0496285e-05 3.878973e-07 8.33846e-07 3.1993066e-05 3.2408927e-06 2.4792653e-06 8.236529e-05 0.00012506628
6.3641774e-06 3.895537e-05 2.901029e-06 2.0897303e-05 1.2230656e-05 5.9297137e-05 2.7518307e-05 7.9956624e-07
1.5855296e-05 2.702815e-07 3.6479425e-05 2.605903e-07 8.512691e-06 6.465875e-05 6.385383e-05 1.1552092e-06
00000000: db2a fc37 857f fd38 ea05 5539 c9be 1239
00000010: 0fd1 7f39 cd86 3d36 2aa9 4238 2140 3539
00000020: 5e87 2a36 6d09 0a38 f817 9d36 c618 c838
00000030: 7660 5b38 6c48 ac36 e55b 4037 9a1e 0a38
00000040: 681f e636 75b6 4d35 2a93 9435 1ed1 0839
00000050: 15d9 a736 7b9a 9a37 d5c9 b836 3ced bd36
00000060: 5859 3b37 eeaa ad36 ffa7 d238 09a9 7e38
00000070: eb4e 2a37 0845 e138 e158 0137 4426 9f37
00000080: 877e d136 deae 4235 f7c1 8c37 ef19 5a36
00000090: c08f e737 3543 5037 fcb4 a334 7f87 cf35
000000a0: acc9 4738 3266 6636 7b59 6038 d213 a136
000000b0: f7f3 5f37 4221 8135 19da f636 9b9e bb38
000000c0: 8803 4537 ee15 ae37 3a6c 5136 c245 2438
000000d0: 962a 2435 cd6e df37 76b5 b234 6804 c534
000000e0: deb9 1a39 67c1 ff37 48b3 3536 2ffa a237
000000f0: 844a 9b37 cacd 1837 a6d9 2d36 6560 0537
00000100: 362d 6c39 b6bb 913a 9ca7 0f37 9d67 a735
00000110: f6c3 b638 26aa 1937 1f85 c639 a8df 4137
00000120: cfe7 2437 0981 1f39 d126 1939 eb28 0139
00000130: fc86 de36 d0be 9a37 913d 2e36 dba8 693a
00000140: 19ed e539 4bcd e038 9d75 b938 1c7b 9738
00000150: 1c4c c338 3b6a f236 d0e3 0238 956c 2437
00000160: c7b3 613a 2fd3 5338 ccf9 1739 d746 a93a
00000170: fe19 8a38 d77c 0d39 5ed2 a239 d394 7c3a
00000180: e51b 1139 f946 1437 46a2 1d37 53fa 6737
00000190: 72fa 2437 354e d737 b729 ee36 8fa6 5937
000001a0: 9aa9 8136 c4b6 e436 e2f5 9538 eb3a 0138
000001b0: f0f5 8137 9e62 4539 37be ec34 9973 1238
000001c0: 6f05 9637 10f5 1137 e87d eb38 d163 1839
000001d0: cfdf 2139 516c 1038 866e a336 df1c 1a38
000001e0: 93d9 5836 8991 4539 67e8 c939 2d7f 3339
000001f0: 0f33 6b38 d252 2339 1a53 3438 d842 1838
00000200: b74d fa36 c5e8 6e38 5f47 3537 40c4 7e37
00000210: 0fd5 af34 7a62 ed36 86aa 3b37 524d 1a38
00000220: 4bfa 9f38 9122 0538 63ba b036 9bf6 3738
00000230: 2282 b837 fdba ac38 9efb 9137 dfb4 0438
00000240: 4c0c bf35 5e16 8b37 3d68 a837 93ce a838
00000250: 4fb1 4f38 2400 d637 b6d9 2b36 b813 6338
00000260: 418f 8635 edd7 8637 8111 b538 5595 3434
00000270: 52ac 2338 3c85 0536 7ed9 ed35 81d9 8e34
00000280: 3af1 e335 a648 4f34 7a00 9037 7a3a c737
00000290: 88a4 3a37 93a8 d537 9ec8 0b37 c05f d233
000002a0: 921f 8935 2841 9d35 03d6 8c36 67ab e334
000002b0: d8a2 3538 dd47 3134 14e7 3b37 7e79 3f34
000002c0: dbbe 0f38 a6b6 b234 89d1 5034 30ec 8f37
000002d0: 3765 b637 57b7 1038 bb7f a733 4ec0 ac33
000002e0: 3d34 2637 7607 0837 3ffa 5035 f8c8 9c36
000002f0: e6f6 bf37 3282 db33 16c7 4e36 18b5 1c36
00000300: abce 1335 0549 bb35 0ea1 6932 340b c032
00000310: b723 a935 dd63 f033 9d06 4b35 574f d335
00000320: 8a7d 2533 382f 1333 a881 7736 5467 f834
00000330: 04b4 8a33 4d6e c333 fc3c 8334 2f38 9e34
00000340: 033d 7134 cfad 7633 f7b8 0733 41b5 2e34
00000350: 46a8 b832 8334 6c35 83ac 2234 cba6 1c35
00000360: aa62 5732 7eba 9d33 e886 d333 00b0 bc33
00000370: 69d3 5c33 fcff 3336 ae97 8033 a7b1 9435
00000380: d404 4936 aad3 4838 735a a536 601a f637
00000390: 1bf3 6e37 6e94 8538 e23b 2236 606e 3b38
000003a0: f9cb 5338 3340 d034 76d5 5f35 4b30 0638
000003b0: 1d7e 5936 7461 2636 87bb ac38 3924 0339
000003c0: de8b d536 0364 2338 4caf 4236 9e4c af37
000003d0: 4432 4d37 d1b5 7838 1dd7 e637 c6a1 5635
000003e0: fd00 8537 351b 9134 7c01 1938 42e7 8b34
000003f0: bbd1 0e37 6799 8738 44e9 8538 b00c 9b35
