prob-kge/running_experiments/without_recipriocal/delete/31/score_Nations_ComplEx_831769172/model.pt (torch, 10965 bytes, 2 tensors)

entity_embeddings.weight f4 [14, 32]
0	0x3ef00dae	0.46885437
1	0xbf974c70	-1.1820202
2	0x3f8693a4	1.0513806
3	0x3fa24d5a	1.2679856
4	0x3eb7f174	0.35926402
5	0x3e3b9c45	0.18321331
6	0x3f94c1c5	1.1621634
7	0x401a511f	2.4112012
8	0xbe7b50ee	-0.24542591
9	0x3f64ecef	0.8942403
10	0xbeaa0ea5	-0.33214298
11	0x3dfd2cdc	0.12362072
12	0xbf9bec08	-1.2181406
13	0x3f07dfe6	0.53076017
14	0xbfa1a013	-1.2626976
15	0x3ed52b82	0.41634756
16	0x3f597152	0.8493854
17	0xbfc9ce70	-1.5766125
18	0xbf53bf3b	-0.8271367
19	0xbe1e3d5c	-0.15453094
20	0xbf35f09e	-0.7107028
21	0xbf788423	-0.97076625
22	0xbe4ab515	-0.1979564
23	0x3e303d68	0.17210925
24	0xbf7ce98c	-0.98793864
25	0x4000d83b	2.0131977
26	0x3f832b69	1.0247623
27	0xbdd787d3	-0.10523953
28	0x3c9ad81e	0.01890188
29	0xbe2f8cea	-0.17143598
30	0xbf29451e	-0.6612109
31	0x3fd7fe14	1.6874413
32	0x3f173160	0.59059715
33	0xbe565073	-0.20929126
34	0x3f2ec7c8	0.6827359
35	0xbe75d00a	-0.24005142
36	0xbf3e0319	-0.74223477
37	0x3f536522	0.8257619
38	0x3f508aac	0.81461596
39	0x3db470ea	0.08810599
40	0xbf21e62a	-0.6324183
41	0x3e8b6879	0.27228144
42	0x3f495076	0.786384
43	0x3e14f857	0.14547859
44	0xbe9b48ec	-0.30329072
45	0xbe0e988c	-0.1392538
46	0xbf9f6c0e	-1.2454851
47	0x3fb2b4b4	1.3961396
48	0x3f86e0a3	1.0537304
49	0xbfd4646d	-1.6593148
50	0x3e23e8c9	0.16006769
51	0x3f84cd90	1.0375233
52	0xbff88e95	-1.9418513
53	0xbfaf570c	-1.369844
54	0xbd4443df	-0.04791629
55	0x3f8eceed	1.1156899
56	0x400bc245	2.1837323
57	0x3f0dc35f	0.5537624
58	0xbdc57606	-0.09641652
59	0xbe4d11fb	-0.2002639
60	0x3fa0e6ae	1.2570398
61	0x3ef3942d	0.47573987
62	0x3ff4eb0b	1.913423
63	0x40027618	2.0384579
64	0x3fca9be3	1.5828823
65	0xbfe74b1e	-1.8069799
66	0x3f4453e4	0.76690507
67	0x3e6dfff5	0.23242171
68	0xc015758d	-2.3352997
69	0x3f33270f	0.69981474
70	0x3d8a619c	0.06756899
71	0x3fd4f977	1.6638631
72	0x3ec39ce3	0.38205633
73	0xbeb5bab6	-0.35494012
74	0xbff74e3a	-1.9320748
75	0x3f127a5f	0.57217973
76	0xbf5184a4	-0.8184302
77	0x3fea3978	1.8298788
78	0x3ea4efd4	0.32214224
79	0x3e9dbab2	0.308065
80	0x3f0fb31b	0.5613267
81	0xbfbe2464	-1.4854856
82	0x3ecd38ae	0.40082306
83	0xbf5f64e6	-0.87263334
84	0xbf976fa9	-1.1830951
85	0x3dc9b8c2	0.09849693
86	0x3f68dfff	0.9096679
87	0x3ecfd633	0.4059311
88	0x40124855	2.2856648
89	0x3f10b6f6	0.56529176
90	0xbea018f9	-0.31269053
91	0xbf58d687	-0.8470234
92	0xbf31084b	-0.6915328
93	0x3d987b1f	0.074453585
94	0xbe092d1d	-0.13396116
95	0x3f72b25a	0.9480339
96	0x3d382793	0.044959616
97	0x3c262f70	0.010143146
98	0x3e842175	0.25806776
99	0xbe976473	-0.29568824
100	0xbf5aebd9	-0.85516125
101	0x3ee3675a	0.44414788
102	0x3f89b5fc	1.0758662
103	0x3f51ddb2	0.81978905
104	0x3ec20898	0.37897182
105	0x3f22e9ae	0.63637817
106	0x3f13e44f	0.57770246
107	0x3f8f8492	1.1212332
108	0x3fa6954c	1.3014312
109	0x3e27a965	0.16373213
110	0x3eed5a1a	0.46357805
111	0x3eaf31a6	0.34217566
112	0x3f86d7f3	1.0534652
113	0xbf34b4c2	-0.70588315
114	0xbdafe63e	-0.08588837
115	0xbf8ca075	-1.0986468
116	0xbf600ca5	-0.87519294
117	0xbfe3471a	-1.7756073
118	0xbf338802	-0.70129406
119	0x3ecc007d	0.39844123
120	0x3f18f5e1	0.5975018
121	0x3fd31c5d	1.6493031
122	0x3d56ef6e	0.05247443
123	0xbf9cae1e	-1.2240636
124	0xbf845470	-1.0338268
125	0x3f055196	0.52077615
126	0x3ed3bd52	0.41355377
127	0x3fba4b04	1.4554143
128	0xbeefde05	-0.46849075
129	0x3fe71323	1.8052715
130	0xbf62aae6	-0.8854202
131	0xbf39df4a	-0.7260634
132	0xbf997f79	-1.1992027
133	0x3f873922	1.056431
134	0x4019afd1	2.401356
135	0x3fa6df84	1.3036962
136	0xbfee2dc3	-1.8607715
137	0x3fb168ac	1.3860068
138	0xbefd752b	-0.49503455
139	0x3f7dba58	0.99112463
140	0xbfcc58b5	-1.5964571
141	0x3f0a2b47	0.53972286
142	0xbfcd81f7	-1.6055287
143	0x3f806a4d	1.003244
144	0x3fc73222	1.5562174
145	0xbf9e09fc	-1.2346797
146	0xbf2121d3	-0.62942237
147	0x3f7e3542	0.99300015
148	0xbffde82b	-1.9836477
149	0xc033d9c7	-2.810167
150	0x3f2bc449	0.6709638
151	0x3ed57c2c	0.41696298
152	0x3ebf1af3	0.37325248
153	0x3fd0265b	1.6261705
154	0x3eb9fcda	0.36325723
155	0xbfaa7b73	-1.3318924
156	0xbf3ddfae	-0.74169433
157	0x3f9b8547	1.2150048
158	0xbe1a879f	-0.15090798
159	0x3f9ebfeb	1.2402319
160	0xbf689b60	-0.90862083
161	0xbf2906fa	-0.6602627
162	0x3eab310b	0.33435854
163	0xbfa7c16b	-1.3105901
164	0xbeb3d17e	-0.35120767
165	0xbd8bf7fb	-0.06834408
166	0x3eb01938	0.3439424
167	0x400f02ac	2.234538
168	0xbf8efb77	-1.1170491
169	0x3f25f28a	0.6482321
170	0x3f403c7e	0.75092304
171	0x3fc846ec	1.5646644
172	0xbfb1f693	-1.3903373
173	0xbf474bdd	-0.77850133
174	0x3de81a40	0.11333132
175	0x4004a335	2.0724614
176	0xbeff50bd	-0.49866286
177	0xbfd3ed3a	-1.6556771
178	0xbd49a2cd	-0.049227525
179	0x3eb9b176	0.36268204
180	0xbed4d35b	-0.415675
181	0xc013362c	-2.3001814
182	0xbf5bb8c1	-0.8582879
183	0xbf1c7e7d	-0.61130506
184	0xbfb1bd82	-1.3885958
185	0x3fef5afb	1.869964
186	0x40121498	2.282507
187	0xbf6116fd	-0.879257
188	0xc0023b49	-2.0348685
189	0x3e278552	0.16359451
190	0xbe82d3bb	-0.25552163
191	0x3ff4ddb4	1.9130158
192	0x400d87c9	2.2114127
193	0xbeb1420d	-0.34620705
194	0x3f5c91db	0.8616006
195	0xbeb0a088	-0.34497476
196	0xbf199dd6	-0.60006464
197	0x3e628ce9	0.22124065
198	0x3f695cf8	0.91157484
199	0x3f4e4337	0.8057131
200	0xbeaf463d	-0.34233275
201	0x4043944a	3.0559258
202	0x3fe34f2f	1.775854
203	0x3faac96f	1.3342723
204	0xbde0c961	-0.1097591
205	0xbf063bc4	-0.52434945
206	0xbd30f442	-0.043201692
207	0x4016e9bc	2.358016
208	0x3fefd1c6	1.8735893
209	0x3f7cbd4f	0.9872636
210	0x3ee53b0a	0.44771606
211	0x3fc101c8	1.5078669
212	0xc0131fd5	-2.2988179
213	0xbf94de87	-1.163041
214	0xbf3e7c10	-0.74408054
215	0x3ff4db2b	1.9129385
216	0x3f59c58a	0.85067046
217	0x3fb98bf3	1.4495834
218	0xbf19adcf	-0.60030836
219	0x3ef75761	0.48308852
220	0xbf8ba648	-1.091012
221	0xc017684a	-2.3657403
222	0xbe8e1e20	-0.2775736
223	0x3f0fbeb6	0.56150377
224	0x3ec6e0f2	0.38843495
225	0xbfb47d61	-1.4100763
226	0x3f787c5e	0.9706477
227	0xbf3f58d6	-0.7474493
228	0x3ebc99eb	0.3683618
229	0xbfe475e9	-1.7848483
230	0x3f6f0aa5	0.9337562
231	0x3fb53f33	1.4159912
232	0xbfb0f77b	-1.3825525
233	0xbf75a710	-0.9595804
234	0xbec49657	-0.3839595
235	0x3e9b4ffa	0.30334455
236	0xbfa89616	-1.3170803
237	0xbf2bfafa	-0.67179835
238	0x3f8689a5	1.0510756
239	0x405929e3	3.3931816
240	0x3fa514f9	1.2897025
241	0xbe3b43f1	-0.18287636
242	0x3f3a59c7	0.7279324
243	0x3ff54931	1.9162961
244	0xbf850737	-1.0392827
245	0x3e0e130d	0.13874455
246	0x3e640b9d	0.22270055
247	0xbeca9358	-0.3956554
248	0xbf6b6c5b	-0.9196221
249	0x3f269d85	0.65084106
250	0xbfb54a21	-1.4163247
251	0x3ddbd729	0.10734398
252	0x3f7f027c	0.99613166
253	0x3f5d3f27	0.8642449
254	0x3f9dfe29	1.2343189
255	0x404a8b1d	3.1647408

relation_embeddings.weight f4 [55, 32]
0	0x3b29695a	0.0025850148
1	0xbe766623	-0.240624
2	0x3f16b74c	0.5887344
3	0x3f0bea1e	0.5465411
4	0xbe3451ee	-0.17609379
5	0xc03d145d	-2.9543679
6	0x3f4e4f9d	0.8059023
7	0x3f9e3c03	1.2362064
8	0xbc836997	-0.01604156
9	0xbff8e477	-1.9444722
10	0xc06364d9	-3.5530303
11	0xc02f801f	-2.742195
12	0x3fa28441	1.2696611
13	0xbfcc7957	-1.597453
14	0x3f47a5f3	0.77987593
15	0xc040d7f7	-3.0131814
16	0x3fb2252d	1.3917595
17	0x3ef4fdaa	0.4784978
18	0x3e7aef5a	0.24505368
19	0x3f71f95d	0.94521123
20	0xc0003e31	-2.0037959
21	0xbff08249	-1.878976
22	0x3f0919d4	0.53555036
23	0x40327fec	2.7890577
24	0x3f629e7f	0.88523096
25	0x3f5b27b5	0.85607463
26	0xbf89393f	-1.0720595
27	0xbf76a815	-0.9635022
28	0xbf542b61	-0.8287869
29	0xbe16d9ad	-0.14731474
30	0x3f625393	0.88408774
31	0x3ea2146c	0.31656206
32	0xbff29adb	-1.8953508
33	0xbf14bdbb	-0.58102006
34	0x3f45105c	0.7697809
35	0xbfd9c012	-1.701174
36	0xbf179b1b	-0.5922105
37	0xbf15991a	-0.5843674
38	0xbe4a16d7	-0.19735275
39	0xc013a4d7	-2.306936
40	0x3f0928b1	0.53577715
41	0xbfb7c0e8	-1.4355745
42	0xbf692ec3	-0.9108698
43	0xc0b01ab9	-5.503262
44	0xbf0f66de	-0.5601634
45	0x3f8c2c8a	1.0951092
46	0xbd3ca410	-0.0460549
47	0xbfe769c7	-1.8079156
48	0x3f549dbe	0.83053195
49	0xbe7456bd	-0.23861213
50	0x3f50c916	0.8155683
51	0xbead3269	-0.33827522
52	0xc00c0255	-2.1876423
53	0xbfed7744	-1.8552022
54	0x3faa1704	1.3288274
55	0x3bf9d4fd	0.007624267
56	0xbf7aecd4	-0.9801762
57	0x403d6c12	2.959721
58	0x3dbdac89	0.09261424
59	0xbe9b4c0c	-0.30331457
60	0xc00e773d	-2.2260277
61	0x3f908bb6	1.1292636
62	0x3f919cd1	1.1375982
63	0x3f6b6670	0.9195318
64	0xbd800baa	-0.06252225
65	0xc0587425	-3.382089
66	0xbf89c1e0	-1.0762291
67	0x404888d3	3.133351
68	0x4028a767	2.6352174
69	0xbfc49ac1	-1.5359727
70	0x400dcc70	2.2156029
71	0xbf18e34d	-0.59721833
72	0xbef320e6	-0.47486037
73	0xbff62bf8	-1.9232168
74	0xc00e5b45	-2.2243207
75	0xbf8fb49e	-1.1226995
76	0xbf6ed512	-0.9329387
77	0xbf3d3c6b	-0.73920316
78	0xbf5beaca	-0.85905135
79	0xbf45c12b	-0.77247876
80	0x402330ec	2.549861
81	0x3f39d2b0	0.7258711
82	0x3ec10eb2	0.37706524
83	0x3f1777ca	0.5916716
84	0xbf9618e6	-1.1726348
85	0xbce0c6a9	-0.027438479
86	0x3f5935be	0.8484763
87	0x3f6268b8	0.8844104
88	0x3ecd00d0	0.40039682
89	0xbfaa2ac6	-1.3294303
90	0xbf9fb054	-1.2475686
91	0x4017e9c1	2.3736422
92	0x3ec176aa	0.37785846
93	0x3f040365	0.5156768
94	0xbf071874	-0.5277169
95	0xbfe4e039	-1.7880927
96	0x3ee12f20	0.43981266
97	0x3e9e2b3c	0.3089236
98	0xbecdb1ef	-0.40174815
99	0xbfc1716b	-1.5112737
100	0xbff9d5ec	-1.9518409
101	0x3fca1b9d	1.5789677
102	0x3e0cb12b	0.13739459
103	0x3ffdf571	1.9840528
104	0xbfed974e	-1.85618
105	0xbf1effa5	-0.6210883
106	0xbf2ff66f	-0.687354
107	0xbfed34c1	-1.8531724
108	0xc03a166f	-2.9076192
109	0x3f5b0e06	0.85568273
110	0x3f58c0e0	0.84669304
111	0xc063decf	-3.5604742
112	0x3f084333	0.5322754
113	0x3e8846bb	0.26616463
114	0x3e934e0b	0.2877048
115	0xbdf66083	-0.12030127
116	0xbebf1baa	-0.37325794
117	0x3f34c37e	0.706108
118	0xbfd9533d	-1.6978527
119	0x3d8bf975	0.068346895
120	0xbddcb0fb	-0.10775944
121	0x3e80a24f	0.25123832
122	0xbd8b261c	-0.06794378
123	0x3f2c22b9	0.6724048
124	0xbf9a42bd	-1.2051617
125	0xbe5cbb5c	-0.21555847
126	0x3fa085a9	1.254079
127	0xbdff10db	-0.12454387
128	0xbf7101d5	-0.9414342
129	0xbf959c28	-1.168828
130	0xc002f25a	-2.046042
131	0xbedf8415	-0.43655458
132	0xc01a953c	-2.4153585
133	0x3f946e46	1.1596153
134	0x3f24395c	0.64150023
135	0x3fd648ef	1.6741008
136	0x3f288ec3	0.6584284
137	0xc000ba5c	-2.0113745
138	0x3f74c65d	0.9561518
139	0xc047f592	-3.1243634
140	0xbf18f7c3	-0.59753054
141	0x3f0ae6bf	0.5425834
142	0xbf1b8d30	-0.6076231
143	0xc08be199	-4.371289
144	0x3dbc7d00	0.09203529
145	0xbf91d3c7	-1.1392754
146	0xbe0b296e	-0.13590023
147	0x3f0acbb8	0.542171
148	0xbfd6e00b	-1.6787122
149	0xbcf9496a	-0.030430514
150	0x3df43e53	0.1192595
151	0xbf303646	-0.68832815
152	0x3ff6e2d2	1.928797
153	0xc05ba3d3	-3.431874
154	0xc01b94bf	-2.4309537
155	0xbebd4f5d	-0.36974612
156	0x3f52cd17	0.8234419
157	0x400fb5a5	2.2454617
158	0x3f8c9420	1.0982704
159	0x4054debf	3.3260953
160	0xbf8d0edc	-1.102016
161	0xbf99b3fc	-1.2008052
162	0x3f5fbb2a	0.87394965
163	0xbffaaa7f	-1.9583281
164	0xbea4d09b	-0.32190403
165	0xbf9f1250	-1.2427464
166	0xbf9958f2	-1.1980269
167	0x3f503222	0.81326497
168	0x3f160ae0	0.58610344
169	0xbfbbc7d9	-1.4670364
170	0xbdf2f629	-0.118633576
171	0xbfe8c3ae	-1.8184717
172	0xc06617d1	-3.5952036
173	0xbf8a26db	-1.0793108
174	0xbf064f32	-0.5246459
175	0xc08ecd84	-4.4625874
176	0xbcbe66f1	-0.023242446
177	0x3f08bbad	0.5341137
178	0x401baf0e	2.4325595
179	0x3fa0fecf	1.2577761
180	0xbe664c8e	-0.22490141
181	0x3ff8db38	1.94419
182	0xc05ba027	-3.43165
183	0x3fb0354e	1.3766267
184	0xbfd62629	-1.6730396
185	0xbefd5abd	-0.4948329
186	0xbee57c09	-0.44821194
187	0x3f3535f4	0.7078545
188	0xbfa3d6a2	-1.2799876
189	0xbf85d639	-1.0456
190	0xbf9de463	-1.2335323
191	0x4055ece6	3.3425841
192	0xbeea7ebc	-0.45799816
193	0x3de20a6d	0.11037145
194	0x3f536053	0.82568854
195	0xbf26d2a7	-0.6516518
196	0xbfab2a4b	-1.3372282
197	0xc061313c	-3.51863
198	0x3f2d2f35	0.6765016
199	0x4004c3f3	2.0744598
200	0xc001af86	-2.026338
201	0xbf3ba8a9	-0.7330423
202	0xc016fa8c	-2.3590422
203	0xc04d2585	-3.205415
204	0xc0cf1e89	-6.4724774
205	0xbcb0aae7	-0.021565868
206	0x3f44ed3f	0.7692451
207	0xc01032b9	-2.2530959
208	0xbf25c8bf	-0.6475944
209	0x3f090c9e	0.5353488
210	0x3ebf0ae1	0.37312987
211	0xbf3e43e6	-0.74322355
212	0x3ea89f7e	0.32934183
213	0xbcf70088	-0.03015162
214	0x3e17c3fc	0.14820856
215	0xbf0ed325	-0.5579093
216	0x3d1ca2c3	0.03824116
217	0xbdbe9b99	-0.09307022
218	0x3f50bcf6	0.8153833
219	0xbcb6765e	-0.022273239
220	0x3fa217b4	1.2663484
221	0x3f5546f7	0.8331141
222	0xbe96b6f7	-0.29436466
223	0x400902bc	2.140792
224	0xbe15a715	-0.14614518
225	0xbe267e47	-0.16259108
226	0x3e971dbe	0.2951488
227	0xc0bded5b	-5.935224
228	0xbefd9517	-0.4952781
229	0x3f02c78c	0.51085734
230	0xbf79137b	-0.9729535
231	0xbf7c506b	-0.9856021
232	0x3e7db25a	0.24775067
233	0xbf0f2cb2	-0.55927575
234	0xbf0186d0	-0.5059633
235	0x3f14742d	0.5798977
236	0x3e205c5d	0.15660234
237	0xbeab3002	-0.33435065
238	0xbf2ae66d	-0.6675785
239	0xbeae6e6e	-0.34068626
240	0xbfab382b	-1.3376516
241	0x3f2c2fcc	0.6726043
242	0xbf2f7fd9	-0.68554455
243	0x3c551568	0.013005592
244	0x3f32838f	0.6973199
245	0xbf31f959	-0.695211
246	0x3fc14203	1.509827
247	0x3e437bec	0.19090241
248	0xbf10d6bd	-0.56577665
249	0x3f025e2d	0.5092495
250	0xbe8ac632	-0.27104336
251	0xbf18f0fd	-0.5974272
252	0x3e2338ae	0.1593959
253	0x3f844cf4	1.0335984
254	0x3dbe4fba	0.092925504
255	0xbc555039	-0.013019615
