prob-kge/running_experiments/without_recipriocal/delete/47/random_Nations_DistMult_636282949/model.pt (torch, 10965 bytes, 2 tensors)

entity_embeddings.weight f4 [14, 32]
0	0xbf8c1094	-1.0942559
1	0xbf5fda0d	-0.87442094
2	0xbd9fb037	-0.07797282
3	0xbfe541fb	-1.7910761
4	0x3f868529	1.0509387
5	0x3ed29916	0.4113242
6	0xbfd9cd3c	-1.7015758
7	0xbf62588c	-0.8841636
8	0x3ff32e20	1.8998451
9	0xbf62cb69	-0.8859163
10	0xbec4d2ab	-0.38441977
11	0x3ff5233f	1.9151381
12	0x3f065fd2	0.5248996
13	0xbe92e585	-0.28690735
14	0xbf4bc930	-0.7960386
15	0xbe0c82ce	-0.13721773
16	0xbec78dea	-0.3897546
17	0x3f4095b6	0.7522844
18	0x3fe8efc2	1.8198168
19	0x3f1eb2f5	0.61991817
20	0xbf65ac82	-0.8971635
21	0xbfcfd2e3	-1.6236233
22	0x3f3b8799	0.7325378
23	0x3ff73534	1.9313111
24	0xbe2e4d2b	-0.17021625
25	0xbf4a70e1	-0.7907849
26	0x3e73dba9	0.23814262
27	0x3e8df1bb	0.27723488
28	0xbfedfd19	-1.8592864
29	0x3f8148d9	1.0100356
30	0xbf46f1ef	-0.7771291
31	0x3f1f7fc2	0.6230432
32	0x3ec304d5	0.38089624
33	0xc001e105	-2.029359
34	0xbf0d940f	-0.55304044
35	0xbe0cc36d	-0.13746424
36	0xbea27974	-0.31733286
37	0xbe0eaa57	-0.13932167
38	0xbff858d9	-1.9402114
39	0x3daafc3a	0.0834889
40	0xbea9ef8d	-0.33190575
41	0x3fead296	1.8345516
42	0xbf5d6a13	-0.8648998
43	0xbeafd335	-0.34340826
44	0x3b8f9b46	0.0043825237
45	0xbdbda9d3	-0.09260907
46	0xbf05c58a	-0.52254546
47	0x3fd24532	1.6427367
48	0xbf06b638	-0.52621794
49	0xbe9c13bc	-0.30483806
50	0x3ca4a94c	0.020100258
51	0xbfdedafa	-1.7410576
52	0xc00975bc	-2.147811
53	0xbf8a11e9	-1.0786716
54	0x3fa11a2e	1.2586114
55	0x3e524ff4	0.20538312
56	0xbf8d8e92	-1.1059134
57	0xbf1237f5	-0.57116634
58	0x3f6c3d20	0.9228077
59	0x3e48849d	0.19581838
60	0xbfbe0a09	-1.4846812
61	0x3f8c0d1e	1.0941503
62	0x3ebac13d	0.36475554
63	0x3fa7066b	1.3048834
64	0xbf47732f	-0.7791013
65	0xbe070936	-0.13187107
66	0xbf98385c	-1.18922
67	0xbe8d909d	-0.27649394
68	0x3fc9df16	1.5771205
69	0xbe6f92b2	-0.23395804
70	0xbf96723c	-1.1753612
71	0x3cc31520	0.023813784
72	0x3f6826b8	0.9068408
73	0xbedfb425	-0.43692127
74	0xbf49319b	-0.78591317
75	0xbe9b0879	-0.30279902
76	0xbf9f5a62	-1.2449458
77	0xbf923a4e	-1.1424043
78	0xbf3212c4	-0.69559884
79	0x3fc2a566	1.5206726
80	0xbfa1ae91	-1.2631398
81	0x3f47ec60	0.78095055
82	0xbfcd573f	-1.604225
83	0x400cf389	2.2023642
84	0xbfb647d2	-1.4240668
85	0xbee6f63e	-0.45109743
86	0x3f85ac62	1.0443232
87	0xbfa25eca	-1.2685177
88	0xbfef69fb	-1.8704218
89	0xbf9dcb7a	-1.2327721
90	0x3e0a5806	0.13510141
91	0x3e500c42	0.20317176
92	0xbfae8b2c	-1.3636222
93	0x3ffbe1a1	1.9678231
94	0x3ee8b6e7	0.45452043
95	0xbda3d7a7	-0.08000117
96	0xbf102de9	-0.56320053
97	0xbfc7af90	-1.5600452
98	0xbfc49f27	-1.536107
99	0xbd6de602	-0.05808068
100	0x3e553770	0.20821929
101	0xbf1d529b	-0.6145417
102	0xbf8350c8	-1.0259027
103	0xbe12b318	-0.14326131
104	0xbd88843f	-0.06665849
105	0xbf8e92ef	-1.113859
106	0xbf0c24a8	-0.54743433
107	0xbeac651a	-0.33670884
108	0x3e9c8d3d	0.30576506
109	0xbed210a5	-0.41028324
110	0x3fb2cce4	1.3968778
111	0x3fafb41b	1.3726839
112	0xbe9c6ad9	-0.30550268
113	0x3f29c2f3	0.66313094
114	0xbf8e3ec3	-1.1112903
115	0xbe08ba78	-0.13352382
116	0xbf1ee60d	-0.6206978
117	0xbf247142	-0.6423532
118	0x3e213ba8	0.15745413
119	0x3f2744b0	0.65339184
120	0xbfa1c851	-1.2639257
121	0xbfc3e4c2	-1.5304186
122	0xbee7c58a	-0.45267898
123	0xbf2df26d	-0.6794804
124	0xbfc99d2c	-1.575109
125	0xbf140373	-0.57817763
126	0x3f6accd6	0.91718805
127	0x3fb23fce	1.3925722
128	0x3ebb1a13	0.3654333
129	0xbf8b15e7	-1.0866059
130	0xbede5d19	-0.43430403
131	0xbf5277b4	-0.822139
132	0xbf6ad8dc	-0.9173715
133	0xbf97b31d	-1.1851536
134	0xbf2d3b3c	-0.6766851
135	0x3ed5479e	0.41656202
136	0x3f605eda	0.8764473
137	0x400a9e2d	2.1659043
138	0x3e50a86f	0.20376752
139	0xc01f470c	-2.4887114
140	0x3fe3a86e	1.7785776
141	0x3fcc71ae	1.5972192
142	0xbf4784e1	-0.7793713
143	0x3f7d7ce1	0.99018675
144	0xbba772ac	-0.0051101055
145	0x3f963b96	1.1736934
146	0x3f163731	0.58677965
147	0xbf16e8e8	-0.58949137
148	0xbf92b921	-1.1462747
149	0xc0168837	-2.352064
150	0x3f8c096d	1.0940377
151	0x3da1864b	0.078869425
152	0xbfb7d1bd	-1.4360882
153	0xbf98d47c	-1.1939845
154	0xbf2bac43	-0.67059726
155	0x3f450c99	0.7697235
156	0xc00f5d1c	-2.240058
157	0x3fe2f5f9	1.7731315
158	0xbdf8e932	-0.121538535
159	0xbf826eb8	-1.0190039
160	0x400ec2b1	2.230633
161	0xbf18ec2d	-0.59735376
162	0x3d61356e	0.054982595
163	0xbf030c9f	-0.51191133
164	0x3ee3745c	0.44424713
165	0x3f95ba2a	1.1697438
166	0xbf4382a7	-0.76371235
167	0xbf08b9fa	-0.5340878
168	0x3f306d5f	0.6891689
169	0x3de1b144	0.11020139
170	0x4021ff8a	2.5312219
171	0x3da070e4	0.07834032
172	0x3e920d75	0.28525892
173	0xbf116f58	-0.5681052
174	0xbf0e155b	-0.55501336
175	0x4004f46e	2.0774188
176	0xbfac433d	-1.345802
177	0x40245cbf	2.5681608
178	0x3fb4de09	1.413026
179	0x3efbb41f	0.4916086
180	0x3d89516c	0.06704983
181	0xc00c15e7	-2.1888368
182	0x3f5ce76a	0.8629061
183	0x3ffd6b57	1.9798383
184	0xc0243129	-2.5655005
185	0xbe95072a	-0.29107028
186	0xbf8ba35e	-1.0909231
187	0x3e4166ad	0.18886824
188	0xbfe0f877	-1.7575825
189	0xbeed8c46	-0.46396083
190	0x3e52abfc	0.2057342
191	0x3ec27f34	0.37987673
192	0x3feb703f	1.839363
193	0xc0245676	-2.5677772
194	0x3ea31bf8	0.31857276
195	0xbf47df6b	-0.78075284
196	0x3f6bfdf8	0.921844
197	0x3f2894e1	0.6585217
198	0x3d3ae031	0.04562396
199	0x3e0a3d48	0.1349994
200	0xbf8f8d28	-1.1214952
201	0x3f989cfc	1.1922908
202	0xbfc3966c	-1.528028
203	0xbef0a6b4	-0.47002184
204	0x3f95214b	1.1650785
205	0xbf61295d	-0.8795374
206	0xbf50dc58	-0.8158622
207	0x3fa40f3b	1.2817148
208	0xbfc23280	-1.5171661
209	0x3f5f7e0b	0.873017
210	0xbe399436	-0.18122944
211	0x3f106a4a	0.56412184
212	0xbc61ad40	-0.013774216
213	0xbfeda5ca	-1.856622
214	0xbdcb5f21	-0.09930254
215	0x3f7e34ef	0.9929952
216	0xbfb5d440	-1.4205399
217	0xbd3128f6	-0.043251954
218	0x3f6aa55d	0.91658574
219	0xbf0bd252	-0.546178
220	0xbf92fa02	-1.1482546
221	0x3ec0591e	0.3756799
222	0x40334ac6	2.8014388
223	0x3ce060cf	0.027389912
224	0x3fa94e55	1.322703
225	0xbf723200	-0.94607544
226	0x3fc77885	1.5583655
227	0x401d3004	2.4560556
228	0x3eb1ce3f	0.34727666
229	0xbd8d9cbb	-0.069146596
230	0xbf3f139c	-0.74639297
231	0xbfe81b7a	-1.8133385
232	0x3f290004	0.6601565
233	0x3e8f1e43	0.27952775
234	0xbf21c105	-0.6318515
235	0xbe674995	-0.22586663
236	0x3f87a5e6	1.0597503
237	0xc0158ec3	-2.3368385
238	0xbf5bee47	-0.8591046
239	0x3f18b342	0.59648526
240	0x3f711703	0.9417574
241	0x40027d10	2.0388832
242	0xbfb5916d	-1.4185005
243	0x3df60a06	0.120136306
244	0xbf2165c6	-0.6304592
245	0xc03a78ad	-2.9136155
246	0x3f3056b2	0.68882287
247	0x3f62218a	0.88332427
248	0xbfd37bdc	-1.6522174
249	0xbfbda32d	-1.4815422
250	0xbf7de755	-0.9918111
251	0x3f4d870d	0.80284196
252	0x3d69079c	0.056892022
253	0x3f59aa59	0.85025555
254	0x3dd119a0	0.10209966
255	0xbfd0dbd4	-1.6317086

relation_embeddings.weight f4 [55, 32]
0	0xc024e97a	-2.5767503
1	0xbfb9b3bb	-1.4507974
2	0x3ee68473	0.45022926
3	0xc01201d3	-2.2813613
4	0xbfb7981c	-1.4343295
5	0xbc7500fe	-0.01495385
6	0xbf569b12	-0.8383037
7	0xbf3de2fb	-0.7417447
8	0xbe95a75d	-0.2922925
9	0x3fcf098a	1.6174786
10	0xbf207c75	-0.62689906
11	0x3feacc1d	1.834354
12	0xbe9846de	-0.29741567
13	0x3fb1848b	1.3868574
14	0x3f25ee21	0.6481648
15	0xbf30216d	-0.68801004
16	0x3defbf40	0.117064
17	0xbf330387	-0.6992726
18	0xbf396064	-0.72412705
19	0x3f3a47e5	0.7276595
20	0xbfd75772	-1.6823561
21	0xbfdfd07f	-1.7485503
22	0xbfad868f	-1.3556689
23	0xc054ec3f	-3.3269193
24	0x3e5822d3	0.21107034
25	0xc0127e97	-2.2889764
26	0x3f17a87d	0.5924147
27	0xc047c4da	-3.1213899
28	0x3eeb274d	0.45928422
29	0xbfe39e2e	-1.7782648
30	0x3f7bfada	0.98429644
31	0xbdc93a98	-0.09825629
32	0xbeaa52e8	-0.33266377
33	0xbfdc3486	-1.7203529
34	0xbf2fc80a	-0.6866461
35	0xc0620705	-3.5316784
36	0x3fc7408c	1.5566573
37	0xbec758ed	-0.38935032
38	0xbf07be59	-0.5302482
39	0x3ebc807d	0.3681678
40	0x3f1af34a	0.6052748
41	0xbef79fc1	-0.4836407
42	0xbfd389cf	-1.6526431
43	0x4060723f	3.506973
44	0xbf055d38	-0.52095366
45	0xc04e31c9	-3.2217886
46	0xbf0cc032	-0.54980767
47	0xc057dfe4	-3.3730402
48	0x3ec34113	0.38135585
49	0xbee6c987	-0.45075628
50	0xbc1378fb	-0.009001012
51	0x3fcd1aa7	1.6023759
52	0xc02372d5	-2.5538838
53	0xbfba3550	-1.454752
54	0x3f19098c	0.5978019
55	0x3f2e820d	0.6816719
56	0xbfbbd771	-1.4675122
57	0xc06a5b39	-3.6618178
58	0xbfb25e5a	-1.3935044
59	0x3fbf4810	1.4943867
60	0xc01f59a1	-2.4898455
61	0xbfa0fbc7	-1.2576836
62	0x3f5aff49	0.85545784
63	0x400b1aec	2.1735182
64	0x409ccd17	4.9000354
65	0xc062c787	-3.5434282
66	0xc00e06e4	-2.2191706
67	0x40a37637	5.1081805
68	0xbe23511b	-0.15948908
69	0x3f85c419	1.0450469
70	0x3f323e8c	0.6962669
71	0xc025fc97	-2.5935419
72	0xbff5b461	-1.9195672
73	0x3fd85e04	1.6903691
74	0xc02f5322	-2.739449
75	0xbfc8ea23	-1.5696453
76	0x3fe8d611	1.8190328
77	0xc0215d8a	-2.5213342
78	0x3fbf9c03	1.4969486
79	0xbf3d41a9	-0.73928314
80	0xbed317af	-0.41229007
81	0xc004e260	-2.0763168
82	0x3f2a6798	0.6656432
83	0x3e3fa1e9	0.18714108
84	0x402fef32	2.7489743
85	0x3f105f7d	0.56395704
86	0xbe1be68d	-0.15224667
87	0xbfdbb43b	-1.7164377
88	0xbfe89d19	-1.8172942
89	0xbfff2b9a	-1.9935181
90	0x3f2e049a	0.6797577
91	0xbf0d9b03	-0.55314654
92	0xbfefef68	-1.8744936
93	0xbb739bc6	-0.0037171706
94	0x3fc1d1a4	1.5142102
95	0xc006e490	-2.1077003
96	0xbfac10e8	-1.3442659
97	0x3b7b6c8e	0.0038364264
98	0xbfbba1c4	-1.4658742
99	0x3f00b709	0.5027929
100	0x3f6828dd	0.9068735
101	0x3e2430c3	0.16034226
102	0xbf419e16	-0.75631845
103	0xbfa331ec	-1.274961
104	0xbf985afd	-1.1902767
105	0xbdfa4fed	-0.12222276
106	0x3f709336	0.93974626
107	0xbf0dc7cc	-0.5538299
108	0xbe192c50	-0.1495831
109	0x3e437250	0.19086576
110	0xbf690bd5	-0.9103368
111	0xbfe6a4be	-1.8019025
112	0xbf1bb2cc	-0.608197
113	0xbd236aae	-0.03989666
114	0xc00c2ce4	-2.19024
115	0xbee31902	-0.44355017
116	0xbeac0d09	-0.33603695
117	0xc082cd1e	-4.0875387
118	0x3f116685	0.5679706
119	0xbfb5d87c	-1.4206691
120	0xc0a4220f	-5.1291575
121	0x3d1050ee	0.03523343
122	0xc01e2be3	-2.4714286
123	0xbf9785d5	-1.1837717
124	0x3fc3dc3b	1.5301584
125	0x3d8b1ae8	0.06792241
126	0x3ef2e90d	0.4744343
127	0x400aaa7a	2.166655
128	0xbe406c2f	-0.18791269
129	0xbff6972d	-1.9264885
130	0x3fd921ae	1.6963403
131	0xbf21ce85	-0.6320575
132	0x3fa13529	1.2594348
133	0x3e200f8e	0.15630934
134	0xc02113c5	-2.5168316
135	0xbf77fb4a	-0.9686781
136	0xbfa631af	-1.2983912
137	0xbf1d96c9	-0.61558205
138	0xc03a975d	-2.9154885
139	0xbf418487	-0.75592846
140	0xbfa5a598	-1.294116
141	0xbf8a7be6	-1.0819061
142	0xbffbb533	-1.9664673
143	0xbfd9c4e9	-1.7013217
144	0xbf299c9a	-0.6625458
145	0xbb818678	-0.0039527975
146	0xbeba2e26	-0.36363333
147	0xbf5f9b8c	-0.8734672
148	0xbf9ab51b	-1.2086519
149	0xbfdceef6	-1.7260425
150	0xbfd41d3b	-1.657142
151	0x3f26e4b2	0.6519271
152	0xbfaf67f6	-1.3703601
153	0xbf0559a1	-0.5208989
154	0x3ff8ad8f	1.9427966
155	0x3eedf1b9	0.46473482
156	0x3eaae962	0.33381182
157	0xbf8f9a5f	-1.1218985
158	0x3e32f748	0.17477143
159	0xbe6cddf3	-0.23131542
160	0x3f98dea2	1.1942942
161	0xc03ee1b8	-2.9825268
162	0xbfed2e79	-1.8529807
163	0xc0695bee	-3.646236
164	0xbfb812ff	-1.4380797
165	0xbf6c01d5	-0.92190295
166	0xc020c36c	-2.5119276
167	0xbe0f3145	-0.13983639
168	0x3fa8e13a	1.3193734
169	0xbf3edd46	-0.74556386
170	0xbff50ea2	-1.914509
171	0x3ef14c82	0.47128683
172	0xc07f7e46	-3.992082
173	0xbf84035e	-1.0313528
174	0xbf26eb89	-0.6520315
175	0xbf1b4919	-0.60658413
176	0x3f42482f	0.75891393
177	0xbfb7f101	-1.4370424
178	0x3ffb9949	1.9656154
179	0x3e8b0b7e	0.27157205
180	0x3f462308	0.77397203
181	0xbfbd5240	-1.4790726
182	0xbf958318	-1.1680632
183	0xbf9a3869	-1.2048465
184	0xc003f29e	-2.0616832
185	0xbea550bf	-0.32288167
186	0x3fb9439f	1.4473761
187	0x4076fbd9	3.8591216
188	0xbf2b6a13	-0.6695873
189	0xbfc4f63e	-1.5387647
190	0x3fd6723b	1.675361
191	0x3fca3e9f	1.580036
192	0x3ed40944	0.4141332
193	0xc01786c1	-2.3675997
194	0xbf90bd80	-1.1307831
195	0x3f974b19	1.1819793
196	0xc077831e	-3.8673778
197	0xbe488b1c	-0.19584316
198	0x3eeb73ab	0.45986685
199	0x3f102e0f	0.5632028
200	0xbfaef173	-1.3667434
201	0x40347ac0	2.819992
202	0xbf6d4b5d	-0.9269312
203	0xbfbf065e	-1.4923818
204	0xbd963202	-0.07333757
205	0xbf9f21c6	-1.2432182
206	0xbe05bbbd	-0.13059898
207	0xc0125d08	-2.2869282
208	0x3fd394fa	1.6529839
209	0xc0081715	-2.1264088
210	0xbfc67bf0	-1.5506573
211	0x3fe14777	1.7599934
212	0xbedf87b4	-0.4365822
213	0xc05eee56	-3.4832969
214	0xbf64a078	-0.89307356
215	0xbfe2ab12	-1.7708457
216	0xbf9055cf	-1.1276187
217	0xbe885e40	-0.26634407
218	0xc01d6973	-2.459561
219	0x3ef4466e	0.47709984
220	0x3f26fc1d	0.65228444
221	0xbf9f623f	-1.2451857
222	0x3d8747d0	0.06605494
223	0x3f42bc5a	0.7606865
224	0xc08ba284	-4.3635883
225	0xbf0a8e08	-0.5412297
226	0xc0145d2f	-2.3181875
227	0xbe0f7292	-0.14008549
228	0xbf85d79e	-1.0456426
229	0xbfa81803	-1.3132328
230	0xbebd3493	-0.36954173
231	0xbecc1867	-0.39862368
232	0x3fe38c33	1.777716
233	0xc09e69b9	-4.9504056
234	0x3ed99282	0.4249459
235	0x3f7a03fc	0.9766233
236	0x3f6845e8	0.9073167
237	0xbf42ab44	-0.7604258
238	0x3f495278	0.7864146
239	0x3fa1154d	1.2584625
240	0x3dd4cd8d	0.10390768
241	0xbf3e8ea5	-0.7443641
242	0xbf3d543a	-0.73956645
243	0xbf77334a	-0.96562636
244	0xbf6f2f66	-0.934317
245	0xbfb7049e	-1.4298284
246	0x3f0d08c5	0.55091506
247	0x3f1782b2	0.591838
248	0xbf610bc9	-0.8790861
249	0xbef66e16	-0.48130864
250	0xbfdbcaf2	-1.7171309
251	0x3e097509	0.13423552
252	0xbfb02c3b	-1.3763498
253	0x3f310966	0.69154966
254	0x3eba43f4	0.3637997
255	0x3dfdddbc	0.12395808
