prob-kge/running_experiments/without_recipriocal/delete/1/random_UMLS_DistMult_2430986565/model.pt (torch, 25301 bytes, 2 tensors)

entity_embeddings.weight f4 [135, 32]
00000000: 6312 1e3f 6abd 273f d297 f5be f412 493f
00000010: d5dd 013f ee0f 69bf 067c 843d 02fe 6d3e
00000020: 2af2 523f 3894 773f 1644 b7be 3cd9 c2bf
00000030: e251 02bd 1dbd cf3f b7b7 463f b90c 92bf
00000040: 63f7 b23f 048e aebf ea6c 77bf 958e 523f
00000050: cea5 02c0 5e2e 97bf a419 d2be b769 22bf
00000060: e58f ba3e f436 b33f fce6 1d3d 139e b0bd
00000070: 3875 39bf 3e1d 563f ff56 febe 193b 8fbf
00000080: 255b 83bf ccfb b03d 7205 febf b3bb 2bbf
00000090: 3026 52be 08c4 b2bf 43d8 2bbf 6af8 33be
000000a0: bfe5 01bf 7307 ea3e 270b c6bd 6ff3 e33f
000000b0: bb3b 173e df73 173f b803 663e 8d73 8ebe
000000c0: d5a5 693f e8cc 043f c056 ad3d 7802 433e
000000d0: 7059 e0bf 0b75 8d3f 2e96 fcbf 1e43 e5bf
000000e0: 3832 40be dd83 96bf f3ff fa3e 42cd 20be
000000f0: b1fe b1bf 1455 1ebf 8322 d23e 3793 cbbe
00000100: 6752 2c3f b11b 31bf 32de a1bf dd08 0cbf
00000110: e2c4 fb3e bdfe 6abf f834 413e 0f5d 96bf
00000120: 34b8 1c40 1c2e 053d fc6b 893f 5515 a43f
00000130: f574 cbbe 5b23 053f bcf9 083f 94d9 413e
00000140: 06a1 10bf 4f6b d53f c5e3 a3bf bd63 f93e
00000150: 860e c2bf 802b f2be 3309 27bf d537 dcbf
00000160: 12aa 083f b322 5bbf 59eb 18bf 094d 9ebf
00000170: 7246 8dbf 94e0 bf3d b493 16be 5b85 2c40
00000180: c8ef bebe 9278 87be 7884 9abf b135 ec3e
00000190: 066e fc3e fac0 cabf 2e54 bcbe c16b cbbe
000001a0: 8298 393f b166 dd3f 598d 91bf 6b3c 72bf
000001b0: 1cfb 2cbf eef2 31be 7028 193d 7feb f53f
000001c0: 46d0 42c0 45ac e23e 5679 fabe c9f4 26bf
000001d0: 8675 72bf 8b7e 123f 9ea6 eebc cea0 14c0
000001e0: c662 0b3f 7434 0b40 718e b53f 4ac7 38bf
000001f0: 909d b2be a5c0 9fbf 2bf8 fe3e d758 00bf
00000200: 0a98 12bf 9ddc 763f 70d2 0ebf f5a2 4d3c
00000210: 7f24 a03d c6be bdbf 6303 afbd e7f4 373e
00000220: 810a a73e 9936 113f ee04 973f db57 003f
00000230: afef d2be 7894 293e 0383 2dbf 4186 f23f
00000240: 6190 92bf 4c04 c23f 1b61 aabf 773f 40bf
00000250: a4a6 c2bf ba74 793f bde2 9abf 52a6 f4bf
00000260: 03dd 353e 851b 263e 98bc c0bf 7c43 c7bf
00000270: 396f 313e 9c48 3a3f e2c4 d1be 2355 19bf
00000280: 8ec5 803f 0a73 403f cd9b 61bf 8a90 30be
00000290: cdcb 343e b7f8 21c0 a478 77bf 4567 cf3d
000002a0: 4933 783f e933 0440 cfbf 16bf 2420 84be
000002b0: 2a8d cabd c7f9 7bbe e115 2cbf 7f14 4e3f
000002c0: 3dd1 14be 1946 a9be 379b 13be 3b46 8ebe
000002d0: 8e54 babf dafd 3cbf 271c 28c0 182b 06c0
000002e0: 89ff e23f a306 aebf b4d5 16bf d92b 95be
000002f0: 5aad 773e 00dd b1be 8dd1 0e3f e031 783e
00000300: ee36 7b3f 64f7 e33d e905 8fbf 333d 173f
00000310: 19d6 4cbf 500a 8abf 4680 bd3e 1c87 77be
00000320: a94f 6e3f 94c4 a93f aeee 253f 9e59 96be
00000330: c0c0 abbf 885e 923f dd22 1cbf e0eb 793f
00000340: b793 31c0 cd55 3abe 1f85 73bf 71cf fc3e
00000350: 3a43 dabf 0ffa d13e c994 a9bf 53c5 03c0
00000360: a68b 3c3f 66c9 d03e 6a15 c93f 87d3 dabf
00000370: e218 2fc0 5ac5 f1bf f2a3 273d 0447 b53e
00000380: b91c dabe 60ec 2f3f 2c91 6cbf 5c29 7a3f
00000390: dda5 7b3f b899 3ebf d4f2 bc3e 5e90 4e3e
000003a0: 9d3b 963f 4fb3 893f 97bc 98be 3c87 88bf
000003b0: 491c 2abe 6601 cb3f aedb ae3f 16f5 aebf
000003c0: 9e5d ce3f 8d0e bdbf 5a46 54bf bf09 8c3f
000003d0: 2c00 01c0 93bf 86bf 4003 97be e593 70bf
000003e0: e8c0 913e fa22 883f 3bca a1bd def7 dabd
000003f0: ad34 6dbf 16f4 3b3f 1b06 24bf e336 8cbf
0.61746806 0.655234 -0.47967392 0.78544545 0.50729114 -0.9103993 0.06468968 0.23241428
0.82400763 0.9671054 -0.35794133 -1.5222545 -0.03181637 1.6229588 0.77624077 -1.1410133
1.3981746 -1.363709 -0.96650565 0.8224881 -2.04137 -1.1811025 -0.41035187 -0.6344256
0.36437908 1.4001145 0.038550362 -0.086239 -0.72444487 0.8363837 -0.49675748 -1.118991
-1.026219 0.086417764 -1.9845412 -0.6708328 -0.2052238 -1.3966074 -0.67126864 -0.17575231
-0.5074119 0.45708808 -0.09670096 1.7808665 0.14768879 0.5916118 0.22462356 -0.27822533
0.91268665 0.5187516 0.08463812 0.1904391 -1.7527294 1.1051344 -1.9733331 -1.7911108
-0.18769157 -1.1758991 0.490234 -0.157033 -1.3905851 -0.6184857 0.41041955 -0.39760754
0.67313236 -0.6918288 -1.2645934 -0.54701024 0.49173647 -0.9179495 0.18867862 -1.1747149
2.4487429 0.032514676 1.0736079 1.281901 -0.3973767 0.52007073 0.53506064 0.18930656
-0.564957 1.6673373 -1.2803885 0.48708907 -1.5160682 -0.47298813 -0.6524841 -1.7204539
0.53384507 -0.8559982 -0.5973411 -1.2367259 -1.1037123 0.09369007 -0.14704782 2.6956394
-0.37292314 -0.26459175 -1.2071676 0.46134713 0.4930269 -1.5840142 -0.36782974 -0.39730647
0.72498333 1.7296964 -1.1371261 -0.9462344 -0.6757066 -0.17377827 0.03739208 1.9212493
-3.043962 0.44272056 -0.48920697 -0.6521726 -0.94710577 0.5722434 -0.029132184 -2.3223147
0.5444759 2.1750765 1.4184095 -0.7217909 -0.34885836 -1.2480665 0.49798712 -0.5013556
-0.57263243 0.9643038 -0.5578985 0.012551059 0.07819461 -1.4823844 -0.08545568 0.17964517
0.326252 0.56723934 1.179838 0.50134057 -0.4119849 0.16560543 -0.67778033 1.8947221
-1.1450311 1.5157561 -1.3310884 -0.7509684 -1.5207105 0.97443736 -1.2100445 -1.9113257
0.1776009 0.16221435 -1.5057554 -1.556747 0.17327584 0.72767043 -0.40970522 -0.59895533
1.0060289 0.75175536 -0.8812836 -0.17242637 0.17655869 -2.5308053 -0.9666846 0.10127119
0.96953255 2.0656683 -0.58886427 -0.2580577 -0.09890206 -0.24607001 -0.67220885 0.80500025
-0.14532943 -0.33061293 -0.14414679 -0.27787957 -1.4557054 -0.73824847 -2.6267183 -2.0963802
1.7734233 -1.3595775 -0.58919835 -0.29135016 0.24187222 -0.34738922 0.557885 0.24237776
0.9813069 0.111311704 -1.1173679 0.5907776 -0.8001419 -1.0784397 0.37011927 -0.24172634
0.930903 1.3263116 0.6481732 -0.29365247 -1.3418198 1.1435099 -0.609907 0.9762554
-2.7746408 -0.18196793 -0.95125 0.49377015 -1.7051766 0.41011092 -1.3248531 -2.0589187
0.73650587 0.40778655 1.570966 -1.7095803 -2.7358937 -1.8888352 0.040927835 0.35405743
-0.4260004 0.68720055 -0.92409015 0.9771936 0.9829996 -0.74453306 0.36904013 0.20172259
1.1736943 1.0757846 -0.29831383 -1.066627 -0.16612352 1.5859802 1.3660791 -1.3668544
1.612232 -1.4770066 -0.8291985 1.0940474 -2.0156355 -1.0527214 -0.29494667 -0.9397567
0.28467488 1.0635674 -0.078999005 -0.10691808 -0.926585 0.7341932 -0.64071816 -1.095425

relation_embeddings.weight f4 [46, 32]
00000000: 08d8 c0be d64a 873f cd82 a3bf 0e6d 11bf
00000010: c101 913d 49db b8bf b042 453f e09c 6c3f
00000020: dc92 543f e024 21c0 8ac3 2340 001e 053f
00000030: 6023 193f b920 8bbe 5c1f 223f 77e4 4b3f
00000040: 83db fabe 1d4a 6b40 4ebd a7be eade 0ebf
00000050: d418 e2bf 0392 9c3f 1573 9fbf 0a8e 3cbf
00000060: 78e6 323e 9dce 0d3f e5ef b1be 5483 5dbf
00000070: 133d 35bf 1aef 11bf 24a7 f73d f36f 6fbf
00000080: 6930 f8bc 62d8 173c e0b2 30bf 4d5d 893f
00000090: d5b7 40bf 2386 6ebf c521 cb3f d8ac 713e
000000a0: 8b06 81be 6a5c 343f e9eb 113f a403 de3e
000000b0: 51cc 1dbd e29d d53d 693b e1be 59f0 123e
000000c0: f1db b1bf c37e a83c 9ba4 343f a66d e03c
000000d0: c1cc 9cbf f3ad 583b 7ce9 dfbe 1c2b 74bf
000000e0: 39b2 35bf e683 b6be d582 ebbe 6d94 2a3e
000000f0: 9c64 463b 8329 8cbd b124 f5be e02b 8c3f
00000100: bd61 4fbf 5b02 aebf 4873 d6bf eb27 d3bf
00000110: a70b 1140 ea8f ecbf 9904 9a3f 57a6 fa3f
00000120: fc32 82be 9ebc 853f b04d abbe c2f9 c63e
00000130: 8d14 41bf c759 b23f 2eb7 1640 81c9 7b3e
00000140: dcae ecbf baf3 833f 9268 e1bf 51db a0bf
00000150: 6324 67bf 53ce 913f c8e5 72ba 795d 89bf
00000160: b2b5 b4be 9571 5bbe 61a7 5040 a4b4 033e
00000170: c90f 1fc0 7eef 07c0 4b8d 9c3f 275b ad3e
00000180: d4f0 283d 33d1 a7bf ad3d d4bf 3ab3 1ac0
00000190: 2fcd bb3d 4cc2 babf 13db 223e 5e2a aa3e
000001a0: 3bbd 273f b133 a13f ba54 d3bf b68b d43e
000001b0: b529 6dbf 1e57 a8bf 03bc e63f f142 da3e
000001c0: 2296 ebbe 35c5 0840 2f85 793f 3a9f ffbf
000001d0: d8cf 96bf 2e3a 1e3f 8f4e 49be e9ee 24bf
000001e0: de0d 0cc0 cca3 3940 7bb1 4140 9abc be3d
000001f0: 0eb2 ddbf 7edd f4bf 0f0c 01bf 18ab 69bf
00000200: b145 77bf ec05 973e a80a 7cbe 6016 b43e
00000210: b431 d13e a4db 55bf d4b6 113f 7972 913e
00000220: 161b ecbf c8a3 fbbe c8c7 953e 682e 063e
00000230: 0c9c c23e 3ca8 933a 5cd7 4e3f 8b32 273f
00000240: cc2c 673f 6857 acbf dd48 f23e b50b 0640
00000250: f708 7dbf f092 3339 5bed 40bf 96bb a9bf
00000260: 6187 4cbf 3855 cabe 27bd c2be 66f2 78bf
00000270: aa1e 0e3f f461 53bf 88d2 3f3f fe51 923e
00000280: ddf9 63be 6fbd f3be c7bf e0be c5b4 20bf
00000290: d4e9 0dc0 4622 f9be f4cb 06be 1c57 923e
000002a0: 50a5 18c0 c620 c8bf 7971 6a3e a8d4 e83f
000002b0: 3db4 f53e 3325 283f aafe bd3e 13e5 c4bf
000002c0: 5e5a fb3e cd96 ee3f 5ae6 e53e 6ebb 33bc
000002d0: 9a2b f4bf 7635 cc3d 58ef 273f 4e0a 8fbf
000002e0: fdfd 603f 48b7 0abf 2682 bb3e bb8e 9d3d
000002f0: 0a2b c9be 6cba 303f 7731 db3f bc7a ee3e
00000300: e6c5 cd3e 746f 3b3e 9908 32bf 04e3 0dbf
00000310: 60a5 e13a dbec 35be af0a 41bf ebdd 253d
00000320: f597 09bf 6b57 97be 08be 283f b8a4 9e3e
00000330: 750c 9ebe 94a5 0e3f 1591 82bf 65f7 66bd
00000340: 82cd 843e 9542 9dbf 6e45 0d3f 8a64 bbbf
00000350: 65e9 0cbf 1c02 2fc0 128e 1cbf a9ef fcbf
00000360: efff 0dc0 17c5 6abf 9f67 203f 11ee c7bf
00000370: 2806 943e 4da9 eabe 4e9a 1a40 e649 803e
00000380: 7987 d6be 3463 2cbf 9835 01c0 cbf8 c03e
00000390: 6989 313f 7932 4abf 8e18 283f 9b8b 38be
000003a0: ce80 0d3d 62b6 cebf ba2b 87bf dfd2 0a3f
000003b0: 96ca aa3e 2e56 cabe 221d 793f c78b 0e40
000003c0: 4f4f b03f 0a66 b83f 5f5c a3bf c3ba d73f
000003d0: 18f9 ccbf 070f ae3f 7102 98bc 2452 f5bf
000003e0: ed8c 053b e9d8 82bf ffed 2c3d b00f 11bf
000003f0: c0a3 8ebd d916 4abe d924 953f c0dd 843e
-0.3766482 1.0569713 -1.2774292 -0.5680703 0.07080413 -1.444192 0.7705488 0.9242687
0.8303659 -2.5178757 2.5588098 0.519989 0.598196 -0.27173403 0.633291 0.79645485
-0.489956 3.6763985 -0.32761616 -0.5580889 -1.7663827 1.2232059 -1.2456995 -0.73654234
0.1747073 0.5539339 -0.34753338 -0.86528516 -0.70796317 -0.57005465 0.120924264 -0.93530196
-0.030296521 0.009267898 -0.6902294 1.0731598 -0.75280505 -0.93173426 1.5869681 0.23601091
-0.25200304 0.7045351 0.57000595 0.43362153 -0.03852493 0.104305044 -0.4399064 0.14349498
-1.3895246 0.020568257 0.7056367 0.027396034 -1.2249986 0.0033062666 -0.43732822 -0.9537828
-0.7097507 -0.35647506 -0.45998254 0.16658182 0.003027237 -0.06843855 -0.47879556 1.095089
-0.8100851 -1.3594469 -1.6753931 -1.6496557 2.2663362 -1.8481419 1.2032653 1.9582013
-0.25429523 1.0448186 -0.33457708 0.38862425 -0.75421983 1.3933648 2.3549304 0.24588586
-1.8490863 1.0308754 -1.7610037 -1.256693 -0.90289897 1.139109 -0.00092658075 -1.073165
-0.35294873 -0.21430047 3.260216 0.12861878 -2.4853384 -2.1239924 1.2230619 0.33858606
0.041245297 -1.3110718 -1.6581322 -2.4171891 0.09169995 -1.4590545 0.15903883 0.3323545
0.6552312 1.25939 -1.6510231 0.4151284 -0.92641765 -1.3151586 1.8026127 0.42629197
-0.4601298 2.1370366 0.9746885 -1.9970467 -1.1782179 0.61807525 -0.19658874 -0.6442705
-2.1883464 2.9006224 3.0264575 0.09313317 -1.7319963 -1.9130094 -0.50409025 -0.91276693
-0.96590716 0.29496706 -0.2461344 0.3517332 0.40858233 -0.8353827 0.569196 0.28407648
-1.8445766 -0.49148393 0.29253983 0.1310364 0.3800968 0.0011265348 0.8079736 0.653115
0.9030273 -1.3464174 0.47321215 2.0944645 -0.98841804 0.00017125509 -0.75362176 -1.3260372
-0.7989407 -0.39518142 -0.38034937 -0.9724487 0.5551554 -0.8257134 0.7493062 0.2857818
-0.22263284 -0.47605464 -0.43896315 -0.6277583 -2.2173967 -0.4865896 -0.1316374 0.28582084
-2.3850899 -1.5635002 0.22894849 1.8189898 0.47989073 0.6568176 0.37108356 -1.5382408
0.49092382 1.8639771 0.44902307 -0.01096998 -1.9075806 0.09971134 0.65599585 -1.117502
0.87887555 -0.54185915 0.36622733 0.07693239 -0.3929065 0.6903446 1.712447 0.46578014
0.40190047 0.18304235 -0.6954437 -0.55424523 0.0017215423 -0.17766134 -0.75406927 0.04049484
-0.53747493 -0.29558882 0.65914965 0.30985045 -0.3086888 0.557214 -1.0200526 -0.056388278
0.2593804 -1.2285944 0.55184066 -1.4640057 -0.5504363 -2.7345037 -0.6115428 -1.9760638
-2.218746 -0.91706985 0.62658113 -1.5619527 0.28910947 -0.4583229 2.415668 0.2505638
-0.41900232 -0.6733887 -2.018896 0.37689814 0.69350296 -0.78983265 0.6566247 -0.18022005
0.034546666 -1.6149409 -1.0560219 0.54228014 0.33357686 -0.39518875 0.9731008 2.2272813
1.3774203 1.440614 -1.2762564 1.685387 -1.6013517 1.3598336 -0.018555852 -1.9165692
0.0020378188 -1.0222446 0.04221916 -0.5666456 -0.069648266 -0.19735278 1.165187 0.25950432
