bbox_poisoning/Experiments/2025-07-21 15-26-41.774642/model.pt (torch, 25222 bytes, 2 tensors)

entity_embeddings.weight f4 [135, 32]
0	0x3f4c5b70	0.7982702
1	0xbf305941	-0.6888619
2	0xbf279f8c	-0.65477824
3	0xbfe987f9	-1.824462
4	0xbe79a370	-0.24378753
5	0xbf35d0be	-0.7102164
6	0xbf1aca02	-0.6046449
7	0x3f2cf3ce	0.67559516
8	0xbf7db783	-0.9910814
9	0x3f860629	1.047063
10	0x3e56c98b	0.2097532
11	0xbfbd11c4	-1.4771047
12	0x3f89493b	1.0725473
13	0xbededdd8	-0.43528628
14	0xbf425161	-0.75905424
15	0x3f6d4ce3	0.92695445
16	0xc0d29456	-6.5806074
17	0x4016595b	2.3492038
18	0x4053b130	3.3076897
19	0x40ad2f56	5.4120283
20	0x4091ef87	4.560489
21	0x3fed30e4	1.8530545
22	0x408051cc	4.009985
23	0x40c0f88d	6.0303407
24	0x40ec56c7	7.385593
25	0xc071b319	-3.7765563
26	0xc050d5b3	-3.2630432
27	0x4018ac1a	2.3855042
28	0x415d06ff	13.814208
29	0x40f66966	7.700366
30	0x3eb62e60	0.35582256
31	0xc0dbe946	-6.8722258
32	0x3f729e05	0.9477237
33	0xbf630756	-0.8868307
34	0x3f1e7533	0.6189758
35	0xbfc5addd	-1.5443684
36	0x3faee4ff	1.3663634
37	0x3fa26d7c	1.2689662
38	0x3e9645ca	0.2935012
39	0x3ee557ce	0.44793552
40	0xbf4087c2	-0.7520715
41	0x3f44e256	0.7690786
42	0xbeb4006a	-0.35156566
43	0x3e946238	0.28981185
44	0x3db9a875	0.09065334
45	0x3e591e84	0.21203047
46	0xbe17a545	-0.14809139
47	0xbe9298d1	-0.28632215
48	0xbf0d90b4	-0.55298924
49	0xc0e93dd7	-7.288799
50	0x404a25c8	3.158556
51	0x40aefa3d	5.4680467
52	0x40c9c80d	6.3056703
53	0xbfc7261a	-1.5558503
54	0xc0c598eb	-6.1749167
55	0x40ab3137	5.3497577
56	0xbf15da2e	-0.5853604
57	0xc0e4fd32	-7.1559076
58	0x40afa596	5.488963
59	0xc056e0c1	-3.357468
60	0xc067b397	-3.6203363
61	0x40c33038	6.099636
62	0x40b45ec7	5.6365695
63	0x3eef956b	0.46793684
64	0x3f20dec1	0.62839895
65	0x3ef5e716	0.48027867
66	0x3f795c61	0.97406584
67	0xbf1461ac	-0.57961535
68	0x3f056816	0.5211195
69	0xbf4ed195	-0.80788547
70	0xbef6a553	-0.48173007
71	0xbe76e04f	-0.24109004
72	0x3f589eeb	0.8461749
73	0x3e24e858	0.16104257
74	0x3ef95f77	0.48705646
75	0x3f429a20	0.76016426
76	0xbea95667	-0.33073732
77	0xbeaff028	-0.34362912
78	0xbf6e3e0f	-0.93063444
79	0xbe21ab38	-0.15787971
80	0xc0486115	-3.1309254
81	0xc055d534	-3.341138
82	0xbfbe26af	-1.4855555
83	0x3fc970b4	1.5737519
84	0xc0b46dd4	-5.6384068
85	0x402e2476	2.7209754
86	0x40355f82	2.8339543
87	0x4030b83f	2.7612455
88	0xbd6eaf57	-0.058272686
89	0x401bc0f4	2.433652
90	0x408fd0d6	4.4942427
91	0x40827a36	4.0774183
92	0x3e73aed2	0.23797157
93	0x40a1f273	5.060846
94	0x3e86066b	0.26176772
95	0x40af6153	5.4806304
96	0x3fa5cfe7	1.2954072
97	0xbf5b6c6a	-0.857123
98	0x3f9b49e7	1.2131928
99	0xbf9e64db	-1.2374529
100	0xbfa76ff3	-1.3081039
101	0xbf9f6f9a	-1.2455933
102	0x3f0edeba	0.55808604
103	0x3e467eca	0.19384304
104	0xbf91291b	-1.1340669
105	0xbed92e65	-0.4241821
106	0xbf6b9878	-0.92029524
107	0xbf6665e0	-0.899992
108	0xbf980e79	-1.1879417
109	0xbf5aceae	-0.8547162
110	0x3e9c8297	0.30568382
111	0xbf929c77	-1.1453999
112	0x40531db6	3.2986884
113	0x40dee03c	6.9648724
114	0x411e47e0	9.892548
115	0x40cbc988	6.368351
116	0x4036305e	2.846702
117	0x4097c60b	4.742925
118	0x4105a23a	8.352106
119	0x40d47583	6.6393447
120	0x3f8981f4	1.0742784
121	0x404c065a	3.1878877
122	0x40005778	2.0053387
123	0x40adb4c8	5.428318
124	0x4053027f	3.2970273
125	0x40e6e276	7.215144
126	0xc011fdb8	-2.2811108
127	0x4060e724	3.5141077
128	0x3f6ebda1	0.932581
129	0xbfaed3cf	-1.3658389
130	0x3f9f8909	1.2463695
131	0xbf9e4ad9	-1.2366592
132	0xbf27b57a	-0.65511286
133	0xbf82c17b	-1.0215296
134	0x3f48b62d	0.7840298
135	0x3cb202f7	0.02172993
136	0xbdbc2618	-0.09186953
137	0xbf11bec0	-0.56931686
138	0xbf97cded	-1.1859719
139	0xbfd73edb	-1.6816057
140	0x3f4864bd	0.78278714
141	0x3e5f9bf6	0.21836838
142	0x3e080132	0.13281706
143	0xbf9d81ac	-1.2305198
144	0xbe97cb04	-0.29647076
145	0x40da6dcf	6.8259044
146	0x412e2a5f	10.8853445
147	0x40faa8eb	7.83312
148	0x3f762e1a	0.96164095
149	0x3f8e5ddc	1.1122394
150	0x411f4f96	9.95693
151	0x410356dc	8.208706
152	0x3f00bb41	0.50285727
153	0xbff97b63	-1.949078
154	0x40a23cec	5.0699368
155	0x406ad391	3.669163
156	0x40a6da82	5.2141733
157	0x40e37b65	7.108813
158	0xbfd9df97	-1.7021359
159	0x3d96f4ca	0.073709086
160	0x3da95b04	0.08269313
161	0x3fbeda46	1.4910362
162	0xbe242236	-0.16028675
163	0xbfc64058	-1.5488386
164	0x3f7d3a34	0.98916936
165	0xbe6d9525	-0.23201425
166	0xc00b0418	-2.1721249
167	0x3eed225f	0.46315286
168	0xbfe31dee	-1.7743509
169	0x3dabdb6e	0.08391462
170	0xbe0b77bb	-0.13619892
171	0xbe811e44	-0.25218403
172	0xbef970f5	-0.48718992
173	0xbd02c817	-0.0319291
174	0xbfa21d0a	-1.2665112
175	0xbe1822d8	-0.14857042
176	0x4080a27b	4.019834
177	0x412c42b9	10.76629
178	0xc014b06a	-2.3232675
179	0x40933ce4	4.601183
180	0x40c830df	6.2559657
181	0x3ef75e1e	0.48313993
182	0xc0efbaaf	-7.4915385
183	0x403445c2	2.8167577
184	0x4090fb75	4.5306954
185	0x40c2359b	6.0690436
186	0x3e3c3bd4	0.18382198
187	0x40b96a26	5.7942076
188	0x4086a42b	4.20754
189	0x409cd4b8	4.9009666
190	0x3fdf67a5	1.7453505
191	0x41499588	12.599007
192	0x3ec3006f	0.38086268
193	0xbe408c3d	-0.18803497
194	0x3f1c8ac7	0.6114926
195	0xbf32ad42	-0.6979562
196	0xbfb1e6b8	-1.3898535
197	0xbf723617	-0.94613785
198	0xbf944f5b	-1.1586717
199	0x3e89957c	0.2687186
200	0x3f49f452	0.7888843
201	0xbf3b0048	-0.73047304
202	0x3e0b4cea	0.13603559
203	0x3ed1981c	0.40936363
204	0x3c02fab6	0.007994344
205	0x3ea77ab1	0.32710794
206	0xbfa346c9	-1.2755977
207	0x3e6c13d0	0.23054433
208	0xc0682ce8	-3.6277409
209	0xc08c0f5c	-4.376875
210	0xc0d8e132	-6.7774897
211	0x405abe33	3.4178588
212	0x3e77900e	0.24176046
213	0x40368d16	2.8523612
214	0xc0ab00c9	-5.343846
215	0x403f4fea	2.9892526
216	0x3fa685f3	1.3009628
217	0x40a20445	5.063021
218	0x40821964	4.0655994
219	0x40779d0d	3.8689606
220	0x4012f8ec	2.296443
221	0x40bce4da	5.902936
222	0xbf08122c	-0.5315273
223	0x40b47266	5.6389647
224	0x3f7a920f	0.9787912
225	0xbf0ccbae	-0.5499829
226	0x3f7a83a6	0.9785713
227	0xbf827d4c	-1.0194488
228	0xbec72a8c	-0.38899648
229	0xbf871911	-1.0554525
230	0x3f9425a5	1.1573988
231	0xbf944b02	-1.158539
232	0x3f6dd9f7	0.9291071
233	0xbf476ae3	-0.7789747
234	0x3ea5b2a7	0.32362863
235	0x3f23e3eb	0.6401965
236	0xbdb7483e	-0.08949326
237	0xbe4b9d61	-0.19884254
238	0xbf219fc7	-0.63134426
239	0x3e8a12cf	0.26967475
240	0xbfadd4db	-1.3580583
241	0xc0c3edd3	-6.1227813
242	0xc0a77f38	-5.2342796
243	0x3fa4f228	1.28864
244	0xbf1caca4	-0.6120093
245	0x4007d793	2.1225326
246	0xc08c65fa	-4.3874483
247	0xc02ab7ed	-2.667476
248	0x3d554a15	0.052072603
249	0x4066636e	3.5998187
250	0x40c0a97e	6.02069
251	0x40c1dc07	6.058109
252	0x4035fea9	2.8436682
253	0x40c74db3	6.228235
254	0xbfe442d1	-1.7832891
255	0x409326de	4.5984945

relation_embeddings.weight f4 [46, 32]
0	0x4017f7ea	2.3745065
1	0xbe4271a2	-0.1898866
2	0xbf2e7b3b	-0.68156785
3	0xbfa08ec7	-1.2543572
4	0xbeb0d964	-0.34540856
5	0x3f920fc1	1.1411058
6	0xbdc513de	-0.0962293
7	0x3ecae2e1	0.3962622
8	0xbf8bb7db	-1.0915483
9	0xbddacfb0	-0.106841445
10	0x3e03f8de	0.12887904
11	0x3c5c4282	0.013443591
12	0x3e372c13	0.17887907
13	0xc0214d05	-2.520326
14	0xbf0af1cd	-0.5427521
15	0x3e981e26	0.297105
16	0x40ac6ee3	5.388536
17	0x407e7e0f	3.976444
18	0x4094d6c8	4.6512184
19	0x3f35b662	0.7098142
20	0xc0950b25	-4.6576104
21	0xc0b976ab	-5.795736
22	0xbfe9574c	-1.8229766
23	0x40e3ab24	7.114641
24	0xc0aa2aaa	-5.317708
25	0x40a0677e	5.0126333
26	0x410268ad	8.150556
27	0xc0055659	-2.0833952
28	0x4075d9f5	3.841428
29	0x408178e6	4.046008
30	0xc0cb20be	-6.347747
31	0x40c5e601	6.1843266
32	0xbdb387fe	-0.08766173
33	0xbbb8a869	-0.0056353104
34	0x3f388310	0.72074986
35	0xbf699716	-0.91246164
36	0x3eadaa90	0.3391919
37	0xbefdd83d	-0.4957904
38	0xbe8f6260	-0.28004742
39	0xbdc6fde6	-0.09716396
40	0x3eccdec1	0.40013698
41	0x3d1f92bf	0.038958307
42	0x3df78dda	0.12087603
43	0x3c2df8ae	0.010618372
44	0xbea38301	-0.31935886
45	0xbfa46f00	-1.2846375
46	0xbd3d98f6	-0.046288453
47	0x3f34d7e6	0.70641935
48	0xbec87f67	-0.391597
49	0x40db03fc	6.8442364
50	0x3ff1735e	1.8863332
51	0x40eec74a	7.4618273
52	0xc0f0b94c	-7.5226192
53	0x3f577f2c	0.84178424
54	0xc0e323d7	-7.098125
55	0x40c607a6	6.1884336
56	0xc0e6e845	-7.215853
57	0xbf3b863e	-0.7325171
58	0xc058b0fa	-3.3858018
59	0x401ad52e	2.4192615
60	0x3faacfe1	1.334469
61	0x3ffee811	1.9914571
62	0xbf77319a	-0.9656006
63	0x3fd3f750	1.6559849
64	0xbf111f0e	-0.5668801
65	0xbef8e1c2	-0.4860974
66	0xbe26bf65	-0.16283949
67	0xbfbd42b5	-1.4785982
68	0x3f1271be	0.57204807
69	0x3fcd7503	1.6051334
70	0x3e3755d4	0.17903835
71	0x3f4baf2b	0.7956416
72	0x3fc8d2f1	1.5689374
73	0xbec8d2e6	-0.39223403
74	0x3ef45151	0.4771829
75	0x3f9369d2	1.1516669
76	0xbf0dda03	-0.55410784
77	0xc00aef96	-2.1708732
78	0xbe66f770	-0.22555327
79	0x3f0976e8	0.5369706
80	0x3fb67fc2	1.4257739
81	0x40931a81	4.5969853
82	0x406eda9c	3.7320929
83	0x4037d94c	2.8726377
84	0x41006c37	8.02642
85	0x40d7d3e3	6.744615
86	0x3eaa4d62	0.33262163
87	0x40f11a02	7.534425
88	0xc096dd7a	-4.7145357
89	0x400a1be7	2.157953
90	0x410044db	8.01681
91	0x4084805b	4.1406684
92	0x3fae65c6	1.3624809
93	0xbfb70e05	-1.4301153
94	0x3f826205	1.0186163
95	0xc0e170c9	-7.0450177
96	0xbec71404	-0.38882458
97	0xbfaa9dab	-1.3329366
98	0x3f24d3a8	0.6438546
99	0xc006dd2c	-2.1072493
100	0xbe6bb5e7	-0.23018609
101	0xbf9bde23	-1.2177166
102	0x3fdebd08	1.7401438
103	0xbec8fd89	-0.39255932
104	0xbf682a82	-0.9068986
105	0x3f7c1c06	0.9848026
106	0xbe0a8e16	-0.13530764
107	0x3f1574b8	0.58381224
108	0xbe3675b6	-0.1781834
109	0xc02eb5d5	-2.7298481
110	0xbf3cf37a	-0.73809016
111	0xbf4ef2a4	-0.8083899
112	0xc002b7e1	-2.042473
113	0xbf908cbc	-1.1292949
114	0xc0e959eb	-7.2922263
115	0xbee9936d	-0.4562029
116	0xc0f061e7	-7.511951
117	0x3e76ba0e	0.24094412
118	0xbf570ebc	-0.8400686
119	0xc0227008	-2.5380878
120	0x3f40256e	0.75057113
121	0xbf49f016	-0.7888197
122	0x40dea8c8	6.958103
123	0x3f417f68	0.7558503
124	0xbff4aadc	-1.9114642
125	0xbf91fe2b	-1.1405691
126	0x412266e4	10.15012
127	0x40ac4f84	5.3847065
128	0xbf3059c2	-0.6888696
129	0xbbc7a479	-0.0060926047
130	0x3f3c49d1	0.73550135
131	0xc00d9fde	-2.2128825
132	0xbf977678	-1.1833029
133	0x3e445a45	0.1917506
134	0x3f0101c1	0.503933
135	0x3fa0d700	1.2565613
136	0xbf8fd724	-1.1237531
137	0x3f9595e1	1.1686364
138	0xbfb3b6fd	-1.4040219
139	0x3fae6427	1.3624314
140	0x3e9ee368	0.31032872
141	0xc00ce613	-2.2015426
142	0x3c89991e	0.016796645
143	0x3ec5493b	0.38532433
144	0xbe9b2045	-0.30298057
145	0x413c47f0	11.767563
146	0xc03e2f6a	-2.971644
147	0x3fbb80e2	1.4648707
148	0xc076287e	-3.8462214
149	0x414f6bc6	12.963812
150	0x3f82eeaa	1.0229084
151	0x403d8dc2	2.9617772
152	0xc08b834f	-4.359779
153	0x4060d8a5	3.513223
154	0xbf7da17c	-0.9907453
155	0xc09df494	-4.9361057
156	0xc109bafb	-8.60815
157	0x3f2fdae1	0.6869336
158	0xbec3f8b4	-0.38275683
159	0xc045ca1a	-3.0904603
160	0x3dd2563e	0.10270356
161	0xbe1680ab	-0.1469752
162	0xbd13a1e4	-0.036043063
163	0xbf952fd4	-1.1655221
164	0xbecc3186	-0.39881533
165	0x3f4b37c3	0.7938196
166	0xbec188d3	-0.377997
167	0xbf1d98d0	-0.615613
168	0xbfa268e3	-1.2688259
169	0x3f76f8e5	0.9647353
170	0x3d8dccc9	0.06923825
171	0x3f1585b2	0.5840713
172	0xbf0d5cc6	-0.55219686
173	0xc03b19b3	-2.9234436
174	0x3faa58ac	1.330831
175	0x3fa5cc5d	1.2952992
176	0xbffc0d50	-1.9691563
177	0xc0e6f24c	-7.2170773
178	0x4100b2e8	8.043678
179	0x3fb98232	1.4492857
180	0x4096e6af	4.7156596
181	0x40bdbfcb	5.929662
182	0xc0b5432e	-5.6644506
183	0x40cddfc1	6.4335637
184	0x3e2d6f28	0.16936934
185	0xbf2e1b8a	-0.6801077
186	0xc01f73ff	-2.4914548
187	0xbf9ec8e3	-1.2405056
188	0xc0a06fed	-5.013663
189	0xbd9ccec7	-0.07656627
190	0xc0af0622	-5.4694986
191	0x40b036c3	5.506685
192	0x3e226fc3	0.15862946
193	0xbf3818ae	-0.7191266
194	0xbea14e35	-0.3150498
195	0xbf8236fc	-1.017303
196	0xbdacb132	-0.08432235
197	0xbee15fa1	-0.44018272
198	0xbd8dc4df	-0.06922316
199	0xbf2adfb9	-0.66747624
200	0x4011f069	2.2802985
201	0x3eea54d3	0.4576784
202	0x3f0f4444	0.5596354
203	0x3f1c80bb	0.6113393
204	0x3bbc155e	0.005739852
205	0xc0273bea	-2.6130319
206	0x3f6ed0ab	0.9328715
207	0x3e45d7a6	0.19320545
208	0xbfa4b709	-1.2868358
209	0x41498cfc	12.59692
210	0xc0c772e2	-6.232774
211	0x3f7cf238	0.98807096
212	0xc09cb4d8	-4.8970757
213	0xc0133a50	-2.300434
214	0x40484653	3.1292922
215	0xbff5347f	-1.9156646
216	0xc015b62d	-2.3392441
217	0xc0382c07	-2.8776872
218	0x404252cb	3.0363033
219	0x40eeb1c8	7.459202
220	0xbeab271b	-0.33428273
221	0xc0936ebb	-4.607267
222	0x4031aa75	2.7760289
223	0x3f8f7337	1.1207036
224	0x3db43c72	0.088005915
225	0x3f638b17	0.8888411
226	0xbe3969ab	-0.18106715
227	0xbf3d29bd	-0.7389181
228	0x3e6468dd	0.22305627
229	0xbf30a967	-0.6900849
230	0xbfa0e719	-1.2570525
231	0xbe4b8191	-0.19873644
232	0xbdba7683	-0.091046356
233	0x3ec7a921	0.38996223
234	0x3eb82eea	0.35973293
235	0xbf619d46	-0.88130605
236	0xbfa293e1	-1.2701379
237	0xc0324294	-2.7853136
238	0x3f2032fe	0.6257781
239	0x3e9cba85	0.30611053
240	0xbefdc117	-0.49561378
241	0xc034c45b	-2.8244846
242	0xc031f2b7	-2.7804391
243	0xbfbe9ec4	-1.4892201
244	0x40e42d36	7.130519
245	0x4030bc31	2.7614863
246	0xc02af17e	-2.6709895
247	0x400bd655	2.1849568
248	0x40610704	3.5160532
249	0xc09a81ed	-4.82836
250	0xc078899c	-3.883399
251	0x401b26a6	2.424234
252	0x3f8bbe96	1.0917537
253	0xc070d9a1	-3.763283
254	0xc0829b08	-4.0814247
255	0xc09b8106	-4.8595
