prob-kge/running_experiments/without_recipriocal/delete/678/score_UMLS_ComplEx_3087940365/model.pt (torch, 25301 bytes, 2 tensors)

entity_embeddings.weight f4 [135, 32]
000000 c9 29 f2 3e 82 23 8e 3f 39 88 16 bd 22 7d 88 be
       0.47297505 1.1104586 -0.036751006 -0.2665797
000010 26 76 b6 3f cb 05 8a bf 74 9e 84 bf 07 76 49 3e
       1.4254806 -1.0783018 -1.0360856 0.1967393
000020 b1 5d c5 bf cc 4c 46 3e fa 76 7e 3e 45 37 81 bc
       -1.5419217 0.19365233 0.24850073 -0.015773425
000030 93 b3 bd bc cb 59 57 bf b8 c6 db bb ef 60 c9 be
       -0.023156917 -0.8412139 -0.0067070387 -0.39331767
000040 32 44 88 3f d1 fd 54 bd b1 9a 99 bd b1 d2 ad 3e
       1.0645812 -0.05199987 -0.07500208 0.33949807
000050 fc e2 b3 3e 1f ff 69 3f d8 45 20 3f 0c 5b a8 be
       0.35134113 0.9140491 0.62606573 -0.32881963
000060 55 2f c7 3f 84 23 9a bf 1b 7a 97 be ab 6b f6 3e
       1.556132 -1.2042089 -0.29585347 0.4812902
000070 43 26 fb 3e ca a1 70 bf 78 d8 94 bf 69 be a1 be
       0.4905263 -0.9399687 -1.1628561 -0.31590584
000080 ce 5c fb bf d5 16 65 3f 7f 0e 33 3e 83 f4 56 bf
       -1.9637697 0.89487964 0.17485999 -0.83966845
000090 1b 79 e4 3d 5c 85 c8 bf b5 53 bb bf 98 69 40 bf
       0.111559115 -1.5665698 -1.463492 -0.75161123
0000a0 ea 7b 07 be f7 11 4c 3f 75 f0 29 3f 6b 30 b5 3e
       -0.13230863 0.7971491 0.66382533 0.35388502
0000b0 3d a3 a5 3e d0 bf ad 3d 11 44 bc bd 51 0d 8a 3f
       0.32351103 0.08483851 -0.0919267 1.0785314
0000c0 7a 60 3d 3f 14 13 6d 3e 10 15 05 3e bb ec 09 3e
       0.73975337 0.23151809 0.12996316 0.13469212
0000d0 c8 f9 23 3f 9e b3 91 3f 8f 37 20 bf be 1a b1 bf
       0.6405301 1.138294 -0.62584776 -1.3836286
0000e0 67 8d 8f be 4d 31 71 be 1a 9f b3 3e 6a fe bf be
       -0.2803757 -0.23553963 0.35082322 -0.3749879
0000f0 8a 8b cf 3e c9 9a b4 bf f7 d3 43 bf 5b a9 59 be
       0.40536147 -1.4109737 -0.7649531 -0.2125601
000100 41 d5 5a bf ce 99 41 3f 3e 99 30 bf 4d 9d 83 bf
       -0.8548165 0.7562531 -0.6898383 -1.0282379
000110 aa 6c 21 3f af 62 b3 bf c4 28 ce bf 3c d7 02 be
       0.63056433 -1.4014491 -1.6106191 -0.12777418
000120 50 d7 46 bf 48 24 47 3d 63 73 91 3e 4b 78 ec 3e
       -0.7767229 0.048618585 0.28408346 0.46185526
000130 2b 34 c2 bf 5a b8 a5 3e e0 5e f1 3c 5f ed 08 3f
       -1.517217 0.32367212 0.029464185 0.534872
000140 08 b3 92 3f 7d c6 12 3e 02 54 98 3e 28 92 4a 3e
       1.1460886 0.1433353 0.29751593 0.19782317
000150 43 d2 9e bf aa 66 e3 3f 9a f8 a1 be 82 8d c5 be
       -1.2407917 1.7765706 -0.3163498 -0.38584524
000160 7e a5 3c 3f 12 d7 c1 bf ae b5 d6 bd f3 cf eb be
       0.7369002 -1.5143759 -0.104838714 -0.4605709
000170 ae 49 82 3f ae 3b ca be 91 6f 18 3f 98 1e b9 bf
       1.0178735 -0.39498657 0.59545237 -1.4462461
000180 e1 1f b0 bf ff a7 83 3f d4 9b c7 be 21 c2 68 bf
       -1.3759729 1.0285643 -0.38986075 -0.9092122
000190 d5 6d ae be 0b 22 c5 bf 8e f4 98 bf c1 b5 7d 3f
       -0.3406817 -1.5401014 -1.1949632 0.9910546
0001a0 3d b9 1a 3f 63 fb af 3e 9e 7b 99 3d 12 9c 9a bf
       0.604389 0.3437148 0.07494281 -1.2078879
0001b0 47 5b 7d bf c2 c1 16 3e 71 3c 6c bf 8e 62 d4 3e
       -0.98967403 0.1472235 -0.92279726 0.4148144
0001c0 57 96 8e 3f 3e 14 a6 3f 85 fc 65 bf 65 ca 89 bb
       1.113963 1.2974927 -0.8983844 -0.0042050355
0001d0 55 af 02 40 54 b0 8f 3f c4 79 b1 be fa f9 00 3d
       2.0419514 1.1225686 -0.34663212 0.031488396
0001e0 8d 4f a2 3e 21 c8 e1 bf ff 63 87 3e 39 51 9e be
       0.31701317 -1.76392 0.26443478 -0.30921343
0001f0 30 33 0f bf bc a9 de bd a3 01 cf be f3 f9 95 3e
       -0.5593748 -0.10872218 -0.40430936 0.2929226
000200 f3 4f 87 bf 71 8e d6 bc d5 0d 08 3d 14 6f 94 3d
       -1.0571274 -0.026190968 0.033216316 0.07247749
000210 60 30 a1 bf 64 a4 f2 bf 2a f8 fa bf 0f 9c b8 3e
       -1.2592888 -1.8956418 -1.9606984 0.36056563
000220 eb f5 1e 3e 07 18 b2 3e be ef 50 be fc dc 2b bf
       0.15523498 0.34783956 -0.20403954 -0.6713407
000230 41 d7 20 bf 0d 4d 2f 3f d8 87 9d bf 4d dd ce 3e
       -0.6282845 0.68476945 -1.2307081 0.40403214
000240 70 11 d0 3f 4f 3e f2 be f7 8e 23 be 72 ae fb 3e
       1.6255322 -0.47313163 -0.15972506 0.4915653
000250 ee 21 89 bf 8e 89 b0 3f 5f 7c 91 3e a6 b7 b5 bf
       -1.071348 1.3791978 0.284152 -1.419667
000260 0c 54 c1 3f 9c 6f cc be 62 c4 54 3e 4c 6a 89 bf
       1.5103774 -0.399289 0.20778039 -1.0735564
000270 2a ea 98 bf 09 e3 c7 bf 27 8d d4 be f8 3b f1 3e
       -1.1946461 -1.5616161 -0.4151394 0.47116065
000280 4b 94 b2 be c1 c5 1d be 20 85 25 bf 7e bb 20 be
       -0.34878764 -0.15407468 -0.6465626 -0.15696523
000290 6d 62 4b 3f 1e 5b ba bf 45 4a 2a bf 10 8d bb 3c
       0.7944706 -1.4559057 -0.66519576 0.022894412
0002a0 17 1d 0b 3f 08 ae 20 3f 47 7c 19 be c6 45 4f 3d
       0.5434126 0.6276555 -0.14988814 0.05060365
0002b0 cc e8 59 3e 36 76 2f bf 67 0d 66 be d0 1d 40 3f
       0.21280211 -0.6853975 -0.2246605 0.7504549
0002c0 e1 e2 a6 3f 1c 98 1b 3f fa c6 cf 3f 2b 6d 0e 3e
       1.3037988 0.60778975 1.6232598 0.13908832
0002d0 4f f7 4f 3d e2 10 c6 3f 3a c5 32 3d 43 35 0f bf
       0.05077296 1.5473902 0.04364512 -0.55940646
0002e0 8f cd 1f 3f 72 6b dd bf 89 a7 be be e3 70 10 bf
       0.6242303 -1.7298415 -0.37237194 -0.5642225
0002f0 aa f4 e4 bd 54 cb 82 bf d0 1b 62 be 0f 42 25 bf
       -0.111794785 -1.0218301 -0.22080922 -0.6455392
000300 74 7d df be 6a ce 87 be a4 a2 a9 be 92 6c 01 bf
       -0.436504 -0.2652467 -0.33131897 -0.5055629
000310 62 e8 c1 be a8 6b e0 bf cb 5e ad bf 55 a6 db 3d
       -0.37872607 -1.7532854 -1.3544554 0.10725085
000320 94 b7 9d bf 85 be 89 3f db b7 68 3f b0 0d 90 bf
       -1.2321649 1.0761267 0.9090554 -1.1254177
000330 ab f9 ac bf 53 fb 07 3f 35 10 df bf 7d eb e7 3e
       -1.3513693 0.53117865 -1.7426821 0.4529685
000340 a4 be 5f 3f 07 d3 2b bf 5a c9 9f bf f6 a8 36 bf
       0.8740027 -0.6711888 -1.2483323 -0.71351564
000350 a4 e0 95 3f b6 24 8c 3f da 03 8b bf 5d a5 4e 3d
       1.170918 1.0948703 -1.086055 0.05045067
000360 aa d1 8b 3f 8b bb 76 bf 53 3d d4 be 82 0a 8d be
       1.0923359 -0.9637992 -0.41453037 -0.2754708
000370 8a 4e 80 3e 4d 9f 81 be 63 a1 a8 3f fa 86 80 3c
       0.2505992 -0.2531685 1.3174251 0.015689362
000380 35 ff bb 3e b1 58 69 3f 57 b2 85 3f 93 f9 64 be
       0.36718145 0.9115096 1.044505 -0.2236083
000390 92 eb e7 3f 56 50 9c bf 91 e0 0b bf ae 12 6e bf
       1.8118765 -1.2212017 -0.54639536 -0.9299725
0003a0 7f de a5 bf b8 9c 16 be e2 e1 85 be 34 2a 6e 3e
       -1.2958525 -0.14708221 -0.26148897 0.23258287
0003b0 77 8a 98 bd 87 58 10 bf 74 f7 91 be 96 b5 fb bd
       -0.07448285 -0.5638508 -0.28509104 -0.12290494
0003c0 3e 76 72 3f 02 aa 2a 3e a4 50 45 be 34 5b 09 3f
       0.94711673 0.16666415 -0.19269043 0.5365479
0003d0 28 66 2e 3f d9 65 88 3f 8d e3 04 3f 10 ca 78 bf
       0.6812463 1.0656081 0.51909715 -0.9718332
0003e0 bd c8 8a 3f c6 d5 b6 bf f7 be 54 3d cf e6 51 be
       1.084251 -1.4283988 0.05193993 -0.20498203
0003f0 f1 96 82 be e3 08 d2 bf cb 34 90 bf e6 4f c7 3e
       -0.25505784 -1.6408962 -1.1266111 0.38928145

relation_embeddings.weight f4 [46, 32]
000000 86 71 20 bf fe bc 00 3f 7e 5d cc bf 55 89 66 3e
       -0.62673223 0.5028838 -1.5966032 0.22513326
000010 bb c8 6a 3f ea 27 de bf 30 97 d6 3e 64 fb 96 bf
       0.9171254 -1.7355931 0.41912222 -1.1795468
000020 46 e5 e7 3f fd dc a5 bf 94 2a d3 be 83 cc 8b 3e
       1.8116844 -1.2958065 -0.41243422 0.27304468
000030 1a 0e 13 3f 52 82 a1 bf ea f0 b4 bf 10 c2 d2 be
       0.5744339 -1.2617896 -1.4136021 -0.41163683
000040 5d a3 98 3e 1c df 54 be 41 9d a5 3f 3f 78 bd 3e
       0.29812136 -0.20788234 1.2938615 0.37005803
000050 e4 60 a1 be ec 83 32 40 82 13 eb 3f 4a d8 ee 3d
       -0.31519234 2.7893019 1.8365328 0.116623476
000060 ff c5 b8 bf c1 d1 e5 3e d2 ae 41 3f 2a 21 dd bd
       -1.4435424 0.44886592 0.7565738 -0.10797341
000070 1f ec c8 3e e0 11 38 40 9f 2a a0 bf ff ab bf 3f
       0.39242646 2.876091 -1.2513007 1.4974364
000080 6b be 82 be 6f 1e 2f 3e 04 14 a8 be d9 f3 43 bf
       -0.25535902 0.17101453 -0.3282777 -0.76543957
000090 92 5e e9 bd 5d de ac bf 1b d2 10 3e 50 67 eb 3e
       -0.11394991 -1.350536 0.14142649 0.4597726
0000a0 58 de 13 3d d4 ac da be 8e d2 8b 3e 63 07 7e 3f
       0.036100715 -0.42709982 0.27309078 0.9923002
0000b0 4c 2c ce be ce 20 96 bf fe 64 31 3f f8 e3 e1 be
       -0.4026817 -1.1728761 0.69294727 -0.4411924
0000c0 79 d6 c4 3e 8a dd 63 3e 5e f4 6e bf 32 c3 aa 3e
       0.3844488 0.22252479 -0.93341625 0.33352047
0000d0 ae 50 3e 3f 1a ae 05 be 07 26 93 3e ce 71 8d bf
       0.7434186 -0.13054696 0.2873995 -1.1050355
0000e0 86 24 14 be 8b 19 ef 3e b1 7b b8 bf af ad 05 bf
       -0.14467058 0.46699175 -1.4412748 -0.52218145
0000f0 82 ca d7 be 8e db 21 bf b9 8e 1d bf 83 f2 d5 3e
       -0.4214669 -0.6322564 -0.615459 0.41786584
000100 9f 0a fa bf 13 b3 a8 3d bf dd 54 be 2b a4 b7 bf
       -1.9534491 0.08237281 -0.20787714 -1.4346975
000110 58 50 bb bf 9b 32 d4 be 5e 20 a0 be 4f ae 82 3d
       -1.4633894 -0.4144486 -0.31274694 0.06380903
000120 da 22 b0 3f 16 47 05 c0 72 46 94 be 90 69 b7 3d
       1.3760636 -2.0824637 -0.28959996 0.08955681
000130 41 85 06 c0 d6 90 5c 3e ee cc 5e 3e 9f ee b9 3f
       -2.1018832 0.21539626 0.21757862 1.4525946
000140 46 c0 16 3f 9d e6 88 3f 01 4f c3 3f 58 02 7b 3f
       0.58887136 1.0695378 1.5258485 0.9805045
000150 8d 32 5a 3e b4 8a 68 bc 3c 2d 03 3f 31 97 18 bf
       0.21308346 -0.014193226 0.512409 -0.596057
000160 3b a3 99 3f 02 b4 ea 3d 9b 10 a2 3f 1a 45 a3 bf
       1.2002939 0.11460115 1.2661318 -1.2755463
000170 88 92 7b 3f 36 69 7f be 85 25 00 3e 26 e6 c7 bd
       0.98270464 -0.24942479 0.12514313 -0.09760694
000180 9a 31 a0 bf 89 74 ec be 8b 29 8e 3f 03 f7 35 bf
       -1.2515137 -0.4618266 1.1106428 -0.71080035
000190 7e 34 a9 bf 1e 30 55 bf ff 07 c8 be 6e 15 21 3f
       -1.3219144 -0.83276546 -0.390686 0.62923324
0001a0 b9 6c 17 3f 97 03 12 c0 51 36 a3 bf df d7 70 bf
       0.5915027 -2.281469 -1.2750951 -0.94079393
0001b0 12 63 32 c0 f6 6a bb bf a2 a1 f3 3e ae 9b aa be
       -2.7872968 -1.4642017 0.47584254 -0.333219
0001c0 e5 4b 22 3f 6b be 88 be dd d0 a8 be c9 9e 2f bf
       0.63397056 -0.26707777 -0.3297185 -0.6860166
0001d0 49 be 8b 3f da 1f dd 3d e6 08 2d bf 48 b9 72 3d
       1.0917445 0.10797091 -0.675917 0.05925873
0001e0 ef 0f cd 3f cf 7b f8 bd 14 67 41 3f d0 d9 8c bf
       1.6020488 -0.121329896 0.7554791 -1.1003971
0001f0 6a 7c 18 bf 97 2e e8 be e2 81 33 bf 21 83 55 3f
       -0.5956484 -0.45348045 -0.7012006 0.8340321
000200 2f bb 60 bf bd 0d 97 3d 3f d5 62 bf 7d 67 f0 be
       -0.8778562 0.07375667 -0.8860664 -0.46953955
000210 fa a8 76 3f fc 95 ae bf 23 e1 fb 3e a9 85 bd be
       0.9635159 -1.3639522 0.49195203 -0.37016037
000220 88 0c 3d bf 48 ae bf bd d0 89 fc 3d 15 af c4 3e
       -0.73847246 -0.093594134 0.12330973 0.38414827
000230 a8 0e 6d bf 57 8d 32 bf d4 cb a6 3d 7d 4a 30 3f
       -0.9260049 -0.6974692 0.08144346 0.6886366
000240 0c 85 d3 bf ac b7 70 3e d7 51 0c bf 04 66 35 3e
       -1.6524978 0.23507565 -0.5481238 0.17714697
000250 7d 38 be bf 2d ee f7 be 9a 80 51 bf fa a1 d4 bf
       -1.4860989 -0.484239 -0.81836855 -1.6611931
000260 96 d6 c1 3f 69 75 7d bf 61 a2 4c bf 47 23 2d bf
       1.5143611 -0.9900728 -0.7993527 -0.67631954
000270 76 88 f9 3e e2 93 49 3e 56 f2 de 3e 28 e2 4e bf
       0.48736924 0.19685319 0.43544263 -0.8081384
000280 7e 50 5e 3e c5 5c 9b be 3d 34 9b be 6c 6f 34 3f
       0.21710393 -0.30344215 -0.30313292 0.70482516
000290 51 4e 7d bd 80 52 ab bf 44 33 84 bf 29 61 b6 be
       -0.061842266 -1.3384552 -1.0328145 -0.35621002
0002a0 1c d7 0f bf 16 93 8e bf bb 59 23 40 a5 f5 92 3f
       -0.56187606 -1.1138637 2.5523517 1.1481215
0002b0 1b 7b 05 be ef 25 1a bf 2e 27 e8 bd f1 59 48 be
       -0.13035242 -0.6021413 -0.11335598 -0.1956556
0002c0 79 9e 73 bf 51 fe ea bf 42 aa 0e 3e 3c 94 4b be
       -0.95163685 -1.8358861 0.13932136 -0.19880766
0002d0 a2 61 fd be 39 17 f3 be 9f a3 c7 be a3 5c 2f 3f
       -0.4948855 -0.47478655 -0.3899202 0.6850073
0002e0 57 95 35 be 08 64 11 3e af e3 2a bf 81 ba 87 3f
       -0.1773275 0.14198315 -0.6675367 1.0603791
0002f0 28 59 5b bf c4 6f b7 3d 39 a7 01 bf 6b 87 56 3f
       -0.85682917 0.089568645 -0.50645787 0.8380038
000300 26 61 dd bf 12 64 11 3f 8f 98 32 3f c2 5a 68 be
       -1.7295272 0.5679332 0.69764036 -0.22690871
000310 90 12 09 bf 0a 4c a9 bf 78 7c f6 3e 5a f9 cc 3e
       -0.5354395 -1.322633 0.48141837 0.4003399
000320 f2 fb 97 bd f5 71 14 bf 41 24 af be bb 85 03 3f
       -0.07421102 -0.57986385 -0.34207347 0.5137593
000330 e6 28 d1 be d5 43 ca 3e 36 44 51 3e 71 3f 9b bf
       -0.40851516 0.39504877 0.20436177 -1.2128736
000340 fa 09 b4 bf 7a 9c f9 be 91 96 95 3f b9 ae 1b 3f
       -1.4065545 -0.48752195 1.1686574 0.6081348
000350 70 ae 31 ba e9 cf cf be 43 59 7c bf c8 0c 39 bf
       -0.00067780074 -0.4058831 -0.985737 -0.7228513
000360 d3 56 88 3f 72 a0 39 3e d9 d0 9f be a1 96 ee 3d
       1.0651497 0.18127611 -0.31214026 0.11649824
000370 0b ee 5d bb 72 a1 2a bf 0d 2a dc 3e aa 98 01 bf
       -0.0033863808 -0.66652596 0.43000832 -0.5062357
000380 5c 84 a0 bf 4c 20 ac 3f 61 81 5f be 43 fc 7e 3e
       -1.2540393 1.3447356 -0.21826698 0.24900918
000390 ee 42 3e 3f 80 a3 00 c0 88 99 3c 3f 5c 65 b2 be
       0.74320877 -2.0099792 0.7367177 -0.34842956
0003a0 9d 73 dd 3e 47 02 b2 bf 51 eb 4c bf 87 d8 82 bd
       0.43252268 -1.3906945 -0.80046564 -0.063889556
0003b0 8a 26 80 bf 58 9f 85 3f ac 30 55 3e 29 fc 68 3d
       -1.0011761 1.0439253 0.20819348 0.056881104
0003c0 0b 97 a9 bf f6 23 ec 3d 60 17 b3 bd 0b 72 5f bf
       -1.324922 0.115302965 -0.08744693 -0.8728339
0003d0 73 d9 94 3e f0 f8 94 bb 66 da ca 3e 87 2f be be
       0.2907215 -0.004546277 0.3961975 -0.37145635
0003e0 3a a0 f2 be e3 79 28 bd 8d 30 cf be 32 e1 6e bf
       -0.47387868 -0.041131865 -0.4046673 -0.9331237
0003f0 7a f8 6d be 7a eb 7e bc 28 23 10 3f c8 9b 94 be
       -0.23239318 -0.015559072 0.56303644 -0.29025102
