bbox_poisoning/lightning_logs/version_1326/checkpoints/epoch=99-step=600.ckpt (torch, 75320 bytes, 6 tensors)

entity_embeddings.weight f4 [135, 32]
0	0x3f39e04e	0.72607887
1	0xbea42b15	-0.3206412
2	0xbf3006d1	-0.687604
3	0xbfe44261	-1.7832757
4	0x3d5872f6	0.05284401
5	0x3eb4e5b0	0.35331488
6	0xbcb59f2a	-0.022170622
7	0x3f26aebb	0.6511037
8	0x3de971ed	0.11398683
9	0x3f46acc4	0.7760737
10	0xbf2c2d84	-0.6725695
11	0x3f152b47	0.5826916
12	0xbf5ec253	-0.87015265
13	0xbf1d9f71	-0.61571413
14	0xbfa6069d	-1.2970768
15	0xbdbf09a1	-0.093280084
16	0xbf3348f1	-0.70033175
17	0x3e32f19f	0.17474984
18	0x3e6f1daf	0.23351167
19	0xbf735fed	-0.95068246
20	0x3ee85f42	0.45385176
21	0x3e4f141e	0.20222518
22	0xbf72cdd7	-0.94845337
23	0x3d45f449	0.04832867
24	0xbf6fbe11	-0.93649393
25	0xbf626c40	-0.88446426
26	0x3e0c0024	0.13671929
27	0xbee2ac58	-0.44272113
28	0xbf12410b	-0.571305
29	0x3ea30a94	0.31844008
30	0xbe6cc24c	-0.23120993
31	0xbeed71db	-0.46375927
32	0x3e248f25	0.1607023
33	0xbeb9b3b4	-0.36269915
34	0xbf5fb991	-0.87392527
35	0xbf90a712	-1.1300986
36	0xbd253058	-0.040329307
37	0xbe5e85f3	-0.21730785
38	0xbf5d9896	-0.8656095
39	0xbf2cc900	-0.674942
40	0xbf529874	-0.82263875
41	0x3edb5971	0.42841676
42	0x3e414660	0.18874502
43	0x3edf90b2	0.4366508
44	0x3f56278b	0.8365409
45	0x3e75e581	0.2401333
46	0xbfb22c70	-1.3919811
47	0x3c124254	0.008926947
48	0x3e520f4b	0.20513646
49	0xbf820112	-1.0156577
50	0x3fb73de4	1.4315763
51	0x3edd200f	0.4318852
52	0x3f35694e	0.7086381
53	0x3e778f2d	0.24175711
54	0x3e93560c	0.28776586
55	0x3ebaee59	0.3650997
56	0xbd59c6f2	-0.053168245
57	0xbecf6ce7	-0.40512773
58	0xbd3bb8e5	-0.045830626
59	0xbf932671	-1.1496106
60	0xbe5b0a85	-0.21390732
61	0x3f40dfa4	0.7534125
62	0xbe970707	-0.2949755
63	0xbf6cd4e8	-0.9251237
64	0xbf8aa880	-1.0832672
65	0xbf3f605b	-0.747564
66	0x3fb15774	1.3854814
67	0xbdb46da7	-0.08809977
68	0x3ebf2500	0.37332916
69	0x3f43c00c	0.76464915
70	0x3e808409	0.25100735
71	0xbf6dd48c	-0.92902446
72	0xbf1fbef4	-0.62400746
73	0xbe918b55	-0.28426614
74	0xbe4cfaa2	-0.20017484
75	0x3f2d445b	0.6768243
76	0xbe87a368	-0.26491857
77	0xbeb51194	-0.35364974
78	0xbfe32272	-1.7744887
79	0x3f134cdf	0.5753917
80	0x3ddb1521	0.106973894
81	0xbf1e3cde	-0.61811626
82	0x3f163d41	0.58687216
83	0xbfe90c7d	-1.8206936
84	0xbe537947	-0.20651732
85	0x3e200ed5	0.15630658
86	0x3e9bee8c	0.30455434
87	0x3f3c4baf	0.73552984
88	0x3f05de02	0.5229188
89	0xbfa75508	-1.3072824
90	0xbf42083c	-0.75793815
91	0xbf3c0771	-0.73448855
92	0xbe1ad91d	-0.15121885
93	0x3fae7623	1.3629802
94	0xbf4f2bae	-0.80926025
95	0x3e5223e3	0.20521502
96	0xbca4cea1	-0.02011806
97	0xbfc20a8b	-1.5159467
98	0xbe4e4f5a	-0.20147458
99	0x3f21aa10	0.6315012
100	0xbd9189de	-0.07106374
101	0x3f8e9e9e	1.1142156
102	0xbf63bc28	-0.8895898
103	0x3fa06dc2	1.2533495
104	0x3f4ea520	0.8072071
105	0xbf68e5fc	-0.9097593
106	0x3e472fdd	0.19451852
107	0xbe7022fe	-0.23450848
108	0x3e9d822d	0.3076338
109	0xbfa72679	-1.3058616
110	0xbf92501d	-1.1430699
111	0xbe3fc6e3	-0.18728213
112	0xbddf2c34	-0.10897103
113	0xbf46104e	-0.7736863
114	0xbf1aab84	-0.6041796
115	0x3f84d903	1.0378727
116	0x3ed14950	0.40876245
117	0x3f59ec40	0.85126114
118	0xbf83e9d8	-1.0305738
119	0xbfb5a6b8	-1.4191504
120	0xbf1b8b9a	-0.6075989
121	0x3eaec1a2	0.34132105
122	0x3ef85d5d	0.4850873
123	0xbfb55528	-1.4166613
124	0x3f146837	0.5797152
125	0xbe30b6e5	-0.17257269
126	0xbec3a92b	-0.38215002
127	0x3f613789	0.87975365
128	0x3e448c7b	0.19194214
129	0xbe24b2b3	-0.16083793
130	0xbf48c378	-0.7842326
131	0xbf2747de	-0.65344036
132	0x3ec6896f	0.3877673
133	0x3f353296	0.70780313
134	0xbf8aa76f	-1.0832347
135	0xbfccdb4a	-1.6004422
136	0xbf40acc4	-0.7526362
137	0x3f824360	1.0176811
138	0x3eb079bd	0.3446788
139	0x3ec9027f	0.39259717
140	0x3f4245cc	0.7588775
141	0x3d4020d8	0.046906322
142	0xbfa19e89	-1.2626506
143	0x3e9f7d45	0.3115026
144	0xbecb232c	-0.39675272
145	0xbf765780	-0.96227264
146	0x3f489d37	0.7836489
147	0x3f31d81f	0.694704
148	0x3f2053ca	0.6262785
149	0x3e6261a2	0.22107556
150	0x3f2870e3	0.6579725
151	0x3e80da28	0.2516644
152	0x3db76f9b	0.08956834
153	0xbf50beab	-0.81540936
154	0xbeb7eedc	-0.35924423
155	0xbf9cafa1	-1.2241098
156	0x3c32139f	0.010868936
157	0x3f87c9fa	1.0608513
158	0xbecf3f46	-0.4047796
159	0xbe7773b1	-0.24165227
160	0x3ddb4f46	0.107084796
161	0xbcb61329	-0.022225933
162	0xbf25099f	-0.64467806
163	0xbe75b3c3	-0.23994355
164	0x3ec5b1e6	0.38612288
165	0x3fa0b67e	1.2555692
166	0xbf7f865f	-0.9981441
167	0xbfaf164b	-1.3678678
168	0xbf6213af	-0.88311285
169	0x3f756149	0.9585157
170	0xbdcba68b	-0.09943875
171	0x3e232db7	0.15935408
172	0x3eb56ec4	0.3543607
173	0xbd5b7ebe	-0.053587668
174	0xbfb196eb	-1.3874182
175	0x3f0e8467	0.5567078
176	0xbe23f603	-0.16011815
177	0xbf97be0b	-1.1854872
178	0x3f9682c4	1.1758657
179	0x3ead2890	0.3382001
180	0x3f8ca6df	1.0988425
181	0xbea3c083	-0.31982812
182	0x3f5ff67c	0.8748548
183	0x3f715df0	0.9428396
184	0x3e29e46f	0.16591047
185	0x3e29b81e	0.16574141
186	0xbf02779e	-0.5096377
187	0xbf9dd5fd	-1.2330929
188	0xbea5ad3a	-0.32358724
189	0x3f6b9cb3	0.9203598
190	0xbe1275ff	-0.14302824
191	0xbe8ce402	-0.27517706
192	0x3ea29500	0.31754303
193	0x3f082487	0.53180736
194	0xbf8a369d	-1.0797917
195	0xbefbe6b2	-0.49199444
196	0x3efb9f83	0.49145135
197	0xbccf7cf1	-0.025328131
198	0x3f160f2d	0.58616906
199	0x3ed89401	0.42300418
200	0xbf0b559f	-0.5442752
201	0xbf310afd	-0.6915739
202	0x3e2db93b	0.16965191
203	0xbef49259	-0.47767904
204	0xbe1e16bc	-0.1543836
205	0xbf787f2b	-0.9706904
206	0xbf815585	-1.0104223
207	0x3f790c06	0.9728397
208	0xbd4dab25	-0.050212044
209	0xbf0e9b1e	-0.5570544
210	0xbfa5bdfd	-1.2948605
211	0xbd47e83b	-0.048805457
212	0xbf884e88	-1.0648966
213	0xbdbf61f5	-0.09344856
214	0xbf171376	-0.5901407
215	0x3e7ac7f9	0.24490346
216	0x3d885a98	0.066579044
217	0xbf2407ea	-0.64074576
218	0x3c6b0dc7	0.0143465465
219	0xbee2efc0	-0.4432354
220	0xbf969054	-1.1762795
221	0x3e04d2c1	0.12971021
222	0xbee2dd7e	-0.4430961
223	0xbf2d26b5	-0.6763719
224	0xbf1ad8a1	-0.604868
225	0xbfc8569d	-1.5651432
226	0x3f3312d7	0.6995062
227	0xbf173142	-0.59059536
228	0xbe0aba30	-0.13547587
229	0xbf186b73	-0.59538954
230	0xbd199d64	-0.037503615
231	0x3d5d2714	0.053992346
232	0x3f983f05	1.1894232
233	0x3cbe7661	0.023249807
234	0x3a7b8e9f	0.00095961423
235	0x3ec638e0	0.38715267
236	0x3dfca013	0.12335219
237	0xbda3521b	-0.07974645
238	0xbfd15901	-1.6355287
239	0x3f0f857f	0.56063074
240	0x3f61c51c	0.8819139
241	0x3eea3469	0.4574311
242	0x3f781cdd	0.9691904
243	0xbfa16e01	-1.2611696
244	0xbed20ea7	-0.41026804
245	0x3e624735	0.22097476
246	0x3e8e21da	0.27760202
247	0x3ef17713	0.4716116
248	0x3f5907c0	0.8477745
249	0x3f80a600	1.0050659
250	0x3f92d73e	1.1471937
251	0xbfc3854c	-1.5275054
252	0x3ec2b689	0.38029888
253	0x3f789089	0.97095543
254	0xbea79a75	-0.3273503
255	0x3f061738	0.5237918

relation_embeddings.weight f4 [46, 32]
0	0x3f656b5c	0.8961694
1	0xc0003d9e	-2.0037608
2	0x3f71a247	0.9438824
3	0xbf3efbf5	-0.74603206
4	0x3fd22cc1	1.6419908
5	0x3f86862e	1.0509698
6	0x3e806e33	0.25084075
7	0xbfb532c9	-1.4156123
8	0xbe1a5972	-0.15073183
9	0x3fd36d89	1.6517802
10	0xbff5fbeb	-1.9217504
11	0xbf93bc44	-1.1541829
12	0x3fd0b928	1.6306505
13	0x3e9c84f0	0.30570173
14	0xc034aaa0	-2.8229141
15	0x3f56c01c	0.83886886
16	0x3fdcc02f	1.724615
17	0xbf43a43e	-0.7642249
18	0x3f938463	1.1524776
19	0xbd0ac4f8	-0.03387925
20	0xbdcf72f9	-0.10129351
21	0xbf987982	-1.1912081
22	0xbf69de96	-0.91355264
23	0x40180cc4	2.3757792
24	0x3f5a76b4	0.85337377
25	0x3ecd0990	0.40046358
26	0xbe0efbb5	-0.13963206
27	0xbfc5570d	-1.5417191
28	0xbf8cec3f	-1.1009597
29	0x3f05eb9d	0.5231264
30	0x3f472b75	0.77800685
31	0x3e64bf95	0.22338708
32	0x3eb59a56	0.3546931
33	0xbf59a392	-0.85015213
34	0x3f240d98	0.6408324
35	0xbf12de8e	-0.5737084
36	0xbd168f2d	-0.036757637
37	0x3d939552	0.07206215
38	0xbc31f8e3	-0.010862562
39	0xbdf84c36	-0.12123911
40	0x3f6fdddd	0.9369791
41	0xbeff3bd7	-0.49850342
42	0x3f2cff85	0.6757739
43	0xbf753c26	-0.95794904
44	0x3db25fcb	0.08709677
45	0xbe948e24	-0.29014695
46	0xbf841757	-1.0319623
47	0x3f4575b9	0.77132756
48	0xbda9f107	-0.082979254
49	0x3e48a7a8	0.19595206
50	0x3c9d118a	0.019173402
51	0x3e6102fe	0.21973798
52	0xbec4255e	-0.3830976
53	0xbe47b881	-0.19503976
54	0xbf1a3baf	-0.6024732
55	0xbda7344a	-0.0816427
56	0xbee9e489	-0.4568217
57	0xbe6664a8	-0.22499335
58	0x3d20b7a5	0.039237637
59	0xbe94070c	-0.28911626
60	0xbf79ff2f	-0.97655004
61	0x3f40c4a3	0.75300044
62	0x3ddebb29	0.10875542
63	0x3f062a46	0.52408254
64	0xbeb049f5	-0.34431425
65	0xbf37511e	-0.7160815
66	0xbe6c77f8	-0.2309264
67	0x3fc6c3d6	1.5528514
68	0xbf2f956b	-0.6858737
69	0xbf32d2f1	-0.6985312
70	0x3f3d02c0	0.7383232
71	0xbfc4d762	-1.537823
72	0x3e49cc24	0.1970678
73	0x3e9d1f01	0.30687717
74	0x3f1e569d	0.6185091
75	0xbfaf0825	-1.367436
76	0x3f511d8d	0.81685716
77	0x3f1c80a3	0.61133784
78	0xbfae375d	-1.3610646
79	0x3f282bb2	0.65691674
80	0x3ea5f2ab	0.32411703
81	0x3f9046fa	1.127166
82	0xbf72aed7	-0.94798034
83	0xbedb6daa	-0.42857105
84	0x3ee92c4d	0.4554161
85	0xbf8dbe0c	-1.1073623
86	0x3e2b9d8c	0.16759318
87	0xbf3efb95	-0.74602634
88	0x3cf0d3f6	0.029397946
89	0x3e578a3c	0.21048826
90	0xbe2bf3e4	-0.16792256
91	0xbe28a0b3	-0.16467552
92	0xbf0ffd82	-0.562462
93	0x3d38bce4	0.045102015
94	0xbd8edce3	-0.069757245
95	0xbf2196d6	-0.6312078
96	0xbee9ecbb	-0.45688424
97	0xbeec45a8	-0.46146894
98	0x3ea0d0d3	0.3140932
99	0xbe4a20fe	-0.19739148
100	0xbf766e26	-0.96261823
101	0x3e4f64b7	0.20253263
102	0x3f57f6cf	0.84360975
103	0x3eadedc7	0.33970472
104	0x3f0cc9a7	0.549952
105	0x3ef0cf86	0.47033328
106	0xbeafba88	-0.34322
107	0xbecde935	-0.40216985
108	0xbe34de83	-0.17663006
109	0xbf273cfe	-0.6532744
110	0xbfe4809a	-1.7851746
111	0xbf1472b4	-0.57987523
112	0x3e8fe779	0.28106287
113	0x3e9cae7a	0.30601865
114	0xbed60f9d	-0.41808787
115	0xbe9ccaf2	-0.30623585
116	0x3f28d160	0.6594448
117	0xbec595c0	-0.38590813
118	0x3f2973f3	0.6619255
119	0x3fc48e65	1.5355955
120	0xbf9fc669	-1.2482425
121	0x3efe5934	0.49677432
122	0xbdf6c44c	-0.120491594
123	0x3f1f44ab	0.62214154
124	0xbf237e43	-0.63864535
125	0x3ea7b06a	0.3275178
126	0x3e515a34	0.20444566
127	0xbf12e1ca	-0.57375777
128	0xbf7b2e87	-0.9811787
129	0xbf37adc8	-0.71749544
130	0xbdaa8b88	-0.08327395
131	0xbe9f4e81	-0.3111458
132	0x3e8027a9	0.25030258
133	0x3f004365	0.50102836
134	0xbf510538	-0.8164859
135	0x3e16f0fc	0.14740366
136	0x3f566f51	0.83763605
137	0x3dee1e5d	0.11626885
138	0x3e4dd370	0.20100188
139	0xbf7b8056	-0.982427
140	0xbe031c7d	-0.12803836
141	0xbe8f14e9	-0.2794564
142	0xbfa35dfa	-1.2763054
143	0x3e72151d	0.23640867
144	0x3e9d976c	0.30779588
145	0xbd5fa420	-0.05459988
146	0x3d0a2c52	0.033733673
147	0x3fb27b0b	1.39438
148	0x3ec8aade	0.3919286
149	0x3ee6af47	0.450556
150	0xbd3c8a4f	-0.04603034
151	0x3de3af5e	0.11117433
152	0x3e01fc59	0.12693919
153	0xbebdc07d	-0.3706092
154	0x3db8f35f	0.09030794
155	0x3ee93b55	0.4555308
156	0xbe778090	-0.24170136
157	0x3e49adfa	0.19695273
158	0xbdc0c362	-0.09412266
159	0x3dfd97bf	0.12382459
160	0x3f86e5db	1.0538896
161	0xbf6ffc64	-0.9374449
162	0xbea65214	-0.32484496
163	0x3f82b8e4	1.0212674
164	0x3ef2c928	0.47419095
165	0x3cdc7124	0.026909418
166	0xbf2aea62	-0.6676389
167	0xbf39eb13	-0.7262432
168	0x3ea1e27c	0.31618106
169	0x3e705e25	0.23473413
170	0xbeba5426	-0.36392325
171	0xbfa7cf22	-1.3110087
172	0xbf7b3a50	-0.9813585
173	0xbdbea671	-0.0930909
174	0xbfcec56d	-1.6154
175	0x3ee072dc	0.4383763
176	0x3edda7f2	0.43292195
177	0xbdd0132f	-0.10159909
178	0x3f76341a	0.9617325
179	0x3f3be309	0.73393303
180	0xbf15b988	-0.58486223
181	0x3f0d3113	0.55153006
182	0xbd909c85	-0.07061104
183	0xbf27e9f3	-0.65591353
184	0x3f56c135	0.8388856
185	0xbf05dc40	-0.522892
186	0x3e9cdafb	0.3063582
187	0xbed77695	-0.42082658
188	0x3dc35133	0.09536972
189	0x3f83198e	1.0242174
190	0x3e88b90a	0.26703674
191	0x3eac2c99	0.33627775
192	0x3e1ae0d7	0.15124832
193	0xbf00e10e	-0.50343406
194	0xbf023237	-0.5085787
195	0x3f71f2ee	0.94511306
196	0x3ea6e8c1	0.32599452
197	0x3bd5835a	0.0065159025
198	0xbeaa368a	-0.33244735
199	0x3e335aa2	0.17515042
200	0xbd30c552	-0.04315693
201	0xbf11218f	-0.5669183
202	0x3dd08cf6	0.10183136
203	0xbf53c0df	-0.8271617
204	0x3e885eac	0.2663473
205	0xbf2fdc6f	-0.6869573
206	0xbfb536e3	-1.4157375
207	0xbf213e26	-0.62985456
208	0x3f9aaf40	1.2084732
209	0xbf762d6d	-0.96163064
210	0x3f4ed1c5	0.8078883
211	0xbf912ae0	-1.134121
212	0x3c9b2f73	0.018943524
213	0x3bf3d6cc	0.0074413773
214	0xbf895184	-1.0728002
215	0xbf69f933	-0.9139587
216	0xbf01770b	-0.5057227
217	0x3f519341	0.81865317
218	0x3e3a6493	0.18202429
219	0x3ef80001	0.48437503
220	0x3d526e80	0.051374912
221	0x3e0e6e38	0.13909233
222	0x3ea4ce43	0.32188615
223	0xbf9666d7	-1.1750134
224	0x40039e1a	2.0565248
225	0xbf309642	-0.68979275
226	0x3f99fc2f	1.2030085
227	0xbf591d31	-0.8481017
228	0xbf685f4b	-0.90770406
229	0x3f8ee43b	1.11634
230	0x3fa5cabb	1.2952493
231	0x3ecbad3f	0.39780614
232	0x3f4b0ffe	0.7932128
233	0xbdd07da9	-0.10180218
234	0xbf8c24b0	-1.0948696
235	0xbf4db5ca	-0.80355513
236	0xc037cb1b	-2.8717716
237	0x3f380919	0.7188888
238	0xc02ac1b7	-2.6680734
239	0xbdcb12d4	-0.099157006
240	0x3fe3c55e	1.7794607
241	0x3ea9a40a	0.33132964
242	0x3fa03238	1.2515326
243	0x3f8c7439	1.0972968
244	0x3fb57b86	1.4178321
245	0xbd518326	-0.051150464
246	0xbf70d1aa	-0.9406992
247	0x3e95ae04	0.29234326
248	0xbf6335b4	-0.8875382
249	0xbff43d6f	-1.9081248
250	0x3f8a099f	1.0784186
251	0x3fd986dd	1.6994282
252	0xbea8a048	-0.32934785
253	0x3d4c26f6	0.049841844
254	0xbef1f5f6	-0.47257966
255	0xbefcb64a	-0.49357826

exp_avg f4 [135, 32]
0	0x3ded7157	0.115938835
1	0xbdd987f6	-0.106216356
2	0xbec4c448	-0.38431
3	0xbe35124a	-0.17682758
4	0x3dadfed7	0.084958725
5	0x3d9ecab8	0.07753509
6	0x3e7ba869	0.24575962
7	0x3cbfdb3b	0.023419967
8	0xbed0c1c7	-0.4077284
9	0xbe5320f2	-0.20618036
10	0xbe04924b	-0.12946431
11	0x3e35aa69	0.17740788
12	0x3d2d6f92	0.04234273
13	0xbdcb8570	-0.099375606
14	0x3f05ec17	0.5231337
15	0x3c660016	0.014038106
16	0x3d0c11c2	0.034196623
17	0x3ac6c4f4	0.0015164898
18	0xbcd9d8b9	-0.0265926
19	0x3d52d377	0.0514712
20	0x3d68d31b	0.05684195
21	0x3e2a794a	0.1664783
22	0xbd9a70be	-0.07541035
23	0xbdb84b71	-0.08998764
24	0x3cc5a97f	0.024128674
25	0xbe23e6d5	-0.16006024
26	0x3e0b7f0d	0.13622685
27	0x3d4e31c4	0.05034043
28	0xbca5f110	-0.02025655
29	0xbd50f452	-0.051014252
30	0x3d8d26ad	0.068921424
31	0xbc5019fb	-0.012701507
32	0x3eb27e96	0.34862202
33	0xbd8e2367	-0.06940346
34	0x3db75397	0.0895149
35	0x3dc24b13	0.094869755
36	0xbd9f4db3	-0.07778492
37	0xbe0cdb13	-0.13755445
38	0x3acc7413	0.0015598558
39	0x3cc1f73f	0.023677466
40	0x3e682093	0.22668676
41	0xbd10f0d5	-0.035385925
42	0x3c014950	0.007891014
43	0x3d21fcf1	0.039547864
44	0xbe893519	-0.26798323
45	0xbdc84df4	-0.097804934
46	0xbeaf81c8	-0.34278703
47	0xbc3a2f54	-0.011363823
48	0xbd17ff93	-0.03710897
49	0xbcac7d6d	-0.021055901
50	0xbdcb1acc	-0.099172205
51	0xbeb0bea4	-0.34520447
52	0xbd7c736c	-0.061633512
53	0x3c2d1e43	0.010566297
54	0xbd64bddc	-0.055845127
55	0xbc466073	-0.012107956
56	0x3d31a2c3	0.043368112
57	0xbbe3c3ac	-0.006950816
58	0xbca9bd10	-0.020720035
59	0xbe80ceea	-0.25157863
60	0x3c8ca2ca	0.017167468
61	0xbd8e4bab	-0.06948026
62	0xbd697a1b	-0.057001214
63	0x3cde6b99	0.027150916
64	0x3dbf388a	0.09336956
65	0x3e3d1a40	0.18467045
66	0xbf5fc5b3	-0.8741104
67	0x3f112a5e	0.5670527
68	0x3dd0931b	0.10184308
69	0x3f075055	0.5285695
70	0xbcb3fadb	-0.021970203
71	0xbe2b418b	-0.16724221
72	0x3d29ce5c	0.041456565
73	0x3dd9761e	0.10618232
74	0xbdf8f8d9	-0.12156839
75	0xbd2b0277	-0.041750398
76	0xbea9b78b	-0.33147845
77	0x3d29c5bc	0.04144834
78	0xbdc244bc	-0.09485766
79	0x3f0ce1aa	0.55031836
80	0x3d7e8bad	0.062144924
81	0x3ee92091	0.4553266
82	0x3e89f59e	0.26945204
83	0x3ef328bd	0.47492018
84	0x3cbbadba	0.022909988
85	0xbea5a15d	-0.32349673
86	0x3d27aefb	0.04093836
87	0x3db56b25	0.08858327
88	0xbcad59e7	-0.021161033
89	0x3c95fefd	0.018310064
90	0xbdd28524	-0.10279301
91	0xbd2ce7cf	-0.042213257
92	0x3d31020b	0.04321484
93	0x3b715d5d	0.003682933
94	0xbf24d6e7	-0.64390415
95	0x3d94c407	0.07263952
96	0xbbb5b8f9	-0.005545732
97	0xbdc104d3	-0.09424748
98	0xbebb6521	-0.36600593
99	0xbd117a4b	-0.03551702
100	0xbf016922	-0.50551045
101	0x3e543cb7	0.20726286
102	0x3e93743a	0.2879961
103	0x3dc5df26	0.09661703
104	0xbe038501	-0.12843706
105	0xbc4b2ed1	-0.012401299
106	0xbe72d9d9	-0.23715915
107	0x3cf4b199	0.029869841
108	0xbb899ffe	-0.0041999808
109	0x3e1c58d7	0.15268265
110	0x3deb03c1	0.114753254
111	0x3c7c7980	0.015409827
112	0xbc9f599d	-0.01945191
113	0x3da6f64c	0.08152446
114	0xbb48c429	-0.0030634499
115	0xbd99ac11	-0.07503522
116	0x3ce86030	0.028366178
117	0x3de2d638	0.11076015
118	0xbf315b5b	-0.6928002
119	0x3b294cf8	0.002583323
120	0xbd15bb08	-0.03655532
121	0xbd1c1ced	-0.038113523
122	0xbb953468	-0.0045533665
123	0xbda60d93	-0.08108058
124	0x3d25d90f	0.040490206
125	0xbd78fd88	-0.06078866
126	0x3ce5a6a6	0.028033566
127	0xbbfbc5b6	-0.007683481
128	0x3e0b6c3f	0.13615511
129	0xbbcc9aab	-0.006244024
130	0x3cf2a8d1	0.029621514
131	0xbd2f4b68	-0.042796522
132	0x3dbb097b	0.09132668
133	0xbd0549eb	-0.032541197
134	0xbd3a9320	-0.045550466
135	0x3e8aa93b	0.27082238
136	0xbbf7c9ad	-0.0075618834
137	0xbc3be711	-0.011468665
138	0xbdcf041c	-0.10108206
139	0xbc1d4ede	-0.009601323
140	0xbcf90300	-0.030396938
141	0xbcfffc4b	-0.031248232
142	0x3e324c1c	0.17411846
143	0xbc498f0f	-0.012302174
144	0xbcd9cbac	-0.026586376
145	0x3ab6b346	0.0013938926
146	0x3c7cf712	0.0154397655
147	0x3c6bcc93	0.014392036
148	0xbc163ae0	-0.00916931
149	0xbeb4778a	-0.3524745
150	0x3d65d18e	0.05610805
151	0xbdb988dc	-0.09059307
152	0x3cad55d5	0.021159092
153	0xbe290525	-0.16505869
154	0x3c457e3b	0.0120540215
155	0x3cfe5e06	0.031050693
156	0xbddd324b	-0.10800608
157	0xbc865e6a	-0.016402442
158	0x3cde6497	0.027147574
159	0xbc391e90	-0.011298791
160	0xbc509462	-0.01273069
161	0xbbd7fff3	-0.006591791
162	0x3c0d624b	0.008629392
163	0x3d04178b	0.032249015
164	0xb89fad99	-7.614046e-05
165	0x3ccbde03	0.024886137
166	0x3d0beccf	0.034161385
167	0x3e8dfa33	0.2772995
168	0x3d1bbecd	0.03802376
169	0xbdae36ea	-0.08506568
170	0x3cc2b7db	0.02376931
171	0xbca60c90	-0.020269662
172	0x3cf9d07b	0.030494919
173	0x3dc044ae	0.093880996
174	0xbdf3971d	-0.11894057
175	0xbd42b0df	-0.04753196
176	0xbf18870d	-0.5958107
177	0xbb97e930	-0.0046359524
178	0xbe0010df	-0.12506436
179	0xbbb3b714	-0.005484471
180	0xbde7c213	-0.113163136
181	0xbbf9931a	-0.007616413
182	0x3e0d3425	0.13789423
183	0x3cf532a3	0.029931372
184	0xbdf70cb4	-0.1206297
185	0x3de042d7	0.10950249
186	0x3c65c09b	0.0140229715
187	0xbd225744	-0.039634004
188	0xbd352e35	-0.04423352
189	0xbe108473	-0.14113025
190	0xbeba0245	-0.36329857
191	0x3dcfb16c	0.101412624
192	0xbf0a9b3c	-0.5414312
193	0xbdabfbde	-0.08397649
194	0xbe226dbf	-0.15862177
195	0x3cddd865	0.027080724
196	0x3d4e322c	0.050340816
197	0x3e83ce0a	0.25743133
198	0xbc056330	-0.008141324
199	0x3bd6831a	0.0065463902
200	0xbced2765	-0.028949449
201	0x3e99975d	0.29998294
202	0x3ce1939b	0.027536204
203	0x3d985f85	0.07440094
204	0x3e149eee	0.14513752
205	0x3e31e76c	0.17373437
206	0x3eeb8d38	0.4600618
207	0x3bc8ba4b	0.0061257235
208	0xbc9db80b	-0.019252798
209	0x3d4c86ff	0.04993343
210	0xbccaae27	-0.024741245
211	0x3c880ff0	0.016609162
212	0xbd35f4e0	-0.044422984
213	0xbd47d432	-0.04878635
214	0x3d82292c	0.06355509
215	0xbc8191bb	-0.01581656
216	0xbda34b57	-0.07973354
217	0xbcaebc9d	-0.021330172
218	0x3be643bb	0.007027117
219	0x3d70ad23	0.058758866
220	0x3ba15328	0.004923243
221	0x3ebe98a1	0.37225822
222	0xba6c9670	-0.00090251025
223	0xbd23f19a	-0.04002533
224	0x3f175340	0.59111404
225	0x3c835392	0.01603106
226	0xbc3b6834	-0.011438418
227	0x3c7b73db	0.015347446
228	0x3c309181	0.010776878
229	0x3c9e2402	0.01930428
230	0xbd9ba97e	-0.076006874
231	0xbd8bcdb3	-0.068263434
232	0x3c13cc09	0.009020814
233	0xbd59dd16	-0.05318936
234	0xbe497436	-0.19673237
235	0x3bf8e561	0.0075957035
236	0x3c47c742	0.012193503
237	0xbda85e0d	-0.08221064
238	0xbed5e120	-0.4177332
239	0xbd0b7a33	-0.034052085
240	0x3b8c5f24	0.0042838026
241	0xbd98f0f8	-0.07467836
242	0xbc366aff	-0.011133908
243	0x3e8dbce2	0.2768317
244	0xbe0b87fe	-0.13626096
245	0x3ca5680f	0.02019122
246	0xbdda8b8a	-0.10671146
247	0x3c927500	0.017878056
248	0x3bc4a4f1	0.006001108
249	0xbe116493	-0.14198522
250	0x3e0b396f	0.13596128
251	0x3b98ac90	0.004659243
252	0xbb503c7e	-0.0031774337
253	0x3b1142e2	0.002216511
254	0xbc36d68a	-0.011159549
255	0xbca18702	-0.019717697

exp_avg_sq f4 [135, 32]
0	0x3641d984	2.8885852e-06
1	0x37b0c1b4	2.1071035e-05
2	0x346ea827	2.2226651e-07
3	0x35c71a81	1.4834369e-06
4	0x3649aef1	3.0053163e-06
5	0x3681f18a	3.8726184e-06
6	0x36547966	3.1661125e-06
7	0x36e506c6	6.8255204e-06
8	0x349fd82c	2.9773344e-07
9	0x35916e5c	1.0835461e-06
10	0x352b3002	6.3772325e-07
11	0x36af3f17	5.222751e-06
12	0x37609518	1.3386154e-05
13	0x348c3984	2.611888e-07
14	0x36128953	2.1835629e-06
15	0x3752d3c4	1.2566281e-05
16	0x35d2e4c3	1.5712798e-06
17	0x37bf0546	2.277143e-05
18	0x3726ff3c	9.953797e-06
19	0x37c89337	2.391041e-05
20	0x37564cc6	1.2773269e-05
21	0x361f5528	2.3742414e-06
22	0x37512077	1.246493e-05
23	0x35428fee	7.2480077e-07
24	0x359fe443	1.1912856e-06
25	0x3725be24	9.879037e-06
26	0x36880d47	4.0546615e-06
27	0x371aa8de	9.218433e-06
28	0x390c7eb5	0.00013398642
29	0x37643df1	1.3604281e-05
30	0x3758ed2e	1.2929826e-05
31	0x3868d42a	5.5510704e-05
32	0x34ced243	3.8523476e-07
33	0x368fc23b	4.2843435e-06
34	0x364e94c3	3.0782983e-06
35	0x365e4d1d	3.3125464e-06
36	0x3699dbc6	4.5853403e-06
37	0x35f09580	1.7924904e-06
38	0x356f7e15	8.921791e-07
39	0x377ae288	1.4953905e-05
40	0x348d7573	2.6348752e-07
41	0x3804fbb7	3.170568e-05
42	0x3808bbf9	3.259999e-05
43	0x379b3286	1.8500967e-05
44	0x34b94005	3.4505516e-07
45	0x3445d153	1.8423206e-07
46	0x36e166e0	6.7174988e-06
47	0x3811646c	3.466422e-05
48	0x37c67ca3	2.3661478e-05
49	0x3680036d	3.815096e-06
50	0x36ba91b4	5.560194e-06
51	0x3581f203	9.681684e-07
52	0x368e236f	4.236055e-06
53	0x36965917	4.48072e-06
54	0x37919749	1.7355795e-05
55	0x369bbadd	4.6411137e-06
56	0x37fbb0b7	3.0003821e-05
57	0x37b426e3	2.147578e-05
58	0x36a577a5	4.9313117e-06
59	0x3471942a	2.2498776e-07
60	0x372ff91e	1.0488815e-05
61	0x3681b58d	3.865635e-06
62	0x382e5bd6	4.157036e-05
63	0x370f302e	8.534682e-06
64	0x36df1cf3	6.649288e-06
65	0x361b4e10	2.3142238e-06
66	0x339f3ddb	7.415266e-08
67	0x350f8580	5.346592e-07
68	0x346acce1	2.1867483e-07
69	0x339c387b	7.27459e-08
70	0x37d7e795	2.5737836e-05
71	0x350c89b0	5.2354426e-07
72	0x3708efc2	8.162055e-06
73	0x3595e0ac	1.1166753e-06
74	0x3594bed9	1.1082403e-06
75	0x36d68346	6.3929792e-06
76	0x353d4460	7.0507485e-07
77	0x375e3d4c	1.3246503e-05
78	0x37172fe7	9.0114545e-06
79	0x34d0154d	3.8758517e-07
80	0x359d5fe0	1.1725315e-06
81	0x33b9d510	8.65349e-08
82	0x3611fa1c	2.1752267e-06
83	0x36354aa1	2.7014542e-06
84	0x3441a9f5	1.8036356e-07
85	0x369935cf	4.5660195e-06
86	0x36984933	4.5384745e-06
87	0x36f951e4	7.4303116e-06
88	0x3636ad26	2.72209e-06
89	0x363d87c1	2.8242214e-06
90	0x35695c2e	8.6933403e-07
91	0x38240807	3.9108123e-05
92	0x347ff0eb	2.3836371e-07
93	0x337fd24d	5.956308e-08
94	0x33e0a483	1.0460737e-07
95	0x37b54dbd	2.1613081e-05
96	0x37a4be39	1.9638903e-05
97	0x35ca45f8	1.5070536e-06
98	0x33392f0b	4.3116454e-08
99	0x36498c77	3.0033095e-06
100	0x344c11b9	1.9005428e-07
101	0x35983b31	1.134211e-06
102	0x33322910	4.14812e-08
103	0x35afc78a	1.309659e-06
104	0x3481cb12	2.4175876e-07
105	0x371380f2	8.791905e-06
106	0x34c0e080	3.5926132e-07
107	0x35d986bf	1.6206976e-06
108	0x37c49e1a	2.3438643e-05
109	0x34ca1b5b	3.7645336e-07
110	0x373c9f6e	1.1242793e-05
111	0x371b4413	9.25457e-06
112	0x3687d718	4.0483537e-06
113	0x3325b42b	3.8580918e-08
114	0x3549a1a5	7.511356e-07
115	0x354b7ab4	7.580195e-07
116	0x3704396d	7.881184e-06
117	0x34ebac5a	4.3897563e-07
118	0x337195ba	5.624836e-08
119	0x37b7a191	2.1890535e-05
120	0x36184f96	2.269609e-06
121	0x3762a2f4	1.350859e-05
122	0x374744a2	1.1877304e-05
123	0x35a54b07	1.2315294e-06
124	0x3763875b	1.3561769e-05
125	0x364f123c	3.0856017e-06
126	0x374f6e47	1.2363837e-05
127	0x36cdc276	6.1321143e-06
128	0x35137641	5.493385e-07
129	0x38357e99	4.3271666e-05
130	0x3590515f	1.0752518e-06
131	0x350f70d9	5.3435866e-07
132	0x351c02de	5.81187e-07
133	0x36ab411a	5.103776e-06
134	0x36fda77a	7.5594844e-06
135	0x3375dfc2	5.7247014e-08
136	0x3702fbb0	7.807204e-06
137	0x35f59f62	1.8300309e-06
138	0x345f6ff2	2.0809219e-07
139	0x34dac2ea	4.0747483e-07
140	0x359aee3a	1.1543227e-06
141	0x3513a45c	5.500094e-07
142	0x3575b09c	9.152661e-07
143	0x379aa44c	1.8434737e-05
144	0x36c07825	5.7360326e-06
145	0x37954739	1.779535e-05
146	0x3731bc29	1.0593832e-05
147	0x3854526f	5.062151e-05
148	0x35876692	1.0088136e-06
149	0x32d23105	2.4469509e-08
150	0x35eaeba8	1.7502944e-06
151	0x345ce161	2.0571089e-07
152	0x36e7d20e	6.90879e-06
153	0x34a7db62	3.1265796e-07
154	0x36884b6c	4.061896e-06
155	0x36b70d88	5.4554002e-06
156	0x35163d9c	5.596901e-07
157	0x36ecf24e	7.061556e-06
158	0x3774f1e7	1.4599856e-05
159	0x358f15dc	1.0660692e-06
160	0x35552282	7.93989e-07
161	0x36d92710	6.4716514e-06
162	0x37423aca	1.1576989e-05
163	0x380e8146	3.3975834e-05
164	0x386d826f	5.662668e-05
165	0x37fa06ed	2.9805547e-05
166	0x3727b5a6	9.996269e-06
167	0x353c3462	7.0111685e-07
168	0x3785dd7c	1.5957972e-05
169	0x351946c4	5.709992e-07
170	0x37228e50	9.689087e-06
171	0x379afc27	1.8475648e-05
172	0x374216f2	1.15686435e-05
173	0x348909d0	2.5525378e-07
174	0x376fca6b	1.4292639e-05
175	0x35a53d88	1.2311366e-06
176	0x33673304	5.3830277e-08
177	0x375b2dc0	1.3064069e-05
178	0x368c5686	4.182398e-06
179	0x38846b48	6.314233e-05
180	0x35a21506	1.2076059e-06
181	0x3704dbd1	7.918993e-06
182	0x3423c6b3	1.5252844e-07
183	0x35864d18	1.0006215e-06
184	0x354d4d08	7.6480546e-07
185	0x363c39b1	2.8047764e-06
186	0x36d286a3	6.2741615e-06
187	0x3617e01a	2.2631198e-06
188	0x372e75c9	1.0398632e-05
189	0x33625318	5.26953e-08
190	0x346ff634	2.2348178e-07
191	0x35daef41	1.6311898e-06
192	0x340ce05f	1.3120142e-07
193	0x3696c6cb	4.493491e-06
194	0x36aff2cd	5.243672e-06
195	0x38b2e8b8	8.531049e-05
196	0x37358b9b	1.0820945e-05
197	0x3595bccc	1.1156312e-06
198	0x37b05e5c	2.1024774e-05
199	0x363af6c9	2.7859808e-06
200	0x378e366f	1.6953067e-05
201	0x3403c216	1.2270934e-07
202	0x369be1fc	4.645668e-06
203	0x37330453	1.0670238e-05
204	0x37078464	8.077452e-06
205	0x353d4bc9	7.051827e-07
206	0x368a2ee2	4.1181784e-06
207	0x372d5885	1.0332214e-05
208	0x3821e874	3.860188e-05
209	0x36f5f66d	7.3302567e-06
210	0x388e121a	6.774459e-05
211	0x365ea9fd	3.3179524e-06
212	0x3845ff8f	4.7206468e-05
213	0x34c1994a	3.6060584e-07
214	0x35e70805	1.7213175e-06
215	0x36d45d12	6.328927e-06
216	0x37acfeb5	2.0622605e-05
217	0x3467baca	2.1581505e-07
218	0x36a6b866	4.9686523e-06
219	0x36a63228	4.9530245e-06
220	0x363df688	2.8306695e-06
221	0x34a7c290	3.1247737e-07
222	0x36d97f9e	6.4819606e-06
223	0x384790e9	4.7580255e-05
224	0x3499d327	2.8652104e-07
225	0x36d511f9	6.349987e-06
226	0x382e3231	4.1531577e-05
227	0x372b6a9d	1.0217217e-05
228	0x355ff8a2	8.343578e-07
229	0x35c35220	1.4552534e-06
230	0x358df099	1.0575342e-06
231	0x351fc00b	5.9511575e-07
232	0x36ae1a66	5.1886773e-06
233	0x358288f9	9.725619e-07
234	0x34200811	1.4904096e-07
235	0x381b7fee	3.7074024e-05
236	0x38060ae2	3.1958225e-05
237	0x3668ef58	3.471001e-06
238	0x358a267d	1.0293003e-06
239	0x37a233f6	1.9336101e-05
240	0x37203646	9.54938e-06
241	0x35209319	5.98187e-07
242	0x372c9860	1.02874765e-05
243	0x362b707e	2.5546465e-06
244	0x349d2ad9	2.9274705e-07
245	0x35dfcdf6	1.6674737e-06
246	0x3504aeb5	4.9428064e-07
247	0x37029125	7.782398e-06
248	0x35ce0ad7	1.5351351e-06
249	0x360cca1d	2.097927e-06
250	0x3423bfc9	1.5250329e-07
251	0x37398a8a	1.1059115e-05
252	0x354d7c3d	7.654924e-07
253	0x3613a2b7	2.199942e-06
254	0x36e0e781	6.702671e-06
255	0x376cbf7f	1.4111282e-05

exp_avg f4 [46, 32]
0	0xbd00aa3c	-0.03141235
1	0x3e28ef9f	0.16497658
2	0x3ccd369a	0.02505045
3	0x3e378e0b	0.17925279
4	0xbdac151d	-0.084024645
5	0x3e582087	0.21106158
6	0x3e7fbfae	0.24975464
7	0x3db70c9c	0.08937952
8	0x3f250506	0.6446079
9	0x3c4f90a0	0.012668759
10	0x3eb8f1be	0.36121935
11	0xbe4b7a3c	-0.19870847
12	0x3d3e9562	0.04652918
13	0x3ee2fe92	0.44334847
14	0xbf5cf771	-0.86315066
15	0xbe6a019f	-0.22852181
16	0xbf5f85bb	-0.8731343
17	0x3dfb4efc	0.122709244
18	0xbc449970	-0.011999473
19	0x3c77b422	0.015118631
20	0xbf08e013	-0.5346691
21	0xbedfc6f0	-0.43706465
22	0x3ec6c823	0.38824567
23	0xbf2e6887	-0.68128246
24	0xbd9d8ae1	-0.07692505
25	0xbe3a292c	-0.18179768
26	0x3ed573bc	0.4168986
27	0x3d59964f	0.05312186
28	0x3e6fd19f	0.23419808
29	0xbf82969a	-1.020221
30	0xbf178025	-0.5917991
31	0xbeb59151	-0.3546243
32	0x3d559db7	0.05215236
33	0x3d8a9fb9	0.06768746
34	0x3d37789a	0.04479275
35	0x3cf51524	0.029917307
36	0x3d24589c	0.040123567
37	0xbe4661f5	-0.19373305
38	0x3ca7bd38	0.020475969
39	0x3caeaab6	0.021321636
40	0xbcd0cf38	-0.025489435
41	0x3c64f1dd	0.01397368
42	0xbc335f25	-0.010947977
43	0xbeb60c61	-0.3555632
44	0x3f0b667f	0.5445327
45	0x3ebe153c	0.37125576
46	0xbf2e3013	-0.68042105
47	0xbb532d4b	-0.0032223042
48	0x3d8676be	0.06565617
49	0xbd959b88	-0.07305056
50	0xbce9819c	-0.028504185
51	0xbd10908b	-0.035294097
52	0xbc0a9dfb	-0.008460517
53	0x3eb50e5a	0.35362512
54	0x3df8b60a	0.12144096
55	0xbe2835b7	-0.1642674
56	0x3d95ad20	0.073084116
57	0x3b964344	0.0045856554
58	0xbb866db1	-0.0041024317
59	0xbd785a6f	-0.06063312
60	0x3e360592	0.17775562
61	0xbda5aba2	-0.08089377
62	0x3d986f23	0.07443073
63	0xbe522257	-0.20520912
64	0x3d07e783	0.03317977
65	0x3e9c630d	0.3054432
66	0x3cebfc30	0.028806776
67	0xbf81ac24	-1.0130658
68	0x3dc01dfe	0.093807206
69	0xbef61593	-0.48063335
70	0xbd674ddb	-0.056470733
71	0xbe83443f	-0.25638005
72	0x3b9257a5	0.0044660144
73	0xbc512171	-0.012764321
74	0xbca77071	-0.020439358
75	0xbdbdcd8e	-0.09267722
76	0xbc76169a	-0.015020037
77	0xbd373d7b	-0.044736367
78	0xbe871445	-0.26382652
79	0x3d251d68	0.040311247
80	0xbd13322b	-0.035936516
81	0xbce9b9f8	-0.02853106
82	0xbd6953bf	-0.056964632
83	0x3e09dc11	0.13462855
84	0xbc4d14e4	-0.012517188
85	0x3d353a64	0.04424514
86	0x3b537667	0.0032266618
87	0x3e13580a	0.14389053
88	0xbc2ce563	-0.010552737
89	0x3dd7c49f	0.10535549
90	0xbe01c1bc	-0.1267156
91	0x3ad2cc56	0.0016082625
92	0xbd2cf237	-0.04222318
93	0xbdb6f2f8	-0.08933061
94	0xbc0c4355	-0.008560975
95	0x3c48888a	0.012239585
96	0x3e86f585	0.26359192
97	0xbf29de8e	-0.66355217
98	0xbdbb2f3a	-0.09139867
99	0x3e782199	0.24231566
100	0x3efa65b1	0.4890571
101	0xbf94b36d	-1.1617256
102	0x3d7cb451	0.0616954
103	0x3ce81bfb	0.028333655
104	0xbf1bc0f0	-0.60841274
105	0xbdb5e57d	-0.08881662
106	0x3ee4141e	0.44546598
107	0xbf243d93	-0.64156455
108	0xbf6e2846	-0.930302
109	0xbd663870	-0.056206167
110	0xbf02bba2	-0.51067555
111	0xbdbfe11a	-0.093691066
112	0xbd3764ed	-0.044773985
113	0xbd0b593b	-0.034020644
114	0xbd96fe87	-0.07372766
115	0x3f151e70	0.5824957
116	0x3cb5348c	0.022119783
117	0xbdf34ca9	-0.11879856
118	0x3d4a219c	0.04934846
119	0x3a8fc8a5	0.0010969831
120	0x3e244031	0.16040112
121	0xbe239192	-0.159735
122	0x3d4398df	0.04775321
123	0xbf1b2768	-0.60607004
124	0x3dc14866	0.09437637
125	0xbd8d526e	-0.06900488
126	0xbdecec11	-0.115684636
127	0xbc38c0b0	-0.011276409
128	0x3e5a84fe	0.21339795
129	0x3c08bc40	0.008345664
130	0x3f4b19f3	0.7933647
131	0x3da9e90d	0.08296404
132	0xbe9dce94	-0.3082167
133	0xbd2a2450	-0.041538537
134	0xbe0728a3	-0.13199095
135	0xbee5c54e	-0.44877094
136	0x3c23c42c	0.0099955015
137	0xbdc3ac71	-0.09554375
138	0x3c8b5003	0.017005926
139	0xbef57c7f	-0.47946545
140	0x3d978921	0.07399202
141	0x3e17dab1	0.14829518
142	0xbc974b0f	-0.018468408
143	0xbd6df4c5	-0.05809476
144	0xbe4f1066	-0.202211
145	0x3f09a8cd	0.53773195
146	0xbd7102ca	-0.05884055
147	0x3d5eec8c	0.054424807
148	0x3cc871f3	0.024468398
149	0x3e7216da	0.2364153
150	0xbe987e73	-0.29783973
151	0xbc76736e	-0.015042169
152	0x3d6c4d30	0.0576908
153	0xbec3d5dd	-0.38249102
154	0xbb4b8413	-0.0031054064
155	0xbe4e2f6b	-0.20135276
156	0x3ca214db	0.019785335
157	0x3d3758b3	0.044762325
158	0x3ddb8bfa	0.10720058
159	0xbe17e1b7	-0.14832197
160	0xbe00680b	-0.12539689
161	0x3e4dc07f	0.20092963
162	0x3bbbb631	0.005728506
163	0xbe440ecf	-0.19146274
164	0xbe179796	-0.14803919
165	0x3d26efe5	0.040756125
166	0x3f1c2c70	0.61005306
167	0x3d72ae36	0.05924817
168	0x3f575164	0.8410857
169	0xbe2483a5	-0.16065843
170	0x3f4b36f6	0.7938074
171	0xbd83775b	-0.064192496
172	0x3cc83acb	0.024442097
173	0xbc259099	-0.010105276
174	0xbe645fe2	-0.22302201
175	0xbcb3e01f	-0.021957455
176	0x3c977b3d	0.018491382
177	0xbea68297	-0.32521507
178	0xbc994c83	-0.018713241
179	0xbf8e0c58	-1.1097517
180	0xbdea98d7	-0.11454933
181	0x3e06be44	0.13158518
182	0x3ee7abc8	0.45248246
183	0x3ef16e79	0.47154596
184	0xbeb40982	-0.35163504
185	0x3f5058e5	0.8138564
186	0xbe977038	-0.29577804
187	0x3ca1af5c	0.019736938
188	0xbb873beb	-0.004127016
189	0xbd91efe1	-0.071258314
190	0x39ad3006	0.00033032912
191	0x3e471b4e	0.1944401
192	0x3dacd2e5	0.084386624
193	0xbd05cd59	-0.032666538
194	0x3dc50b59	0.09621305
195	0xbd6eac1c	-0.058269605
196	0x3d9e536c	0.07730755
197	0xbd97d6b6	-0.07414
198	0xbe9a1998	-0.3009765
199	0xbd09f210	-0.033678114
200	0xbcbbb57a	-0.022913683
201	0x3d4606fe	0.048346512
202	0xbc68033f	-0.01416093
203	0xbd7444fd	-0.059636105
204	0x3cc9b1eb	0.02462097
205	0xbd25268d	-0.040319968
206	0xbc8de3bd	-0.017320508
207	0x3d47c6ef	0.048773702
208	0xbc47fe85	-0.012206678
209	0x3dcea201	0.100894935
210	0xbe7dd63f	-0.2478876
211	0x3d525636	0.05135175
212	0x3cf7569a	0.030192662
213	0x3c852a06	0.01625539
214	0xbf2ab298	-0.6667876
215	0x3b2f3f45	0.0026740592
216	0x3dccfc29	0.10009033
217	0xbc052142	-0.008125605
218	0xbccf43da	-0.025300909
219	0xbc5606f6	-0.013063183
220	0xbd92809f	-0.07153439
221	0xbe14137e	-0.1446056
222	0x3c801466	0.015634727
223	0x3c938f58	0.018012688
224	0xbd3e819a	-0.046510316
225	0x3c8e1452	0.017343674
226	0x3a811a6f	0.0009849797
227	0xbc9cbf49	-0.01913418
228	0x3c50264e	0.012704445
229	0xbcf2929d	-0.029610926
230	0x3da7c59b	0.08191987
231	0x3daf884f	0.08570921
232	0x3c2dab3b	0.010599907
233	0xbd6902b7	-0.056887355
234	0xbcbf8e88	-0.023383394
235	0xbec7df68	-0.39037633
236	0xbe999e7c	-0.30003726
237	0x3be4f196	0.006986807
238	0xbb9e4d28	-0.004830975
239	0xbbc6f3dc	-0.006071551
240	0xbc3bd2dd	-0.011463848
241	0xbb1f5786	-0.0024313643
242	0xbd28d3ce	-0.041217618
243	0x3d117c2f	0.03551882
244	0xbd1deea1	-0.038557652
245	0x3c9bb132	0.019005392
246	0xbbdf0fad	-0.0068072886
247	0x3e340a0c	0.17581958
248	0x3c2130a2	0.009838255
249	0x3cdb9f48	0.02680935
250	0xbe00553f	-0.12532519
251	0xbd0532c3	-0.032519113
252	0x3c5b1069	0.013370612
253	0xbdfb165f	-0.12260126
254	0xbb6579d2	-0.0035015238
255	0xbcde7dd4	-0.027159609

exp_avg_sq f4 [46, 32]
0	0x33974f0f	7.045866e-08
1	0x330374d4	3.060707e-08
2	0x35a1ccf8	1.2055089e-06
3	0x35d8f465	1.6164382e-06
4	0x349d6c72	2.9322433e-07
5	0x33996e1c	7.1446465e-08
6	0x33dd9bf8	1.0319485e-07
7	0x35da49eb	1.6263779e-06
8	0x35080488	5.067054e-07
9	0x35011915	4.8092744e-07
10	0x34790017	2.3189965e-07
11	0x3650c980	3.1111704e-06
12	0x35225489	6.047272e-07
13	0x327c5888	1.468846e-08
14	0x34402be8	1.7897366e-07
15	0x347691cf	2.296358e-07
16	0x32846a5c	1.541519e-08
17	0x33aa7862	7.9381394e-08
18	0x3606591e	2.001943e-06
19	0x35eea95b	1.7781671e-06
20	0x33d8f0f2	1.01021115e-07
21	0x3562364b	8.427057e-07
22	0x344f19a7	1.928771e-07
23	0x32458a56	1.1498363e-08
24	0x35d7039b	1.6019798e-06
25	0x3520ec58	5.994857e-07
26	0x3507b574	5.055547e-07
27	0x34a24fc8	3.02329e-07
28	0x353130ac	6.6008465e-07
29	0x32c5e8d1	2.3039691e-08
30	0x3332b2f5	4.1606615e-08
31	0x33a65070	7.744609e-08
32	0x394254c7	0.00018532864
33	0x37aa41e5	2.0296264e-05
34	0x38be2d0f	9.068299e-05
35	0x39ae99bb	0.00033302404
36	0x3a19c670	0.00058660563
37	0x361d253a	2.3416492e-06
38	0x38f91a0f	0.00011878099
39	0x3804f3d1	3.1698324e-05
40	0x3a34dcaf	0.00068993395
41	0x39b1134c	0.00033774448
42	0x3ad74495	0.0016423637
43	0x360cacf2	2.0962293e-06
44	0x34f4e7a5	4.5617085e-07
45	0x36c5b6ae	5.892324e-06
46	0x37cdcb66	2.453262e-05
47	0x3aa2f63a	0.0012433
48	0x39ccfcb1	0.00039098182
49	0x382f344c	4.1771957e-05
50	0x3a49f1ae	0.00077035546
51	0x3a76c0bb	0.00094128744
52	0x3a981210	0.0011602063
53	0x36d5ebdf	6.3753537e-06
54	0x37748e9f	1.457674e-05
55	0x36df2676	6.6503953e-06
56	0x36e07c5b	6.690197e-06
57	0x38f8ce5c	0.00011863999
58	0x38ef7782	0.00011418668
59	0x37aa38a5	2.0291956e-05
60	0x36ded631	6.6410507e-06
61	0x37c702b3	2.3723906e-05
62	0x3745e060	1.1794356e-05
63	0x37b5a850	2.1655258e-05
64	0x378a968f	1.6520991e-05
65	0x35d04c95	1.5519496e-06
66	0x3712ed42	8.757519e-06
67	0x3443bd1f	1.8229592e-07
68	0x37171a64	9.006446e-06
69	0x34a03dea	2.984737e-07
70	0x379e3d44	1.8863597e-05
71	0x35e1cc81	1.6823325e-06
72	0x381bb467	3.7122893e-05
73	0x38549b59	5.0689418e-05
74	0x3920cf84	0.00015336095
75	0x36075e60	2.01715e-06
76	0x37acab33	2.0583719e-05
77	0x356d4c33	8.8400265e-07
78	0x3740a57d	1.14826225e-05
79	0x372228a1	9.665412e-06
80	0x3833efa2	4.29001e-05
81	0x34a7ea91	3.1276844e-07
82	0x3588e745	1.0200098e-06
83	0x382c33c2	4.10562e-05
84	0x37ad5c45	2.0666173e-05
85	0x372f4728	1.044738e-05
86	0x3723d8fd	9.766079e-06
87	0x3602c94d	1.9488682e-06
88	0x391a5d87	0.00014721426
89	0x37649bc8	1.362613e-05
90	0x36217f07	2.406481e-06
91	0x37dfa30e	2.66596e-05
92	0x36f172cf	7.195725e-06
93	0x3783853d	1.567846e-05
94	0x37254171	9.850003e-06
95	0x388cbba3	6.71067e-05
96	0x37ff763e	3.045343e-05
97	0x357a2260	9.318228e-07
98	0x3807445a	3.2250166e-05
99	0x362fdbb5	2.6204918e-06
100	0x3569ee90	8.714642e-07
101	0x34aee0e4	3.2573655e-07
102	0x37d0c39b	2.4886618e-05
103	0x36c3d9c5	5.8368046e-06
104	0x365d212e	3.295088e-06
105	0x3840a578	4.5930472e-05
106	0x34ad542c	3.2285004e-07
107	0x360fd3d2	2.1431956e-06
108	0x346df04f	2.2159769e-07
109	0x3664f19c	3.4115283e-06
110	0x371c60b7	9.320843e-06
111	0x361355af	2.1954581e-06
112	0x37085e29	8.128155e-06
113	0x3729b856	1.0116104e-05
114	0x37be2499	2.2666807e-05
115	0x35af62db	1.3067287e-06
116	0x386ff4c3	5.7209993e-05
117	0x37af01af	2.086241e-05
118	0x35d03bd1	1.5514617e-06
119	0x37542960	1.2645818e-05
120	0x379b0739	1.8480803e-05
121	0x3795e1d2	1.786734e-05
122	0x37ad1c66	2.0636431e-05
123	0x35997e1c	1.1436091e-06
124	0x38a8d00c	8.049616e-05
125	0x37513256	1.24690905e-05
126	0x35813be5	9.628681e-07
127	0x3864266a	5.4395212e-05
128	0x35eff763	1.7878887e-06
129	0x388185c9	6.176119e-05
130	0x343e6bd8	1.7734362e-07
131	0x3899f4cf	7.341208e-05
132	0x364dd8fd	3.0673684e-06
133	0x3797333b	1.8024459e-05
134	0x3811c1f9	3.4751345e-05
135	0x366fbce4	3.5723724e-06
136	0x38d992bf	0.000103747
137	0x35bf2992	1.4242707e-06
138	0x375192fd	1.2491594e-05
139	0x3447143c	1.854068e-07
140	0x3642e145	2.9039377e-06
141	0x36dd4ce5	6.595265e-06
142	0x3832a5b6	4.2592837e-05
143	0x36d5f5a4	6.376491e-06
144	0x35ec739e	1.7617019e-06
145	0x359b507b	1.1571823e-06
146	0x357a564c	9.3257836e-07
147	0x3950315b	0.00019854812
148	0x34a96c46	3.1557482e-07
149	0x368afdad	4.1422522e-06
150	0x36a31b7e	4.860979e-06
151	0x37aee2c2	2.0848009e-05
152	0x35e22aeb	1.6850803e-06
153	0x3690122d	4.2936504e-06
154	0x37f7c9d7	2.9538684e-05
155	0x370ad18c	8.27423e-06
156	0x3841fecc	4.6252084e-05
157	0x38b28fb7	8.5144704e-05
158	0x37513bb6	1.2471273e-05
159	0x3725da3f	9.885581e-06
160	0x35dc79a3	1.6426678e-06
161	0x35aa1b6f	1.2673971e-06
162	0x39277911	0.00015971462
163	0x37871d4f	1.6106902e-05
164	0x37115964	8.663486e-06
165	0x37b45b88	2.1500295e-05
166	0x35aaf6b9	1.2737793e-06
167	0x37da2488	2.6004636e-05
168	0x34427a0c	1.8112058e-07
169	0x376a00fb	1.3947715e-05
170	0x34de96e1	4.14605e-07
171	0x36da99b6	6.5148006e-06
172	0x3926e9ae	0.00015918046
173	0x3646477d	2.954591e-06
174	0x3884035d	6.294877e-05
175	0x37af4083	2.0891666e-05
176	0x383546a3	4.321955e-05
177	0x34f5d5d9	4.57904e-07
178	0x38a70ade	7.965205e-05
179	0x34112c8a	1.352038e-07
180	0x37e8e2ad	2.776211e-05
181	0x368a4d5f	4.1217277e-06
182	0x35893d27	1.0225093e-06
183	0x3346c87e	4.6282814e-08
184	0x354b443e	7.57227e-07
185	0x3565d1d2	8.5614477e-07
186	0x33db694f	1.0217138e-07
187	0x38995e5e	7.313186e-05
188	0x38b10066	8.440092e-05
189	0x37b5af57	2.165853e-05
190	0x366b7aa1	3.5089108e-06
191	0x36c327a0	5.816066e-06
192	0x37c85226	2.3880111e-05
193	0x37751c52	1.4609732e-05
194	0x3654179b	3.1604202e-06
195	0x38495a0f	4.8006008e-05
196	0x36a35a1b	4.868268e-06
197	0x3760ba82	1.3394865e-05
198	0x356e5776	8.878918e-07
199	0x36615a08	3.3580018e-06
200	0x38dd229a	0.00010544546
201	0x36b7baca	5.47557e-06
202	0x3916e68d	0.00014391002
203	0x372f8254	1.0461157e-05
204	0x3717e7d7	9.054281e-06
205	0x3830994c	4.210444e-05
206	0x37440a09	1.1684847e-05
207	0x379615d6	1.7891562e-05
208	0x36b886e4	5.4993307e-06
209	0x35860797	9.985987e-07
210	0x35fb6e98	1.8733144e-06
211	0x37a2c190	1.940204e-05
212	0x35865172	1.0007482e-06
213	0x3865b8a1	5.4769804e-05
214	0x34011ca9	1.2024488e-07
215	0x3906e64d	0.0001286503
216	0x36c2d85c	5.806838e-06
217	0x37a79cfc	1.9981053e-05
218	0x38bb3f9a	8.9287016e-05
219	0x39a03542	0.00030557258
220	0x3628d8ae	2.5160075e-06
221	0x369bd871	4.644557e-06
222	0x3740195a	1.1449994e-05
223	0x34a38da1	3.0464165e-07
224	0x3528d1e5	6.2890314e-07
225	0x3588f3a6	1.0203701e-06
226	0x35be1fab	1.416532e-06
227	0x35903f70	1.0747299e-06
228	0x34e8fb7c	4.3396346e-07
229	0x35a64f38	1.239102e-06
230	0x3327be4c	3.905579e-08
231	0x33bf45c1	8.906819e-08
232	0x35d1d45c	1.5633518e-06
233	0x33df377f	1.03943414e-07
234	0x34432d40	1.8177252e-07
235	0x32455373	1.1485883e-08
236	0x3234d777	1.052637e-08
237	0x3454cdb3	1.9818872e-07
238	0x33a483d3	7.660824e-08
239	0x340438df	1.2314148e-07
240	0x350f66b2	5.342109e-07
241	0x35f32c80	1.8117862e-06
242	0x348a4010	2.5751115e-07
243	0x335445ca	4.942357e-08
244	0x3387c780	6.322716e-08
245	0x365d8f2e	3.3014908e-06
246	0x371bf31d	9.295324e-06
247	0x323a265f	1.08353495e-08
248	0x34f25472	4.5137455e-07
249	0x33259b57	3.8558337e-08
250	0x33ccd109	9.5375135e-08
251	0x3493f112	2.7556285e-07
252	0x357f3259	9.506817e-07
253	0x327c8906	1.4699486e-08
254	0x346ff071	2.2346082e-07
255	0x34815210	2.408783e-07
