prob-kge/running_experiments/without_recipriocal/delete/31/score_Nations_DistMult_831769172/model.pt (torch, 10965 bytes, 2 tensors)

entity_embeddings.weight f4 [14, 32]
00000000: ab6b 733f 1b03 d8bf 0c6e d83e b806 e7bf
00000010: 7531 6a3f 07f0 22bf a730 c23f 1ee7 a23e
00000020: c7d3 143d 1d46 be3f f7bf 9a3f eec7 0040
00000030: 7e37 c1bf b077 6f3f d23d aabf 2bfe 463f
00000040: e9bf 5b3f 84c4 ebbf ff07 493e f048 e73e
00000050: dd68 31bd 56e5 993e 2852 50be 31bd 663f
00000060: 404e cdbf 1633 303e f486 9e3f 86f7 bf3e
00000070: 4094 c0bf 968d 833f bb66 17bf 9376 c63f
00000080: 545c af3f f908 1f3e 4aae 303f 12ab 85bf
00000090: 0210 9abf 7995 98bf 66d1 db3f d23c 5240
000000a0: 7245 0cbf ce5c 933f db47 80be cf84 e83c
000000b0: 8c9f 0f3f 4c95 283f 1eff 90bf 4c2a 57bf
000000c0: ecb9 6f3f 6d29 e0bf 594a 12bf e66a c13e
000000d0: d339 16c0 278a 203f 30db 7d3f b4d5 a43f
000000e0: 5acc db3f ca2c 213f 4a34 05bf 7dd9 573f
000000f0: c875 c23e 6142 963f db1a d03d cddc 4dbf
00000100: 40c7 bd3f 1410 f1be c18e 6c3e 52da 403f
00000110: c3c0 6c3e f4c7 70be 8d35 423f 1f18 473f
00000120: 5b45 993f 403e d43f 20d8 91bf 7c2d 113f
00000130: 4b0c a2bf 2b9c b43d 0c50 02bd ef99 843f
00000140: 4ae6 1e3f 316d f1be 5182 893e fa1c 903f
00000150: fe96 51bf 4500 9a3f 3915 1ebf 2f5f 853f
00000160: 751d 1840 7d4e 5d3f c929 35bd 1e44 72be
00000170: dd3e abbf dad9 d5bf 7875 ddba 1bd7 df3f
00000180: 3cda 993e c5fd 5fbe e226 e9bd ed15 d3be
00000190: 341d 31bf 1716 d3bf c616 0840 43d8 923e
000001a0: d84c 713f c302 c93f 6b62 8fbf 4484 383f
000001b0: 64ce 473f d2af d1bd 12ca 6c3f d41d 633f
000001c0: d76e d33f 712b bebf 361d f53e 3eca d3be
000001d0: e6f1 c9bf 5fe0 d73e a36a 47be e88e b63f
000001e0: 6c77 ac3f d112 7e3f aaec 5f3f 4dd1 0a3f
000001f0: 903c c5bf 7724 553f c496 d33e 3fa4 0a40
00000200: aa73 cd3d c0f9 c63f 79c8 86bf 56fc ebbf
00000210: 89aa 3f3e b625 f83f 1254 f63e 9bca 883f
00000220: 35e4 86bf 017f 973f 8d7a 5abf be1e ed3f
00000230: ece4 3dbe 5523 433f 6072 9abf 202b d33e
00000240: 4fa5 bb3c dcaa a1bf 3849 edbe 4d4b 05bf
00000250: 5e13 f3bf dab5 f3be e114 3d3e 62ff 933f
00000260: 1d53 723f a5e9 7b3e 7949 973e f7fa 743f
00000270: 4047 4a3f 92be 053f 6955 1ebf 7533 c13f
00000280: 07be 8dbf d85a 963f a10f e33e 3343 9ebe
00000290: c192 68be cc78 1bbf 7ea0 aa3e 54a2 983f
000002a0: c026 febf bbcc f33f c544 2d3f 78cb ef3f
000002b0: 2a3f e7bc 9909 74bf c174 38bf 6d42 f33f
000002c0: 7fb1 9d3f 8285 4cbe 4ad3 54c0 4ac4 ec3f
000002d0: 643a 4cbd 5124 cebf 20f6 ddbe 62b0 52bf
000002e0: 245b 483f b480 723f 39b6 1e3f 6835 3540
000002f0: 9df3 a53d 7387 cb3f ebd5 15be cd8e 033d
00000300: 5eaf bf3e ad69 06bf 7759 b83f 653a a7bf
00000310: f107 b0bf 8698 e2be 936e 003f a873 043f
00000320: 7def b2bf 3684 193f 8bd9 d33d 2a73 793f
00000330: 09c4 33bf 9683 223d 18f8 02bf 1759 fc3f
00000340: 8598 61bf 901f 0bbf 0e95 35bf f022 c6be
00000350: 6b07 dfbe 9f3c 7cbf c8d2 1e40 bb1e d43e
00000360: 47bc 793f 015f d03f 8f50 b7bf fdc4 b43f
00000370: 19c5 d93d bc83 1940 5c39 893c fc89 863f
00000380: 4e6f c53c 4f67 8ebf b9c1 483f 9cc8 90bf
00000390: d77d 613f 6064 5cbd 518e cc3f 8e98 c03f
000003a0: c33a 7cbe 7778 9c3f fc17 11bf f3fb f9be
000003b0: 1322 20c0 8871 c4be eb83 453e 239c 0a40
000003c0: ce3e 0bbe 7cd9 a1be 39e9 723f ef1b 7b3f
000003d0: d88e 7abf d714 e3be b402 df3f 1dc0 393f
000003e0: 362b a3be 6607 713f c855 7a3f 9d8d a83f
000003f0: c45d 973f 67f4 9abd 5766 19bf 097f f03e
0.95086163 -1.6875948 0.4227146 -1.8048925 0.91481715 -0.636475 1.5171098 0.31816953
0.03633478 1.4865147 1.2089833 2.0122027 -1.509506 0.93542004 -1.3300116 0.7773158
0.85839707 -1.8419347 0.19631957 0.45172834 -0.043312896 0.30057782 -0.2034384 0.90132433
-1.6039505 0.17206988 1.2384934 0.37493533 -1.5045242 1.0277584 -0.5914113 1.5504936
1.3700051 0.15530767 0.69015944 -1.0442832 -1.2036135 -1.1920615 1.7173278 3.2849622
-0.54793465 1.1512697 -0.2505482 0.02838364 0.56102824 0.6585281 -1.1327856 -0.84048915
0.9364307 -1.7512642 -0.57144696 0.3777687 -2.3472793 0.62710804 0.9916258 1.2877717
1.7171738 0.6295897 -0.5203291 0.84316236 0.37980485 1.1739007 0.10161372 -0.8041504
1.4826431 -0.4708258 0.23101331 0.7533313 0.23120408 -0.23513776 0.7586296 0.7777118
1.1974291 1.6581497 -1.1394081 0.5671003 -1.2660002 0.08818849 -0.03181462 1.0359477
0.62070143 -0.4715362 0.26857236 1.1258843 -0.8187102 1.2031332 -0.61751133 1.0419673
2.376798 0.8644789 -0.044229303 -0.23658797 -1.3378559 -1.6707108 -0.001689597 1.748752
0.30049312 -0.21874149 -0.113843694 -0.41227666 -0.69185185 -1.6491116 2.12639 0.2868062
0.9425788 1.5703968 -1.120191 0.7207682 0.780493 -0.10238613 0.92495835 0.8871739
1.6518201 -1.4857007 0.4787385 -0.41365236 -1.5776947 0.4216337 -0.19474272 1.4262362
1.3473945 0.9924746 0.87470496 0.5422562 -1.5409107 0.83258766 0.41325963 2.1662748
0.10031827 1.5544968 -1.0529929 -1.8436382 0.18717398 1.9386508 0.48111016 1.068683
-1.0538393 1.1835634 -0.8534325 1.8525007 -0.18544358 0.7622579 -1.2066154 0.4124384
0.022905974 -1.2630267 -0.46344924 -0.52068025 -1.8990285 -0.4759968 0.18464996 1.1562312
0.9465807 0.24600847 0.29548243 0.9569544 0.7901497 0.5224391 -0.61849076 1.5093828
-1.1073617 1.1746473 0.4434786 -0.30910644 -0.22712232 -0.60731196 0.3332557 1.1924539
-1.9855576 1.9046854 0.6768306 1.8733969 -0.028228361 -0.95327145 -0.7205315 1.9004647
1.2319793 -0.19972804 -3.325396 1.8497403 -0.049860373 -1.6104833 -0.4335184 -0.8230039
0.7826407 0.94727635 0.619968 2.8313847 0.08103106 1.5900711 -0.14632384 0.032118607
0.37438482 -0.52505 1.4402303 -1.3064696 -1.3752424 -0.4425699 0.5016872 0.5173898
-1.3979336 0.5996736 0.103442274 0.9744135 -0.70221 0.03967627 -0.5115981 1.9714688
-0.8812335 -0.54345036 -0.70930564 -0.3869853 -0.43560347 -0.9853 2.481615 0.41429695
0.97552913 1.6278993 -1.432146 1.4122616 0.106332965 2.3986654 0.016750984 1.051086
0.024100926 -1.1125277 0.784206 -1.1311221 0.8808264 -0.053806663 1.5980932 1.5046556
-0.24631791 1.2224263 -0.5667722 -0.48825034 -2.5020797 -0.38367867 0.19288604 2.1657798
-0.13598177 -0.3161124 0.9488712 0.980895 -0.9787421 -0.44351837 1.74227 0.72558767
-0.31868905 0.94151914 0.9778714 1.3168217 1.182549 -0.07566147 -0.59921783 0.4697192

relation_embeddings.weight f4 [55, 32]
00000000: 66fa 75c0 2342 4e3e 4677 94bf aa3c 87be
00000010: f238 14c0 b35c 80bf fd15 e0bf 1f21 5bbe
00000020: 79f7 c53e e32e a7bf 19d9 c1be 2338 02c0
00000030: ef89 1640 7389 0ebf 932a 403f 8724 bdbf
00000040: e9a7 c6bf a08f 12bf dfb2 d6bf 6c2a 453d
00000050: 92ef 93be b99a 30bf 926b ebbe bb0f cfbf
00000060: 3fd5 eabe d761 c93e e6de 15c0 6547 f5bf
00000070: abcd 6540 36bf 45c0 a041 713d 22cd ffbf
00000080: bf26 3cbf 98ae 7e3f 027c 4c3f 16e8 0540
00000090: 3226 7c3f 81ca 7f40 6e68 ccbf 5ac9 ebbf
000000a0: c7d5 693f 2942 57be 325d b7bf 50b7 a9c0
000000b0: 9c5a aabf 1d00 963e 4f30 9b3e 25dc 80bf
000000c0: cbb4 e2bf 711b 1b3f 02dd 9ebf dc6c 26c0
000000d0: 69b2 8c3f 0d54 e83d 0922 623f 3159 d5be
000000e0: 7537 b9bf db93 8dbf 2690 d53d a4b9 a03f
000000f0: c7ba 64bf 6dd0 6cbf 62e2 adbf 0811 a6c0
00000100: 4587 5b3f 1354 9ebf 63d6 2fbf 10c3 663f
00000110: 88ef 86bf 17d5 81bf e404 92bf 48a7 35bf
00000120: 8c44 253d 62ea 2dc0 d1c8 cdbf fc64 76bf
00000130: a58a d7bd 69e4 85bf d582 58c0 dc16 06be
00000140: 6338 7ac0 3200 cbbf 66e9 9ebd d9c7 21c0
00000150: 1401 ed3f 9ca5 bb3d 2212 7640 b711 fbbe
00000160: 61a5 ddbd 370b 85bf e2b4 37c0 500d df3f
00000170: 53d7 e6be d30d 843f 2b95 823f 8895 e23f
00000180: ac8e cabf 38eb 13be 17a3 933f 4fa7 a1c0
00000190: 4825 d2bf 447c c3bd c52a 66be 6ecb a6bf
000001a0: b801 b6bf f80f eebf 7b39 43c0 0cb2 b73e
000001b0: 98f9 e1bf 956e 773f 8048 9cbf e005 cabf
000001c0: d4ba 743e ca45 883e eaaf 28bf 4797 17c0
000001d0: 2c39 d3bf 8deb fc3f 516e 7440 0a2c 80bf
000001e0: ea59 8dbf d080 c2bf ed41 98be 9561 abc0
000001f0: b0f2 8f3f cc8a 8bbf 0923 98be 3cb0 ff3e
00000200: 5d86 cb3e 4977 01bf 4174 b2bf e478 763d
00000210: 45a1 3bbf 5f59 5c3f d593 1dbf 41de c63d
00000220: 2136 a93f 4a0a 18c0 7366 18c0 85fb 01bf
00000230: 2bbd 01c0 f6b8 923e d11c 973e 1364 16be
00000240: 1ae9 063b b5fd e3bf 5fd7 213f 570d 2cbf
00000250: 3e03 95bf 4e33 74be cae3 bbbe f7a4 a03f
00000260: 2cdf 003f 4824 9dbf e87d 203f 81a7 94be
00000270: 71dd 573f 434d 923e 98e7 e83f ef2e 133e
00000280: d970 dcbf 9b81 89bf b3be 1440 81f2 9ebf
00000290: bd06 94bf 69a6 10c0 bb93 80be 200b 75bf
000002a0: 641f 0440 4a79 55c0 6cfd 81c0 8157 74c0
000002b0: 4a8f d93e f3c5 c93e 9ccd 8dbd 2efa 83bf
000002c0: 1a01 f5bf 7502 19c0 0f5c 11bf d2d0 863f
000002d0: 9bd6 79c0 d31c 4ec0 c25f 8fbf 2458 8c3d
000002e0: dde4 313f 75bb 68bf 788d 3cbf 704a c03b
000002f0: 8d90 133f 4405 cf3f 356e c23e 7427 81be
00000300: 1210 6cbf c011 81be 7d2b 3cbf c932 e5bf
00000310: 1b81 7e3f faa1 39bf 2f94 7e3e 8962 09c0
00000320: 1fef 38c0 a564 c0bf 357f 55c0 64f1 cfbe
00000330: 42ea a1bf c57f 86bd 6586 65bd eb59 9fc0
00000340: fb39 d83e adec c6bf 2b69 83bf eec0 30c0
00000350: b745 bebe fabb 07c0 02af ccbe f3b4 5cbe
00000360: 733b 0dbe c24c 49c0 2e51 5cbe b969 553f
00000370: 75c2 7a40 3a64 78bf 1246 d0bf 6dea 2dbe
00000380: f2df 2fbf 1a57 8d3f 0d38 373f 91db 0fc0
00000390: a5de 1940 2e9f a7bf 1956 8a3f ed53 90bf
000003a0: 4070 7fc0 b4d9 a63e f709 3c3f 19d4 103f
000003b0: 252e f93f 144d 443f 3377 4840 448c febf
000003c0: e7e0 fdbf b58b a2be 7399 81be d3d9 afbd
000003d0: 9e5a 94be e3cd a23f 9956 4bc0 a2e3 f5bf
000003e0: 544f 4f3e 906d febe 66bb 61be 338e d7bf
000003f0: a36d aec0 f34c f93f 2e01 f53f 4f82 c8bf
-3.843408 0.20142417 -1.1598899 -0.2641347 -2.3159757 -1.002829 -1.750671 -0.21399353
0.3866537 -1.3061184 -0.37860945 -2.0346763 2.3521688 -0.5567848 0.75064963 -1.4776772
-1.5519992 -0.57250404 -1.6773337 0.04813616 -0.28893715 -0.6898609 -0.45980507 -1.6176676
-0.4586582 0.39332458 -2.3417296 -1.9162413 3.590678 -3.0897956 0.058900476 -1.9984477
-0.7349662 0.9948516 0.7987672 2.0922904 0.9849578 3.9967349 -1.596937 -1.8420823
0.91341823 -0.21021332 -1.4325316 -5.303627 -1.3308902 0.2929696 0.30310294 -1.0067183
-1.7711424 0.6058875 -1.2411196 -2.6003942 1.0991946 0.113441564 0.88333184 -0.4166961
-1.4470049 -1.1060747 0.10427885 1.2556653 -0.893475 -0.9250553 -1.3584712 -5.189579
0.8575328 -1.2369407 -0.68686503 0.9014139 -1.0541849 -1.0143155 -1.1407743 -0.70958376
0.040348575 -2.7174306 -1.6076909 -0.9624784 -0.10524491 -1.046033 -3.3829854 -0.13094658
-3.9096916 -1.5859435 -0.07759361 -2.5278227 1.8515954 0.09162447 3.8448567 -0.49036953
-0.10822559 -1.0394047 -2.8704152 1.7425938 -0.45086154 1.0316719 1.0201772 1.7701883
-1.582479 -0.14445198 1.1534146 -5.0516734 -1.6417627 -0.09545186 -0.22477253 -1.3030832
-1.4219275 -1.8598623 -3.0503833 0.35878026 -1.7654295 0.9665311 -1.2209625 -1.5783043
0.23899394 0.26615745 -0.65893424 -2.3686082 -1.6501822 1.9759384 3.8192332 -1.001344
-1.1043065 -1.519556 -0.29737797 -5.355662 1.1245937 -1.0901732 -0.2971423 0.49939144
0.3975095 -0.5057264 -1.3941728 0.060173884 -0.7329295 0.8607387 -0.615537 0.0971036
1.3219644 -2.375628 -2.381253 -0.50774413 -2.027171 0.2865674 0.29514173 -0.14686613
0.0020585717 -1.78118 0.63219255 -0.67207855 -1.1641614 -0.23847696 -0.36697227 1.2550343
0.50340533 -1.2276697 0.6269212 -0.29034045 0.8432227 0.2857457 1.8195677 0.14373372
-1.7221938 -1.0742677 2.3241394 -1.2417756 -1.1564556 -2.2601569 -0.2511271 -0.957201
2.064416 -3.335528 -4.0621853 -3.8178408 0.42492133 0.39408836 -0.069239825 -1.0310724
-1.9140961 -2.390775 -0.56781095 1.0532477 -3.9037235 -3.2205093 -1.1201098 0.06852749
0.6948984 -0.90911037 -0.73653364 0.0058682486 0.5764244 1.6173482 0.37974706 -0.25225413
-0.9221202 -0.25208855 -0.7350386 -1.7906123 0.9941575 -0.7251278 0.24861215 -2.146639
-2.8895948 -1.5030714 -3.335889 -0.40613854 -1.2649615 -0.06567339 -0.05603637 -4.9797263
0.42231736 -1.5540978 -1.026647 -2.7617755 -0.37162563 -2.1208482 -0.3997727 -0.21553402
-0.1379221 -3.14531 -0.21515343 0.83364445 3.9181187 -0.97027934 -1.6271384 -0.16983958
-0.6870109 1.1042206 0.715699 -2.2477763 2.4042141 -1.3095453 1.0807525 -1.1275612
-3.9912262 0.3258797 0.73452705 0.56573635 1.9467207 0.7668011 3.1322753 -1.9886556
-1.983426 -0.31747213 -0.25312385 -0.085864685 -0.28975385 1.2719082 -3.1771605 -1.9210093
0.20245105 -0.49692965 -0.22044143 -1.6840271 -5.4508834 1.9476608 1.9140985 -1.5664767
