bbox_poisoning/lightning_logs/version_2902/checkpoints/epoch=99-step=600.ckpt (torch, 75320 bytes, 6 tensors)

entity_embeddings.weight f4 [135, 32]
000000 47 2f c3 be 37 b0 b0 bf d5 c7 4a be c9 f8 b0 3f
       -0.38122007 -1.3803777 -0.19802792 1.3825923
000010 6d 4a b1 bf 62 f2 8a 3f 27 7f 90 3e 8a 79 c9 be
       -1.3850838 1.0855219 0.2822201 -0.3935054
000020 9f d0 99 bd 66 03 59 3f eb 57 f5 3e a1 e1 7c be
       -0.075104944 0.8477081 0.4791864 -0.24695446
000030 48 87 7e 3c bf 9a 02 be 38 bd 84 bf f7 98 13 bf
       0.015535183 -0.12754343 -1.0370245 -0.5765528
000040 fe 8f 40 3e d3 cc b8 be 63 3b 7b 3f d0 6b 93 bc
       0.18804929 -0.36093768 0.9813749 -0.017995745
000050 dc 4e 5f 3f 7d 24 73 3f 24 1b bf be d6 da 13 bf
       0.87229705 0.9497755 -0.37325394 -0.5775579
000060 c6 1a 6a bf cb 84 c8 bf 92 30 d2 3f 2c aa df 3f
       -0.91447103 -1.5665525 1.6421072 1.7473807
000070 ed fb 14 bf 63 df 67 be ee 94 24 3f cb 57 29 bf
       -0.5819691 -0.22643809 0.6428975 -0.66149586
000080 ff a6 f9 be 5b fe 01 c0 cf 09 5c be 7f b2 51 be
       -0.4876022 -2.0311496 -0.21488117 -0.20478247
000090 9a 84 f9 bd 41 4e 74 3e 43 35 49 40 6a e5 c2 3c
       -0.12183495 0.23857976 3.1438758 0.023791034
0000a0 3c 8f 36 bf 24 c0 45 be 5a 54 82 3f 93 af b3 bf
       -0.7131231 -0.19311577 1.0181992 -1.4037956
0000b0 0d 36 9d 3f ba 37 9c bc 39 8d f5 bf 8b 47 9f be
       1.228212 -0.019069541 -1.9183723 -0.3110927
0000c0 74 26 2b be bd 77 af be a2 1e a7 bf ef d8 dc bf
       -0.16713887 -0.3427104 -1.3056223 -1.7253703
0000d0 63 9c 0a 3f d6 45 ad 3c f9 f8 e6 3e 3c 59 a6 be
       0.5414488 0.021151464 0.45111826 -0.32489955
0000e0 64 7c 8b 3e 24 25 e1 be bd d4 b1 3e a0 c0 e8 3e
       0.2724334 -0.4397365 0.3473262 0.4545946
0000f0 95 87 35 bf 10 f4 90 bf 51 38 2a 3f f1 a9 c5 3f
       -0.70910007 -1.1324482 0.6649218 1.5442487
000100 83 b4 db 3e e0 c1 c9 bf 9e 0a 73 3d f8 24 1d bf
       0.42911157 -1.5762291 0.059336297 -0.61384535
000110 48 bd a5 3e 70 b1 a3 bc bb 68 04 bf 37 c2 90 bf
       0.32370973 -0.01998207 -0.51722306 -1.130927
000120 e6 56 5d be 04 b8 25 3f b0 60 c2 be 2d 7a ce 3e
       -0.2161518 0.6473391 -0.37964392 0.40327588
000130 c4 dc c9 be 21 c3 3b bf 61 72 af bf df d9 86 bf
       -0.39426243 -0.7334462 -1.3706781 -1.0535239
000140 01 73 15 3d 29 9a 28 3e b7 3d ab 3e 3c ae e2 3e
       0.03648663 0.16465057 0.33445522 0.44273555
000150 df ee d1 3e 7e 0e bd bf 73 fb de bb 08 7f c9 3e
       0.41002557 -1.4770048 -0.0068048774 0.3935473
000160 55 bf 86 bf be f2 00 bf 71 e0 93 bf 66 61 c2 bf
       -1.052714 -0.50370395 -1.1552869 -1.5185974
000170 a9 ed bb 3f a4 bd 83 3d bd b1 87 3f b8 ce 50 be
       1.4681903 0.064326555 1.0601116 -0.20391357
000180 fd 5d 6f bf 27 bc a0 bf c6 62 37 3f 26 31 d4 3e
       -0.9350279 -1.255742 0.7163509 0.41443747
000190 7a 20 8a bf 4f 63 d6 be 93 7e 14 3d 72 41 e9 3e
       -1.0791161 -0.4187264 0.036253523 0.45557743
0001a0 e3 f0 9b be 87 04 f0 bd 43 c3 12 3f d2 a9 81 3e
       -0.3045722 -0.117196135 0.57329196 0.25324875
0001b0 7f c0 aa be 85 a6 7c 3e 1b e1 99 bf c5 12 0d bf
       -0.33349988 0.24672897 -1.2021822 -0.55106765
0001c0 24 e7 04 3f c3 ba d0 be f3 37 1b 3e a5 89 18 bf
       0.5191519 -0.40767488 0.15158062 -0.5958503
0001d0 63 c0 2c 3e 67 bb 11 bf 5e 23 5f 3d d6 c0 19 be
       0.16870265 -0.5692658 0.05447709 -0.15014967
0001e0 6f b6 c2 bf 38 ad 1a 3f 6c ae 53 3f a5 f8 43 be
       -1.5211924 0.6042056 0.8268802 -0.19137819
0001f0 fd e3 2f 3f c8 72 be bf 5c ec 91 bd 8e 97 26 bf
       0.6870726 -1.4878778 -0.0712516 -0.65075004
000200 57 b3 5a 3e c0 ae d8 bf 2c 7a f1 be b4 b2 f7 be
       0.21357475 -1.692833 -0.47163522 -0.48378527
000210 70 17 d1 bf e7 8d 7b 3f 71 ae 14 bf 63 97 21 bf
       -1.6335278 0.982634 -0.58078676 -0.6312162
000220 82 2c 37 bf 74 b7 a9 3f 10 03 a9 bf 14 94 a8 bf
       -0.7155229 1.325911 -1.320406 -1.317019
000230 c9 c3 6a 3f d6 bd 7b 3f a5 ee a4 bf 6d 64 c4 be
       0.91704994 0.9833654 -1.2885329 -0.3835787
000240 d7 32 71 be d7 91 5f be 28 09 5d 3f 6e 32 5c 3f
       -0.2355455 -0.21832977 0.86342096 0.8601445
000250 35 ce 22 3f f4 86 ef bf 13 de 23 bd d7 15 af bd
       0.63595897 -1.871306 -0.04000671 -0.085490875
000260 96 cd 3a 3f e0 05 d0 be a3 fc 83 3e 49 7f 96 bf
       0.7296995 -0.40629482 0.25778684 -1.1757594
000270 94 43 37 3f 69 b3 a1 3f 54 24 13 bf e3 58 67 3f
       0.7158749 1.2632877 -0.5747731 0.90370005
000280 a1 d9 f2 bf d5 3c d5 bf 36 6e 98 3e b9 35 ca be
       -1.8972665 -1.665919 0.29771584 -0.39494112
000290 fd 67 74 be 99 e2 ac be 05 a9 22 3e a6 e2 49 bf
       -0.23867793 -0.3376663 0.15884788 -0.78861463
0002a0 98 6f 75 bf e5 05 83 bf 20 c5 6f 3f d8 07 e9 3e
       -0.95873404 -1.0236174 0.93660164 0.45513797
0002b0 19 79 08 3f 62 0f c2 be b6 40 6c bf 13 8a 3c bf
       0.5330978 -0.3790236 -0.9228624 -0.73648185
0002c0 70 a8 ab 3f 8c 9a a6 3e e9 68 71 3f 27 22 95 3f
       1.3410778 0.32539785 0.94300705 1.1651047
0002d0 4d d8 8e 3f e2 18 39 3f 4f bd 8a 3e 8c 8e 84 bd
       1.115976 0.72303593 0.27097556 -0.06472501
0002e0 69 43 02 40 0b 72 47 3f c4 fb d4 3d 65 92 84 bf
       2.0353644 0.7790839 0.10399583 -1.0357176
0002f0 8f 12 1b be 87 0c 78 3f 49 91 87 3e 6d 1a b6 3d
       -0.15143798 0.96894115 0.2647803 0.08891759
000300 ca 7a 3c be f8 2e 34 c0 31 df 98 be 91 b0 8f 3e
       -0.18406215 -2.8153667 -0.29857782 0.28064397
000310 fc 64 b2 bf 2d 6e 35 3e 3f 4b 4c 3f 7d 97 fc be
       -1.3937068 0.1771781 0.79802316 -0.49334326
000320 3e 9c d2 3d 36 23 a2 3e 33 be dc bf 59 87 a4 be
       0.10283707 0.3166749 -1.7245544 -0.32134512
000330 b8 a0 ff 3f c0 9f 9b 3f f1 8a 59 bf aa 5a 85 3f
       1.9970922 1.2158127 -0.8497763 1.0418293
000340 ca f2 5d bf b1 2b de 3d eb a2 32 bf 65 3f a0 3e
       -0.8669859 0.10848177 -0.69779843 0.31298366
000350 21 3f c5 bd 6d a5 15 c0 00 0e 71 3e e7 2a e4 bd
       -0.096311815 -2.3382218 0.23540497 -0.111409955
000360 1d 0e 87 3f d2 aa 1c 3f 23 e6 be be ac 55 9b 3e
       1.0551182 0.6119815 -0.37284955 0.303388
000370 35 cd ef 3c 19 d8 49 3f 99 3f 3a 3e 5c 10 9e 3e
       0.029272655 0.78845364 0.18188323 0.30871856
000380 b1 49 99 bd 06 88 0e c0 78 cd 51 bf 58 b4 18 bf
       -0.07484759 -2.2270522 -0.81954145 -0.5965018
000390 9f c5 59 bf e4 9c 9c bf 37 37 18 be e8 f9 26 bf
       -0.8506717 -1.2235379 -0.14864813 -0.65225077
0003a0 ae 51 82 3f 7a a9 1e 3f ca 07 b1 3f 46 5e 4c bf
       1.0181177 0.6197735 1.3830502 -0.7983135
0003b0 80 80 9e 3e 1e 9e c8 bf 6a ee 91 bf 6c c7 46 40
       0.30957413 -1.5673254 -1.1400883 3.1059217
0003c0 61 3a 85 be e0 36 af 3e 4d 32 e5 be 5b 64 96 3f
       -0.26021102 0.34221554 -0.4476494 1.1749376
0003d0 a2 a5 a8 3e 32 0e b3 be e1 9e d9 3d 55 6b f8 be
       0.32938868 -0.34971768 0.10626007 -0.48519388
0003e0 38 e8 7f 3f 31 55 1e 3f 38 78 a7 be 38 09 e4 3e
       0.9996371 0.6184874 -0.32708907 0.44538283
0003f0 8e 07 ff be 43 5d 55 3f 75 a5 d5 3e 4a 38 c2 be
       -0.4981045 0.8334543 0.41727796 -0.3793357

relation_embeddings.weight f4 [46, 32]
000000 fc 89 5d 40 02 a4 22 c0 c6 38 9b 3e 98 d3 11 c0
       3.461547 -2.5412602 0.30316752 -2.2785397
000010 2e 2d de be 7b fc 7e 3e 21 69 d3 3e 94 02 88 bf
       -0.43393844 0.24901001 0.41291144 -1.0625787
000020 53 4a 69 3f 6a c4 23 3f cc 73 77 3f 48 3b cd 3f
       0.91129035 0.6397158 0.96661067 1.6033716
000030 17 e2 1c 3e 03 90 5e bf eb 22 1e c0 9e dd a5 b9
       0.15320621 -0.86938494 -2.4708812 -0.0003163637
000040 32 20 1f 3f 49 2e f5 be e6 00 9d 3f 06 79 45 3f
       0.621585 -0.47886875 1.2265899 0.7713779
000050 cf ae af 3e c9 0e 68 3f fe 77 05 40 9d 58 66 3f
       0.34313056 0.9064756 2.0854487 0.89978963
000060 15 cf fa bd 87 4c 61 bf a7 68 0d 3e 2e cf 8c 3f
       -0.12246529 -0.88007396 0.13809453 1.1000726
000070 61 46 d8 3d a8 4b 40 bf ff db a3 3c 84 c8 28 bf
       0.10560299 -0.7511544 0.020002363 -0.6593096
000080 23 e6 10 c0 89 65 29 c0 75 e0 98 3f 67 5c 3d 3f
       -2.2640464 -2.6468222 1.1943499 0.7396912
000090 9d 61 91 bf cc f8 4d be 36 93 c7 3f 66 6a 66 bf
       -1.1357914 -0.2011444 1.55918 -0.900061
0000a0 cd 25 d3 3f 20 8d 6b bf 8d 49 af 3f d9 7a 83 3f
       1.6495911 -0.92012215 1.3694321 1.0271865
0000b0 8f 2a 80 3f ee 79 95 bc 50 3d c1 bf 12 b4 01 40
       1.0012988 -0.018246617 -1.5096836 2.0266156
0000c0 81 69 82 3f e0 49 0e bf 1d 3c ea be cb ea 98 3f
       1.0188447 -0.55581474 -0.45748988 1.1946653
0000d0 ed 74 55 bf 31 eb fa bf f8 dd a2 bf 4a e9 6c 3f
       -0.8338154 -1.9603025 -1.272399 0.9254347
0000e0 ca fb b7 3f 02 77 4d 3f 74 ef 88 bf bf 61 04 3e
       1.4373715 0.80259717 -1.0698075 0.12927912
0000f0 85 47 ab 3e 77 ea 48 3f bb 81 b1 3e 33 3b 23 3f
       0.33453003 0.78482765 0.3466929 0.63762206
000100 51 62 06 3e 2e 1c 83 bf 34 48 62 3f f4 8c ff be
       0.13123442 -1.0242975 0.88391423 -0.49912226
000110 0e e2 2d bf 9b 06 1b 3f 57 a9 e5 be 5f 70 6f 3f
       -0.6792306 0.60556954 -0.4485576 0.9353084
000120 f2 52 07 be a4 ee 16 be df ea b2 3e 7d d7 72 bc
       -0.13215235 -0.14739472 0.34944817 -0.014821884
000130 3b 2e 96 3e 59 cc b3 3e e3 a8 5a bf 56 e0 bb 3e
       0.29332146 0.35116842 -0.8541395 0.36694592
000140 0c eb c8 bc 82 3a 05 3e 7e d0 d0 be 9b 23 5a 3c
       -0.024526142 0.130106 -0.40784067 0.013314153
000150 dd 3c 14 3d a4 dc 8a 3f 76 6d bd 3d 9f 33 fd 3e
       0.036190856 1.0848584 0.09249394 0.49453446
000160 2b 24 96 3f a7 ad 77 3c e2 52 ed 3d 35 cf 0d 3f
       1.1729788 0.015117086 0.11588074 0.553943
000170 4e 26 e9 3e 52 22 aa bd 0c 8f bb be bc 4b 99 3d
       0.45537037 -0.08307327 -0.36632574 0.07485148
000180 f4 47 a1 be 48 01 6a c0 eb 08 0e c0 c8 0c 0d be
       -0.31500208 -3.6563282 -2.2192943 -0.13774407
000190 6b a7 5c bf 1d 09 09 3f 42 ef 3c 3e 63 b8 a2 3c
       -0.8619296 0.5352953 0.18450645 0.019863313
0001a0 88 c8 f7 bc 41 36 b5 3f 1d 07 e6 bd d4 5b ca 3f
       -0.030246988 1.4157182 -0.112318255 1.5809274
0001b0 f8 a9 09 40 02 59 af 3f 00 18 0a c0 74 22 98 3f
       2.150999 1.3699038 -2.1577148 1.1885514
0001c0 a3 5e ea 3f d4 a2 86 bf ef 2a 86 be e7 76 80 3e
       1.8310131 -1.0518441 -0.2620463 0.25090715
0001d0 ec 81 ba 3f 7d 20 91 bc 86 3f ae 3f 3f 84 61 3f
       1.4570899 -0.017715687 1.3613136 0.88092417
0001e0 3c 5d d8 be bb 75 62 3e 0b cc d0 3f 26 25 b0 3f
       -0.42258632 0.22115223 1.6312269 1.3761337
0001f0 d7 1b 42 bf b2 7f ab 3f 79 55 fa be ae 08 0d bf
       -0.7582373 1.3398345 -0.48893335 -0.5509137
000200 bc 81 1a 3d 4f 8e 8e bf 1e 46 fd bd c8 ac 33 3e
       0.03772138 -1.1137179 -0.123668894 0.1754638
000210 60 48 9f bf 67 4e de be 8f da e3 3e e3 d0 95 3e
       -1.2443962 -0.4341919 0.44502684 0.2926093
000220 de d2 07 3f 61 31 e6 3e 92 b7 ba 3e 56 dc 54 3f
       0.5305613 0.44959548 0.36468178 0.83148706
000230 7f 6c b6 3d 3e 25 2d 3f 9e d2 a4 be 49 cd 37 3f
       0.08907413 0.6763495 -0.32191938 0.71797615
000240 04 0a 3e bd ec 15 96 3e 50 e0 c2 be 29 10 62 3f
       -0.04639627 0.293136 -0.38061762 0.8830591
000250 bb af cb be 34 18 fd 3d f8 25 a4 3e 79 74 6c be
       -0.3978251 0.12358132 0.32060218 -0.23091306
000260 e2 63 14 be ee 80 92 3d a4 97 03 bf c0 5d ff bc
       -0.14491227 0.07153498 -0.5140326 -0.031172633
000270 b2 f8 2a bf 03 a8 3b 3e 83 ac 87 3d dd f4 61 3f
       -0.6678573 0.1832581 0.06624701 0.88264257
000280 17 1e d1 be 0e 6b 73 bf e0 86 dd bd a1 a8 3d 3f
       -0.4084327 -0.9508523 -0.10816741 0.7408543
000290 9a bf 3b bf 6d c5 44 3e 70 dc 05 bf 51 35 5d bd
       -0.73339236 0.19215937 -0.52289486 -0.054005925
0002a0 4d b2 68 3f 14 3a 67 3e 6d a4 5f 3f b9 7d 42 3e
       0.90897065 0.22580749 0.8736027 0.18993272
0002b0 e9 fd 47 bf 6f e8 a3 3f 4e 03 c6 bf 8e ad d4 3a
       -0.7812181 1.2805308 -1.5469759 0.001622604
0002c0 ec ff 91 3d 2e ed 9d 3e c6 0e 53 be 22 12 2b be
       0.07128891 0.30845016 -0.20611104 -0.16706136
0002d0 e7 cf 27 3e ab 01 84 3d 42 c4 8e 3e eb 5d 19 3e
       0.16387902 0.06445631 0.27884108 0.14977233
0002e0 93 e1 29 bf ac cd b6 3e 6b 43 da bb b9 bc a7 be
       -0.66359824 0.3570379 -0.006660869 -0.3276117
0002f0 53 3d aa be 7a 2b 31 3e 56 b5 0c be 18 c8 6b 3c
       -0.33249912 0.17301741 -0.13741049 0.014390968
000300 2b ce 4c 3e 2c 9a c5 bf 9f cb 78 3d 24 11 34 be
       0.20000522 -1.5437675 0.060741063 -0.17584664
000310 58 be a8 bf be e8 e4 be 41 49 9f bf b2 a6 fc bd
       -1.3183088 -0.44708818 -1.244423 -0.12336482
000320 ae da ce 3e 08 fe 11 bf 55 a3 e2 3e 1d 9f 8b 3e
       0.40401214 -0.57028246 0.44265237 0.2726983
000330 1f f7 a1 3f 1b 15 17 bf 49 7b 08 bf 02 28 dc 3d
       1.265354 -0.5901658 -0.5331312 0.107498184
000340 a4 3b 7e 3f d1 a1 43 3d de 87 a4 bf 66 4e 2c bf
       0.99309754 0.047761742 -1.2853963 -0.67307127
000350 8c 42 9a 3e ce 21 02 be f0 b1 17 3f 6b 64 39 bf
       0.30128896 -0.12708208 0.59255886 -0.7241885
000360 3d 92 1e bf dd 44 19 3f 41 9a 98 3e 6d 5f 97 3f
       -0.6194189 0.598707 0.29805186 1.1825997
000370 76 c2 47 bd 4a 92 c6 3e 2a bc 25 3f 34 34 f9 be
       -0.048769437 0.38783485 0.6474024 -0.4867264
000380 0d 88 95 bf e5 90 4b bf 18 96 3a 3f 73 82 98 be
       -1.1682144 -0.79517967 0.72885275 -0.29787025
000390 0a 87 0a bf 21 f3 48 be 80 07 f3 be b2 c7 17 bf
       -0.54112303 -0.19623996 -0.4746666 -0.59289086
0003a0 bf 66 34 be ab dd 79 bf 8a 10 72 3e 88 d0 e2 3d
       -0.1761732 -0.97603863 0.23639122 0.110749304
0003b0 de 79 3a be d1 ff c6 3e ef 90 00 c0 66 84 45 3e
       -0.18210551 0.38867047 -2.008846 0.19288787
0003c0 b6 dd f0 3e fa c1 72 be 32 a5 4d bf 85 fe c3 3e
       0.47044152 -0.23706809 -0.80330193 0.3828012
0003d0 da 8f 27 3c b4 80 4c 3e 9c 07 a4 3e 62 ac ef 3f
       0.010227168 0.19970971 0.32037055 1.8724482
0003e0 e4 73 a5 bd ab 8b 00 3f 2a 5b 77 be ca 6e 12 be
       -0.08078745 0.50213116 -0.2415587 -0.14300075
0003f0 89 12 b1 3e 6c cd 28 be 9e 0e f5 3d 5f 2e aa be
       0.34584454 -0.16484612 0.11965679 -0.33238503

exp_avg f4 [135, 32]
000000 7f 7c 17 bd 6f 6b 46 3e 61 ea d6 3e 2c 35 9e 3d
       -0.036983963 0.1937692 0.41975692 0.077249855
000010 0c c0 01 3d 54 d2 d4 3e b0 e9 e1 3e 77 ac 68 3e
       0.03167729 0.41566718 0.44123602 0.2272204
000020 ca f9 5c 3d 7b a9 23 be b3 3f b2 3d b6 32 67 bd
       0.053949155 -0.1598262 0.08703556 -0.056444846
000030 44 bb 5b bc 35 24 16 be 5e f8 bf 3d eb 4b 2d bf
       -0.013411347 -0.1466225 0.09373544 -0.67693967
000040 7d 64 1f 3d 6f c5 ba 3d 22 db 63 3d a1 ee 0c bd
       0.038914192 0.09119689 0.055628903 -0.03440726
000050 f0 d0 65 bb 66 f0 22 3d 08 45 f6 be 88 fa f1 bc
       -0.0035067163 0.039780043 -0.48099542 -0.029538408
000060 11 d8 4a be 5f f4 ac bd e3 b9 42 3d ff e1 9e 3e
       -0.19808985 -0.084450476 0.047540557 0.31031796
000070 da 2c e8 3c 83 01 58 bc 1e 1a 9e bd 17 52 ba be
       0.0283417 -0.013183954 -0.07719825 -0.36390755
000080 d4 46 00 bd 73 88 92 3d c1 9e bc 3c 0e 24 01 bc
       -0.031317547 0.07154932 0.023024919 -0.007882131
000090 b5 09 03 3e 75 41 20 3d 2b 0f b4 b6 e4 c6 b0 3c
       0.12796672 0.039124925 -5.366184e-06 0.021579213
0000a0 d4 4c 4c bd 4a 68 41 3d 74 1a 91 3c 7a cc 88 bd
       -0.049877957 0.0472186 0.01771281 -0.06679626
0000b0 b9 75 ba bd ba c3 2f bc 77 bf a3 3d 2e db 8a bd
       -0.09104485 -0.010727817 0.079955034 -0.067800865
0000c0 fb 10 10 bc 79 af ba 3c 6c de 30 bd e8 f5 8a bd
       -0.008793111 0.02278875 -0.043180868 -0.06785184
0000d0 9e 2c 8a ba 68 0f ca be f0 95 dc ba 02 79 43 3d
       -0.0010541861 -0.3946488 -0.0016829353 0.047722824
0000e0 8d b4 d1 bb 33 a5 44 3e 5f 78 97 be 27 42 07 3c
       -0.006399697 0.19203644 -0.29584023 0.008255518
0000f0 dd 54 b6 3c d3 3f 62 bd 10 a3 0c 3c 6c 2e 56 3e
       0.022257263 -0.05523665 0.008583799 0.20916146
000100 78 05 90 3d 32 45 90 3d 27 55 5a 3b 50 01 8a bd
       0.07032293 0.07044448 0.0033314915 -0.067385316
000110 be c9 21 bb e8 ba d2 3e 8e 13 1c 3e 6e 80 07 be
       -0.0024686898 0.41158223 0.15241835 -0.13232586
000120 5b 3e 87 bc e2 8f 11 be 9d a0 18 bd 9e 94 15 bf
       -0.016509226 -0.14215043 -0.037262548 -0.58429897
000130 69 f5 fc be 09 4a b1 bd a4 c0 05 3e e5 ff 60 bd
       -0.49405983 -0.08656699 0.13061768 -0.05493154
000140 6f 88 89 3e fb ba 31 be f7 8b 90 ba b9 82 93 3e
       0.26861903 -0.17356484 -0.0011028041 0.2881067
000150 eb 43 3f bc c4 4b 02 be 68 fb 04 3f ba 69 05 3f
       -0.011673908 -0.12724215 0.51946115 0.5211445
000160 79 09 67 bd 29 7a 25 3d 00 7e 90 bd e6 b0 3e bd
       -0.05640552 0.040399704 -0.070552826 -0.046555422
000170 21 4f a8 ba 43 0c 93 3d 65 1b a0 bd 40 c0 ad bc
       -0.0012840965 0.07180073 -0.07817725 -0.021209836
000180 56 b4 3e bc 88 ec ee 3d 7a 11 a3 3d 42 85 26 3c
       -0.011639675 0.116662085 0.07962318 0.010163607
000190 6d 20 d2 3c b4 e3 19 3f 63 9d f6 3c a8 8c 85 3c
       0.025650227 0.6011307 0.030104345 0.016302422
0001a0 3f ba 16 3e 82 59 68 bc bd 4b e5 be ef 5c 63 bc
       0.14719485 -0.014181497 -0.44784346 -0.013877138
0001b0 7e 4c de bd e3 37 95 bb 0b 9d 13 3e b3 df cc bb
       -0.108544335 -0.0045537814 0.14415376 -0.006252253
0001c0 1c f8 08 3d d7 8b 36 be 8e 83 27 3c 28 19 04 be
       0.03343974 -0.17826782 0.010224236 -0.12900221
0001d0 46 4d 99 bd c6 9f 11 bf 43 f9 8d 3c c8 dc 43 3d
       -0.07485442 -0.5688442 0.017330771 0.047817975
0001e0 b1 8a da be 14 fc 1b 3e b7 6d 3e 3d 37 aa 0a 3d
       -0.42683938 0.15232879 0.04649135 0.033853736
0001f0 cb d9 2c 3d f6 9f 21 be 67 19 5e bd 8a 79 33 bc
       0.04219989 -0.15783677 -0.054223444 -0.01095427
000200 b8 19 09 bd 5f 31 51 be eb 77 92 3c cc c4 f0 3b
       -0.033471793 -0.2042899 0.017879447 0.0073476788
000210 0b b2 01 bd 92 c4 49 bd 3b 49 19 3c c0 fb 0f 3c
       -0.031663936 -0.04925973 0.009355838 0.008788049
000220 25 27 32 3c 3e c2 10 be a0 f4 1b 3e 67 bc aa 3e
       0.010873591 -0.14136598 0.15230036 0.33346865
000230 a1 62 9b bd df 6a b2 3b 0d a2 6d be e9 e0 11 3c
       -0.07587171 0.005444869 -0.23206349 0.00890372
000240 1d 6a 8d 3c 53 5c 8e 3c 54 8b 23 bb 9c a9 02 bd
       0.017262513 0.017378008 -0.0024954872 -0.031900033
000250 84 e8 ac 3b 2e 72 1e 3e ba 03 ec bd 94 16 72 bd
       0.0052767415 0.15473244 -0.11524148 -0.059103563
000260 2c 17 74 3d 6f ec 2b 3d 48 19 5e 3d 77 01 fd 3d
       0.05959241 0.041973528 0.05422333 0.12353795
000270 d9 b0 74 be 17 62 56 bd f3 7c 04 3e 28 69 fc bc
       -0.23895587 -0.05233964 0.1293829 -0.030811861
000280 27 f7 47 bd 27 56 9c bc 01 55 c2 3c e5 57 84 bc
       -0.048819687 -0.01908405 0.023722174 -0.016155193
000290 77 29 04 bd d7 fa d4 3c 9a 67 97 3c fc 2f 3e bd
       -0.032266106 0.025998516 0.018482018 -0.04643248
0002a0 1d 9d bb bb fa 3f 3b 3e 10 93 78 be c5 d7 f9 3c
       -0.0057255165 0.18286124 -0.2427485 0.030498395
0002b0 88 4d 0b 3a f9 dc 38 3e 46 95 e5 3b e7 eb 91 bc
       0.0005313982 0.18053044 0.00700632 -0.017812682
0002c0 d2 37 b8 bd cd 27 aa 3c f3 21 34 3c 45 22 4e bd
       -0.08995022 0.020770932 0.010994422 -0.05032565
0002d0 10 d4 a1 bc 01 a5 f4 3c 52 f6 35 3b ad 97 99 bc
       -0.01975444 0.029863836 0.0027765227 -0.018749082
0002e0 5f 65 4d 3d 12 e2 1f 3c 5b 2f 1b bd 98 c4 46 be
       0.050145503 0.009758489 -0.03788696 -0.19410932
0002f0 8d 4c 7d 3c 7d e2 6c bd b8 05 9b bc d9 dc d2 3c
       0.015460146 -0.057833184 -0.018923625 0.025740074
000300 49 9e d6 bd 8b a5 9b 3d ac e0 07 3c 46 01 2f bd
       -0.10479409 0.07599934 0.008293312 -0.042725824
000310 78 f6 25 3c 3a 33 fa bd 98 1e 1b 3d e7 41 5f bd
       0.0101295635 -0.12216802 0.037870973 -0.05450621
000320 ac d7 8e 3b ae 44 0b bd db 19 5b bc 1e 02 f0 bc
       0.004359206 -0.034001045 -0.013372864 -0.029297885
000330 85 09 32 bd db b9 04 bd 2a aa c0 3e 97 cb 84 bb
       -0.04346611 -0.032403808 0.37629825 -0.00405259
000340 a2 53 ce 3c 7b 4a 09 bc 56 2e 61 3c 4d 53 f6 3c
       0.025186364 -0.008379574 0.0137439575 0.030069018
000350 59 6c 81 3e c1 65 9e bd 69 19 6d 3d b9 15 05 be
       0.25277975 -0.07734252 0.05788556 -0.12996568
000360 25 df 8c be 95 ea 8d 3b c5 64 f4 be c3 19 16 bd
       -0.27513996 0.004330943 -0.4773313 -0.036645662
000370 7d 5d 8a ba 97 cc aa bd e3 65 7e be 48 bd 7c bc
       -0.0010556426 -0.08339804 -0.24843554 -0.015425988
000380 7b 9c 77 bb f0 c5 d0 3d 53 a1 26 3c a2 dc a7 bc
       -0.0037782479 0.101940036 0.010170299 -0.020490948
000390 e2 ee 32 bb ff 3b 15 bd f9 e5 ea bc 7f 73 02 3d
       -0.002730303 -0.03643417 -0.028674113 0.031848427
0003a0 11 b3 b4 bd 89 e5 bf bd d1 e9 86 3d 2c 6d a8 bc
       -0.08823217 -0.09369952 0.06587566 -0.02055987
0003b0 7e 96 e2 bb ef 89 78 bd a8 5e 53 3b 23 7c 8e bd
       -0.0069149127 -0.06067842 0.0032252464 -0.06957271
0003c0 0b 7d a7 3c 57 dd 10 bc 45 67 96 3c 99 67 b1 3b
       0.020445367 -0.008841834 0.01835979 0.005413961
0003d0 12 04 1b bd ad 71 96 bc a7 d7 44 3e cf db 0e 3c
       -0.03784568 -0.018364752 0.1922289 0.008719399
0003e0 7e 82 47 bc b6 37 cb bb 9e 37 04 bd 80 2e 65 3c
       -0.012177108 -0.0062017096 -0.032279603 0.013988137
0003f0 11 9a ca 3c 36 aa b0 3a 6d 78 fb 3c 2f 06 ff 3c
       0.024731668 0.0013478461 0.030697072 0.031130878

exp_avg_sq f4 [135, 32]
000000 c0 70 65 37 60 90 8c 37 65 91 63 35 0c a7 d9 36
       1.3675715e-05 1.675653e-05 8.4775667e-07 6.486551e-06
000010 3b a5 5b 36 df 4b a1 33 75 02 70 34 7f 97 84 36
       3.272972e-06 7.5109476e-08 2.2352636e-07 3.951543e-06
000020 3b 9a e2 37 46 97 80 33 e1 ba 23 36 8b b2 08 37
       2.7013119e-05 5.987981e-08 2.439767e-06 8.147802e-06
000030 78 53 2a 37 fc 5a 03 36 8c b2 9d 37 ec 35 a4 33
       1.0152224e-05 1.957348e-06 1.8799e-05 7.6466534e-08
000040 1b dd 15 37 6f 01 66 37 51 98 9f 37 38 d2 24 37
       8.932572e-06 1.3709402e-05 1.9025205e-05 9.824107e-06
000050 2d 41 2e 38 b3 e5 24 38 fb 38 93 35 d9 5e 94 36
       4.1545532e-05 3.931457e-05 1.0968937e-06 4.4217854e-06
000060 06 18 57 36 a9 9e 90 34 da d3 59 37 26 cb 83 34
       3.205148e-06 2.693753e-07 1.2983533e-05 2.454846e-07
000070 11 36 34 38 52 f1 7a 37 6e 5f d6 36 72 e3 75 34
       4.2965698e-05 1.4957348e-05 6.3888065e-06 2.2900147e-07
000080 e1 5d 9a 35 5b 34 f6 35 86 f8 f2 35 8e 39 0c 37
       1.1501216e-06 1.8343666e-06 1.8102735e-06 8.358051e-06
000090 1e 03 26 34 12 41 84 34 ea 6b 96 33 63 7b fa 35
       1.5461089e-07 2.463426e-07 7.004549e-08 1.8662362e-06
0000a0 fb 38 46 35 15 6f d3 34 5e 40 5e 35 92 44 a0 34
       7.3843665e-07 3.9382635e-07 8.279511e-07 2.9852214e-07
0000b0 be 5e 25 33 f4 b9 15 36 0f 1f eb 34 d9 1b c1 34
       3.8503224e-08 2.231097e-06 4.379476e-07 3.5969313e-07
0000c0 b2 17 a9 36 18 4f 75 34 47 a4 81 33 9d e2 b5 35
       5.039351e-06 2.2846177e-07 6.0369125e-08 1.3551504e-06
0000d0 4a 30 e8 35 a9 6c d4 33 13 9d c8 34 79 23 19 36
       1.7299401e-06 9.8917845e-08 3.736719e-07 2.2819424e-06
0000e0 8f a4 23 36 9b a7 f5 33 2f 9f ac 32 f7 70 2b 37
       2.4384678e-06 1.1439189e-07 2.0095824e-08 1.0218696e-05
0000f0 7a e2 2f 36 45 be b4 35 0c f1 b2 33 4d d8 19 32
       2.6208859e-06 1.3466421e-06 8.332617e-08 8.954953e-09
000100 20 8c 1f 36 7d 67 d1 37 a7 db 07 37 e5 cc 6c 37
       2.377441e-06 2.4962932e-05 8.097769e-06 1.4114402e-05
000110 cc 0e 1a 37 88 b7 f3 34 ee 17 2c 36 65 3e f4 36
       9.1825605e-06 4.5395814e-07 2.5643926e-06 7.2790303e-06
000120 c6 34 2f 37 26 73 ab 35 c5 a0 ea 37 e2 2f bb 33
       1.04431e-05 1.2774005e-06 2.7969838e-05 8.716576e-08
000130 45 8c 1a 34 d6 90 94 35 84 53 95 36 cb 9b 80 34
       1.4393397e-07 1.1069012e-06 4.4502685e-06 2.3955212e-07
000140 2b 4b 2c 34 94 6c a2 34 91 6e 30 37 57 3f 3b 35
       1.6046094e-07 3.0253852e-07 1.0516161e-05 6.97551e-07
000150 c0 3c 0d 37 3e 0d bb 35 12 bf 3b 34 50 18 6b 34
       8.418399e-06 1.393644e-06 1.7485243e-07 2.1894925e-07
000160 74 ea bc 35 57 21 0e 35 3f b0 af 36 87 97 36 36
       1.4075326e-06 5.294764e-07 5.235924e-06 2.7208314e-06
000170 e7 db 6d 37 1f 77 50 36 1d 2d 77 37 d7 93 f6 34
       1.4177501e-05 3.1063753e-06 1.4732851e-05 4.5928638e-07
000180 87 25 97 37 00 3f 98 38 bc 6c b7 36 66 67 94 37
       1.8018078e-05 7.2596595e-05 5.4664833e-06 1.7691124e-05
000190 8d 37 10 37 19 68 00 33 b3 f2 2d 36 67 60 49 36
       8.596003e-06 2.9897e-08 2.5920278e-06 3.0007448e-06
0001a0 9d e4 d5 35 bd cb a5 37 bd 05 05 35 5c 18 56 37
       1.5936272e-06 1.9764406e-05 4.955471e-07 1.2761066e-05
0001b0 29 c3 73 35 91 91 ef 35 00 a0 2e 36 a3 e9 6c 37
       9.080855e-07 1.7849253e-06 2.6021153e-06 1.4121094e-05
0001c0 7c d7 f8 37 f8 4f ed 34 e6 96 b9 36 27 21 2e 35
       2.9664247e-05 4.4202875e-07 5.5309965e-06 6.4868294e-07
0001d0 1a 0d 48 36 80 fa e9 33 e2 fe d5 37 82 09 52 34
       2.9809949e-06 1.0895474e-07 2.5510268e-05 1.9561233e-07
0001e0 bf 54 2c 35 a2 2b 94 36 d6 b6 4f 37 81 91 4d 36
       6.4198315e-07 4.4158232e-06 1.2380731e-05 3.0632075e-06
0001f0 5e 38 f4 36 7b 10 96 36 ed 48 cf 35 a3 d6 c5 35
       7.2783287e-06 4.472267e-06 1.5443926e-06 1.4740111e-06
000200 13 79 f3 36 aa fe 17 36 ea da 02 37 c9 55 a5 35
       7.2560592e-06 2.2648987e-06 7.799574e-06 1.2318425e-06
000210 59 08 9b 35 fe 38 db 35 d2 5e ba 36 8a 51 54 37
       1.1550829e-06 1.6333358e-06 5.5542705e-06 1.26551695e-05
000220 5b 2e e3 36 82 7e 40 34 fb 32 1b 34 b9 26 73 33
       6.7705237e-06 1.7927417e-07 1.4454046e-07 5.6613064e-08
000230 43 1a 95 35 ba 50 90 36 66 0a ae 34 a6 80 98 36
       1.1109008e-06 4.3009322e-06 3.2417591e-07 4.5449297e-06
000240 c2 f1 c1 36 b6 b9 e0 36 2c 52 37 37 5b 29 e9 34
       5.7799925e-06 6.69734e-06 1.0926782e-05 4.3429722e-07
000250 03 20 0d 38 09 ec 15 34 f6 94 6a 31 81 e9 64 35
       3.3646833e-05 1.3962575e-07 3.4136156e-09 8.527641e-07
000260 4f 59 c4 34 9c 2e 7b 36 41 1c a9 35 a6 67 3f 35
       3.6572825e-07 3.7429045e-06 1.2599704e-06 7.1303873e-07
000270 8e 14 82 34 93 53 e6 35 ef 6a cc 34 05 30 3b 35
       2.4229342e-07 1.7160659e-06 3.8075765e-07 6.9732806e-07
000280 3d c9 e5 35 57 79 6f 36 9c 26 7c 36 c9 a3 0f 37
       1.7120398e-06 3.5684404e-06 3.75734e-06 8.561598e-06
000290 dc e7 ab 36 7f fe 13 37 37 6d 1e 37 46 f8 a2 33
       5.123189e-06 8.821137e-06 9.442962e-06 7.5888735e-08
0002a0 f6 e2 e4 35 5e e3 0c 35 87 f0 94 34 7a 34 4d 36
       1.7053378e-06 5.2484927e-07 2.7742155e-07 3.0577926e-06
0002b0 74 c8 b1 37 92 47 ea 34 9d 7a b0 34 13 96 c1 35
       2.1193388e-05 4.363797e-07 3.2871768e-07 1.4423298e-06
0002c0 e6 ad 19 34 b2 79 e6 35 aa 45 29 36 82 91 b3 35
       1.4312499e-07 1.7171753e-06 2.5223512e-06 1.3378888e-06
0002d0 3f 0b 4b 36 63 08 36 34 5e e6 cc 36 bf 02 d8 34
       3.0255903e-06 1.6953122e-07 6.106492e-06 4.0235133e-07
0002e0 83 55 04 34 97 cf dc 37 d1 f0 53 36 89 eb 3a 35
       1.2324567e-07 2.632271e-05 3.1581624e-06 6.963315e-07
0002f0 20 0f a2 37 cc d6 21 35 7d e4 04 34 08 a1 6f 35
       1.9318948e-05 6.0289744e-07 1.2376582e-07 8.926877e-07
000300 79 58 f1 33 8b e3 d9 32 89 39 d1 34 a5 18 81 32
       1.123853e-07 2.53656e-08 3.8971146e-07 1.5028784e-08
000310 35 21 83 35 4e 48 49 34 7e e3 c3 32 41 70 33 34
       9.769925e-07 1.8745888e-07 2.280444e-08 1.6711512e-07
000320 05 93 94 34 5c 64 e3 34 8a a2 07 34 25 46 1e 36
       2.767412e-07 4.2355066e-07 1.2631986e-07 2.3584664e-06
000330 7a 98 95 35 40 6f 41 33 62 65 c0 33 91 bb bc 34
       1.1145742e-06 4.5037496e-08 8.959138e-08 3.51542e-07
000340 d9 55 d5 33 d0 71 55 33 49 bd cb 33 5d cf bc 34
       9.934201e-08 4.969644e-08 9.487355e-08 3.5168605e-07
000350 12 d4 52 33 a8 d5 8e 35 6e 8e 8b 33 af 22 fb 32
       4.9087312e-08 1.0642007e-06 6.4986e-08 2.9236018e-08
000360 bb 83 32 33 91 1a 8b 34 97 79 b1 31 64 56 4a 35
       4.1563663e-08 2.5910097e-07 5.165201e-09 7.537658e-07
000370 da b6 90 35 90 f7 2d 34 47 94 01 34 8a f8 c5 35
       1.0782053e-06 1.6201943e-07 1.2068004e-07 1.4749978e-06
000380 77 ca a5 36 b2 aa fe 33 42 ff 82 36 28 f1 0a 37
       4.940953e-06 1.1858846e-07 3.904018e-06 8.2815895e-06
000390 b2 c2 21 38 5d 15 d5 35 8f f4 94 34 f8 ae 96 35
       3.8566715e-05 1.5875954e-06 2.7745088e-07 1.1226794e-06
0003a0 96 be 0c 35 c1 70 07 34 0a 3a 1f 35 c0 41 18 37
       5.2431403e-07 1.2613874e-07 5.9316574e-07 9.075215e-06
0003b0 f9 d0 0b 38 4e c8 ab 35 3b 71 51 37 db 6a 89 32
       3.3334803e-05 1.2798789e-06 1.2483734e-05 1.5997491e-08
0003c0 65 7d 18 37 70 f3 ac 35 6f d8 80 36 95 2e 74 36
       9.089102e-06 1.2885848e-06 3.8398935e-06 3.6385948e-06
0003d0 fd f4 7e 36 96 ad cc 35 76 b0 2c 33 2e 13 b9 36
       3.7991551e-06 1.5249705e-06 4.020736e-08 5.5156625e-06
0003e0 b3 ee 55 36 73 48 09 34 7d 99 b0 36 98 94 da 35
       3.1878415e-06 1.2785476e-07 5.263077e-06 1.6285512e-06
0003f0 8c cb 37 37 a6 c1 d7 35 f0 9d b1 34 9e 14 8b 35
       1.0955042e-05 1.6075107e-06 3.3083734e-07 1.0362307e-06

exp_avg f4 [46, 32]
000000 17 0d 95 be 32 50 42 bf 4f e2 a1 3c 48 de 00 3e
       -0.2911155 -0.7590362 0.019761233 0.12584794
000010 27 59 7d bc a9 3e f2 bb 09 b7 53 3e 24 e1 e1 3b
       -0.01546315 -0.0073927236 0.20675291 0.006893294
000020 a6 8d 62 be 8e fc 9d bd 8f 79 92 3d c7 d8 c6 bd
       -0.22124347 -0.077141866 0.07152092 -0.09709316
000030 12 77 a0 b7 fd 33 c6 3a 94 60 83 be fe 11 02 3d
       -1.9128933e-05 0.0015121695 -0.2565962 0.03175544
000040 19 c9 d8 bb 97 86 a9 3e d8 3a 82 bd f7 be 36 bd
       -0.0066157696 0.33110496 -0.0635888 -0.044615712
000050 76 8b b5 3d 29 f8 3b 3d 60 7e 87 be 9d a3 10 bb
       0.08864491 0.04589096 -0.26463604 -0.0022070177
000060 03 7e 60 3e 46 3d 25 3d f5 2b 1a ba e7 fc a8 3c
       0.2192307 0.040341638 -0.0005881184 0.020628406
000070 8d c8 8e ba 59 a2 fc bc 09 46 fc bc ad 1f dc 3c
       -0.0010893509 -0.030839132 -0.030795114 0.026870573
000080 f0 4d ad 3d e8 54 5f be 4c 14 e3 bd 34 7f a8 3c
       0.08462131 -0.21809733 -0.11087856 0.020568468
000090 35 2e b6 bb a0 e2 03 bd ef 08 af bc 04 36 91 3c
       -0.0055597075 -0.03219855 -0.021366565 0.017725952
0000a0 d5 c4 11 3b 93 d5 48 bc cb 50 2f bc c2 90 ea bc
       0.0022242565 -0.012257951 -0.010700415 -0.028633479
0000b0 d2 f8 e3 bb ef f7 ae 3b 78 ba 18 be 41 c6 ac bc
       -0.006957152 0.0053396146 -0.14914882 -0.021090629
0000c0 78 00 09 bc 24 7d 33 3c 05 87 cf bc 05 6a 27 3b
       -0.008361928 0.010955129 -0.025332937 0.002554537
0000d0 52 13 1c 3c cd 4b ad 3d dc 2e d8 bb 71 f3 53 bc
       0.009526091 0.084617235 -0.006597383 -0.012936459
0000e0 ee 51 e6 bb d1 02 5e bc a1 ff 98 3c 9f 45 17 3b
       -0.0070288097 -0.013550476 0.01867658 0.002308227
0000f0 6c c7 92 3c ee 68 d1 bb 7e 1d 5b 3c cf e1 91 3b
       0.017917357 -0.0063906824 0.013373731 0.0044519673
000100 2b ce cd 3d 8a dd 28 ba d3 46 1e 3d 79 b0 03 3e
       0.10049089 -0.00064417033 0.038641762 0.12860288
000110 9b 4c 89 3b 40 d8 94 3e 6d c6 63 bc 17 53 05 be
       0.0041900403 0.29071236 -0.013902289 -0.13019978
000120 ce 88 8a bd 22 3f a1 3d ff c4 a9 3d c9 6c bc bc
       -0.06764375 0.0787337 0.08289527 -0.023001092
000130 0f d5 54 bd fb 44 2f 3e 3c 60 91 3d f6 f5 e7 3c
       -0.051961 0.17116158 0.070984334 0.028315526
000140 8e 56 b2 3c 26 42 61 bd 0a 36 52 bd 5b fd 8b 3d
       0.021769788 -0.054994725 -0.051321067 0.06835433
000150 d6 5f 57 3d cb 01 d2 bc c9 16 1f 3b bc 86 6e 3e
       0.05258163 -0.02563562 0.0024275056 0.23293585
000160 35 50 19 bc eb 2b 9f bd d2 68 1b be 15 a0 ee 3c
       -0.009357502 -0.077720486 -0.15176705 0.029129067
000170 48 ac dd 3c 11 55 5e bd 0d 1f 5a bd d8 81 eb bb
       0.02705969 -0.054280344 -0.05325227 -0.0071871094
000180 77 be 8b 3e 10 6d 6b be af 17 8e 3e 26 62 3e bd
       0.2729375 -0.22990823 0.27752444 -0.04648032
000190 72 fa 1f 3d d2 f0 91 bd c7 ac 20 bb 61 d2 52 bd
       0.039057203 -0.07126011 -0.0024517046 -0.051470164
0001a0 8d 57 3b 3c 32 98 9c 3c d6 1b 9b 3e a6 71 9d bd
       0.011434448 0.019115541 0.30294675 -0.07687692
0001b0 4c 13 59 39 75 84 17 bd 62 27 9a bd da 2c a4 bd
       0.00020701921 -0.036991555 -0.07527043 -0.08016367
0001c0 f2 76 a6 bc 69 61 71 bd 33 36 bc bc ff dc 81 3d
       -0.02032039 -0.05893079 -0.022975063 0.0634098
0001d0 b3 2e db 3c 35 dd 62 bb 2f 5d b6 bd bb b5 f5 3c
       0.026755666 -0.0034616713 -0.08904492 0.029993882
0001e0 b1 78 64 bd 8f 62 0b 3d 8f 5d 28 bd 67 c0 05 bc
       -0.055779163 0.03402954 -0.04110485 -0.008163548
0001f0 b9 90 8a 3d c9 d0 0c bd a7 91 29 3d 85 e0 9d be
       0.06765885 -0.0343788 0.04139867 -0.30835357
000200 fe cd 17 be 78 4f 4d bd ec 8b 16 be 84 4e 30 be
       -0.14824674 -0.050124615 -0.14701813 -0.17217451
000210 ae 5a de bd c6 2d da bd 59 c5 6e bd de f6 96 be
       -0.108571395 -0.10653262 -0.058293674 -0.2948522
000220 cf 24 7a bd 22 92 c7 be c5 5c d1 bd d2 06 3d be
       -0.06107026 -0.38978678 -0.102227725 -0.18459633
000230 d1 45 df 3b 20 3e 95 bd f5 4b f6 bc ac 2f 6f be
       0.0068137427 -0.0728724 -0.030065516 -0.23358029
000240 eb 2a a5 3d 19 dd 8f 3d 87 10 dd 3d 62 c6 b9 3c
       0.080648266 0.07024593 0.10794168 0.022677604
000250 bd f3 1e be ce cb 53 3f 43 b3 90 bd d0 a5 e1 bc
       -0.15522666 0.82732856 -0.070654415 -0.027544886
000260 fd aa 72 bd 4a 89 2a 3e 56 7b 96 3b ff 10 eb 3c
       -0.0592451 0.16653934 0.0045923395 0.028694628
000270 5f d6 f8 3c e0 dd eb 3d f8 95 94 3d e5 4d b9 bb
       0.030375658 0.11516929 0.07255167 -0.0056550377
000280 d4 c1 b8 3c e6 a5 25 3e b2 ea f2 3b a5 c7 d5 3d
       0.022553362 0.16176566 0.007413232 0.1043847
000290 fb f0 39 3e 96 d1 7a 3c 8e 0c 66 b9 6b 99 54 bd
       0.18158333 0.015308758 -0.00021939186 -0.051904123
0002a0 90 11 b3 3e 85 09 20 3d 40 6f 47 3f 0d c9 09 3f
       0.34974337 0.03907158 0.7790413 0.53822404
0002b0 42 8e 13 3c 9b 7b fb 3c 66 62 01 3d 7d 21 66 3d
       0.009006085 0.030698588 0.03158798 0.05618428
0002c0 ac ba 65 bd a0 5d e7 3b 72 b5 83 3d db 72 64 be
       -0.056086227 0.0070607215 0.06431092 -0.22309439
0002d0 0c 60 49 3d 9e 0a b4 3c b0 37 8d 3d ee b5 dd bd
       0.049163863 0.021977719 0.06895387 -0.10825716
0002e0 5b 9b 3c 3c 7c d2 b5 bd f3 45 53 bd 3c 75 c0 3d
       0.011511649 -0.08878037 -0.05158038 0.09397361
0002f0 c0 23 8d 3e 8a f1 33 be 56 50 cd bc c3 c2 8f 38
       0.27566338 -0.17572609 -0.025062721 6.8550486e-05
000300 f6 89 16 3d 7d ef 1b be c7 a7 8c bc 5c a4 16 bc
       0.036752664 -0.15228076 -0.017169846 -0.00919446
000310 3f 88 ad b9 52 4f e2 3c d5 2e d3 3e d4 47 69 3d
       -0.00033098643 0.027625713 0.41246668 0.056953266
000320 00 44 61 3c 49 d5 08 3c 02 ff 70 bc b7 c6 43 bd
       0.013749123 0.008351632 -0.014709236 -0.04779693
000330 18 05 7d be 65 12 c6 3d 85 66 0f bc b7 67 09 bc
       -0.24708974 0.09671477 -0.00875247 -0.008386544
000340 ab 2d a4 ba 1c e0 01 3c 6b ff b0 bd 57 2e 1d bc
       -0.0012525817 0.007926967 -0.08642467 -0.009593568
000350 6d e9 7f bc 3e 61 7b 3d 78 20 73 bd e8 7d f0 3c
       -0.015619618 0.061372034 -0.059357136 0.029356912
000360 8d 3b ac bd 6d fb 22 3e fe ec 84 3c 0f fe 76 3b
       -0.08409796 0.15916224 0.016226288 0.0037688052
000370 1f f7 c1 bc 4e 0f 60 3f b6 b9 d9 bd 71 e2 b7 bc
       -0.023677407 0.87523353 -0.10631125 -0.022446843
000380 a8 4a 6c 3f f7 bd 06 bf 8d 89 a2 be 8f db 88 3b
       0.92301416 -0.52633613 -0.31745568 0.004176564
000390 9f 86 c1 bd 69 97 1e 3c 5c 4d 98 bc 69 6b c5 3d
       -0.09449505 0.009679654 -0.018591575 0.096396275
0003a0 02 6f ee bc 51 91 bd 3e a5 d1 80 3d 4d 11 b9 bc
       -0.029105667 0.3702493 0.062899865 -0.022591257
0003b0 29 f3 88 3e 02 fe 64 3d 25 3e 24 bd c6 cb ce bc
       0.26748016 0.055906303 -0.04009833 -0.025243651
0003c0 96 4c a3 bd 2d ee 81 3b 1d 1d 46 3e fd b1 a4 3c
       -0.07973592 0.0039651603 0.19347043 0.020104403
0003d0 46 5a 34 bd e6 7c e1 3c 7d 60 3c be 10 5d 51 bf
       -0.044031404 0.027525377 -0.18396182 -0.8178263
0003e0 a1 61 8c bd 53 5f 2d be 25 71 d3 3c 90 1f 3d bd
       -0.06854559 -0.16930895 0.025810787 -0.04617268
0003f0 fe 58 dc bc 1d 98 e7 3e 0c 1f c6 bd c5 f3 5b 3e
       -0.026897904 0.4523324 -0.096738905 0.2147971

exp_avg_sq f4 [46, 32]
000000 69 a1 71 32 a8 5e 86 33 48 2d 53 37 fa 43 13 35
       1.4064747e-08 6.257079e-08 1.2587123e-05 5.4860686e-07
000010 f4 e9 93 36 74 67 04 37 9b 8b 32 33 7b 08 b1 36
       4.408177e-06 7.8919e-06 4.1570825e-08 5.2759983e-06
000020 85 a6 a9 32 33 55 20 35 6c ef 75 33 aa 93 82 35
       1.9749914e-08 5.9728626e-07 5.726126e-08 9.728731e-07
000030 e7 21 55 37 1d 2f e0 32 cb 42 ae 32 0d ff 05 35
       1.2703683e-05 2.6098457e-08 2.028664e-08 4.991751e-07
000040 e8 74 9f 33 a8 12 61 32 ac 19 10 35 df 7d 95 35
       7.4252796e-08 1.3100966e-08 5.368154e-07 1.1137998e-06
000050 8c b0 0c 35 8a f8 84 32 c7 e6 46 34 9a 95 80 36
       5.2410974e-07 1.5479845e-08 1.8524143e-07 3.832113e-06
000060 9c 6e 20 33 de a9 78 36 6e 8b 81 34 c5 e3 10 34
       3.73535e-08 3.7053755e-06 2.412957e-07 1.3493907e-07
000070 d8 bf 2c 36 60 e2 d6 33 1a d1 ca 34 ff 10 ba 35
       2.5741665e-06 1.0006329e-07 3.7777573e-07 1.3863026e-06
000080 b8 fe e6 32 f8 6a 47 33 b6 59 1a 32 d0 66 98 32
       2.6891357e-08 4.6430586e-08 8.984378e-09 1.7741883e-08
000090 c6 03 5d 35 cb 62 5f 34 9b 39 ad 35 6c 70 12 34
       8.2334407e-07 2.0804434e-07 1.290627e-06 1.3638208e-07
0000a0 ef 5e 30 36 49 16 83 35 1b fb e9 35 5b 1c c9 35
       2.6281302e-06 9.766746e-07 1.7432934e-06 1.498392e-06
0000b0 0d 45 06 36 04 c6 99 34 91 40 e8 32 40 e6 75 35
       2.0007749e-06 2.8642546e-07 2.7037716e-08 9.160467e-07
0000c0 59 6b a6 33 5b db 84 36 ab 47 03 32 2e 28 c5 34
       7.749504e-08 3.959443e-06 7.641499e-09 3.6723344e-07
0000d0 b9 4f 54 36 17 ff a7 33 86 15 c9 33 d2 ca 4a 35
       3.1636866e-06 7.822944e-08 9.363707e-08 7.5546006e-07
0000e0 57 3c a0 35 b9 a6 0a 34 e8 1a a9 33 09 88 1f 34
       1.193849e-06 1.2912905e-07 7.87457e-08 1.4857518e-07
0000f0 3e 7a 93 34 90 26 88 34 87 b7 15 33 eb 02 ef 34
       2.7469827e-07 2.5360032e-07 3.4858683e-08 4.4519342e-07
000100 c2 2f b5 38 85 86 b6 3a 27 01 4e 39 33 a9 08 37
       8.639648e-05 0.0013925588 0.0001964612 8.145626e-06
000110 b0 bd 80 3a 2e 12 0c 35 a4 89 7b 3a 27 31 6d 37
       0.0009822156 5.218052e-07 0.00095954 1.4137745e-05
000120 bf 25 65 39 51 b6 03 39 88 75 9b 39 e1 75 9d 38
       0.00021853203 0.00012561052 0.0002965147 7.5083e-05
000130 3c 99 bd 37 68 c3 53 38 20 55 59 38 d4 66 de 39
       2.2601911e-05 5.0488306e-05 5.181611e-05 0.00042419753
000140 8c 99 4a 39 36 b1 49 38 be 0f 40 39 47 80 1c 39
       0.00019321422 4.8087175e-05 0.00018316411 0.00014925106
000150 f0 7c 78 37 a9 30 74 35 f2 bd 2d 38 54 c9 3d 36
       1.4811041e-05 9.0967893e-07 4.1423315e-05 2.8280383e-06
000160 de de ba 3a c1 3f bf 37 83 cb da 37 87 2b 58 3a
       0.0014257093 2.2798662e-05 2.6082393e-05 0.0008246232
000170 91 f0 8d 37 78 54 5f 39 41 43 b8 38 4d 7f c9 39
       1.6920532e-05 0.00021298404 8.786331e-05 0.00038432554
000180 9c b5 9a 30 e0 53 29 33 12 2d 4a 31 75 f6 a0 32
       1.1256591e-09 3.9424663e-08 2.9420488e-09 1.8738527e-08
000190 6b 42 36 35 92 43 b1 34 8a e5 cc 35 48 9c 88 33
       6.7896934e-07 3.3017983e-07 1.5265989e-06 6.361421e-08
0001a0 23 5b 80 36 46 70 2c 33 cf 00 b3 32 9a c3 58 33
       3.825307e-06 4.0148983e-08 2.083871e-08 5.0469318e-08
0001b0 60 f9 0e 32 92 5a b5 32 a0 0a f6 32 d7 ec 68 33
       8.322189e-09 2.111236e-08 2.8643e-08 5.4232114e-08
0001c0 c4 4a 99 31 ad 3d 68 33 86 49 f5 34 c6 b1 8b 31
       4.461386e-09 5.4072803e-08 4.5688301e-07 4.065643e-09
0001d0 17 eb 2b 36 3b 3a a2 34 fc 1b 24 33 34 c8 13 33
       2.5617826e-06 3.021722e-07 3.8209677e-08 3.440819e-08
0001e0 de 9c 07 34 93 75 c1 33 51 de 06 35 d1 9f 08 36
       1.2629923e-07 9.0086495e-08 5.0242403e-07 2.0358605e-06
0001f0 29 f9 0a 33 31 c7 0c 33 b6 82 41 33 cf 49 97 32
       3.235724e-08 3.2777454e-08 4.5055195e-08 1.7612278e-08
000200 22 cd 6e 36 cc 5b a1 39 85 a7 32 38 27 0d 58 37
       3.5584167e-06 0.00030776707 4.259452e-05 1.28776655e-05
000210 c1 d9 d0 36 3d b5 ad 37 88 45 5a 38 54 91 a2 36
       6.224233e-06 2.0707603e-05 5.2040006e-05 4.8448946e-06
000220 97 28 9e 38 49 e3 83 36 a4 2a 68 38 73 a7 0c 37
       7.5415875e-05 3.9305637e-06 5.5352823e-05 8.383638e-06
000230 61 6f e1 37 14 f1 bf 38 e1 39 7e 39 7e 61 0a 35
       2.6873955e-05 9.152494e-05 0.00024244889 5.1550876e-07
000240 83 b8 1d 37 c5 86 be 37 28 fd 8b 37 51 df cf 39
       9.400889e-06 2.2712522e-05 1.6687976e-05 0.000396485
000250 12 b0 2f 37 2b 0b f6 34 55 13 84 36 5a 21 53 36
       1.0471807e-05 4.5829196e-07 3.936157e-06 3.1460863e-06
000260 d9 f0 37 38 f3 1a f2 36 2c 1a 40 39 da a4 28 38
       4.3854907e-05 7.2152993e-06 0.00018320297 4.020785e-05
000270 d7 27 49 38 4c 3a 01 38 95 8d bb 38 16 65 70 37
       4.7959238e-05 3.081029e-05 8.9432266e-05 1.4328651e-05
000280 cf 18 80 36 27 55 1a 37 6d 7f a7 39 dc 48 89 37
       3.8175854e-06 9.198941e-06 0.00031947662 1.63656e-05
000290 e2 33 db 36 2b e3 02 39 2e a4 c3 39 7b ee c6 37
       6.5327486e-06 0.00012482393 0.00037315622 2.371449e-05
0002a0 6d 7b 85 35 18 12 98 38 10 1a 0d 35 39 e4 b5 35
       9.945194e-07 7.251295e-05 5.256452e-07 1.3551972e-06
0002b0 9d a0 14 3a 69 df 32 39 69 f3 c5 39 8d 37 92 38
       0.0005669685 0.0001705863 0.00037756123 6.97217e-05
0002c0 5b e1 39 38 cf c2 b2 36 3d 22 a0 36 41 66 b7 35
       4.4317316e-05 5.327492e-06 4.7723574e-06 1.3664322e-06
0002d0 bb 39 86 38 f5 09 33 37 65 5c c4 36 1f bd ab 36
       6.400371e-05 1.067155e-05 5.8520113e-06 5.1182137e-06
0002e0 81 2c 59 39 09 ce 42 38 bf 71 e4 37 4e bb 97 36
       0.00020711312 4.644509e-05 2.7232685e-05 4.521956e-06
0002f0 d8 a0 d5 35 d5 a1 62 36 05 67 d7 37 a6 f9 a7 39
       1.5916548e-06 3.3770823e-06 2.567797e-05 0.00032038725
000300 ea 85 1a 36 16 29 30 37 15 5f c8 37 40 92 a1 37
       2.3025736e-06 1.0499984e-05 2.3886134e-05 1.9260799e-05
000310 38 3d 11 37 10 24 ce 37 ae 28 ad 35 c6 56 7e 36
       8.656927e-06 2.4573907e-05 1.2901344e-06 3.7899458e-06
000320 b2 87 ea 38 de ce f8 37 82 c8 8e 38 fa cb 16 37
       0.00011183265 2.9660234e-05 6.808435e-05 8.988189e-06
000330 59 bf 29 36 cd 2d 5c 36 f6 bf be 36 df ed 4a 38
       2.5294341e-06 3.2809214e-06 5.6847884e-06 4.8382088e-05
000340 16 b3 c5 38 89 c2 91 37 c5 7d 69 34 c5 26 ad 36
       9.4270494e-05 1.7375934e-05 2.174557e-07 5.160315e-06
000350 95 0a 75 38 93 39 e8 36 f0 c1 94 36 9b ac 0b 38
       5.8422407e-05 6.9208413e-06 4.433321e-06 3.3300934e-05
000360 86 1c aa 37 24 f8 8d 34 a2 2b ea 38 f2 bb 56 39
       2.0278861e-05 2.6443843e-07 0.00011166117 0.00020478645
000370 aa ca 56 38 da a0 76 34 8f 11 7c 37 d8 29 78 35
       5.121032e-05 2.2969053e-07 1.5024459e-05 9.244809e-07
000380 6c 47 55 34 58 e9 37 37 e6 15 9c 34 04 11 35 38
       1.9863154e-07 1.096198e-05 2.9073198e-07 4.316961e-05
000390 43 a2 cd 37 39 3d 8a 36 a3 74 39 35 62 e3 ad 36
       2.4513463e-05 4.1198477e-06 6.90876e-07 5.1822726e-06
0003a0 29 33 01 37 d4 9b 36 36 2f 5e f0 34 9a 67 14 37
       7.700911e-06 2.7210817e-06 4.477201e-07 8.845609e-06
0003b0 f1 a6 3d 35 b2 b4 e8 35 cc dc 18 38 d9 27 00 38
       7.065092e-07 1.7337936e-06 3.6445257e-05 3.055469e-05
0003c0 91 bd cd 34 95 00 b2 36 55 ae d3 36 66 ca c8 35
       3.8322153e-07 5.304881e-06 6.308585e-06 1.4960067e-06
0003d0 a9 f1 83 37 64 da 2a 37 6d c7 23 35 4b 53 66 34
       1.5728949e-05 1.0183638e-05 6.1012435e-07 2.1450721e-07
0003e0 65 3d 48 38 e6 1e 9e 37 3b 2b 91 36 1b a5 f3 36
       4.7740894e-05 1.8849456e-05 4.3263694e-06 7.261185e-06
0003f0 a2 bb c3 36 4d 5b fe 33 ae db 2e 37 e5 c4 0c 34
       5.833296e-06 1.1844404e-07 1.0422356e-05 1.3110146e-07
