prob-kge/running_experiments/without_recipriocal/delete/127/score_Nations_DistMult_101022850/model.pt (torch, 10965 bytes, 2 tensors)

entity_embeddings.weight f4 [14, 32]
00000000: 8116 74be 007f b1bf c36f 6bbf eb2c 5e3f
00000010: f7bc 42bf 6344 a23f 38bc 103f 20d0 8f3f
00000020: 885a e0bf 42a1 febe 6fa3 993f df19 b23e
00000030: bdae 46bf f9be f33d f3b4 21c0 8ca0 f6bf
00000040: 4df6 9fbf 11fd 323f 8639 493e 498a 2fbf
00000050: 5bcc 913f f8b6 a7bf a6ac 243f b57a 07bf
00000060: d0fa 483f a1e2 f8be 7544 ab3d 763e 31c0
00000070: 9e2b 8bbf 71c8 f1bf d971 28be 09a9 b53f
00000080: 1b5d 15bf 9b74 403f f3a0 25be addb 733e
00000090: 7658 fb3f ce0d 1e3f f362 c53f adf5 debe
000000a0: 9d4b bfbf 9c5d 4d3f fca0 e93f 8e8c b6be
000000b0: cb9c d03e 355a bfbf 0634 583e 9a26 97bf
000000c0: c4d8 0dbf c71c 66bf 2b5b bdbe eb57 02c0
000000d0: f70c d9be 372e 3fbf 035e 6a3e 8def edbe
000000e0: ffb3 803d 5c45 c5be 9b06 f6bd bc55 45bf
000000f0: a9ad 953f 0ee5 89bf 1a65 383f 3121 c3bf
00000100: f572 b73f e959 90bf 058e a6be d6fb 1040
00000110: 3033 803e c14f 0940 c2e8 4540 965e 1a3f
00000120: 7788 26bf bf25 91bd 3582 a3be f4c3 39bf
00000130: 8c18 87bf fab2 c8bd 1347 8a3f 86b6 cfbe
00000140: a5c4 bb3f 7190 253f bad6 0b3e 5569 11bf
00000150: 0439 ccbe 0e93 60bf c951 c13e d68e 3bbf
00000160: 282e ccbe a411 0640 0cb4 35bf 65a0 a7bf
00000170: 7196 b83f 7ca5 65bf 8b64 ce3f deef 82be
00000180: 4004 9dbf 4b00 d0bf 0dd8 56bd 0a21 193f
00000190: 8c72 673f a5d8 a63e 752a 813e 47cd 65bf
000001a0: a292 9fbf facd bf3d 64dd 3d3f 6a55 d5be
000001b0: fcb8 473f 789d 733b 412f f43f a223 cabf
000001c0: 050d 18bf b506 60be 8b40 02bf e434 9fbf
000001d0: b4e8 53bf 340b bfbf 8967 bb3f b0f7 6bbf
000001e0: 51fa 6abf eb9f 5bbd f553 013f e70d 07c0
000001f0: c48a 44bf 3fdc 08bf afe5 813f 35f0 c4be
00000200: e37b a9bd 4138 c03e cbd8 9bbe ce54 4f3f
00000210: 8fab 6f3e 9f1d b1be 4ef3 5b40 1417 ccbe
00000220: 2c7a f9bf cabd 0a3d 6caf 033f 196c e1be
00000230: 6961 ca3f 013c 233f 6645 713e c21f c5bf
00000240: e69e ddbf e3f2 aabf 5390 993e 96a8 2b3f
00000250: 09c6 013f 9263 b6bf 0de9 19bf 9767 5b3f
00000260: a92a 1fbe ee8d 3f3f ce09 893c e915 b3bf
00000270: 4197 bf3f d22a b2bf 9335 f0be ff68 dcbe
00000280: 4628 4c3f 3a08 b73f 11dd 953f 9619 4e3e
00000290: f7d1 c5be b8ae adbd 8783 54bd 7287 95bf
000002a0: a204 6cbf 4dda 13bf 31df ad3f a3f5 02be
000002b0: 4e14 e9bf e478 b53e 2e12 49be 1c5e 0cc0
000002c0: 2ac7 a7bf 3ad9 72bf c372 ce3e 6abd 22bf
000002d0: 5411 773f 9b79 23be 9b97 5b3f e584 1dbe
000002e0: 4b6d c9bf 9527 a23f 232a 9d3c 90c2 14c0
000002f0: 34ff b73e ac4d b7bf 8614 1ebd 89f5 813f
00000300: acb2 62be 7ba2 603f b31c 93bf 2b8a d73e
00000310: d118 70be 69b0 33bf a776 a73e 6768 ebbf
00000320: 2acf 01bf 1820 97be 81f5 1540 caa1 8ebf
00000330: e94d 40bf 0fed ba3f 098e 413f f7c5 0abf
00000340: cb27 0bbf c874 afbf 32a5 bdbe a585 05c0
00000350: c825 25bf fe12 683e 9fbc b4be 62fc b43f
00000360: 913d 893f 685d 863f 5b0b b93f 791c 2abf
00000370: 846b 833f 32db d1bf 5344 b83f 2643 84bf
00000380: c1c5 6b3f 46fc 333f 1620 a8bf 662c a4bf
00000390: b59f 883f 2421 c3ba c40f a03e dae9 753f
000003a0: 913c ddbf 3489 0fbe 3c39 f8bd 3712 34bf
000003b0: 09ed e2bf a488 9cbd 630f afbf 7663 9ebf
000003c0: 8571 05c0 1d8f d8bf f0a3 683f 904f 40bf
000003d0: ab45 05be ae14 afbe 5672 5c3f 20c1 913f
000003e0: 251f 6c3e 8e16 77bf 8e00 023f 3042 02c0
000003f0: cd25 703f 63d4 3cbf f652 71be 29d1 b93f
-0.2383671 -1.3866882 -0.9196741 0.8678729 -0.7606959 1.267712 0.565372 1.123539
-1.7527628 -0.49732405 1.2003001 0.34785363 -0.7761038 0.119016595 -2.5266693 -1.9267745
-1.249704 0.699174 0.1965085 -0.6857038 1.1390489 -1.3102713 0.6432594 -0.5292161
0.7850771 -0.48610404 0.083626665 -2.7694373 -1.0872686 -1.8889295 -0.1644968 1.419221
-0.5834519 0.75177926 -0.16174679 0.23814268 1.9636371 0.61739814 1.5420822 -0.4354681
-1.494495 0.8022096 1.8252254 -0.3565411 0.40744624 -1.4949404 0.21113595 -1.1808655
-0.55408883 -0.8988766 -0.36983618 -2.036616 -0.42392704 -0.74679893 0.22887425 -0.46471825
0.062843315 -0.3852948 -0.12012979 -0.77083945 1.1693622 -1.0773027 0.7202927 -1.5244504
1.4331957 -1.1277438 -0.32530227 2.2653708 0.25039053 2.1454928 3.0923314 0.60300577
-0.6505198 -0.070872776 -0.31935278 -0.72564626 -1.0554366 -0.09799762 1.080294 -0.40568942
1.4669386 0.64673525 0.1365613 -0.5680135 -0.3988725 -0.8772439 0.3775771 -0.73264825
-0.39878964 2.0948267 -0.70977855 -1.3095824 1.4420911 -0.89705634 1.6124433 -0.2557363
-1.2266922 -1.625009 -0.052452136 0.5981604 0.9040916 0.32587162 0.25227705 -0.89766353
-1.2466624 0.09365459 0.7416594 -0.41666728 0.7801664 0.0037172716 1.9076921 -1.5792124
-0.59394866 -0.21877559 -0.50879735 -1.2438016 -0.8277695 -1.4925294 1.4640971 -0.92174816
-0.917882 -0.053619307 0.50518733 -2.1102235 -0.7677424 -0.5346107 1.0148219 -0.38464513
-0.08275583 0.37542918 -0.30438837 0.80988777 0.23405288 -0.34592912 3.4367251 -0.39861357
-1.9490409 0.033872403 0.5143955 -0.44027784 1.5810977 0.63763434 0.2356163 -1.5400317
-1.7314117 -1.3355373 0.29992923 0.67054117 0.506928 -1.4249136 -0.6012123 0.8570494
-0.15543617 0.7482594 0.016728308 -1.3991061 1.4968034 -1.3919318 -0.46915874 -0.43048856
0.7974895 1.4299386 1.1708089 0.20126948 -0.38636753 -0.084805906 -0.051883247 -1.168196
-0.9219457 -0.57754976 1.3583738 -0.12789015 -1.8209321 0.35443795 -0.19635841 -2.193244
-1.3107655 -0.9486271 0.4032193 -0.6357027 0.96510816 -0.15964358 0.85778207 -0.15382726
-1.5736479 1.266833 0.019185131 -2.3243752 0.35936892 -1.4320579 -0.03859379 1.0153056
-0.2213847 0.87747926 -1.1493133 0.420976 -0.23446967 -0.70191056 0.32707712 -1.8391236
-0.5070673 -0.29516673 2.3431094 -1.1143124 -0.7511888 1.4603595 0.75607353 -0.5420832
-0.54357594 -1.3707514 -0.37040097 -2.086282 -0.64510775 0.22663495 -0.35300156 1.4139521
1.0721914 1.0497255 1.445659 -0.66449696 1.0267186 -1.6395018 1.4395851 -1.0332992
0.92098624 0.70306814 -1.3134792 -1.2826049 1.0673739 -0.0014887196 0.31262028 0.96059954
-1.7284108 -0.14017183 -0.121202916 -0.70340294 -1.7728587 -0.0764325 -1.3676571 -1.2374103
-2.0850537 -1.6918675 0.9087515 -0.751214 -0.13014857 -0.34195465 0.8611196 1.1387062
0.23058756 -0.9651879 0.50782096 -2.0352898 0.9380768 -0.73761576 -0.23566803 1.4516956

relation_embeddings.weight f4 [55, 32]
00000000: 9ea2 7d3f b366 0340 9afb 383f b7ee debf
00000010: b86f bc3e 8034 09c0 cf45 27be d531 983f
00000020: dd8c d73d c271 08c0 ac20 71c0 0beb cf3f
00000030: d350 103f 0cba d03e 8c5b cbbf ba9b e3bd
00000040: 1b0e 92bf 556b 813e 60e3 883e f0cb e7bf
00000050: 2e9e e4be 73b9 debf 1c1f 56bf 86cd 683f
00000060: 7ec6 1040 306e 7c40 7969 c4bf d8e5 97bf
00000070: f160 bfbf c7e2 bebf e8ea c93e de11 0640
00000080: 6f2b 633f 0c42 07c0 ae1b 43bf c409 71bf
00000090: 7a95 433e cdee 803e 005a cebf 2c58 8e3f
000000a0: ffcf 60bf d5fd c63e ca6f 87bf 0476 20c0
000000b0: 16bb aabf 1152 5640 9472 66c0 f43a 69bf
000000c0: 15b9 0f40 4201 74be 2e9e 2e3e 3fde 613e
000000d0: 8312 2ebf b5de 24c0 a98f 3ec0 bb2c 533f
000000e0: acfa 1d3d 6a79 dc3f 0460 503f 7d04 62c0
000000f0: 50fd 85c0 746e 413f 429b dc3c a0d0 8b3f
00000100: 7e64 dcbf ed63 6c3f e4a0 afbf 09be 3dbf
00000110: 1ca1 9c3f 37aa 9abf b186 f23c a9a6 af3f
00000120: 421f 8abf a43f 933f 8efd 75bf 629b fa3e
00000130: fda5 c93f fddd f03f 5ac9 983e 69d8 c4be
00000140: ad21 3540 a2e0 7e3e 2793 7fbd d21e 79bf
00000150: 42c5 66c0 8251 93be 6386 b3bf 8ca7 203f
00000160: f78b 3abf 688e 0a40 a058 9b40 0777 49c0
00000170: 0f42 713f 1103 9ebf f2f5 0dc0 854b 87bf
00000180: 0ce0 37bf c87e db3e fd9c 373f 9ea0 333f
00000190: a44c 17c0 89a2 8b3f 9c53 34bf f19f 21c0
000001a0: 80fb 023f a540 d3bf 9578 473e 0fc1 ab3f
000001b0: 6006 213f bfc9 583f 80b0 7ac0 776c 68bf
000001c0: 2050 d8bf 6ea8 08c0 c059 f1bf c313 14c0
000001d0: 3284 eabf 5562 7cbf f2c5 60bf 5c29 883e
000001e0: da03 19c0 0fe3 2c3f 4208 c9bf fc6d f5bf
000001f0: 46db f7bf fcef 93c0 a05a 23bf 35d4 dcbf
00000200: c06c 063f 823d 2e3e c149 5b3e d24c 873f
00000210: c6c8 f43e 2af8 52bf 7ccc 15c0 7eff 83bd
00000220: bc56 fd3c 2632 17c0 8121 10bf 992e 54c0
00000230: 47d1 febe 1c9a 54bf 94fd 683f 2b42 213f
00000240: ce87 20bd 611d 51bf a417 e6be fa77 08c0
00000250: ddaa cf3d 6bff cebd a570 b9be 1c7c b23f
00000260: 4ae6 05bf 64bd 7ebf 6998 2b3f 5ae9 17bf
00000270: b205 5bbf d96b 7cbf 86bb 593e 7483 393f
00000280: 3306 bbbf 9455 183f ad4b b0be 16b9 55c0
00000290: bb1b 39c0 9f0f 1ec0 45b0 21c0 691c 2c40
000002a0: 9a6c adbe 6691 57bf e893 ddbe 4034 d63e
000002b0: 464e e03f ece6 0a3e b0b6 67bf 08e1 8ebf
000002c0: 7af4 ed3f 0c54 853e fd00 68c0 17b4 05c0
000002d0: cc29 b1bf e488 17c0 7046 8240 b675 f2bf
000002e0: 74d0 24c0 cfcb 0b40 1f1f d4be b040 17c0
000002f0: f121 e6bf 4516 75bf ee13 593d 7ad0 1f40
00000300: 2ce1 b03f 95cb 3240 93d0 00be d7f0 afbe
00000310: 8cea 9abf b050 48bf d11f 16bf 999d 68bd
00000320: 0f06 f0bf a728 2fc0 4255 cdbf 991f 15bf
00000330: d51e a53c 46a5 0ebc 4875 4ec0 2ced 663e
00000340: f712 793f 97f2 4840 2240 59be f585 93bf
00000350: b6ff 743f fcbe 02c0 5e62 35bf a144 82be
00000360: eb20 93c0 4a52 a0be 0960 bfbe aec7 f6bf
00000370: b5a1 13c0 5b97 c2bf e2e1 77bf 100c a13d
00000380: 054b 7fbf 90ec b9c0 649e 3940 6fcd 22c0
00000390: 4b6b 8c3f 1d32 2140 fc6f c53f 7f44 dcbe
000003a0: e284 68bf e45a 88bf 8f28 85bf 786f c9bf
000003b0: 39e0 dfbe 3e09 d3bf dce8 ca3f 7a06 76bf
000003c0: 4e8c 1ebf 9f47 29c0 709b 52be 7ba9 1dbf
000003d0: c021 bc3f f394 dc3e bceb aebe 01ee 0cbf
000003e0: 4a5a febe 6893 083d dbd1 4fbc 4220 4cbf
000003f0: e906 3dc0 0604 febe 492a b9be c504 583f
0.9907626 2.0531433 0.72258914 -1.74166 0.36803985 -2.1438293 -0.16335224 1.1890208
0.105249144 -2.1319432 -3.7676191 1.6243604 0.5637333 0.40766943 -1.5887313 -0.11113687
-1.1410555 0.252772 0.26735973 -1.8109112 -0.44651932 -1.7400345 -0.8364122 0.90938604
2.262115 3.9442253 -1.5344688 -1.1867018 -1.4951459 -1.4912957 0.39437032 2.0948405
0.8873815 -2.1134062 -0.7621411 -0.94155526 0.1909999 0.2518219 -1.6121216 1.1120658
-0.87817377 0.38865533 -1.058099 -2.507203 -1.3338344 3.348759 -3.6007433 -0.9110558
2.2456715 -0.23828605 0.17052528 0.22057436 -0.67996997 -2.576093 -2.9775183 0.8249013
0.038569137 1.7224553 0.8139651 -3.531524 -4.187172 0.75559163 0.026929501 1.0923042
-1.7218168 0.92339975 -1.3720975 -0.74118096 1.2236667 -1.2083195 0.029605241 1.3722736
-1.0790789 1.1503797 -0.9609002 0.48946673 1.5753781 1.8817745 0.2984112 -0.38446358
2.8301804 0.24890378 -0.062396195 -0.97312653 -3.6057897 -0.28773123 -1.4025387 0.62755656
-0.7286982 2.1649418 4.8545685 -3.1478899 0.9424142 -1.2344686 -2.2181363 -1.0569922
-0.71826243 0.42870164 0.7172392 0.7016696 -2.3640528 1.0908977 -0.7044008 -2.525387
0.5116501 -1.6504103 0.19479592 1.3418292 0.6290035 0.8468284 -3.9170227 -0.90790504
-1.6899452 -2.1352801 -1.8855515 -2.3137062 -1.8321593 -0.9858754 -0.8780204 0.26594055
-2.39086 0.67533964 -1.5705645 -1.917419 -1.9363792 -4.623045 -0.6381016 -1.725226
0.5250969 0.17015651 0.21414854 1.0570319 0.47809428 -0.8240992 -2.3406057 -0.06445216
0.030925147 -2.3624358 -0.5630112 -3.315344 -0.4976904 -0.8304765 0.9101193 0.6299159
-0.039192013 -0.81685454 -0.4493991 -2.1323228 0.101400115 -0.10107311 -0.36218753 1.3944125
-0.5230452 -0.9950774 0.67029434 -0.5934044 -0.85555565 -0.9860206 0.21262941 0.72466207
-1.4611267 0.5950558 -0.34432736 -3.3394217 -2.8923175 -2.4697034 -2.5263836 2.689234
-0.3387192 -0.84206235 -0.43276906 0.4183674 1.7523887 0.13564652 -0.90513134 -1.1162424
1.8590233 0.26040685 -3.6250603 -2.0891168 -1.384088 -2.3677301 4.0710983 -1.8942173
-2.575223 2.1843145 -0.41429994 -2.3633232 -1.7979108 -0.95737106 0.052997522 2.4970994
1.3818717 2.7936757 -0.12579565 -0.34363434 -1.2102828 -0.7824812 -0.586423 -0.05679092
-1.8751849 -2.7368562 -1.6041644 -0.5825134 0.020156303 -0.008706396 -3.2259083 0.22551411
0.97294563 3.1398065 -0.21215871 -1.1525255 0.95702684 -2.0429068 -0.7085322 -0.25442985
-4.5977683 -0.31312782 -0.37377957 -1.9279687 -2.3067448 -1.520244 -0.96829045 0.07863629
-0.99723846 -5.8101273 2.9002924 -2.5437887 1.0970243 2.5186837 1.54248 -0.43021008
-0.90827763 -1.0652738 -1.0403003 -1.5737143 -0.43725756 -1.6487195 1.5852313 -0.9610363
-0.6193284 -2.6449964 -0.20567107 -0.6158673 1.46978 0.4308239 -0.34164226 -0.55050665
-0.4967826 0.033343703 -0.012684311 -0.7973672 -2.9535468 -0.49612445 -0.36165074 0.8438228
