bbox_poisoning/lightning_logs/version_1036/checkpoints/epoch=99-step=600.ckpt (torch, 76143 bytes, 6 tensors)

entity_embeddings.weight f4 [135, 32]
0	0xbebe6357	-0.37185165
1	0x3eeedfd6	0.46655148
2	0xbf248045	-0.64258224
3	0xbd93925b	-0.072056495
4	0x3fbffc65	1.49989
5	0xbf341058	-0.7033744
6	0x3f96a66f	1.1769542
7	0xbeaec794	-0.3413664
8	0xbf0b5719	-0.54429775
9	0xbf1d36d0	-0.6141176
10	0xbf597982	-0.8495103
11	0xbfaf7816	-1.3708522
12	0xbf83a646	-1.0285118
13	0x3f38fa08	0.7225652
14	0x3ebdf9ab	0.37104544
15	0xbfb0037e	-1.3751066
16	0x3fd1b97c	1.638473
17	0xc08be14c	-4.371252
18	0x40c980c4	6.2969685
19	0xc10b9f6a	-8.726419
20	0xc085644e	-4.168494
21	0x406da3be	3.713119
22	0xc0a00df4	-5.0017033
23	0xc0c4177c	-6.1278667
24	0xc0090c38	-2.1413708
25	0xbfe5c38b	-1.79503
26	0xc0b068b0	-5.512779
27	0x40532af1	3.299496
28	0xbf6a8ee6	-0.91624296
29	0x405dced6	3.4657493
30	0x40812970	4.0363083
31	0xc0163d6f	-2.3474996
32	0x3f6211f2	0.8830863
33	0x3de3d802	0.111251846
34	0xbf2b8f8d	-0.67015916
35	0xbf6922ef	-0.9106893
36	0xbe5b217b	-0.2139949
37	0x3ea82c9e	0.3284654
38	0xbe5918b3	-0.21200828
39	0x3ebe82d1	0.3720918
40	0xbf02044e	-0.5078782
41	0x3efe3261	0.4964781
42	0xbfa869b7	-1.3157262
43	0x3dbe86e1	0.0930307
44	0x3f789da1	0.9711552
45	0xbeceb12e	-0.40369552
46	0x3f790925	0.9727958
47	0xbe939544	-0.28824818
48	0xc01ffbd0	-2.4997444
49	0x40fc108c	7.87702
50	0x40d9f425	6.811053
51	0x3ed47402	0.41494757
52	0xc00fb073	-2.2451446
53	0x40332c06	2.799562
54	0x406130b5	3.5185978
55	0xc0148aec	-2.320979
56	0x400c23e4	2.1896906
57	0x41132706	9.197027
58	0x40abc442	5.3677073
59	0xc0446f42	-3.0692906
60	0x3fcc8492	1.5977957
61	0xc0cd687e	-6.4190054
62	0x40b6449d	5.6958756
63	0xc0fd60b9	-7.918057
64	0xc0080015	-2.125005
65	0x3e331ea8	0.17492163
66	0xbf02d1b0	-0.5110121
67	0x3f8e514a	1.1118557
68	0xbef0b090	-0.47009706
69	0xbf09c94c	-0.5382278
70	0xbeb6a45b	-0.35672268
71	0x3f9a10ca	1.2036374
72	0x3ee108e8	0.43952107
73	0x3f7dc704	0.991318
74	0xbf02b1cd	-0.5105255
75	0xbf809b65	-1.0047423
76	0xbf9e526e	-1.2368906
77	0x3f6d6b29	0.9274164
78	0x3f2769a2	0.6539556
79	0x3e0c57e7	0.13705407
80	0xc008c06d	-2.1367447
81	0x3f8198f4	1.0124803
82	0x40f4889d	7.6416764
83	0xc01236d4	-2.2845964
84	0xbe5d061b	-0.2158436
85	0x40872cad	4.2242036
86	0x40c5da83	6.182924
87	0x3f4bf135	0.7966493
88	0xc0cc882d	-6.391623
89	0xbfef937c	-1.8716884
90	0xc0b83ad5	-5.7571816
91	0x40026001	2.0371096
92	0xc084c4b7	-4.149013
93	0x409446d7	4.6336474
94	0x4095bfd8	4.6796684
95	0xc05a0047	-3.406267
96	0xbf1eab5c	-0.61980224
97	0x3f693c62	0.9110776
98	0xbf3d7658	-0.74008703
99	0xbf6fc4af	-0.9365949
100	0x3fc26ffa	1.5190423
101	0xbf542620	-0.82870674
102	0xbf37ba62	-0.7176877
103	0xbdc90535	-0.09815446
104	0xbf40f33e	-0.7537116
105	0x3f2e42ec	0.68070865
106	0xbf328b52	-0.69743836
107	0x3fbb2541	1.4620744
108	0xbf579694	-0.8421414
109	0x3f235282	0.6379777
110	0x3f8aa44c	1.083139
111	0xbf5b9b20	-0.85783577
112	0xbfe61c64	-1.7977414
113	0xc0b7ac14	-5.7397556
114	0x40dab00b	6.8339896
115	0x40bab993	5.835153
116	0xc123e655	-10.243733
117	0xc092ecb8	-4.5913963
118	0x400429e6	2.0650573
119	0x403421ed	2.8145707
120	0x3fc82911	1.5637532
121	0xc1093fcc	-8.578075
122	0xc02af68b	-2.6712978
123	0x3fb14a7d	1.3850857
124	0xbfd42ec5	-1.6576773
125	0x3fff6894	1.995379
126	0x4069e05f	3.6543195
127	0x40577a03	3.366822
128	0xbed45a23	-0.4147502
129	0x3c01b8d1	0.007917599
130	0xbc934fbf	-0.017982362
131	0x3e83a24f	0.2570977
132	0xbed9f69b	-0.42570958
133	0xbf3c00d3	-0.7343876
134	0x3e1d19ee	0.15341923
135	0x3eaa8422	0.33303934
136	0xbf5149ac	-0.8175304
137	0xbf3e5e11	-0.74362284
138	0x3f25f12c	0.64821124
139	0x3e581366	0.2110115
140	0x3f079189	0.52956444
141	0x3eaa8824	0.33306992
142	0x3ebad064	0.36487114
143	0xbe4f6e2b	-0.2025687
144	0xc07d9121	-3.961983
145	0xc098373d	-4.756743
146	0x40ac64b9	5.3872952
147	0x3fcb0819	1.5861846
148	0x401a69a4	2.4126978
149	0x407407a7	3.812967
150	0x40bdba95	5.929026
151	0xbfa827e0	-1.3137169
152	0x40019888	2.0249348
153	0xbeb108b0	-0.3457694
154	0x405c7a73	3.4449737
155	0x40c95d9c	6.292677
156	0xc06dcc64	-3.7156
157	0xc0d19291	-6.5491414
158	0x4066f615	3.6087697
159	0x40ac289e	5.379958
160	0xbf2c7873	-0.6737129
161	0xbe5ef27c	-0.21772188
162	0x3c3c39ae	0.011488361
163	0x3ef6c8ed	0.4820017
164	0x3f0ca245	0.54935104
165	0xbf70c062	-0.9404355
166	0xbf5e0c3d	-0.86737424
167	0x3ea870b2	0.3289848
168	0xbf4e21bb	-0.8052022
169	0x3dc96259	0.098332115
170	0x3f372922	0.7154714
171	0xbf3dbc49	-0.74115425
172	0xbdcb85a3	-0.099375986
173	0x3e9fd64a	0.31218177
174	0x3f16c8fc	0.5890043
175	0x3f1e7a9c	0.6190584
176	0xc04eab09	-3.2291892
177	0xc0173cd4	-2.3630877
178	0x407d1bfc	3.954833
179	0x4058fd35	3.3904545
180	0x4023ff14	2.5624437
181	0x4089bfdd	4.304671
182	0xc07925b9	-3.8929274
183	0x3f904919	1.1272308
184	0x400fa0c9	2.2441885
185	0xbdad3d2c	-0.08458933
186	0x40621c79	3.5329878
187	0xc00ef6a4	-2.2338037
188	0xc0b2a324	-5.5824146
189	0xc0bbc34d	-5.8675904
190	0x40514465	3.2697995
191	0x407e8783	3.977021
192	0xbe9ae2ed	-0.30251256
193	0xbf45beba	-0.7724415
194	0xbe746443	-0.23866372
195	0x3db78c87	0.0896235
196	0x3f32fada	0.6991402
197	0xbf2616e0	-0.64878654
198	0xbfaf8e96	-1.3715389
199	0x3ed1541b	0.4088448
200	0xbf46b571	-0.7762061
201	0xbe44bed0	-0.19213414
202	0x3f033343	0.51250094
203	0xbf199287	-0.5998921
204	0xbdbcf1a5	-0.092257775
205	0xbbde294f	-0.0067798267
206	0x3f8c46c3	1.0959095
207	0x3f4732d1	0.77811915
208	0xbf38fd49	-0.7226148
209	0xbfe07d52	-1.7538245
210	0x406ebe46	3.7303634
211	0x40954232	4.6643305
212	0x3fe4f603	1.7887577
213	0x40aa6b0b	5.325567
214	0xc0872b8d	-4.2240663
215	0x3fe7637e	1.8077238
216	0x3f6eddeb	0.9330737
217	0xbf3075f6	-0.68929994
218	0x406d6b6b	3.7096813
219	0xc00f721c	-2.2413397
220	0xc0b585da	-5.6725893
221	0xc09fee95	-4.997874
222	0x40699196	3.6495109
223	0x40a83f03	5.257692
224	0x3ebf74c1	0.37393764
225	0xbf0ef5c7	-0.55843776
226	0xbea145c4	-0.3149854
227	0x3ecfd032	0.40588528
228	0xbf0ec862	-0.5577451
229	0x3e1d58ba	0.15365878
230	0x3fadfb1a	1.3592255
231	0x3f7d48a6	0.9893898
232	0xbf35554e	-0.7083329
233	0xbf602d87	-0.8756947
234	0x3f841d3e	1.0321424
235	0x3f1f505b	0.6223199
236	0x3f58d93d	0.8470648
237	0x3f8121ff	1.00885
238	0x3e9d8b84	0.30770504
239	0xbf2b21ee	-0.6684865
240	0xc0982c6e	-4.7554235
241	0xc0db0ea8	-6.845539
242	0x40fb6704	7.856325
243	0x40d25310	6.5726395
244	0x408fa4f2	4.488885
245	0x4067e0f8	3.623106
246	0xc0514ee5	-3.2704403
247	0xc0bd66ef	-5.918815
248	0x404386fb	3.0551136
249	0xc09aaa6f	-4.833305
250	0x3fa69adc	1.3016009
251	0x40b118ea	5.5342913
252	0x3f9765c7	1.1827935
253	0x40f56393	7.668405
254	0x40a30a21	5.0949864
255	0x408797a9	4.237263

relation_embeddings.weight f4 [46, 32]
0	0x3db1b1d4	0.08676496
1	0x3e7394d5	0.23787244
2	0xbfb74f74	-1.4321122
3	0x3f0f2b72	0.5592567
4	0xbde77509	-0.113016196
5	0x3e8a6b68	0.2703507
6	0x3ec69f77	0.38793537
7	0xbf0091af	-0.50222296
8	0x3e4e58cf	0.20151065
9	0x3e0a759e	0.1352143
10	0x3f0ec702	0.5577241
11	0x3efcd79e	0.49383253
12	0x3f5837d1	0.8446017
13	0x3f42aca6	0.7604469
14	0xbf8bb9fa	-1.091613
15	0x3ebc2cd5	0.36752954
16	0xc04e93df	-3.2277753
17	0x4012e83b	2.2954242
18	0x408121be	4.035369
19	0xc0dfeeb0	-6.9978867
20	0x404cd411	3.2004435
21	0xc02db4bd	-2.7141564
22	0xc0a9e5cb	-5.309301
23	0x3fa6ed96	1.3041255
24	0x3f538e9b	0.82639474
25	0xc027fc11	-2.62476
26	0xbfadefc2	-1.3588793
27	0x3fefbab3	1.8728851
28	0x3ecf1972	0.404491
29	0xc012a705	-2.291444
30	0xbfb785a1	-1.4337655
31	0xbf39a276	-0.7251352
32	0x3c1c185f	0.009527295
33	0x3e5cfeb0	0.2158153
34	0xbef7abfe	-0.48373407
35	0x3ec6ff2a	0.3886655
36	0x3eca16ec	0.39470613
37	0x3dc625ca	0.096751764
38	0x3f23464e	0.6377915
39	0xbf2fa066	-0.68604124
40	0xbcad277c	-0.021136992
41	0x3e9b7015	0.3035895
42	0x3e07a989	0.13248266
43	0x3ee4d6f3	0.44695243
44	0x3f187271	0.59549624
45	0x3c079d72	0.008277284
46	0xbf82d49c	-1.0221133
47	0x3f11aae5	0.5690139
48	0x40e96511	7.293587
49	0x3f9a9eaa	1.207967
50	0x4107462e	8.454634
51	0xbf8c383f	-1.0954665
52	0xc00abb01	-2.1676638
53	0xbf893aed	-1.0721108
54	0xc010282f	-2.2524526
55	0x3fca31ed	1.5796486
56	0xc098e4d5	-4.7779336
57	0xc041b3cc	-3.026599
58	0xbf650548	-0.89461184
59	0x3ff8e171	1.9443799
60	0xbfa365da	-1.2765458
61	0x405d53e8	3.4582462
62	0xc11dac1d	-9.85452
63	0x3f98cc7c	1.1937404
64	0x3e2166fa	0.15761939
65	0x3e9ddb0c	0.30831182
66	0xbfc34a79	-1.5257102
67	0xbea63103	-0.32459268
68	0xbebe981b	-0.37225422
69	0xbdc76ad4	-0.09737173
70	0x3d4a7aad	0.0494334
71	0xbf14ab55	-0.5807393
72	0x3df46053	0.11932435
73	0xbf60d3a0	-0.87822914
74	0x3f45e49f	0.77301973
75	0x3f8e7b1e	1.1131322
76	0xbeca9179	-0.39564112
77	0x3f147dbc	0.58004355
78	0xbfc3ae7c	-1.5287623
79	0xbeaa81dc	-0.333022
80	0x408132a3	4.0374312
81	0xc0876c29	-4.231953
82	0xbfae157c	-1.3600307
83	0xc0ac22ca	-5.3792467
84	0xbfc8845d	-1.5665394
85	0x40a1b51b	5.0533576
86	0x3f103fa1	0.5634709
87	0x3fc78608	1.5587778
88	0xc0b28cc5	-5.579684
89	0xc027c6e6	-2.6215148
90	0x407d5339	3.9582045
91	0x4103b4d2	8.231646
92	0xc0080582	-2.1253362
93	0xc0333598	-2.800146
94	0x3eb5eb81	0.35531238
95	0x3e1da6ef	0.15395711
96	0x3c8e9a7a	0.017407645
97	0xbd9d58cc	-0.07682952
98	0xc00fb001	-2.2451174
99	0x3e96bec9	0.29442433
100	0xbe83fd2d	-0.25779095
101	0x3f57f966	0.84364927
102	0x3d407cd5	0.04699405
103	0xbef0661d	-0.46952906
104	0x3e9727db	0.29522595
105	0xbe11be2b	-0.142327
106	0xbee30e52	-0.44346863
107	0x3d2ad4f1	0.041706983
108	0x3ce77a47	0.028256549
109	0x3e4e2609	0.20131697
110	0xbe39ea1b	-0.1815571
111	0x3e5b98e7	0.21445046
112	0x40ace2ab	5.4026694
113	0xc02efd41	-2.7342074
114	0xbf036e22	-0.51339924
115	0x3fd6e0f5	1.6787401
116	0xbfcae29a	-1.5850403
117	0x3fcfcc63	1.6234249
118	0xbf10ea1e	-0.56607234
119	0x402ecc91	2.7312357
120	0xc0f6e08c	-7.7149105
121	0xbfd81dea	-1.6884129
122	0x410f752e	8.966108
123	0xc02df57f	-2.718109
124	0x40d7749c	6.7329845
125	0xc129876c	-10.595562
126	0x3fb7a93d	1.4348522
127	0xc09309b0	-4.5949326
128	0xbe970fff	-0.29504392
129	0xbded3a41	-0.11583377
130	0xc015791e	-2.3355174
131	0xbf8aeed8	-1.0854139
132	0x3eef5573	0.4674488
133	0x3e8a1624	0.26970017
134	0x3fb30808	1.3986826
135	0xbf0328f2	-0.5123435
136	0xbf49ce41	-0.78830343
137	0x3f4f1c93	0.80902976
138	0x3f98c0f3	1.1933883
139	0x3fb05dbf	1.3778609
140	0x3d8a355f	0.06748461
141	0xbdf6cab4	-0.12050381
142	0xbfa8fbf3	-1.3201889
143	0x3f0aeb6a	0.54265463
144	0x3fc93bd3	1.5721382
145	0x4011811a	2.2735047
146	0x3ef3b047	0.47595426
147	0x40865370	4.1976852
148	0xc0a9b423	-5.3032393
149	0xc020aea9	-2.5106604
150	0x40c1aebe	6.052581
151	0xc0aa89b7	-5.329311
152	0xc0931e70	-4.5974655
153	0xc12a5c18	-10.647484
154	0x3fd29d03	1.6454166
155	0x40082494	2.1272326
156	0x413f49c6	11.955511
157	0x402912d4	2.6417742
158	0xc0ef2689	-7.473454
159	0xbdef9cf1	-0.11699856
160	0x3f68e776	0.9097818
161	0xbebc96cf	-0.36833808
162	0xc00ece21	-2.231331
163	0x3e1fc31f	0.15601777
164	0x3d3463e0	0.04404056
165	0x3e92fa55	0.28706613
166	0xbf0d9208	-0.5530095
167	0xbebd7574	-0.37003672
168	0x3eb06b53	0.34456882
169	0x3e0e9f5c	0.13927978
170	0xbf6b432f	-0.9189939
171	0x3f16646b	0.58746976
172	0x3de1cfa3	0.11025932
173	0xbe963e72	-0.29344517
174	0xbe091671	-0.13387467
175	0x3de4bc05	0.111686744
176	0xc0028b1a	-2.03974
177	0xc041c0c8	-3.0273914
178	0x3f40d433	0.7532379
179	0x3fb5425e	1.4160879
180	0xbfa6485d	-1.2990834
181	0xc0800cb6	-4.0015516
182	0x40a705eb	5.2194724
183	0x3f93a53c	1.15348
184	0x4086fc98	4.218334
185	0xc0a757d0	-5.2294693
186	0x409d9a09	4.925053
187	0xc0c13af2	-6.0384455
188	0x3f5364f0	0.82575893
189	0x404b90c3	3.1807106
190	0xc093600b	-4.605474
191	0x4060ec17	3.5144098
192	0xbe7ac230	-0.24488139
193	0x3e972f42	0.29528242
194	0xc018bf79	-2.3866866
195	0xbf117c27	-0.56830066
196	0xbf2eba10	-0.6825266
197	0x3efcfbe7	0.49410936
198	0x3e7f2450	0.24916196
199	0xbf22c6cb	-0.63584584
200	0x3fc610a4	1.5473828
201	0xbe289657	-0.164636
202	0x3fa55cee	1.2918985
203	0xbef6fb39	-0.48238543
204	0x3e795bf0	0.24351478
205	0xbed42bba	-0.4143961
206	0xbf966e53	-1.1752418
207	0x3f68d0a6	0.9094337
208	0xc0bf9b4f	-5.9877086
209	0xc0cac19e	-6.336135
210	0xbfa81565	-1.3131529
211	0x409ed24c	4.963171
212	0xc180c3aa	-16.09554
213	0x3fe61130	1.7973995
214	0xbf7adbda	-0.97991717
215	0xbf488b6c	-0.7833774
216	0x4057a56e	3.369472
217	0xc00fb08d	-2.2451508
218	0x40e2e2de	7.0901937
219	0x40fd5765	7.9169183
220	0xc0553903	-3.3316047
221	0xc0b42684	-5.6297016
222	0xc0e2191b	-7.0655646
223	0x3f8b278b	1.0871443
224	0x3eb509af	0.3535895
225	0xbe7b64de	-0.24550197
226	0xc033b0bc	-2.807662
227	0xbe714410	-0.2356112
228	0x3f7b8a00	0.98257446
229	0x3eb77159	0.35828665
230	0x3ee27736	0.44231576
231	0x3d9f616e	0.07782255
232	0x3fd19316	1.6373012
233	0x3f76d501	0.9641877
234	0xbf150b9a	-0.5822083
235	0x3fb63b01	1.4236757
236	0xbfd9de97	-1.7021054
237	0x3d951c25	0.07280759
238	0xbfd6e74e	-1.6789339
239	0x3d5e2de6	0.05424299
240	0x40569c56	3.353292
241	0xc0e22020	-7.0664215
242	0xc0175433	-2.364514
243	0xc0163a7e	-2.34732
244	0x40ba3d75	5.820002
245	0xc0ffb56c	-7.990896
246	0xbf91c5f5	-1.1388537
247	0x3e56a00d	0.20959492
248	0xc10b1b51	-8.694169
249	0x41047e3d	8.28082
250	0xbf6a4971	-0.9151831
251	0xc0902b7d	-4.5053086
252	0x41176b6a	9.463724
253	0xc00a6dc7	-2.1629503
254	0x3f2dbc2b	0.67865247
255	0xc0e5fb25	-7.1869073

exp_avg f4 [135, 32]
0	0x3d8a0f5e	0.06741212
1	0xbe4a0dee	-0.19731876
2	0xbda2ad6d	-0.079432346
3	0xbcf24406	-0.029573452
4	0xbd6482c8	-0.055788785
5	0x3e86e368	0.26345372
6	0xbe5a8c0d	-0.21342488
7	0xbd809c65	-0.0627983
8	0x3b1be5ed	0.002378817
9	0xbd12f4aa	-0.03587786
10	0x3e3a64b6	0.1820248
11	0x3eaba1d3	0.335219
12	0x3e4f69fc	0.20255274
13	0x3cd6b517	0.026209397
14	0x3f2107b9	0.6290241
15	0xbdfd622d	-0.12372241
16	0x3ea7304c	0.32654035
17	0x3f3ca581	0.7369004
18	0x3ea1d233	0.31605682
19	0x3ea77329	0.32705048
20	0x3e9bde74	0.30443156
21	0xbf02f485	-0.5115436
22	0x3e7fb5cf	0.24971698
23	0x3e82611e	0.2546472
24	0x3edff31d	0.43740168
25	0xbe823be8	-0.2543633
26	0x3d32954f	0.043599423
27	0xbd84d65d	-0.06486199
28	0xbed5c826	-0.41754264
29	0xbd49017e	-0.04907369
30	0x3dab4bc8	0.083640635
31	0xbed87e01	-0.42283633
32	0x3d19fdfb	0.03759573
33	0x3e8fc4cd	0.28079835
34	0xbf00699a	-0.50161135
35	0xbdf0ac50	-0.11751616
36	0xbdc4724e	-0.095921144
37	0xbc86b8b3	-0.016445493
38	0xbe8a3852	-0.26996094
39	0x3f2d715d	0.67751104
40	0xbd9e14a5	-0.077187814
41	0xbd906d50	-0.070521
42	0xbe4e406a	-0.2014176
43	0x3e0fbec9	0.14037623
44	0x3d3733ff	0.04472732
45	0x3d91ff87	0.07128816
46	0xbe616525	-0.2201124
47	0xbcb33ba9	-0.021879034
48	0x3e96d5ca	0.29459983
49	0xbefa0360	-0.488307
50	0x3e3758f0	0.1790502
51	0x3e76e54a	0.24110904
52	0xbdacd96a	-0.08439906
53	0xbfc3598f	-1.5261706
54	0x3f0da964	0.55336595
55	0xbe69c2f9	-0.22828282
56	0x3ef22099	0.47290495
57	0xbcca3633	-0.024684047
58	0xbcbfc45d	-0.023409063
59	0xbee9299c	-0.45539558
60	0x3defb8dc	0.11705181
61	0xbeb6b427	-0.3568432
62	0x3e44ac53	0.19206361
63	0xbe384c9e	-0.17997977
64	0x3f2dd138	0.6789737
65	0xbcd3a564	-0.0258357
66	0x3e222467	0.15834199
67	0x3d72fa52	0.059320755
68	0x3d0dc832	0.03461475
69	0xbe186bfe	-0.14884946
70	0xbe432284	-0.19056135
71	0x3dea5d37	0.114435606
72	0xbb520e39	-0.0032051934
73	0x3d26cc44	0.040722147
74	0x3e090bab	0.13383357
75	0xbce3efa0	-0.027824223
76	0xbe512e0d	-0.20427723
77	0x3dc74d19	0.09731502
78	0x3d8305c5	0.06397585
79	0x3cab7a22	0.02093226
80	0xbdc08c04	-0.09401706
81	0x3dc5bfba	0.096557096
82	0xbf0fc4ca	-0.5615965
83	0xbe217c88	-0.15770161
84	0xbed73cb9	-0.42038515
85	0x3eaa13ab	0.3321813
86	0xbe22c9d1	-0.158973
87	0x3eba0b8e	0.3633694
88	0xbe8ee81f	-0.2791147
89	0xbd11d814	-0.03560646
90	0xbd5b741e	-0.053577535
91	0xbecc2913	-0.39875087
92	0xbe9b58f6	-0.3034131
93	0x3f21050e	0.6289834
94	0x3eb1e4d7	0.34744903
95	0xbf966f39	-1.1752692
96	0xbb8324b0	-0.004002176
97	0x3eebf1c9	0.46082905
98	0x3d634ce2	0.055493243
99	0xba5a6a9a	-0.0008331925
100	0x3c2b0aa2	0.010439547
101	0xbd4bd3ac	-0.049762413
102	0xbcdcc1d3	-0.026947891
103	0x3d3e0103	0.046387684
104	0x3e2295d7	0.15877472
105	0x3c9eade7	0.019370032
106	0xbe223f9e	-0.1584458
107	0xbf0c971c	-0.54918075
108	0xbc0624eb	-0.008187513
109	0xbd81cb82	-0.06337644
110	0xbe6b01a2	-0.22949842
111	0x3dc20b43	0.09474804
112	0xbf3b1e83	-0.7309343
113	0xbeed20b6	-0.4631402
114	0xbe2c4c84	-0.16826063
115	0x3ebd8d69	0.3702195
116	0xbe3c4d09	-0.18388762
117	0x3e40c8f5	0.18826659
118	0x3dd5a0eb	0.10431083
119	0xbed7b39a	-0.42129213
120	0x3a845454	0.0010095933
121	0xbec3ab08	-0.38216424
122	0x3e9a2f4e	0.30114216
123	0xbc04b66e	-0.008100135
124	0xbe08b4a1	-0.13350154
125	0xbe6d16a3	-0.23153166
126	0xbe983213	-0.29725704
127	0xbc9023c9	-0.017595189
128	0xbe03c7e7	-0.12869225
129	0xba86982e	-0.0010268742
130	0xbc81e178	-0.015854582
131	0xbca78556	-0.020449322
132	0xbcfae321	-0.030625882
133	0x3d1d0dab	0.038343113
134	0x3f15a31a	0.58452
135	0xbd702f48	-0.05863884
136	0xbb80f5fb	-0.003935573
137	0xbd161f2c	-0.03665082
138	0x3e30e99e	0.17276618
139	0xbe3c577c	-0.18392748
140	0xbc2217a2	-0.00989333
141	0x3db170a9	0.08664066
142	0xbe0122a4	-0.1261087
143	0x3bb56900	0.0055361986
144	0x3e8935ac	0.2679876
145	0xbf6734fa	-0.9031521
146	0x3e19f826	0.15036067
147	0x3ec440ff	0.38330838
148	0x3f4370b1	0.7634383
149	0x3c08f95a	0.008360231
150	0xbefa59d6	-0.48896664
151	0xbdfe3ddc	-0.124141425
152	0x3e74bb59	0.23899592
153	0xbf27f239	-0.6560398
154	0xbe97b06c	-0.29626787
155	0xbef11ed7	-0.4709384
156	0x3f28492e	0.65736663
157	0x3f3b259b	0.73104256
158	0xbd102ba3	-0.035197865
159	0x3f289f7c	0.65868354
160	0x3cb84b32	0.022496793
161	0x3e0c5b6c	0.1370675
162	0xbd03c3d8	-0.032169193
163	0xbb32fc85	-0.0027311158
164	0x3e88708f	0.26648375
165	0xbdd091a7	-0.10184031
166	0xbea88f58	-0.32921863
167	0x3d1e86df	0.03870284
168	0x3d46b82d	0.048515487
169	0xbd94809a	-0.07251091
170	0xbd6ac1dc	-0.057313785
171	0xbc216e3d	-0.009852943
172	0xbdfc53ed	-0.12320695
173	0xbf142ef3	-0.5788414
174	0xbd74fef1	-0.059813444
175	0xbdbb0c3b	-0.09133192
176	0x3e709de0	0.23497725
177	0xbba0cb53	-0.0049070506
178	0xbd47e91a	-0.048806287
179	0xbdb1ce0d	-0.08681879
180	0x3e2eb46b	0.17061011
181	0xbf2a59de	-0.66543376
182	0xbe03c0f7	-0.12866579
183	0x3f436f2f	0.7634153
184	0x3dfc289f	0.12312435
185	0x3f2ca952	0.6744586
186	0x3ec8ae0d	0.3919529
187	0x3f8e015e	1.1094167
188	0xbea45c07	-0.3210146
189	0x3c92a29e	0.017899808
190	0xbe90966e	-0.2823977
191	0xbebc45ae	-0.3677191
192	0xbd16b2dd	-0.03679167
193	0xbc5bc0eb	-0.013412694
194	0x3dc2c33d	0.09509895
195	0x3b9bf9f5	0.004760022
196	0xbc75f758	-0.015012585
197	0xbca0395d	-0.019558603
198	0xbc19bf66	-0.009384012
199	0xbca04902	-0.019566063
200	0xbbbddfb0	-0.005794488
201	0xbea97e10	-0.3310399
202	0xbd3f3de1	-0.04668987
203	0xbc0a11b2	-0.00842707
204	0xbca97a92	-0.020688329
205	0xbe5582d3	-0.20850687
206	0xbe41cc86	-0.18925676
207	0xbd8f8d68	-0.07009393
208	0x3e85050a	0.25980407
209	0xbed3ac89	-0.4134257
210	0xbf1c41b7	-0.6103777
211	0xbe8caebc	-0.27477062
212	0xbe4db287	-0.20087634
213	0xbe7ebcf8	-0.24876773
214	0x3ee81371	0.45327333
215	0x3ca886f5	0.020572165
216	0x3eb98871	0.3623691
217	0x3e5df338	0.21674812
218	0xbeccb8f1	-0.3998485
219	0xbc817b09	-0.015805738
220	0xbe4c344f	-0.19941829
221	0xbf41dfb9	-0.75732
222	0xbd4de444	-0.05026652
223	0x3f356f80	0.7087326
224	0xbdb3d2fa	-0.08780475
225	0x3e724bcd	0.23661728
226	0xbe97ba85	-0.2963449
227	0xbc977200	-0.018486977
228	0x3cf2e598	0.029650494
229	0x3d7767ca	0.060401715
230	0xbe292124	-0.16516548
231	0xbd3b1b9d	-0.04568063
232	0x3e9ec6b2	0.31010967
233	0x3f8caeee	1.0990884
234	0xbe2cd92a	-0.16879717
235	0xbe16d0aa	-0.14728037
236	0xbc7fa405	-0.01560307
237	0xbde07498	-0.109597385
238	0x3f423d7c	0.7587507
239	0xbe06a7b1	-0.13149907
240	0x3e65d49c	0.22444385
241	0x3f5fb645	0.87387496
242	0x3f7dde96	0.99167764
243	0xbf389265	-0.7209838
244	0xbf18a70b	-0.5962989
245	0xbf59739f	-0.8494205
246	0xbf7b3c6e	-0.98139083
247	0xbe6fa094	-0.234011
248	0xbf173443	-0.5906412
249	0x3d101748	0.035178453
250	0xbe583580	-0.21114159
251	0xbde8348f	-0.1133815
252	0x3e9f43f6	0.31106538
253	0xbde948c5	-0.11390833
254	0x3f2bfaf5	0.67179805
255	0xbf1a2f91	-0.6022883

exp_avg_sq f4 [135, 32]
0	0x36f04fc4	7.1618433e-06
1	0x34f8b07a	4.6322003e-07
2	0x3540dae5	7.184411e-07
3	0x37384554	1.0983396e-05
4	0x3466afb3	2.1484338e-07
5	0x3413a5ab	1.3750712e-07
6	0x33a3d1f5	7.62847e-08
7	0x368d934b	4.2192746e-06
8	0x36f234df	7.218317e-06
9	0x3677b8e3	3.6913486e-06
10	0x353da36f	7.0645814e-07
11	0x33d4a7bb	9.902529e-08
12	0x358043c8	9.55647e-07
13	0x36fc638d	7.5217745e-06
14	0x33fdf754	1.1826219e-07
15	0x346bb89d	2.1953242e-07
16	0x2fa55985	3.0076933e-10
17	0x2ff6c329	4.488581e-10
18	0x3218a393	8.884757e-09
19	0x30c80316	1.4552792e-09
20	0x307f51b3	9.288456e-10
21	0x30fa7e14	1.8225728e-09
22	0x301eb99a	5.774382e-10
23	0x3014a3e2	5.407498e-10
24	0x3061b373	8.2109536e-10
25	0x2f37404b	1.6666594e-10
26	0x30c3db66	1.4250474e-09
27	0x3042790b	7.07488e-10
28	0x3125d17d	2.412974e-09
29	0x300f3329	5.20958e-10
30	0x31f7a7ef	7.207738e-09
31	0x302d6ada	6.308888e-10
32	0x35eb7d61	1.7545354e-06
33	0x33a69027	7.7561985e-08
34	0x33e84364	1.08156e-07
35	0x34eb5004	4.383038e-07
36	0x3417323a	1.4081243e-07
37	0x36058454	1.989557e-06
38	0x34a012df	2.9816053e-07
39	0x32d426f3	2.469776e-08
40	0x35b65938	1.3586023e-06
41	0x360d4213	2.1049098e-06
42	0x3525e07d	6.1793963e-07
43	0x3281448b	1.5048746e-08
44	0x360dd072	2.1131968e-06
45	0x361b6042	2.315283e-06
46	0x3554daa7	7.9294335e-07
47	0x3449a410	1.877927e-07
48	0x302a30a1	6.1914746e-10
49	0x2f90c9b6	2.6336772e-10
50	0x320a75e9	8.059467e-09
51	0x2f8bbbac	2.5417302e-10
52	0x2f81e996	2.3630936e-10
53	0x2feb6b54	4.2822512e-10
54	0x2fe52c97	4.168654e-10
55	0x2f575bbd	1.9586728e-10
56	0x30bc4940	1.3699619e-09
57	0x304455cf	7.1426326e-10
58	0x31265974	2.4207027e-09
59	0x2fdd08c9	4.0205908e-10
60	0x30019479	4.714092e-10
61	0x3108e9fb	1.9923607e-09
62	0x312b3663	2.491469e-09
63	0x30979a77	1.1030598e-09
64	0x32ca41ed	2.3545875e-08
65	0x36146cf0	2.2117129e-06
66	0x3649ed2c	3.0089386e-06
67	0x36b877b7	5.497564e-06
68	0x36322677	2.6546456e-06
69	0x3519af79	5.725229e-07
70	0x33c38f54	9.106466e-08
71	0x32c0ebf1	2.2459036e-08
72	0x35974c7e	1.1272639e-06
73	0x34fc9a2b	4.705083e-07
74	0x356c0c9b	8.7935194e-07
75	0x34be2a9b	3.5421257e-07
76	0x35875972	1.0084316e-06
77	0x3672460a	3.6101578e-06
78	0x3616f5b8	2.249477e-06
79	0x3529d6e4	6.3270113e-07
80	0x2f3d3f53	1.7211947e-10
81	0x2f4eaaa4	1.8796215e-10
82	0x31f2fb14	7.0716712e-09
83	0x3061c359	8.213213e-10
84	0x2f722a8a	2.2024885e-10
85	0x30f11ff3	1.7544138e-09
86	0x2fc0de28	3.5082448e-10
87	0x2fd06038	3.7903347e-10
88	0x2ff20c45	4.4028262e-10
89	0x2f62df9f	2.0634026e-10
90	0x3129649d	2.4649929e-09
91	0x2fee39f8	4.3333137e-10
92	0x30c8f65f	1.4621938e-09
93	0x301e1ce7	5.752114e-10
94	0x31b61c1f	5.300094e-09
95	0x30465083	7.2146394e-10
96	0x36decd1b	6.639993e-06
97	0x34604138	2.0885352e-07
98	0x352e5466	6.4942867e-07
99	0x3690890a	4.307488e-06
100	0x35eab184	1.7486022e-06
101	0x3536dbb7	6.812001e-07
102	0x36eb955a	7.0209326e-06
103	0x358c4e24	1.0453555e-06
104	0x35a8cb4f	1.2576146e-06
105	0x35d68a0a	1.5984417e-06
106	0x34dcd6c5	4.113446e-07
107	0x337ed476	5.9332216e-08
108	0x393a07d5	0.0001774126
109	0x36ac52b5	5.135628e-06
110	0x34266b68	1.5499029e-07
111	0x35916a48	1.0834274e-06
112	0x304e182e	7.4976725e-10
113	0x30ea9755	1.7068752e-09
114	0x32557403	1.242461e-08
115	0x30d51474	1.5503603e-09
116	0x310caab1	2.0469708e-09
117	0x30dfc86b	1.6282348e-09
118	0x30e8b959	1.6932901e-09
119	0x3000ce89	4.6859633e-10
120	0x30f3baa0	1.7733619e-09
121	0x31149d4e	2.1626252e-09
122	0x30ace914	1.2580892e-09
123	0x310da6c0	2.0612987e-09
124	0x310e3b41	2.0697402e-09
125	0x307eff67	9.276761e-10
126	0x31fc54ec	7.3438198e-09
127	0x3035c816	6.6131756e-10
128	0x36abd146	5.1205598e-06
129	0x387e8f78	6.0691935e-05
130	0x3728cd12	1.0061327e-05
131	0x33e061e4	1.0448619e-07
132	0x361227d2	2.1778874e-06
133	0x3720d6ea	9.586782e-06
134	0x3484f9aa	2.476857e-07
135	0x36fb8405	7.495752e-06
136	0x3886ef85	6.434232e-05
137	0x3727e9e9	1.0008437e-05
138	0x354b2fe1	7.5693066e-07
139	0x36a4b8aa	4.9090786e-06
140	0x399f3ee4	0.000303737
141	0x35e1cdb8	1.6823678e-06
142	0x35c34c40	1.4550824e-06
143	0x388957ab	6.5489985e-05
144	0x31426d22	2.829275e-09
145	0x31873e02	3.9360666e-09
146	0x3370a37c	5.6028043e-08
147	0x318efb70	4.161329e-09
148	0x318ec940	4.1556234e-09
149	0x31ad0a0b	5.0361044e-09
150	0x30ff2746	1.8564854e-09
151	0x309535fb	1.0856519e-09
152	0x324061bf	1.1198096e-08
153	0x30e8a18a	1.6926134e-09
154	0x31d508dc	6.200123e-09
155	0x31cd3409	5.972201e-09
156	0x313462cd	2.624961e-09
157	0x31f20420	7.043596e-09
158	0x3292b836	1.7080406e-08
159	0x314d75de	2.9898426e-09
160	0x35cb7a41	1.5160259e-06
161	0x356db7a6	8.8556624e-07
162	0x36dd5868	6.596605e-06
163	0x36b4eace	5.391753e-06
164	0x34dde6b3	4.1332314e-07
165	0x368f592d	4.2721135e-06
166	0x36075daf	2.0171099e-06
167	0x382fb6d4	4.1893523e-05
168	0x35bc191b	1.4014398e-06
169	0x349d36be	2.928336e-07
170	0x37b45114	2.1495427e-05
171	0x3856c054	5.1200695e-05
172	0x36fb61e4	7.491779e-06
173	0x3508b304	5.092445e-07
174	0x36cbda7e	6.0753073e-06
175	0x36a78fb0	4.9937153e-06
176	0x3124c3d8	2.3976465e-09
177	0x311a2c47	2.2435118e-09
178	0x331d1855	3.657654e-08
179	0x31332ac9	2.6072249e-09
180	0x30e79ece	1.6852597e-09
181	0x317d793d	3.6885262e-09
182	0x30a9644d	1.2324876e-09
183	0x30869805	9.79299e-10
184	0x31ca6d84	5.8914242e-09
185	0x30e9f5f1	1.7022882e-09
186	0x31b48633	5.253946e-09
187	0x30b3a30f	1.3070308e-09
188	0x3110803e	2.1027655e-09
189	0x320d8850	8.238274e-09
190	0x32013f3a	7.523164e-09
191	0x318b3116	4.051013e-09
192	0x363c2634	2.803642e-06
193	0x36827936	3.8884127e-06
194	0x35f3edc8	1.8174114e-06
195	0x36d42f68	6.323611e-06
196	0x37656773	1.367355e-05
197	0x37d0e929	2.4904106e-05
198	0x38f6418f	0.00011742405
199	0x35b77d5d	1.3671048e-06
200	0x37f0391d	2.8636825e-05
201	0x34074ba0	1.2600367e-07
202	0x36f03d8b	7.159722e-06
203	0x37f60e0d	2.9332028e-05
204	0x390b75ac	0.00013299909
205	0x3624ee66	2.457667e-06
206	0x3617d063	2.262205e-06
207	0x352af807	6.369086e-07
208	0x31580056	3.1432328e-09
209	0x3157fd87	3.1430731e-09
210	0x332bfd59	4.004446e-08
211	0x31423b3f	2.8264393e-09
212	0x313a96cd	2.7152283e-09
213	0x3188e3d4	3.984022e-09
214	0x30aeaacd	1.2708711e-09
215	0x3028a294	6.134908e-10
216	0x32018399	7.53871e-09
217	0x3105e570	1.9484467e-09
218	0x31ee2cb5	6.9317942e-09
219	0x312150ce	2.3474516e-09
220	0x311236fd	2.1277053e-09
221	0x320ae75d	8.085263e-09
222	0x32335bca	1.0440042e-08
223	0x31283015	2.447455e-09
224	0x366df30d	3.5457226e-06
225	0x3651bf0f	3.1254638e-06
226	0x3708ad52	8.146586e-06
227	0x373d85ad	1.1296402e-05
228	0x36a1325d	4.804037e-06
229	0x36de37eb	6.6226253e-06
230	0x3646955c	2.9591238e-06
231	0x32a46337	1.913723e-08
232	0x36400bba	2.8617055e-06
233	0x33f622e3	1.14616135e-07
234	0x375a4d21	1.30117705e-05
235	0x36a7e1b4	5.003263e-06
236	0x396973a1	0.00022263687
237	0x37b2838b	2.1280508e-05
238	0x3476d975	2.2989646e-07
239	0x35ba9d2d	1.3903824e-06
240	0x308441fb	9.623017e-10
241	0x3174b246	3.560801e-09
242	0x3301c887	3.021753e-08
243	0x3113fae2	2.1533926e-09
244	0x31234673	2.3759668e-09
245	0x31598a63	3.165632e-09
246	0x3059901e	7.9148943e-10
247	0x302f01b0	6.3667027e-10
248	0x31fd9276	7.37992e-09
249	0x3112d3be	2.1366158e-09
250	0x31565f33	3.1195213e-09
251	0x314d0447	2.9833858e-09
252	0x30c3f818	1.425863e-09
253	0x30494dce	7.323394e-10
254	0x321f29fc	9.264564e-09
255	0x30a4ec16	1.199967e-09

exp_avg f4 [46, 32]
0	0x3e14d200	0.14533234
1	0x3d9c3150	0.07626593
2	0x3d76056d	0.06006377
3	0x3d61ba09	0.055109058
4	0xbda45543	-0.08024075
5	0xbbe856b6	-0.007090415
6	0x3da0dcb1	0.078545935
7	0xbc89d869	-0.016826825
8	0x3da8a495	0.082345165
9	0x3e026820	0.12735033
10	0x3f077027	0.52905506
11	0x3d83e5e2	0.06440331
12	0x3cf8afff	0.030357359
13	0x3e2055dc	0.15657753
14	0x3df242d7	0.11829155
15	0x3c90e71c	0.017688327
16	0xbd8d2b30	-0.06893003
17	0x3eda9916	0.4269492
18	0xbe6dc8da	-0.2322115
19	0xbdac7a3e	-0.08421753
20	0xbe975c51	-0.2956262
21	0xbe86597a	-0.2624014
22	0x3d6ddf77	0.05807444
23	0xbf421c60	-0.75824547
24	0xbeffdade	-0.4997167
25	0xbef085a5	-0.46976963
26	0x3e896b74	0.26839793
27	0x3f3c673e	0.73595035
28	0x3f243e3c	0.6415746
29	0x3f61b467	0.881659
30	0x3e55c0f5	0.20874389
31	0x3f245774	0.6419594
32	0xbd57af05	-0.052657146
33	0xbd77188e	-0.06032615
34	0xbea016ce	-0.312674
35	0xbde94ac6	-0.11391215
36	0x3c3e0cfb	0.0115997745
37	0xbdc16357	-0.09442776
38	0xbebd035d	-0.36916628
39	0xbbcd795d	-0.006270571
40	0xbded82a2	-0.11597182
41	0xbdac507c	-0.08413789
42	0xbd298e7b	-0.041395646
43	0xbdacf406	-0.08444981
44	0xbe627de1	-0.22118331
45	0xbd11b91d	-0.03557693
46	0xbdd020ab	-0.10162481
47	0xbd379f52	-0.044829674
48	0xbf448210	-0.7676096
49	0xbea0d14b	-0.31409678
50	0x3e687e63	0.22704463
51	0x3da1a25f	0.07892298
52	0x3e071c91	0.13194491
53	0x3f46d80d	0.7767342
54	0x3e3fbb82	0.18723872
55	0xbe8d4f03	-0.27599344
56	0x3e2740a5	0.16333254
57	0x3ebd8dd2	0.37022263
58	0x3f0098b8	0.5023303
59	0xbe94bdc6	-0.29051036
60	0x3cf78da1	0.030218901
61	0xbf08fbbf	-0.53509134
62	0xbf136c9a	-0.5758759
63	0xbeafca25	-0.34333912
64	0x3c4d4075	0.012527575
65	0x3d1d60b8	0.038422316
66	0xbf386eda	-0.72044146
67	0x3c086fa6	0.0083274
68	0x3d2f8fe7	0.042861845
69	0xbdcad555	-0.09903971
70	0x3c3067d2	0.01076694
71	0x3d8ac7c6	0.06776385
72	0xbda2bd5b	-0.07946273
73	0x3d160634	0.03662701
74	0xbd9c4f26	-0.07632284
75	0xbc663b5f	-0.014052241
76	0xbca08388	-0.019593969
77	0xbd1a208c	-0.037628695
78	0xbdc4aba2	-0.09603049
79	0xbe0a11db	-0.13483374
80	0xbd846b3f	-0.06465768
81	0x3eacb807	0.33734152
82	0x3ee78b2e	0.45223373
83	0x3d9f263f	0.07770967
84	0x3e863f46	0.2622015
85	0x3ed07910	0.40717363
86	0x3e1ca253	0.15296297
87	0xbe8bdbbd	-0.27316085
88	0x3e2ad43a	0.1668252
89	0xbcc9b0aa	-0.024620373
90	0xbdec0a9e	-0.115254626
91	0xbf111058	-0.56665564
92	0xbf2c72fd	-0.6736296
93	0x3f585431	0.84503466
94	0xbe92c757	-0.2866771
95	0xbf1ca464	-0.6118834
96	0xbc3081fa	-0.010773176
97	0x3de1d238	0.11026424
98	0xbe4a2abb	-0.19742863
99	0xbdb400ee	-0.0878924
100	0x3d002095	0.031281073
101	0xbbe5eb91	-0.007016607
102	0x3b50b10f	0.0031843816
103	0x3d48bb76	0.0490069
104	0xbc56cf00	-0.013110876
105	0x3ede621f	0.43434235
106	0x3e6b0065	0.22949369
107	0x3d642bf7	0.05570599
108	0x3db98487	0.09058481
109	0xbcbd615f	-0.02311772
110	0xbf2cda6f	-0.67520803
111	0x3e42662a	0.18984285
112	0xbd89c175	-0.06726352
113	0x3f7e6ad2	0.99381745
114	0x3e90b9f2	0.28266865
115	0xbf0be961	-0.5465298
116	0xbe0dd492	-0.1385062
117	0x3ea92cad	0.33041897
118	0x3f0fd299	0.5618072
119	0xbe9d8875	-0.3076817
120	0x3f54e321	0.8315907
121	0x3ef3c5fe	0.47611994
122	0xbf280a12	-0.65640366
123	0x3d85946f	0.06522452
124	0xbea3ce1d	-0.3199319
125	0x3ec43714	0.3832327
126	0xbf58ce9e	-0.8469027
127	0x3f11348e	0.5672082
128	0x3ecc77ca	0.39935142
129	0x3e513035	0.20428546
130	0xbf68040c	-0.90631175
131	0x3e49f5eb	0.19722717
132	0xbbfd5de2	-0.007732139
133	0x3d5dc76c	0.05414526
134	0xbe99d01b	-0.30041584
135	0xbe9a80f5	-0.3017651
136	0x3ed15b76	0.40890092
137	0x3c20557c	0.009786006
138	0xbd0a310f	-0.033738192
139	0xbeb055b5	-0.3444039
140	0x3c22d12b	0.009937565
141	0x3c98fb11	0.018674405
142	0xbda93edd	-0.08263943
143	0xbda8d635	-0.08243982
144	0x3eaeddd6	0.34153622
145	0x3d7ea5ad	0.06216972
146	0x3f89605f	1.0732535
147	0xbdcc7662	-0.09983517
148	0x3e9368aa	0.2879079
149	0xbea951f7	-0.33070347
150	0xbeb47a74	-0.35249674
151	0x3f055ffa	0.52099574
152	0xbe1a4a3e	-0.15067384
153	0x3f1ea68d	0.61972886
154	0x3ef6fc21	0.48239234
155	0xbf390d69	-0.7228609
156	0xbf52c73b	-0.8233525
157	0xbe38906e	-0.18023846
158	0xbf4ca1cd	-0.7993439
159	0x3eeade54	0.45872748
160	0xbd39a335	-0.045321662
161	0x3daa1bde	0.083060965
162	0xbf037085	-0.51343566
163	0xbc8a6514	-0.0168939
164	0x3dc7924f	0.09744703
165	0xbca02504	-0.0195489
166	0x3e29ac33	0.16569595
167	0x3cef7184	0.029228933
168	0xbdfafce7	-0.122552685
169	0x3c29af2b	0.010356705
170	0x3eec75e4	0.46183693
171	0x3b5c47b0	0.0033612065
172	0xbd0a0963	-0.033700358
173	0x3e01bc5c	0.1266951
174	0xbe176720	-0.14785433
175	0x3d8e8336	0.0695862
176	0x3f1e46d8	0.6182685
177	0x3f647da4	0.8925421
178	0x3ef85bb7	0.48507473
179	0x3ea8b3d3	0.32949695
180	0xbf56a363	-0.8384306
181	0x3bbd9333	0.00578537
182	0xbf1d397f	-0.6141586
183	0xbdcc418f	-0.09973442
184	0x3ed0e579	0.40800074
185	0x3f00f41e	0.50372493
186	0xbe7a7ced	-0.24461718
187	0x3fb206f1	1.3908368
188	0xbf27a28c	-0.654824
189	0x3efada94	0.48994887
190	0xbe37af93	-0.1793807
191	0xbef19d2a	-0.4719022
192	0xbceefcff	-0.029173372
193	0xbcc52736	-0.024066549
194	0xbe8443f7	-0.25833103
195	0xbda272dd	-0.07932065
196	0x3e02df20	0.12780428
197	0xbda40ba4	-0.08010033
198	0xbd90d9b6	-0.07072775
199	0x3d7d54ca	0.06184844
200	0xbee565bb	-0.44804177
201	0xbcb6a93e	-0.022297498
202	0xbec47819	-0.38372877
203	0xbddc311b	-0.107515536
204	0x3c87979f	0.01655179
205	0xbcb4885f	-0.022037683
206	0xbe4d990e	-0.20077917
207	0xbcb459ee	-0.022015538
208	0x3d9caa0b	0.076496206
209	0xbca51b8b	-0.020154735
210	0x3eab0775	0.33404127
211	0xbe57babc	-0.21067327
212	0xbcdb002a	-0.026733477
213	0x3ed7aee9	0.42125633
214	0xbee18752	-0.44048554
215	0x3bc11ae7	0.0058930996
216	0xbea1feb5	-0.3163964
217	0x3e245f5c	0.16052002
218	0xbf2f7814	-0.685426
219	0x3dbe68c4	0.09297326
220	0x3ec345dc	0.38139236
221	0x3eed83a6	0.46389502
222	0xbf7d1a64	-0.98868394
223	0x3d9c40ad	0.076295234
224	0xbcc96b5d	-0.024587328
225	0x3c0f5c4e	0.0087500345
226	0xbe7a9d90	-0.24474168
227	0x3d86a7ca	0.06574972
228	0xbd989c97	-0.07451742
229	0xbe1a86f4	-0.15090543
230	0x3c8f955f	0.01752728
231	0xbca9141a	-0.020639468
232	0xbe67a4c0	-0.22621441
233	0xbd072a44	-0.032999292
234	0x3eae81f1	0.34083512
235	0xbea4106b	-0.32043776
236	0xbcaee820	-0.02135092
237	0x3d83d40f	0.06436931
238	0xbf0ebe93	-0.55759543
239	0x3ba087af	0.0048989872
240	0xbf2f2f0d	-0.6843117
241	0xbe3b1df3	-0.18273143
242	0x3eb5264b	0.35380778
243	0xbe41a478	-0.18910396
244	0xbd623f83	-0.05523635
245	0x3f2e3f0c	0.6806495
246	0xbedb4850	-0.42828608
247	0xbc3c6f6c	-0.011501174
248	0x3e579e9f	0.21056603
249	0xbf1baf97	-0.60814804
250	0x3e34ade6	0.17644462
251	0xbe150db5	-0.1455601
252	0xbecbfebc	-0.39842784
253	0x3f51329d	0.81717855
254	0xbf259bd1	-0.6469088
255	0xbd76292e	-0.060097866

exp_avg_sq f4 [46, 32]
0	0x376f6bcc	1.42706085e-05
1	0x36ed9a81	7.081137e-06
2	0x38caec55	9.676131e-05
3	0x387eecc3	6.077882e-05
4	0x34e3268c	4.2310091e-07
5	0x37988dcd	1.8185843e-05
6	0x37ed8237	2.8313238e-05
7	0x3a2e3835	0.0006645949
8	0x372f5773	1.0451174e-05
9	0x37c5cba4	2.3579058e-05
10	0x36b6260a	5.428451e-06
11	0x366c68c9	3.5227733e-06
12	0x393d83af	0.000180735
13	0x3682c758	3.8975086e-06
14	0x3744d77f	1.17326845e-05
15	0x39f668f7	0.0004699898
16	0x31869dc8	3.917851e-09
17	0x31f5f740	7.1585475e-09
18	0x3317ffb9	3.5390006e-08
19	0x32a1b5d3	1.8825551e-08
20	0x31cc3e11	5.9442375e-09
21	0x31574905	3.1328125e-09
22	0x30e9299d	1.6964808e-09
23	0x30b81325	1.3393203e-09
24	0x31a8354d	4.895503e-09
25	0x31ae20b1	5.067783e-09
26	0x3263cdfe	1.3259976e-08
27	0x30e322b8	1.6526291e-09
28	0x328596dd	1.5551842e-08
29	0x318bfc98	4.074149e-09
30	0x32beaf06	2.2198503e-08
31	0x3147a7be	2.9053662e-09
32	0x38a07e9d	7.652978e-05
33	0x380cf076	3.3602548e-05
34	0x374d85f2	1.2250139e-05
35	0x37e99baa	2.7848251e-05
36	0x387b8285	5.996462e-05
37	0x37a4c3e6	1.9641546e-05
38	0x369eca0f	4.7322897e-06
39	0x37faf80a	2.9917825e-05
40	0x37ef8abe	2.8555627e-05
41	0x37b55e6f	2.1620855e-05
42	0x388ec705	6.808158e-05
43	0x387703ac	5.889281e-05
44	0x37726d6a	1.4449799e-05
45	0x39c71e23	0.0003797869
46	0x37d5fa09	2.550801e-05
47	0x392f9738	0.00016745634
48	0x32107b97	8.410004e-09
49	0x31e72284	6.726909e-09
50	0x338cd877	6.558633e-08
51	0x31a21bc1	4.717976e-09
52	0x3131a421	2.5850186e-09
53	0x3226dc8e	9.71262e-09
54	0x32639271	1.3246436e-08
55	0x31c2c565	5.6685843e-09
56	0x32cd7e25	2.3922505e-08
57	0x31ef3381	6.961671e-09
58	0x32254c77	9.62165e-09
59	0x31998ee7	4.469132e-09
60	0x318d773f	4.117197e-09
61	0x31eeb660	6.9474453e-09
62	0x32aaf5b3	1.9902336e-08
63	0x32b5d5e4	2.116844e-08
64	0x37ccfa96	2.4435383e-05
65	0x3807be35	3.2363652e-05
66	0x34f7f64d	4.6186543e-07
67	0x370a45b2	8.241668e-06
68	0x365a2628	3.2506741e-06
69	0x3635a8b3	2.7069298e-06
70	0x37a88e8c	2.009354e-05
71	0x34b3591d	3.3406187e-07
72	0x35ef84b9	1.7845515e-06
73	0x37ea8e3c	2.7961207e-05
74	0x36ca7783	6.033982e-06
75	0x39174851	0.00014427422
76	0x364ffccf	3.0992558e-06
77	0x3809bad6	3.283735e-05
78	0x37484368	1.1936623e-05
79	0x3426b961	1.5527395e-07
80	0x3083deb3	9.594799e-10
81	0x313568c3	2.6398517e-09
82	0x31896e4c	3.999764e-09
83	0x3122a07c	2.3665327e-09
84	0x30c82274	1.4561707e-09
85	0x31ba3db0	5.4203255e-09
86	0x3110f948	2.1096458e-09
87	0x2fc2957f	3.5394618e-10
88	0x30b55e0f	1.3196216e-09
89	0x31ae76a4	5.0775544e-09
90	0x30aa2e1d	1.2382234e-09
91	0x319de65c	4.59549e-09
92	0x300cbe1e	5.1201876e-10
93	0x3084bed0	9.658496e-10
94	0x31af70af	5.105981e-09
95	0x30a05411	1.1665425e-09
96	0x3746d67d	1.1851659e-05
97	0x383b7c30	4.4699933e-05
98	0x383fa6b1	4.5693192e-05
99	0x389180ce	6.9381305e-05
100	0x3980294f	0.0002444484
101	0x3a8ca830	0.0010731276
102	0x3aad2316	0.0013209309
103	0x37cf20e5	2.469164e-05
104	0x397add25	0.0002392424
105	0x3690dac0	4.3170003e-06
106	0x38259191	3.9474635e-05
107	0x3a53037e	0.00080495316
108	0x393345ac	0.00017096725
109	0x391c2408	0.00014890742
110	0x37209338	9.57102e-06
111	0x38a6a1af	7.945613e-05
112	0x32be2405	2.2135291e-08
113	0x32426f75	1.1317629e-08
114	0x3330a2d6	4.112629e-08
115	0x325e7b02	1.29500695e-08
116	0x31c433a8	5.7102234e-09
117	0x328c207c	1.6312917e-08
118	0x32927f03	1.7054395e-08
119	0x3119eb3f	2.2398152e-09
120	0x323786fe	1.0682696e-08
121	0x3299fe32	1.7927139e-08
122	0x32d75ec0	2.5072382e-08
123	0x326ce127	1.3788202e-08
124	0x3326d966	3.884761e-08
125	0x33b888d4	8.5930566e-08
126	0x33326cdb	4.1542858e-08
127	0x33178d57	3.5285975e-08
128	0x3449934a	1.8773167e-07
129	0x35254c74	6.1578544e-07
130	0x34537681	1.9694018e-07
131	0x3494635a	2.7639436e-07
132	0x358188b7	9.651038e-07
133	0x37675795	1.3789065e-05
134	0x336cc0bc	5.5123323e-08
135	0x32f28b3a	2.823582e-08
136	0x34996cb7	2.857757e-07
137	0x35e765fa	1.724052e-06
138	0x3548ff57	7.4877374e-07
139	0x35404d67	7.163821e-07
140	0x37951726	1.7772963e-05
141	0x370ac029	8.270182e-06
142	0x36ef7419	7.1362706e-06
143	0x36a20ffd	4.8298375e-06
144	0x2ffd631d	4.6090856e-10
145	0x2e9bbab7	7.081751e-11
146	0x3028c6a1	6.140031e-10
147	0x30259cf0	6.024967e-10
148	0x2e8e1dbe	6.462696e-11
149	0x308a8a36	1.0080103e-09
150	0x3021b3c3	5.8826916e-10
151	0x2f020959	1.1826752e-10
152	0x2f8a1705	2.511841e-10
153	0x311cdad7	2.2825384e-09
154	0x302402e2	5.966695e-10
155	0x2f8d029a	2.56496e-10
156	0x30678794	8.422998e-10
157	0x2fdd22a2	4.0224274e-10
158	0x2fce771b	3.755581e-10
159	0x2f882223	2.4762511e-10
160	0x3779ff27	1.4900964e-05
161	0x378755bd	1.6133179e-05
162	0x3533896a	6.688266e-07
163	0x380710ac	3.2202035e-05
164	0x35001a8a	4.7722335e-07
165	0x376e783d	1.4213901e-05
166	0x36311ae2	2.6390703e-06
167	0x387698c1	5.8793234e-05
168	0x361f4032	2.3730213e-06
169	0x39405d25	0.00018345246
170	0x3509e688	5.1371944e-07
171	0x3822aad2	3.87829e-05
172	0x3831abaa	4.2359963e-05
173	0x3802023a	3.099649e-05
174	0x379b90dd	1.8544897e-05
175	0x3722ce08	9.703923e-06
176	0x3046107d	7.205541e-10
177	0x30f70558	1.7973134e-09
178	0x31c84df0	5.8296266e-09
179	0x3091034a	1.0551073e-09
180	0x302188af	5.87657e-10
181	0x2fcaa7e0	3.6862868e-10
182	0x3058103a	7.86034e-10
183	0x2fbc55ca	3.4257958e-10
184	0x3145d770	2.8789735e-09
185	0x326e0b71	1.3856025e-08
186	0x31fde266	7.3890076e-09
187	0x3088d151	9.954794e-10
188	0x30aafbc2	1.2440682e-09
189	0x31b7cc56	5.3492313e-09
190	0x312d3051	2.5202278e-09
191	0x32a4ae19	1.9171283e-08
192	0x3850ee2a	4.9812872e-05
193	0x382c6587	4.110255e-05
194	0x359b6292	1.1577088e-06
195	0x35618776	8.4016153e-07
196	0x340624e6	1.2493146e-07
197	0x3754ec05	1.2691137e-05
198	0x37b49792	2.1528253e-05
199	0x3594657d	1.1056396e-06
200	0x33922080	6.8045665e-08
201	0x38243be6	3.915643e-05
202	0x357433f0	9.097266e-07
203	0x34c1935c	3.605627e-07
204	0x38dab85f	0.00010429392
205	0x36720cb2	3.60682e-06
206	0x374c6f74	1.2185297e-05
207	0x39507a90	0.00019882084
208	0x301f51ac	5.7959926e-10
209	0x30013b1a	4.7013915e-10
210	0x30d9976f	1.5831868e-09
211	0x30227862	5.910633e-10
212	0x2fe255a6	4.1170017e-10
213	0x30f30848	1.7682931e-09
214	0x30db18dc	1.5941413e-09
215	0x2f9999f8	2.793994e-10
216	0x2ffd68b1	4.609482e-10
217	0x309e0178	1.149643e-09
218	0x31169737	2.1913829e-09
219	0x30152082	5.425208e-10
220	0x303dc2bf	6.903455e-10
221	0x305f306e	8.119575e-10
222	0x30ed335a	1.7258615e-09
223	0x30c53630	1.4349038e-09
224	0x37e9c689	2.7868215e-05
225	0x3742edba	1.1618651e-05
226	0x36533eaf	3.1477937e-06
227	0x37be74ab	2.2704093e-05
228	0x3724b1f0	9.816591e-06
229	0x3713c5d0	8.80794e-06
230	0x378020d5	1.5274078e-05
231	0x35941a26	1.103447e-06
232	0x3425afc0	1.543076e-07
233	0x37ee7277	2.8425113e-05
234	0x3540f434	7.1880936e-07
235	0x35ff87d0	1.9038507e-06
236	0x3a133a24	0.00056162686
237	0x3801c084	3.093529e-05
238	0x35222841	6.040828e-07
239	0x38246e09	3.9203125e-05
240	0x3121f76a	2.3569222e-09
241	0x30e000eb	1.6298406e-09
242	0x31d9a6d6	6.3344983e-09
243	0x30834488	9.550982e-10
244	0x310228c3	1.894066e-09
245	0x32027931	7.594552e-09
246	0x30fcbea7	1.83896e-09
247	0x2fb4ab7f	3.2863665e-10
248	0x30962d94	1.092689e-09
249	0x301bd177	5.668634e-10
250	0x3115acd3	2.1780593e-09
251	0x3146dbc6	2.8937719e-09
252	0x3113e290	2.1520101e-09
253	0x31b99fdf	5.402384e-09
254	0x313404ff	2.6196287e-09
255	0x312c78c3	2.509794e-09
