bbox_poisoning/Experiments/2025-07-21 15-31-44.620939/model.pt (torch, 25222 bytes, 2 tensors)

entity_embeddings.weight f4 [135, 32]
000000 ed 45 4c bf 3f 65 b0 3e 30 5e 96 3f 92 47 78 bf
       -0.797942 0.34452245 1.1747494 -0.9698421
000010 b1 f9 12 3e 68 42 27 bf d9 fa 2d bf 82 66 27 bf
       0.14353062 -0.653357 -0.6796089 -0.6539079
000020 9c a6 21 bc 50 95 bd 3e c1 34 4e be e9 e6 c9 be
       -0.009866383 0.3702798 -0.20137312 -0.39433983
000030 d9 22 dd be 9f dd 15 bf a2 af 00 3f 2a 11 a0 be
       -0.4319065 -0.5854129 0.50267994 -0.31263095
000040 2c d2 19 c0 b3 2e a1 40 a7 e8 47 c0 ae 05 9f 40
       -2.4034529 5.0369506 -3.123575 4.9694433
000050 d8 f4 2b c0 df bc c9 c0 64 4e a1 c0 e4 7b 70 40
       -2.686819 -6.3043056 -5.040819 3.7575617
000060 89 9c c5 40 df 94 ce 3f 96 6b ce 40 d7 56 5d 40
       6.1753583 1.6139182 6.450633 3.4584253
000070 c9 ad 5e 3e b3 4f 4b bf dc ab 65 bd ad 68 04 41
       0.21745981 -0.79418486 -0.0560721 8.275556
000080 7e ca 64 3e d8 bc 2b bf 01 46 39 bf 9a 4a 08 bd
       0.2234287 -0.6708503 -0.7237244 -0.03327427
000090 f1 08 fa 3d c1 5c 86 bf cf 6c 6e bf 05 db 85 3f
       0.12208737 -1.0497056 -0.9313478 1.0457464
0000a0 c2 9e be bf af 8b ce be 1b 0a c9 3f 76 ed 7c bf
       -1.4892199 -0.40340945 1.5706209 -0.98799837
0000b0 e7 72 4d 3f 0c 31 76 3d 0b 19 1f 3e 0b 9f 7d 3d
       0.8025345 0.06010537 0.15536897 0.061919253
0000c0 13 e2 31 c0 db 34 0b 40 1d 8f 1b 40 e4 5f 05 41
       -2.7794235 2.175101 2.43061 8.335911
0000d0 6b 04 f4 40 ae 8c d0 40 00 61 d9 bf b7 19 08 c1
       7.6255393 6.517173 -1.6982727 -8.506278
0000e0 61 03 47 3f 20 01 9e c0 ba 03 fc c0 1a 05 19 40
       0.7773953 -4.9376373 -7.875455 2.3909364
0000f0 7c b8 a5 be 0a 46 bd be d7 ae b8 bf a3 67 25 41
       -0.32367313 -0.36967498 -1.4428357 10.337802
000100 5d a1 94 bf d6 1f 98 3e f2 8c 83 3f 9e 25 76 bf
       -1.1611744 0.2971179 1.0277388 -0.9615115
000110 55 48 1b 3f d3 88 b2 be 4a 48 c9 be f8 20 2c bf
       0.60657245 -0.34870014 -0.39312965 -0.67237806
000120 e7 fe aa 3e 01 91 48 3f a1 8c 8f 3e 31 0d 46 be
       0.333976 0.7834626 0.2803698 -0.1934097
000130 57 22 f2 bd 55 6e 2b bf 8f 28 02 3f 46 e1 0b bf
       -0.11822956 -0.6696523 0.5084314 -0.54640615
000140 20 f1 04 c0 2b 87 b8 40 77 68 4e c0 27 f3 19 40
       -2.077217 5.7665 -3.225126 2.4054658
000150 5b 78 2e c0 63 72 ed c0 e1 e3 cd c0 4f 7c 92 40
       -2.726096 -7.420213 -6.4340672 4.5776744
000160 1e f0 a3 40 cc 56 9e 3e f4 ac 9c 40 d5 f2 4a 40
       5.123061 0.30925596 4.8961124 3.1710713
000170 0c 00 dd bf f3 dd 63 c0 3f 7c 79 3f d0 8b 0c 41
       -1.7265639 -3.5604217 0.9745521 8.784134
000180 88 24 72 bf e1 a5 82 bf 00 dc 00 bf c7 e2 ab be
       -0.9458699 -1.0206872 -0.50335693 -0.33571455
000190 0c 7f 6d be 9b bb eb 3e 00 3c 5e bf 45 d4 be bd
       -0.23192996 0.4604157 -0.868103 -0.09317831
0001a0 2b 65 11 bf 06 05 30 bf d0 8a 88 3f e9 7c 70 bf
       -0.56794995 -0.68757665 1.0667362 -0.939406
0001b0 cf 67 58 bf 20 5e f0 3d 03 1c a2 be 30 0f a2 bd
       -0.845334 0.11736703 -0.31661996 -0.07913053
0001c0 d4 8d 05 c0 b4 75 39 3f e9 a2 2e c0 42 7a 10 40
       -2.0867815 0.72445226 -2.7286932 2.257462
0001d0 7a a9 02 41 04 57 91 40 92 d1 27 c0 25 ea 1c c1
       8.166376 4.541872 -2.6221662 -9.807164
0001e0 4b f4 65 be e6 c8 f3 c0 7d 1c 9a c0 d9 85 3a 40
       -0.22456472 -7.6182737 -4.8159776 2.9144194
0001f0 ae 45 83 c0 89 6a 6b 40 44 4a e9 c0 29 98 1d 41
       -4.102256 3.6783774 -7.2903156 9.849648
000200 32 ac d2 bd 68 28 93 bf 14 8e 50 bf 86 5a 8b be
       -0.1028675 -1.1496706 -0.81466794 -0.272175
000210 64 a7 ea 3b 52 1f 71 bf 65 0e 45 bf 25 77 d2 3d
       0.007161068 -0.94188416 -0.7697509 0.10276631
000220 39 33 ae bf 57 79 1e bf d2 5c 73 3f 4d ee 74 bf
       -1.3609382 -0.619039 0.9506351 -0.9567612
000230 be 7b 37 3f 9c 96 8e be 17 5a a6 3e d1 e0 98 bd
       0.7167319 -0.2784928 0.32490608 -0.07464755
000240 bd e4 a0 3f 46 a4 16 3e 3e bf 5d be ff 5f d1 40
       1.2569805 0.14711103 -0.21654984 6.5429683
000250 d1 6a fa 40 48 7d 02 41 58 87 e3 bf 57 48 2d c1
       7.825539 8.155586 -1.7775679 -10.830161
000260 b0 23 86 3f af c3 00 c1 31 ae c5 c0 9b 6d 90 40
       1.0479641 -8.047774 -6.1775136 4.5133796
000270 de e4 d7 be 00 36 a3 3e b7 c7 60 bf 21 3d 23 41
       -0.421668 0.31877136 -0.8780474 10.202424
000280 80 e4 28 3f 7c b2 67 3e 2c 28 ab 3e 94 ab 2c 3f
       0.65973663 0.2262668 0.33429086 0.6744931
000290 b3 04 82 3f b2 a9 7b bf 62 b8 e8 be 0f a4 90 bf
       1.0157684 -0.9830581 -0.45453173 -1.1300067
0002a0 6d a6 83 be 1e f8 04 3f eb a0 f5 bd 09 f1 70 be
       -0.2571291 0.51941097 -0.11993583 -0.23529448
0002b0 b0 2a a9 be 96 6a 34 bf 34 6e 44 3f ec 31 f5 be
       -0.3304038 -0.7047514 0.76730657 -0.4788965
0002c0 6c 83 a2 c0 6f b6 cb 3f b3 f1 2c 40 76 f9 73 c0
       -5.0785427 1.5915049 2.7022521 -3.812101
0002d0 f8 8f be bf 77 bd dc c0 58 8b 0c 40 5c 13 42 40
       -1.4887686 -6.898128 2.1960049 3.0324316
0002e0 72 19 6d 40 00 37 a4 3f 60 db a3 40 9d 74 ac 40
       3.704678 1.2829285 5.120529 5.389235
0002f0 d0 18 85 c0 80 f5 50 bd d2 be cd bf ad f3 f4 40
       -4.159279 -0.051015377 -1.6073859 7.6547456
000300 73 f1 1b 3f ae 90 3e 3e ed 93 e9 3e fd 5d a3 3e
       0.609153 0.18609878 0.4562067 0.31907645
000310 76 fc 68 3f cd 1b 7c bf 8a 68 43 bf 6e 4d 75 bf
       0.91010225 -0.9847992 -0.7633139 -0.95821273
000320 ba 2a ac bd 14 4c 2a 3f 9d 29 90 bd a2 d8 cd bb
       -0.08406587 0.66522336 -0.07039187 -0.006281928
000330 01 8d bc be 9e d3 53 bf 4c f8 e6 3e 91 ec d3 be
       -0.36826327 -0.8274478 0.4511131 -0.41391423
000340 32 7f 97 c0 c4 63 04 40 da 82 e0 3f 85 e4 8c c0
       -4.734277 2.0685892 1.7539933 -4.4028955
000350 7c 59 4a c0 38 a3 c5 c0 0a 9f 54 40 5e bf 54 40
       -3.1617117 -6.176174 3.322207 3.3241801
000360 fc 20 c0 40 07 82 ad 3e 62 91 91 40 51 33 a8 40
       6.0040264 0.33888265 4.548997 5.256264
000370 3e fc 81 c0 4f 18 13 3f 46 f5 9a bf bf b0 f3 40
       -4.0620413 0.57458967 -1.2106102 7.6153255
000380 3c 6b c6 bd c0 03 8a 3f 16 cd 60 bf 2a 9b 1c 3f
       -0.09688422 1.0782394 -0.87812936 0.6117426
000390 7c 2d 64 3e 7e 39 cd be 44 75 23 bf 6d a4 22 3f
       0.22282976 -0.40082926 -0.6385081 0.63532144
0003a0 d8 ec 7a bf 66 cf e0 3e 0a f7 64 bf b8 36 84 bf
       -0.98017645 0.43908232 -0.8943945 -1.0329199
0003b0 87 14 c5 3d b6 86 0a bf 23 50 28 3e 43 8c 4a bb
       0.09623056 -0.541118 0.1643682 -0.0030906356
0003c0 4a 4b 03 c0 9a 70 1c c1 21 20 e4 bf 84 36 3b c0
       -2.0514703 -9.777491 -1.7822305 -2.9252024
0003d0 75 fd 2c 40 87 fb 10 c1 66 fc cb c0 ce 7c fe 40
       2.7029698 -9.061408 -6.3745604 7.952735
0003e0 24 a1 1e c1 4a 12 5f 3f d7 cf 0c 41 2a 01 88 40
       -9.914341 0.8713728 8.800742 4.250142
0003f0 81 a8 a4 3d c7 8a da c0 80 b8 13 c1 71 03 39 41
       0.08039952 -6.8294406 -9.232544 11.56334

relation_embeddings.weight f4 [46, 32]
000000 ed 3e 04 be f4 88 01 be f5 ed 57 bd 72 a3 61 bd
       -0.1291463 -0.126499 -0.052717168 -0.055087514
000010 61 ee 21 3d f6 8c c5 be 13 c1 78 be e7 72 7f 3e
       0.039533976 -0.38584107 -0.24292402 0.24946176
000020 ae b9 87 bf 39 60 a3 3e f0 8f 59 bf 5c d4 90 be
       -1.060354 0.3190935 -0.84985256 -0.28287017
000030 b1 f8 e5 3d f6 98 94 3e 61 f7 0a 40 4c e0 f7 3f
       0.11229075 0.2902295 2.1713488 1.9365325
000040 30 07 20 bf 77 c2 5c bf b3 3f 86 c0 a8 17 62 be
       -0.6251097 -0.8623423 -4.195276 -0.22079337
000050 28 53 1c c0 19 cd 15 3f 02 fd 8f bf 6e 3d 3f 41
       -2.4425755 0.5851608 -1.1249087 11.9524975
000060 26 79 ee c0 5d 43 c9 c0 9c c4 dd be 7d 8e b4 40
       -7.4522886 -6.289473 -0.43314064 5.6423936
000070 3a 12 88 3d 25 25 5b c0 f6 93 81 bf a4 b0 ad 3f
       0.066441014 -3.4241421 -1.0123279 1.3569531
000080 7a 53 66 bf c5 bb d1 be df 61 3f 3d ec c9 33 3f
       -0.89971125 -0.4096357 0.046724197 0.70229983
000090 f3 32 f6 3e b0 e0 00 3f f7 98 a3 be 3f 11 05 bf
       0.48085746 0.50342846 -0.3195264 -0.5197944
0000a0 8b ca 9a 3c ff 9a 57 be 1b a0 74 3e 73 f3 90 be
       0.018895408 -0.2105522 0.238892 -0.28310737
0000b0 9f cb 6c be 92 7b 4e be 04 08 0d 3f 56 ee d9 3f
       -0.2312455 -0.20164326 0.55090356 1.7025859
0000c0 5a 68 d7 c0 28 a5 7a 40 64 ae 46 3f 2a dc b6 c0
       -6.731488 3.9163303 0.7760985 -5.7143755
0000d0 9c 39 07 c0 7d 86 9a 40 ef ef 29 40 3b c8 f1 3e
       -2.1128912 4.828917 2.6552694 0.47223076
0000e0 7a dd 5f 3f fb 4d df bf 58 49 05 c1 64 73 eb 3f
       0.8744732 -1.7445673 -8.330406 1.839459
0000f0 02 9d cc 40 c1 d8 e9 bf 87 22 db be e4 95 b2 bf
       6.394166 -1.8269273 -0.4279978 -1.3951993
000100 78 cd 17 be 86 fb 35 3f f4 8c a4 3c 29 cc 29 be
       -0.14824474 0.7108692 0.020086743 -0.16581787
000110 8d 35 ef be 0a 9d 69 be 18 e0 c8 bd 80 1e 50 bf
       -0.46720544 -0.22813812 -0.098083675 -0.8129654
000120 5e 1f 47 be 32 7b 26 bf 49 10 f1 be 2a 43 61 3f
       -0.1944556 -0.6503173 -0.47082737 0.8799311
000130 35 d2 f2 be 57 bb d8 bd cb 32 1b 3e f8 67 f0 3f
       -0.47426 -0.10582607 0.15156095 1.8781729
000140 a7 d0 9c bf ad 1b 88 40 c1 f9 87 40 28 af 99 40
       -1.2251176 4.2533784 4.2492375 4.8026314
000150 db 59 26 40 af f6 87 be 21 28 07 41 4f 75 5a bf
       2.5992343 -0.26555392 8.447297 -0.8533525
000160 cb 7b ef 40 e5 3b 57 be 80 81 0f 40 50 75 83 bf
       7.4838614 -0.21018942 2.242279 -1.0270176
000170 45 d3 73 bf 60 96 03 c0 ef 78 9d 3f 8f b6 c0 3e
       -0.95244247 -2.0560532 1.2302531 0.3763928
000180 56 86 41 be f5 77 7d be c4 16 16 3e 84 a2 3b 3c
       -0.18898901 -0.24752791 0.14657122 0.011452321
000190 e1 d4 e6 3d 4b 89 f3 bd 9b 9a aa be fc c1 18 3e
       0.11271072 -0.11891421 -0.3332108 0.14917749
0001a0 9a 92 c1 be 15 b9 6c be 2f 2a bb bc d3 ec 3f 3e
       -0.3780716 -0.23117478 -0.022847263 0.18742685
0001b0 5a d7 38 3d c3 80 b5 3e 7f ce be 3f 35 02 8c 3f
       0.04512725 0.354498 1.4906768 1.0938174
0001c0 d9 e5 29 c0 90 c1 c2 40 15 10 00 bf 10 cc 4f bf
       -2.6546538 6.086128 -0.5002454 -0.8117075
0001d0 8f ac 03 3f c4 9e c9 bf 9a 7e 11 3f 80 44 11 41
       0.5143518 -1.5751576 0.56833804 9.079224
0001e0 b7 7b 9b 40 c4 f1 36 c0 84 b3 a8 c0 3d db 23 41
       4.858852 -2.8585062 -5.2719135 10.241025
0001f0 ef de 6c bf 6a 5a d8 bf b8 d1 23 bf ec 21 eb be
       -0.9252767 -1.6902592 -0.6399188 -0.45924318
000200 f3 ed a8 bd e1 d8 bc be 9d 54 6c 3d 09 85 3c be
       -0.0824851 -0.36884215 0.05769788 -0.18410124
000210 18 92 9c 3e 03 eb ac b8 f6 a1 1f 3d a0 02 d3 3d
       0.3058021 -8.2453735e-05 0.038972817 0.10303235
000220 66 30 e5 bc cd 95 e3 3f 1b 85 a3 bf 68 b2 e6 3d
       -0.02797718 1.778009 -1.2774996 0.11264497
000230 5e f9 ec 3d 02 70 24 be da 89 8a 3f 20 55 82 3f
       0.115710005 -0.16058353 1.0823319 1.0182228
000240 c1 ed 5b c0 7a 91 a8 c0 44 17 8b 3d 97 61 9f 3f
       -3.4363863 -5.2677584 0.06791547 1.2451657
000250 26 10 f9 40 ac a3 20 bf a8 38 5f 3f 23 a7 3e 3f
       7.7832212 -0.62749743 0.87195826 0.7447378
000260 3a 2c a4 3f 86 1e 81 c0 71 2e b1 40 ae f6 32 40
       1.2825997 -4.034976 5.536919 2.7963061
000270 af 72 13 3c cc d5 65 3e 2d 31 a8 3e 21 8e d8 3e
       0.008999511 0.22444838 0.32850018 0.42295936
000280 eb ab 0e bf 27 6b e3 be 90 d4 fd be 56 82 0e 3d
       -0.55731076 -0.44417688 -0.49576235 0.034792267
000290 2e 2e ad 3e 8c f7 8a 3f a6 f1 67 bf 19 fc be 3d
       0.33824295 1.0856795 -0.906031 0.093254276
0002a0 93 45 dd bc 52 12 24 bd dc 20 7b 3d 93 8c 9c bd
       -0.027010715 -0.040056534 0.061310634 -0.07644
0002b0 e4 57 9a be 45 b6 83 bd 56 d8 8c 3f 62 df da 3f
       -0.3014518 -0.064312495 1.100352 1.7099421
0002c0 ec b0 81 3f 59 98 ca 40 f7 e0 a9 bf ab 51 1a 41
       1.0132117 6.331097 -1.3271779 9.644938
0002d0 6c b0 59 40 d9 f8 2d c1 f1 73 43 40 b0 72 9f bf
       3.401393 -10.873254 3.0539515 -1.2456875
0002e0 a0 82 ec bf 83 79 3d c0 f8 bd 49 c0 62 03 14 40
       -1.8477364 -2.9605415 -3.1522198 2.3127065
0002f0 37 d8 b3 c0 4b 0b a2 40 88 9e b2 3f ac e3 ce 3f
       -5.6201434 5.0638785 1.395463 1.616323
000300 11 69 51 3f 2a da a0 bf a9 c8 7e 3e 59 23 8c 3f
       0.81800944 -1.2566578 0.24881233 1.0948287
000310 8f 5b 7d 3f f2 b8 7e bc a8 90 e9 bf cc 86 a8 3e
       0.9896783 -0.015547024 -1.824727 0.32915342
000320 52 ae 01 bf f4 46 1a 40 18 d3 5a bf 00 a2 4b bf
       -0.50656617 2.4105806 -0.85478354 -0.7954407
000330 f7 44 72 3e 8e c9 71 bf 1d b6 1e 3e de 8a 2a 40
       0.2365912 -0.94448173 0.15499158 2.6647258
000340 0f c9 e2 be 9e 95 f5 c0 64 c9 df 3f f6 cf 0e 41
       -0.4429402 -7.674514 1.7483335 8.925772
000350 5b 09 e6 40 2a fc 20 c1 7c dd 95 c0 e6 60 ea 40
       7.188642 -10.0615635 -4.6832867 7.3243284
000360 82 34 d5 c0 0c 06 e4 3f 0f ff a2 c0 f3 0b 55 3e
       -6.6626596 1.7814345 -5.093635 0.2080534
000370 00 e8 02 c1 60 64 c7 40 a3 90 30 c0 5d b0 80 3f
       -8.181641 6.231003 -2.758828 1.0053822
000380 26 04 00 bf b1 58 2d bf ce e0 18 3f 6c dc 10 3d
       -0.5000633 -0.6771346 0.59718025 0.03536646
000390 29 f1 0b 3f a2 68 ae bd fa 8d 5a bf 7f 4b f7 be
       0.54664856 -0.08516051 -0.8537289 -0.48299786
0003a0 1f 14 c0 3e 52 c1 32 bf ca c3 fe bc 2c 31 75 bf
       0.3751535 -0.69826233 -0.031099219 -0.95778155
0003b0 8e 99 e7 bf c5 9e 87 3f ed 94 04 3f 4c 19 f7 3f
       -1.8093736 1.0595328 0.5178974 1.9304595
0003c0 70 34 df c0 d8 f2 2f bf 6d b9 89 40 12 b5 4a bf
       -6.975151 -0.68729925 4.303885 -0.7918254
0003d0 28 7d 31 40 29 30 29 40 60 c9 65 bf c0 5f 13 c1
       2.773264 2.6435645 -0.897604 -9.210876
0003e0 23 74 ae 3f 29 b4 dd c0 0b 10 6a c1 87 56 cf bf
       1.3629192 -6.928242 -14.628917 -1.6198281
0003f0 43 fd 7b c0 a2 f9 d3 c0 6c f2 fe 3e 93 9d 76 bf
       -3.9373329 -6.6242228 0.49794328 -0.9633419
