prob-kge/running_experiments/without_recipriocal/delete/26/random_UMLS_DistMult_831769172/model.pt (torch, 25301 bytes, 2 tensors)

entity_embeddings.weight f4 [135, 32]
0.74502885 -1.4220623 0.80242383 1.5262371 -0.6767423 -0.45340174 0.076725654 0.26045105
0.7457617 1.090227 -1.3184241 -0.13219623 0.115404196 -1.002345 -0.29458597 -1.3312824
-0.9041652 -1.1646632 -1.3909967 -0.49802294 -0.09696754 -0.12902978 -0.83908457 -1.622139
-0.5635473 0.6349342 0.06993905 1.1048769 -0.22531845 1.3868586 -1.1356733 0.32760864
2.020907 -0.43697867 0.30219275 -0.61027336 -1.342366 0.510899 0.94521725 0.17859752
0.18443428 -0.99448 0.70241 0.44518366 -0.31665555 -0.74010146 -0.4660647 -2.0595253
0.1448104 0.22689594 -1.6251884 -0.9307114 1.4661285 0.46750483 -1.6962769 -1.9903733
1.2300723 -0.06444691 0.08214922 -0.79836535 -0.70078754 2.1645136 2.4511778 1.029872
0.9624792 -1.3774464 0.46036747 -1.4259766 -0.5555599 -0.4410626 0.7245137 1.1277155
0.3205713 -1.4263705 1.4280212 -0.691314 1.2623035 -0.23679799 0.030890236 -1.1820346
1.2016203 -0.5710141 -0.7561865 -1.3783412 -1.4393908 -0.33465242 -1.2727416 -1.1216038
-0.74214166 -0.07323923 -0.30862758 0.23092595 0.2418969 0.19417006 0.34290963 1.8572729
0.7828843 0.036917694 0.49513355 -0.8990509 -1.3438165 -0.79967475 -0.3521607 0.40401447
0.010189431 2.6369827 0.1805081 0.15340278 1.6877238 0.37929136 0.15250996 -1.6406525
1.1869506 -0.7566288 -1.5554409 -2.1429324 -0.667903 0.0066731162 -0.9400814 -0.3265815
-0.91559744 0.14758728 -0.18567517 -0.51238734 -0.6525117 0.29799494 -0.38408333 1.7841794
1.2674721 -0.072573304 -0.60311097 0.7845706 -1.1005447 -1.279527 0.14736862 0.70517224
-0.29250857 0.26636797 0.86584514 0.1426695 -0.1962485 0.85912246 -0.3065342 -1.4539814
1.4329408 -0.11922314 -0.42992082 -0.29873863 -1.824385 1.1832952 -0.45955896 -0.9396993
-0.6391167 -0.3352517 0.96783847 -2.1548855 -1.1062139 1.3079271 1.1788977 1.9702941
1.2837104 0.010939719 -0.23937313 -0.110205404 -1.8739293 -0.11641182 -0.49967003 1.3717611
-0.6764158 0.094208695 0.66970444 0.7030496 2.7730336 -0.33581418 -0.106943525 0.48155123
-0.5189395 0.12727894 -2.7270522 1.0713364 -0.48115423 0.22457583 -2.2385404 -1.9680992
-2.2603889 -0.027939795 -0.6976056 0.24382132 0.9059243 2.2055326 2.1779714 1.4613439
1.5763177 0.30847088 0.2157363 -0.38330808 -2.2570019 0.54682297 -0.1036817 1.2014571
-0.31595862 2.5176196 0.29074994 -0.12279803 1.5994865 0.2425518 -0.058287367 -1.5627456
1.220037 -0.5199123 -1.0361824 -2.7405627 -0.67586565 0.782055 -1.1094822 -0.5578555
-0.41136944 0.17136995 -0.08077988 -0.03916057 -1.2443908 0.3334136 -0.5435361 1.5940055
1.1259552 -1.2089617 0.4932572 1.1220496 -1.0165366 -0.1472252 -0.6475351 -0.46310452
0.543602 1.1654457 -1.375555 -0.06582792 0.14605065 -1.0927409 0.37469992 -1.0559787
-1.0949618 -1.2778034 -0.89102966 -0.885503 -0.27473322 -0.2240616 -1.0746114 -1.8222144
-0.59534043 0.91697466 -0.68624425 0.9551262 -0.28592542 1.7085185 -1.2380872 0.4939026
00000000: 36ba 3e3f 2306 b6bf a66b 4d3f bd5b c33f
00000010: fc3e 2dbf 4624 e8be 5722 9d3d d759 853e
00000020: 3dea 3e3f 8f8c 8b3f 1fc2 a8bf 735e 07be
00000030: 0959 ec3d d74c 80bf f9d3 96be 7667 aabf
00000040: 5f77 67bf af13 95bf 2e0c b2bf ddfc febe
00000050: eb96 c6bd 6220 04be 3fce 56bf 40a2 cfbf
00000060: a344 10bf 0c8b 223f 343c 8f3d 9b6c 8d3f
00000070: e1b9 66be 9584 b13f be5d 91bf 52bc a73e
00000080: 8a56 0140 abbb dfbe 02b9 9a3e e03a 1cbf
00000090: a6d2 abbf 47ca 023f c2f9 713f 45e2 363e
000000a0: 57dc 3c3e 3e96 7ebf 24d1 333f 1def e33e
000000b0: ad20 a2be 4a77 3dbf 08a0 eebe 43cf 03c0
000000c0: 2d49 143e 6957 683e 2c06 d0bf 1a43 6ebf
000000d0: 19aa bb3f cb5c ef3e 9a1f d9bf 8dc4 febf
000000e0: 0273 9d3f befc 83bd da3d a83d ac61 4cbf
000000f0: d066 33bf 6487 0a40 19e0 1c40 d8d2 833f
00000100: 0965 763f 2a50 b0bf 49b5 eb3e 6786 b6bf
00000110: 2c39 0ebf f5d2 e1be bb79 393f fb58 903f
00000120: ec21 a43e 4f93 b6bf 66c9 b63f f4f9 30bf
00000130: 2993 a13f 2c7b 72be 850d fd3c e94c 97bf
00000140: b2ce 993f fb2d 12bf 7095 41bf 7c6d b0bf
00000150: f53d b8bf 9057 abbe 32e9 a2bf b790 8fbf
00000160: fffc 3dbf 73fe 95bd 6f04 9ebe da77 6c3e
00000170: d2b3 773e 84d4 463e da91 af3e 1ebb ed3f
00000180: 1b6b 483f 0237 173d 2582 fd3e 3328 66bf
00000190: 2e02 acbf 7cb7 4cbf 684e b4be fcda ce3e
000001a0: 92f1 263c 53c4 2840 1ed7 383e 9e15 1d3e
000001b0: 5507 d83f 7a32 c23e 922b 1c3e e700 d2bf
000001c0: ffed 973f 6db2 41bf b018 c7bf ce25 09c0
000001d0: b1fb 2abf 28aa da3b 2da9 70bf b135 a7be
000001e0: 9864 6abf 1f21 173e a221 3ebe d12b 03bf
000001f0: 020b 27bf cb92 983e 92a6 c4be fe5f e43f
00000200: 873c a23f 50a1 94bd 7b65 1abf 9ed9 483f
00000210: a6de 8cbf 8ac7 a3bf cde7 163e 2b86 343f
00000220: afc3 95be 6261 883e 07a8 5d3f f417 123e
00000230: 5ef5 48be 73ef 5b3f 0df2 9cbe 101c babf
00000240: 9b6a b73f 432b f4bd 951e dcbe 45f4 98be
00000250: 7385 e9bf 3876 973f 504b ebbe 2290 70bf
00000260: 279d 23bf 1ca6 abbe 43c4 773f a5e9 09c0
00000270: 6b98 8dbf 286a a73f 1fe6 963f 9932 fc3f
00000280: 9f50 a43f 823c 333c 3b1e 75be 5fb3 e1bd
00000290: eadc efbf 5269 eebd c0d4 ffbe de95 af3f
000002a0: 9629 2dbf 7df0 c03d c071 2b3f 0ffb 333f
000002b0: 6279 3140 d6ef abbe 3505 dbbd e28d f63e
000002c0: 38d9 04bf 6955 023e 0688 2ec0 8d21 893f
000002d0: d959 f6be 35f7 653e 3f44 0fc0 adea fbbf
000002e0: 36aa 10c0 ffe1 e4bc 4896 32bf 4cac 793e
000002f0: a8ea 673f 7227 0d40 e263 0b40 510d bb3f
00000300: c7c4 c93f e5ef 9d3e fae9 5c3e f540 c4be
00000310: b872 10c0 97fc 0b3f 1257 d4bd 59c9 993f
00000320: 54c5 a1be ae20 2140 2ddd 943e 897d fbbd
00000330: f9bb cc3f 805f 783e bcbe 6ebd 0c08 c8bf
00000340: 2c2a 9c3f f918 05bf a0a1 84bf 6165 2fc0
00000350: 8805 2dbf c234 483f 8303 8ebf 9ecf 0ebf
00000360: 049f d2be 9b7b 2f3e ec6f a5bd d566 20bd
00000370: 3348 9fbf 30b5 aa3e 2f25 0bbf 5f08 cc3f
00000380: 4d1f 903f 42bf 9abf 358c fc3e 529f 8f3f
00000390: df1d 82bf 34c2 16be dcc4 25bf 091c edbe
000003a0: 8029 0b3f 532d 953f 3012 b0bf cad0 86bd
000003b0: 4d8e 153e efde 8bbf abd8 bf3e 4f2a 87bf
000003c0: b527 8cbf 108f a3bf 851a 64bf 53b0 62bf
000003d0: d5a9 8cbe 6770 65be de8c 89bf 523e e9bf
000003e0: 3b68 18bf dabe 6a3f b4ad 2fbf 2783 743f
000003f0: d164 92be bcb0 da3f a479 9ebf cde0 fc3e

relation_embeddings.weight f4 [46, 32]
-0.9273935 0.18344587 -0.35748726 1.6734471 -0.77410024 0.17445374 1.8360325 -0.53648096
-0.993148 1.1342766 2.8199785 -0.06728766 1.869523 0.7241846 -1.5657072 -1.9660755
-0.9101586 -0.6789477 -1.0603846 -0.8305858 0.45552638 -0.011069374 -1.4449344 -2.1423366
-1.8341731 -0.3276289 -1.127753 0.04774099 -1.0395467 0.4048205 0.5707608 0.13411014
-1.03679 -0.89399403 -0.098175064 -0.46723667 -0.41312748 -0.35731357 -0.2059639 0.21125442
0.009327204 1.7657238 0.6290845 -0.2275434 1.3058861 0.20917992 -0.63285595 -0.47473323
-0.4834103 0.28556946 -0.95318323 -0.43005002 -0.64563394 -1.1918322 -0.2295 -0.018093444
-0.54905427 0.14171883 -0.04612958 -1.0043616 0.5721573 -1.0028876 0.49203715 -1.2143012
-0.54958284 -0.014168983 -0.9813794 -0.699449 1.5722151 -1.9510846 4.075555 -0.692568
0.9219019 -0.92046046 -1.8647571 -1.2499263 -1.5876849 0.5504562 -0.5917439 -1.4602821
0.640128 -0.7914252 -1.6479304 -0.17847645 0.06584063 0.48735252 -0.19323945 0.5341958
-0.048154652 -0.8869012 0.38242275 2.6378894 -0.31128177 -0.303668 -1.4237264 -0.8566743
-1.2560651 -1.1442256 -0.63156134 0.6395044 -1.0183287 2.835047 0.7893872 0.3002601
1.815707 2.086844 -1.2922045 0.5641888 -4.85175 1.07437 -0.49399453 -0.6417669
-0.11977507 -0.7420426 -1.7072284 -0.69935596 -0.6353418 1.1438292 -0.02090251 -0.590707
0.0034671426 -0.904421 2.0677404 1.5439429 2.076021 -0.09115171 -0.58018076 -0.90589684
-0.11977139 -0.35947287 0.21637723 0.071051866 -0.48624465 -0.52370685 -0.5978058 0.109442934
-0.13016267 -0.19793697 -0.99528944 -0.92060626 0.123295024 1.9366195 -0.57482624 -0.6963531
1.4152519 -0.31562692 -0.49951902 0.26042798 -0.14763553 -0.03791208 -0.50545347 -1.7130432
-0.1488715 -0.8223789 0.28338104 -1.266203 -0.041278522 0.23724322 -0.5746615 -1.9239955
-0.86103547 0.87732416 -0.2137853 -0.5481572 -2.661096 0.14703636 0.4786942 -0.60062885
-0.17564113 0.8269188 0.7241689 -1.18348 -1.6265197 -0.84598225 -0.8779886 -1.022937
-0.82769626 -0.14370467 -0.8043292 -3.0466752 -1.6192037 -0.9311785 -0.82126063 -1.7704986
0.74555206 -0.6404968 0.114203334 0.2212272 -0.66781795 -1.4501529 1.5918185 -0.06252489
-0.6024757 0.14853731 0.8813988 -0.22926088 -0.55441225 -0.050764102 -0.14591666 -0.9027295
-0.5147831 0.07614791 -0.3245288 0.11921759 0.15133384 -0.41566446 0.55133265 -0.92726165
-2.303438 0.9548355 -0.621766 -0.54674083 -0.09286414 1.0855347 -0.4379608 -0.4941095
-1.2868049 -0.24649066 -0.70230716 -2.2519746 0.22770786 -0.5982168 -1.0433323 -2.7829845
-1.8323854 0.21060428 0.36279982 0.48079115 -1.0776141 0.6835482 0.07709756 -0.38135478
0.58746034 0.22248241 0.633367 0.13079534 -0.3298428 1.7233905 -0.18401869 -1.7235873
0.74510145 1.8989965 -1.7910011 -0.122732624 1.1704019 2.0728672 -0.6122745 -0.5610074
-1.0236063 -0.52691954 0.2401977 1.6101452 -0.96688455 -0.12674074 0.68657374 -0.23136629
00000000: a969 6dbf 3cd9 3b3e 9208 b7be 8433 d63f
00000010: 6f2b 46bf 00a4 323e 1d03 eb3f d156 09bf
00000020: f33e 7ebf fa2f 913f 877a 3440 1dce 89bd
00000030: 884c ef3f 2964 393f 1869 c8bf 5da8 fbbf
00000040: 2700 69bf 84cf 2dbf afba 87bf 45a1 54bf
00000050: c13a e93e 525c 35bc 9cf3 b8bf 0b1c 09c0
00000060: 2fc6 eabf fabe a7be 365a 90bf 0e8c 433d
00000070: de0f 85bf a244 cf3e 611d 123f 2b54 093e
00000080: 89b5 84bf cbdc 64bf 0210 c9bd a539 efbe
00000090: 7285 d3be cef1 b6be 33e8 52be 1453 583e
000000a0: 21d1 183c 3d03 e23f af0b 213f 2301 69be
000000b0: 4727 a73f 4333 563e d902 22bf 3c10 f3be
000000c0: 8e81 f7be 2936 923e d103 74bf 842f dcbe
000000d0: 4448 25bf f58d 98bf 0c02 6bbe b438 94bc
000000e0: d28e 0cbf be1e 113e 5ff2 3cbd ec8e 80bf
000000f0: e778 123f 9f5e 80bf 4bec fb3e 396e 9bbf
00000100: 76b1 0cbf 0625 68bc ae3b 7bbf 170f 33bf
00000110: 583e c93f 24bd f9bf f26a 8240 234c 31bf
00000120: c301 6c3f 4ca3 6bbf 5cb0 eebf 96fd 9fbf
00000130: 4239 cbbf b3ea 0c3f 877c 17bf 86ea babf
00000140: 6edf 233f d89a 4abf 62ef d2bf 88c2 36be
00000150: 74d7 863d 4586 f93e 90e0 45be 0ec1 083f
00000160: d03d 45bd f50b 63bf eacc c33e 2ed3 2840
00000170: 5360 9fbe 5f7a 9bbe ab3c b6bf 024f 5bbf
00000180: bec6 a0bf fc75 92bf 01ae 21bf 8fb6 233f
00000190: 9858 82bf 6971 3540 4815 4a3f b1bb 993e
000001a0: 1669 e83f da8e 0540 f566 a5bf ad6e 103f
000001b0: 8941 9bc0 f584 893f daec fcbe d64a 24bf
000001c0: a24c f5bd 81f6 3dbf 7686 dabf fe08 33bf
000001d0: c3a5 22bf ff68 923f be3b abbc 9338 17bf
000001e0: 0039 633b 2288 67bf dc55 0440 ec9f c53f
000001f0: 87dd 0440 bfad babd ba86 14bf dbe8 67bf
00000200: b44a f5bd d40c b8be fe91 5d3e a483 913d
00000210: 0ff5 f8be a711 06bf cd09 19bf 9e23 e03d
00000220: 5d49 05be fdaf 4abe 4acb 7ebf daac 6bbf
00000230: 1a82 fc3d 26e3 f73f d027 13bf 3244 32bf
00000240: f926 b53f da99 a1be f5c0 ffbe d156 853e
00000250: c52d 17be b249 1bbd 6665 01bf 0045 dbbf
00000260: c571 18be 6c87 52bf 5217 913e f112 a2bf
00000270: ab13 29bd e3ef 723e 041d 13bf 7c45 f6bf
00000280: d26c 5cbf 5198 603f 89ea 5abe 0854 0cbf
00000290: 664f 2ac0 b390 163e 6817 f53e d0c2 19bf
000002a0: 45db 33be f3b0 533f 2263 393f 467c 97bf
000002b0: cc31 d0bf 4b92 58bf dcc3 60bf 9aef 82bf
000002c0: e7e3 53bf 5127 13be 85e8 4dbf bafc 42c0
000002d0: 1142 cfbf b761 6ebf 233e 52bf b39f e2bf
000002e0: 80dc 3e3f 99f7 23bf 70e3 e93d 6289 623e
000002f0: 1ef6 2abf 9c9e b9bf b5c0 cb3f 0d0d 80bd
00000300: d93b 1abf 2a1a 183e 5aa3 613f 5dc3 6abe
00000310: f6ed 0dbf 05ee 4fbd 2d6b 15be 4819 67bf
00000320: d3c8 03bf 6ff3 9b3d a428 a6be 5a28 f43d
00000330: 42f7 1a3e f9d1 d4be 2324 0d3f 0561 6dbf
00000340: 876b 13c0 1970 743f 0e2c 1fbf 35f7 0bbf
00000350: 8e2f bebd cdf2 8a3f 663c e0be ecfb fcbe
00000360: 06b6 a4bf 0c68 7cbe 67ca 33bf 5a20 10c0
00000370: 402c 693e bc24 19bf ea8b 85bf 6b1c 32c0
00000380: 9b8b eabf a6a8 573e e6c0 b93e 422a f63e
00000390: 42ef 89bf 04fd 2e3f 53e5 9d3d ef40 c3be
000003a0: cd63 163f 6ed2 633e 5724 223f 37ef 053e
000003b0: 28e1 a8be 0f98 dc3f 656f 3cbe 829e dcbf
000003c0: f8be 3e3f 5112 f33f 863f e5bf 3e5b fbbd
000003d0: bbcf 953f dba9 0440 06be 1cbf 2e9e 0fbf
000003e0: 8805 83bf 33e4 06bf 63f6 753e 3d19 ce3f
000003f0: bf85 77bf 53c8 01be 4cc3 2f3f 49eb 6cbe
